Sem 2/Intelligent Robots/Assignments/Lab 2/BehaviourCloning/Checkpoints/adam_3_extra_conv_e3.pt (torch, 674763 bytes, 14 tensors)

module.cnn.0.weight f4 [32, 3, 3, 3]
000000 ac 32 0b be fd 3d 3b be 6a f5 80 be 8e 7a cf bd
       -0.13593549 -0.18285365 -0.25187236 -0.10130797
000010 da ca 76 be c5 b9 97 bd d3 d5 c7 be 1b 6e 4e 3c
       -0.24100819 -0.074084796 -0.39030322 0.012599493
000020 d4 8b 07 3e 68 fb 22 3d cf 47 05 3e ec 0f 2c 3d
       0.13236934 0.03979054 0.13015674 0.04200737
000030 a5 e8 81 3e ec 8e a8 bc 08 57 07 3b 0a d3 c9 bd
       0.25372806 -0.020575963 0.002065124 -0.09854706
000040 be b6 f9 3d 1a fe 8e bd 29 86 05 be 20 9f 45 be
       0.121930584 -0.0698206 -0.1303946 -0.19298983
000050 eb 80 90 be 25 8c 99 bd 0e 14 85 be 76 29 af bd
       -0.28223357 -0.074974336 -0.25991863 -0.0855283
000060 5a 10 a3 be cf ec f0 bd f4 d2 f6 bd fc 2b 6f be
       -0.31848413 -0.11763918 -0.12051955 -0.23356622
000070 23 16 8c bd 50 fd 51 bd 82 44 b0 bd 40 8d a9 be
       -0.0684016 -0.05126697 -0.08606817 -0.33115578
000080 7f 83 6c 3e 3e c9 a2 be 9f f8 3d be 65 47 67 3d
       0.23097037 -0.3179416 -0.18551873 0.05646457
000090 0e f0 9d 3e 73 d0 ba 3e fe f8 76 bd 35 4f 61 3e
       0.3084721 0.3648716 -0.06029605 0.22002871
0000a0 7c 4d f1 3d 6e 45 8e bd 5c c9 5c bc 47 87 bc 3d
       0.11782357 -0.069468364 -0.013475742 0.092054896
0000b0 2e b8 23 be 12 f0 31 bd 7e 4b 3a bc 87 05 98 be
       -0.15988228 -0.04344184 -0.011370538 -0.29691717
0000c0 ad 4e a4 3d 51 8c a1 be 88 6c de be 4c 22 b6 be
       0.08022819 -0.31552365 -0.43442178 -0.3557304
0000d0 18 ba b4 be 18 80 a0 be 05 81 4a 3e 3f 3e c2 3d
       -0.35298228 -0.31347728 0.1977578 0.09484529
0000e0 0e 80 40 3e ab 43 e2 3e fe 81 d0 3e 82 d5 58 3e
       0.18798849 0.44192252 0.40724176 0.21175197
0000f0 8a 6a ee 3e d8 32 20 3e a5 36 d4 3e b1 1f a9 bd
       0.46565658 0.15644395 0.4144794 -0.08257998
000100 d7 c1 64 3e 48 68 e3 3d 0c af bf 3d 3e d9 e5 3d
       0.22339569 0.111038744 0.093595594 0.11223076
000110 cb 45 41 3c 37 0f cb bd 1e 69 71 3e 04 77 d8 3d
       0.011796425 -0.099150114 0.23575255 0.105695754
000120 c8 10 4a be ef fd 94 be a6 70 e3 be 72 54 04 bf
       -0.19732964 -0.29099986 -0.4442188 -0.51691353
000130 60 b9 a5 be 70 aa bb be 19 48 ac be 76 b6 49 be
       -0.32367992 -0.3665347 -0.33648756 -0.1969851
000140 da a1 00 bf 45 72 c1 be 35 f8 01 3e e3 98 3a 3e
       -0.50246966 -0.37782493 0.1269234 0.18222384
000150 6f ae ad 3d 7f 4c 41 3d 32 8d c4 bd c8 59 74 be
       0.08480536 0.047192093 -0.09597243 -0.23862374
000160 a4 bc 5b be 55 35 9b bd 10 e3 ee 3d 34 1a b4 3e
       -0.2145868 -0.07578532 0.116644025 0.3517624
000170 5c dd e3 3e 91 38 0a 3f 33 74 92 3e f8 3c 09 be
       0.4450482 0.53992563 0.28604278 -0.13402164
000180 56 cf 62 3e 83 4e 2a bd a1 ac 3a be 33 97 9f be
       0.22149405 -0.04157878 -0.18229915 -0.31170043
000190 40 97 ab bb 35 ae a6 3c 92 9a 1a 3e 2c c9 36 3c
       -0.0052365363 0.02034674 0.15098026 0.011156362
0001a0 cc f0 be be 0d 75 5b be fc 9d b2 be 9a 43 e6 be
       -0.37293088 -0.2143137 -0.34886158 -0.4497345
0001b0 60 6c d6 bc f5 06 7e be ab ba ef 3e 84 a0 57 3d
       -0.026174724 -0.24807341 0.46822104 0.052643314
0001c0 f1 8e c8 3c 3e ed d1 be 80 d7 6d 3d 15 5a 05 3e
       0.024482222 -0.41001314 0.058066845 0.13022645
0001d0 31 38 14 3d f5 23 ae bb 46 23 d2 bd c3 90 7c 3e
       0.0361864 -0.005314345 -0.10260634 0.24664597
0001e0 ef 9e eb 3c f9 7b 98 bd e2 08 b5 be b1 69 a3 bb
       0.028762309 -0.07445521 -0.3535834 -0.0049869646
0001f0 db 9c 12 bd 4d 55 2e be b7 59 9b bd d4 8e ef bd
       -0.03579412 -0.17024727 -0.07585471 -0.11697164
000200 57 6f da 3e 32 b8 c2 bd a8 c6 64 3e 0f e7 76 be
       0.4266307 -0.09507789 0.22341406 -0.2411158
000210 be de 14 be 4a 5e 30 3e 3a 77 4b bd 22 51 f6 3d
       -0.14538094 0.17223468 -0.04967425 0.120271936
000220 bb 40 97 bd e8 c8 0a 3b f3 cb 0f 3d e7 3e 01 be
       -0.07385393 0.0021176878 0.03510661 -0.12621652
000230 76 c6 be 3d 8f 48 72 bd 07 02 6d 3d 5c 0a 13 be
       0.09315197 -0.05915123 0.05786326 -0.1435942
000240 63 b9 00 3e 86 53 18 bc 85 87 23 3e a4 6a cc 3c
       0.1257072 -0.009297257 0.15969665 0.024953194
000250 54 0b ab 3d 62 1a 05 be 79 57 7b 3d 90 14 1d bb
       0.0835177 -0.12998345 0.061362717 -0.0023968555
000260 94 39 c9 3c 7d 36 15 be 0e 10 d9 bb 9a 70 e8 bd
       0.024563588 -0.14571567 -0.0066242283 -0.11349602
000270 54 66 ab bd f5 31 3d bd 6a 4e 11 3c e8 60 66 bd
       -0.08369127 -0.04619022 0.008868793 -0.05624476
000280 77 db f7 3d 7a db e0 3c f7 ca 1a 3d ad 7a 51 3d
       0.121024065 0.027448405 0.03779122 0.051142383
000290 c1 2f 31 3e 12 c2 ab 3d 57 b1 83 3d 31 09 71 3e
       0.17303373 0.08386625 0.06430309 0.23538662
0002a0 0c f5 92 bc 66 26 6b 3c 03 9c 06 3e 58 ff 38 be
       -0.017939113 0.014352417 0.13145451 -0.18066156
0002b0 c1 20 0d be f6 0a c9 be e1 81 f6 bd ad 84 78 be
       -0.13782026 -0.39266175 -0.12036491 -0.24269362
0002c0 a5 d2 e0 be 28 77 f4 bd ff 14 fc bd 7e 64 c7 be
       -0.4391071 -0.1193679 -0.12308692 -0.38943857
0002d0 98 ae 2e 3e 31 01 40 3e 88 8a 52 3d b3 b9 50 3e
       0.1705879 0.18750454 0.051401645 0.20383339
0002e0 3c ee 3c 3e 95 32 8b 3d de 36 7a 3e 15 d0 d6 3d
       0.18450254 0.06796757 0.24434993 0.10488907
0002f0 41 09 93 3d eb ca d1 bd 7d 59 4a be 73 48 a7 bd
       0.071794994 -0.10243782 -0.197607 -0.081681155
000300 f0 d8 be bd 6a b2 5e bd 36 6d 3b be ab 26 93 3d
       -0.09318721 -0.054369368 -0.1830338 0.0718511
000310 f2 3c 82 3c 7b 6e 47 bb c4 04 87 3e 20 29 5f 3e
       0.015898202 -0.0030430842 0.26370823 0.21793032
000320 e0 d6 ac 3d e1 c7 b5 bb 17 9b 40 3e 77 48 c7 3d
       0.08439422 -0.005547509 0.18809162 0.097306184
000330 f2 d5 5b 3e 81 9f 6f 3d 22 71 85 3d 63 60 9f be
       0.21468332 0.058501724 0.06515719 -0.31128225
000340 86 48 41 be b6 e9 54 bd 54 c4 51 be dc 02 23 be
       -0.18875322 -0.051980697 -0.2048505 -0.1591906
000350 d2 c5 d8 be 0a ba 59 be 3a 35 1b be fe 1f 80 bc
       -0.42338425 -0.21262375 -0.15157023 -0.015640255
000360 a0 ff 2c 3c 40 9b db 3e 50 b4 dd 3e 50 2c c9 be
       0.010558993 0.42891884 0.4330163 -0.3929162
000370 bc 68 89 be c1 d3 0a 3d f2 1b e0 be 12 83 b2 be
       -0.26837718 0.03389335 -0.4377132 -0.34865624
000380 87 b2 1b be 4e ec f4 3e 80 43 4f 3f e5 d1 0b 3f
       -0.15204822 0.47836536 0.8096237 0.5461715
000390 4a 34 ae bc 12 4a 18 be 7f e3 07 be b3 2c 9e bd
       -0.021265168 -0.14872006 -0.13270377 -0.077233694
0003a0 0c cf c7 be ac 70 f3 bd 69 2b 56 3e 2a 24 07 3f
       -0.39025152 -0.11886725 0.20914997 0.52789557
0003b0 17 fe 92 3e 0c 6c 22 be b2 1a 92 be 7e ab 9b be
       0.2870948 -0.15861529 -0.28535992 -0.30404276
0003c0 52 43 33 be 41 a7 21 bf 92 d4 9c be c6 3d b6 be
       -0.1750615 -0.63145834 -0.30630928 -0.35594004
0003d0 47 93 e5 3c 92 b0 a4 3e 75 90 ca be 4d 84 f8 bc
       0.028024329 0.32165962 -0.39563337 -0.030336523
0003e0 77 b7 86 3d 89 6c 69 bc e7 cd 67 be b0 e0 8a be
       0.06577962 -0.014247068 -0.2263714 -0.27124548
0003f0 fb cb a2 bd b2 e8 6b 3d 44 06 a2 3e 42 1a 56 be
       -0.079490624 0.057594962 0.31645405 -0.20908454

module.cnn.0.bias f4 [32]
000000 c3 80 6b bf 7b 58 8b bf f5 22 2a bf 27 1a 6d bf
       -0.9199335 -1.0886377 -0.6645959 -0.9261803
000010 ee 87 92 bf e2 45 32 bf 9e fd 00 bf 95 83 2f bf
       -1.1447732 -0.6963788 -0.5038699 -0.68560153
000020 54 47 1e bf ca 08 8c bf 95 3e 91 bf 8b 7a 76 bf
       -0.6182759 -1.0940182 -1.1347224 -0.96280736
000030 0f da 4a bf 4e 81 0e 3f 12 dc 8d bf 3c 62 71 bf
       -0.7923898 0.55666053 -1.1082785 -0.9429052
000040 6f 64 6a bf 38 30 e3 be fc db 19 be 2c 64 1b bf
       -0.915595 -0.44372725 -0.15025324 -0.60699725
000050 2f 2d 5f bf a2 d4 1a bf 15 72 4d bf 25 60 9e bf
       -0.8717832 -0.604807 -0.802522 -1.2373091
000060 ce 4a 9e bf cf dd 0f bf 35 98 75 bf c8 94 8f bf
       -1.2366579 -0.5619783 -0.95935374 -1.121728
000070 43 cf 6a bf cc 6a 59 bf c6 a3 3d be 81 4e 88 bf
       -0.91722506 -0.84928584 -0.18519506 -1.0648957

module.cnn.2.weight f4 [64, 32, 3, 3]
000000 bb da 8a be 88 e9 c5 bd 1f 8f d8 bd b5 4a 60 be
       -0.27120003 -0.09663683 -0.10574173 -0.21903498
000010 e0 41 d2 bd 00 de 10 be 65 33 99 bd 6c b3 04 be
       -0.10266471 -0.14147186 -0.07480506 -0.12959069
000020 f9 75 0a bd aa d6 36 be 6d 68 18 be 1c 2b 04 be
       -0.033803914 -0.17855325 -0.14883585 -0.1290707
000030 7c 71 2e be 71 1f 14 be 4e bf 38 be 1d d2 d6 bd
       -0.17035478 -0.14465119 -0.18041727 -0.10489295
000040 f6 a4 8a bd 7e b2 cb bc d1 5a 19 be 61 60 4b be
       -0.06769745 -0.024865385 -0.1497605 -0.19860984
000050 c9 99 20 be 92 22 b2 bd 90 09 41 be 1a 2e a1 bd
       -0.15683664 -0.08698 -0.18851304 -0.07870121
000060 9b 04 8d be 81 27 44 be f1 f0 79 be 94 58 62 be
       -0.27542576 -0.19155695 -0.24408318 -0.22104102
000070 27 b4 02 be f6 e8 ec bd 97 d9 24 be 27 df a2 bc
       -0.12764035 -0.11567871 -0.16098629 -0.019881798
000080 04 79 26 be 9d 0d 16 be c5 98 25 bd 6b 8e e3 bd
       -0.16257101 -0.1465363 -0.040428896 -0.111111484
000090 88 23 93 3d 00 ab e7 3d 49 9c 8a 3d f6 16 c6 bd
       0.071845114 0.113119125 0.0676809 -0.09672348
0000a0 32 3c 44 be c0 09 e3 3d d0 93 3d be 37 28 66 be
       -0.19163588 0.11085844 -0.18513417 -0.22476278
0000b0 d8 92 28 be ad 17 35 bd 1b 23 5f bd 2f f2 ff bc
       -0.16462266 -0.044212032 -0.05447684 -0.031243412
0000c0 ef a0 81 bd 2a e7 b6 bc 2a 47 44 be 3d f3 be 3d
       -0.06329524 -0.022327024 -0.19167772 0.09323738
0000d0 12 c4 c8 bd 08 39 60 bc 50 35 1f be 58 a8 f1 bd
       -0.098030224 -0.013685472 -0.15547681 -0.11799687
0000e0 f0 8f 8d bd c7 dc fb bc e0 02 e9 bc 1e be 54 bd
       -0.069122195 -0.030744923 -0.028443754 -0.051939122
0000f0 31 25 6d be 4d 68 fb bd a0 ff 65 bd 0f 9b 38 be
       -0.23158719 -0.12275753 -0.056151986 -0.180279
000100 54 e2 37 be 81 96 08 be db 5e 1b be d6 8f f2 bd
       -0.17957431 -0.13338663 -0.15172903 -0.11843841
000110 d2 ea 9d bd d7 fb 2a be d9 0b 2a be 02 8d 2b be
       -0.07710804 -0.16697632 -0.16606082 -0.16753009
000120 a1 90 b3 be 2f 66 37 be d2 75 95 3d b4 52 52 3d
       -0.3507128 -0.17910074 0.07297863 0.051348403
000130 9c 02 0e be 0d e5 17 be dd 68 3c bd d8 45 9a bb
       -0.13868183 -0.1483347 -0.045998443 -0.004708033
000140 b4 e1 96 3d 2f 95 0c bd 04 7e 35 be e4 09 d4 bd
       0.07367268 -0.03432196 -0.17723852 -0.10353449
000150 0d 31 1f bd 2a 61 71 be 67 d8 22 be 74 91 56 be
       -0.038865138 -0.23572221 -0.15902863 -0.20953923
000160 a4 07 85 be 89 87 bf be 53 c0 58 be 3a f1 bc bd
       -0.25982392 -0.37408093 -0.21167116 -0.09225698
000170 b9 bc 2b be c8 cb 14 be 38 12 e2 bd 2f f9 c6 bd
       -0.1677121 -0.14530861 -0.11038631 -0.09715497
000180 69 f6 24 be 61 31 cd 3c bb 1d d6 bd 28 3e 81 be
       -0.16109623 0.02504796 -0.104548894 -0.25242734
000190 38 b9 1b be f0 4a 36 3d 48 c9 af be bf 5f af bd
       -0.15207374 0.04450506 -0.34333253 -0.08563184
0001a0 93 3b 90 bd 3a 0a 48 be 08 aa fe 3d d1 dc a4 3d
       -0.07042613 -0.19535151 0.12434775 0.0804993
0001b0 c9 50 4a be 76 d4 8b be 71 c3 de bd 2f 5b 3d be
       -0.1975738 -0.27310532 -0.10877121 -0.18491815
0001c0 78 fa 05 be 2a d4 9c be bf 79 17 bd 5c cc 6d bd
       -0.13083827 -0.30630618 -0.03698134 -0.05805622
0001d0 cd c3 2f bd f2 c8 9b bd c4 12 90 bd 89 d1 22 be
       -0.04291134 -0.07606687 -0.07034829 -0.15900244
0001e0 eb fb a0 3d 16 63 88 bd 0a 85 5e be 0a cf de 3d
       0.078605495 -0.06659524 -0.21730438 0.10879333
0001f0 f8 fa c3 be 86 12 77 be 18 db 86 be c8 04 00 bd
       -0.3827741 -0.2412816 -0.2633903 -0.03125456
000200 83 c1 c7 3c 57 28 4a 3d cf 0d a8 bd 5e df f9 bd
       0.024384266 0.049354877 -0.08205759 -0.12200807
000210 82 30 e9 bd ad 63 c5 3d 92 16 e0 bc 31 95 1a bc
       -0.11386205 0.09638152 -0.027354512 -0.009434984
000220 ad e8 0f be 74 9f 53 be 7b fe 8b be 87 62 4f be
       -0.14053603 -0.20666295 -0.2734259 -0.20252429
000230 69 e1 c9 bd 7e 2f a3 bd 1e 0b 4c bd eb 2f c9 bd
       -0.09857447 -0.07968043 -0.04981529 -0.09823593
000240 fc 6c 0a be 8b 30 d3 bd 73 40 08 be 92 68 2a be
       -0.13518137 -0.10311993 -0.13305835 -0.16641453
000250 3e ad 62 bd 6a 7c 84 bd 39 fd c5 bd b0 82 82 bd
       -0.055340998 -0.064690426 -0.09667439 -0.06372583
000260 4e fc d4 bd 78 56 a6 be e3 14 bb bd 20 93 21 3d
       -0.10399686 -0.32487845 -0.09134843 0.03944695
000270 f4 5e 4b bd c6 64 52 bd e2 84 12 be ff e3 20 3c
       -0.0496511 -0.051365636 -0.14308503 0.0098199835
000280 66 df bf bd e3 89 66 be 10 6a 33 be eb df 30 be
       -0.09368782 -0.22513537 -0.17520928 -0.17272918
000290 f0 6b 2e be d0 4a d4 3d 76 20 31 bd 54 29 c2 bd
       -0.17033362 0.10365832 -0.043243848 -0.09480539
0002a0 b5 b4 74 be 4a 02 1b be b2 33 97 be 67 16 07 be
       -0.2389706 -0.15137592 -0.29531628 -0.1319214
0002b0 49 5c 88 be e9 30 dc bc 29 32 b5 be 1b 43 7d be
       -0.26632908 -0.02687879 -0.35389832 -0.2473263
0002c0 12 14 66 be 8e 99 17 be e9 73 e0 bd 8a 88 3a bc
       -0.22468594 -0.1480467 -0.10959608 -0.0113850925
0002d0 d0 46 78 be 12 69 0b be ab df c9 bd 50 c8 5f bd
       -0.24245763 -0.136143 -0.098571144 -0.054634392
0002e0 03 a6 e9 bd e7 29 b4 bd a7 b6 5b be e5 d5 0d be
       -0.11408617 -0.08797055 -0.21456395 -0.13851126
0002f0 4a 65 97 bd d6 0d e5 3b e4 92 58 38 bc ed 99 3a
       -0.07392366 0.0069901748 5.1635216e-05 0.0011743824
000300 76 eb 44 bc ce 37 a6 bd b4 37 aa bd 65 04 be bd
       -0.012019029 -0.08116113 -0.08311406 -0.09278182
000310 0d 51 36 bd f8 48 3a bd 73 84 c3 3c 5c 15 83 be
       -0.04451089 -0.045479745 0.023866868 -0.25602233
000320 8e bf 3a bd c2 b2 aa 3d 39 d4 e8 3d 47 35 e0 3d
       -0.045592837 0.083348766 0.11368603 0.10947662
000330 46 dd 01 be f7 ce 5a bd 40 6d b1 bc 6e 6a 24 be
       -0.12682065 -0.053420033 -0.02165854 -0.16056225
000340 80 78 3f be 0b 94 ab bd be 6d 4b be 28 91 b4 bd
       -0.18698311 -0.08377846 -0.19866082 -0.08816749
000350 6a 36 11 be ab f5 17 be d5 00 22 be d1 8b 2a be
       -0.14180914 -0.14839809 -0.1582063 -0.16654898
000360 f8 38 f8 3d 2b 56 48 be 76 c5 b7 bd 41 78 1a be
       0.12120241 -0.1956412 -0.089732096 -0.15084936
000370 22 d7 2f bd 20 e5 01 be c7 0e a9 bd 70 45 f8 3c
       -0.042929776 -0.1268506 -0.08254772 0.030306548
000380 d0 53 b8 be 91 8f 8f be 25 3f 41 bd ac a3 9e be
       -0.36001444 -0.2803922 -0.04717936 -0.30984247
000390 e0 6b 52 bd 71 e6 ba be 30 43 ab bc 39 b4 92 3d
       -0.05137241 -0.36503938 -0.020906061 0.07163281
0003a0 e2 8f e8 bd 59 19 f1 bc 0d 32 0c be 49 1e 8d 3c
       -0.113555685 -0.029431032 -0.13690968 0.017226355
0003b0 08 88 30 3d 3e ac c8 bd 81 39 9c bb 82 2f 24 be
       0.04309848 -0.097984776 -0.004767597 -0.16033748
0003c0 c0 49 a9 bd e3 76 09 3e ef 8d 32 3d 4a 0e f5 bd
       -0.0826602 0.13424258 0.04359239 -0.11965616
0003d0 a4 20 0c be 41 52 a0 bd d8 da bd bd 14 1f 6e be
       -0.13684326 -0.07828189 -0.09270257 -0.23254043
0003e0 5b 26 20 be 67 15 55 be d4 7c 80 be ba 7b 81 be
       -0.15639631 -0.20808946 -0.25095236 -0.25289708
0003f0 56 35 b2 bd 47 c2 a7 bd 72 50 37 be c5 e7 44 bd
       -0.08701579 -0.08191352 -0.17901781 -0.048072595

module.cnn.2.bias f4 [64]
000000 3a cb 71 be d0 ea 46 be f1 c4 48 be cc 7d b9 be
       -0.23612681 -0.19425511 -0.19606377 -0.36228788
000010 d8 5e 12 be e1 e7 d6 bd 00 95 68 bd f8 c0 71 bd
       -0.14293993 -0.10493446 -0.056782722 -0.05902192
000020 d7 43 6f bd 67 32 9a 3f 0a 6a 55 be 61 b4 eb bc
       -0.058414306 1.2046632 -0.20841232 -0.028772535
000030 d6 30 06 be 1b 93 86 bd d8 0f a2 bd 43 cb ec bd
       -0.13104567 -0.06571027 -0.07913178 -0.115622066
000040 ed 05 bc be 38 8e 08 bf 14 98 a7 be 80 4f 1a be
       -0.3672327 -0.5334201 -0.32733214 -0.1506939
000050 87 15 44 be df 35 a9 be 85 8d d6 bd 67 a2 83 bd
       -0.19148837 -0.33048913 -0.104762115 -0.0642746
000060 fa fc 07 be 0a d7 42 bd e5 c6 67 bd 53 4a 6f bd
       -0.13280097 -0.04756836 -0.056586165 -0.05842049
000070 40 26 82 be dc f3 f5 bc 5c c5 87 be eb 98 08 be
       -0.25419807 -0.030023508 -0.2651776 -0.13339584
000080 c6 e0 73 bd 2d 0f 41 bd cf 56 10 be fb d5 ac bd
       -0.059540533 -0.047133613 -0.14095615 -0.08439251
000090 1f f0 15 be a2 08 67 be 7b e6 05 bd 4d a4 86 bd
       -0.1464238 -0.22561887 -0.032690506 -0.06574307
0000a0 6e cc bd bd ad b9 f7 bd e8 3a 78 be 13 9d 77 be
       -0.092675075 -0.12095962 -0.24241221 -0.24181013
0000b0 3c 0f 4c be fe 11 a6 bd 22 8e 5f bd 0e 4b f9 bd
       -0.19927686 -0.081089005 -0.054578908 -0.12172519
0000c0 34 b1 12 be 0a 7d 2b be da ad 67 bd 35 27 5f bd
       -0.1432541 -0.16746917 -0.056562282 -0.05448075
0000d0 cb c1 1b be ea 1f 2b be 4a 17 36 be 29 f0 99 bd
       -0.15210645 -0.16711393 -0.17782322 -0.0751651
0000e0 88 40 83 be 83 07 c5 bd 9d 23 b6 be 38 27 0d bd
       -0.2563517 -0.09620573 -0.35574046 -0.03446123
0000f0 19 cb 2b be 0a df 8c bd 8e 4e 2d be 7f 2d 56 bd
       -0.16776694 -0.06878479 -0.16924497 -0.052289482

module.cnn.4.weight f4 [64, 64, 3, 3]
000000 5d 97 10 bd 3b 18 12 3e 2d 8e 20 be 50 e7 1a be
       -0.0353006 0.14267056 -0.15679236 -0.15127301
000010 19 f4 d1 bd 33 fc d2 3b 93 e7 8c 39 dc 9b a4 3c
       -0.10251636 0.006438756 0.00026875417 0.02009385
000020 eb 23 21 3e 30 64 c9 bd dc 8d 49 be da c0 2b bc
       0.15736358 -0.098335624 -0.19683021 -0.010482991
000030 8a 47 75 be 55 a4 39 be 1a c6 34 3e 79 7f 12 be
       -0.23953071 -0.18129094 0.17653695 -0.1430644
000040 a0 9e 4e 3d 4b 35 9c 3d 80 eb af 3d 34 4d 67 be
       0.050444245 0.07627352 0.0858984 -0.22588044
000050 2b 3d 2e be 2e 3d d0 3d 14 ab 89 3d f3 0e 02 bd
       -0.17015521 0.10167919 0.06722084 -0.031752538
000060 6a 04 28 3c 4e cc 6b bd 12 77 ad bd aa c4 8f bc
       0.010254959 -0.057567887 -0.084699765 -0.017549831
000070 d8 73 c2 bc 85 b1 09 3d a1 a4 05 bc 5f 4f 1b 3e
       -0.02373688 0.03361656 -0.008156926 0.15166996
000080 20 cd 03 bc 00 30 3f 3d 55 11 8b 3c 42 be 16 3d
       -0.008044511 0.046676636 0.016976038 0.036802538
000090 19 40 44 bd 87 ed 2f bc 10 f2 3d 3d cc 8e 01 bd
       -0.04791269 -0.010737783 0.046373427 -0.031630322
0000a0 6e 08 36 bd 12 23 fb 3c 1f 21 13 3c 38 c4 0d 39
       -0.044441633 0.030656371 0.008980065 0.00013519905
0000b0 be d3 e2 bb a0 0d 4d bd 39 73 cc 3b 9f df 46 bd
       -0.0069222143 -0.050061822 0.0062393215 -0.048553105
0000c0 17 a5 49 bd 16 9c 08 3c 2a 7f e2 bc 9c 06 96 3b
       -0.049229708 0.008337995 -0.027648527 0.0045784246
0000d0 5c 52 f1 3a 4d 9d a2 bc a9 6c e3 bc b3 bf 0f 3d
       0.0018411386 -0.019850397 -0.027761774 0.035094928
0000e0 03 f4 b1 3c b7 16 2b bc 99 28 48 3c 4d e2 88 3b
       0.0217228 -0.010442427 0.0122167105 0.004177368
0000f0 e9 fe d3 bb b8 8c 09 bc b7 30 63 bc e3 89 33 bd
       -0.0064695966 -0.008395366 -0.013866595 -0.04383267
000100 1c 98 85 bb 7b 27 a2 bc 92 f3 00 bd b9 19 09 bd
       -0.0040769707 -0.019794216 -0.031482287 -0.033471797
000110 e2 94 b0 bc e4 9c c3 3b ab a8 79 bb dd d5 af bb
       -0.021555368 0.0059696306 -0.0038094919 -0.0053660707
000120 63 c8 48 be 68 b5 ae bc 09 7e f6 3d 36 3d 9b 3d
       -0.19607691 -0.021326736 0.12035758 0.075800344
000130 10 ab 00 3c be 59 b1 3c 32 b3 10 bd 95 b5 4c 3e
       0.0078532845 0.021649238 -0.035327144 0.19991143
000140 8f b3 ea 3d b6 e9 29 be 23 aa 0f be c2 34 15 bf
       0.11460029 -0.1659306 -0.14029746 -0.5828363
000150 d7 52 08 be 0f 91 11 bf 90 94 1c bf 23 d8 08 be
       -0.13312851 -0.56861967 -0.6116419 -0.133637
000160 aa 4c 8d be 5e 84 af be 18 88 cb bc 0f 4b 1a bd
       -0.27597553 -0.34280676 -0.024845168 -0.037669238
000170 0e 7a 20 bd 60 1b 73 bd 2e 6a 18 bd 7e 08 c5 3c
       -0.0391789 -0.05935228 -0.037210636 0.024051901
000180 97 50 5d 3c d4 2e b3 3b 39 fc 00 bd ca 79 0d bd
       0.013507984 0.005468229 -0.03149054 -0.034539975
000190 51 23 e2 bb e7 5b be bc 40 8c 2c bc a9 e5 a3 bc
       -0.0069011827 -0.023237182 -0.010531485 -0.020006971
0001a0 06 bc 19 bd fb 55 b0 bc de b0 0f 3a ae a2 dc bc
       -0.03753283 -0.021525374 0.00054813724 -0.02693304
0001b0 ba 2c a0 bc 0d 9a 5e 3c 5d d6 fd bb 4c e9 5a bc
       -0.019552577 0.013586533 -0.0077465014 -0.013361286
0001c0 45 69 4b 3c 8d f6 3b bc 3e 5c 14 3d 9e 14 89 bc
       0.012415235 -0.0114723565 0.03622078 -0.016733464
0001d0 5b 4f 99 bc 32 3a 2c bd 77 5c 9e bc ed ea a7 bc
       -0.018714597 -0.042047687 -0.0193312 -0.020497764
0001e0 d2 09 10 bd 68 ad 83 bd 54 cd 15 3c ad fb 3d 3c
       -0.035165615 -0.06429559 0.009143192 0.011595649
0001f0 49 9c 9d bc 98 f6 13 3c 79 d0 1e bd ac 03 cc bb
       -0.019239562 0.0090309605 -0.038773034 -0.0062260237
000200 e2 84 2c 3c e2 7f 74 3c 75 50 0b be 3d 01 73 3b
       0.010529729 0.014923068 -0.1360491 0.0037079595
000210 11 5d 4c bc f1 f2 0f bd 46 81 db bb 5f 95 74 bc
       -0.012473361 -0.035143796 -0.00669876 -0.014928191
000220 db c0 25 3a 2d b4 89 3c ef ad 5d 3d 8b ac 14 bd
       0.0006322988 0.016809547 0.054120954 -0.036297362
000230 e7 2b 37 bc 68 c6 84 bc 19 eb b9 3b 26 7c 9c bc
       -0.011179901 -0.016207889 0.005673778 -0.019102167
000240 18 8f dc ba 34 45 b9 3e 82 72 59 3e 7e ab 77 bd
       -0.0016827313 0.3618561 0.21235088 -0.060466282
000250 6e 5f 9c be 45 25 02 3e db c0 9f bd 33 28 f6 3d
       -0.30541557 0.1270953 -0.07800456 0.12019386
000260 3d 6b e5 bd fa 2c 3c be 59 7e 04 be fb ce a0 be
       -0.11202095 -0.18376532 -0.12938823 -0.31407914
000270 49 f5 bb bc 25 8c 12 be bb ad 0d 3d cb ea 20 be
       -0.02294411 -0.14311273 0.03458951 -0.15714566
000280 28 16 ba 3d 8c 48 35 be 97 61 00 bf 83 bb 3a 3d
       0.09086257 -0.17703456 -0.5014891 0.04558898
000290 aa d0 79 bd 16 f6 6a bd 00 88 91 bd 7a 51 a7 3e
       -0.060990013 -0.057363592 -0.07106018 0.3267935
0002a0 b0 69 75 be c4 46 ea 3d 52 87 c0 bd 1e b4 c9 3d
       -0.23966098 0.11439279 -0.0940081 0.09848808
0002b0 c8 74 d2 bc d8 13 b5 3d 75 77 ce 3d f9 e3 0e 3c
       -0.025690451 0.088416755 0.10081378 0.008721345
0002c0 ec ea b2 3d 97 37 d4 3d d8 74 dd 3d ff cd 41 3e
       0.08736214 0.103621654 0.10813302 0.18926238
0002d0 36 e3 0c 3b 92 82 26 bb 16 25 23 bd 2e 17 d7 bc
       0.0021497733 -0.0025407416 -0.03983029 -0.02625617
0002e0 1d 1f 2b bc eb 65 d4 bc 4e 1e 16 bd dd d0 04 bd
       -0.01044443 -0.025927505 -0.036649995 -0.03242575
0002f0 58 07 13 3d 5b af 92 3e 3a 8a 20 3e 5a 3a ee 3d
       0.035895675 0.2864941 0.15677729 0.116322234
000300 1f 63 42 3e 75 b4 01 3f bf b9 e6 3e 72 3a 07 3f
       0.18983124 0.5066598 0.45063588 0.52823555
000310 f8 1b f7 3d 6e b5 b9 3e b4 4a 9e be 27 72 03 be
       0.120658815 0.36271232 -0.3091637 -0.12836514
000320 4c 04 0e be b7 ba 81 3c 9c b8 45 3e 56 8e a9 bd
       -0.13868827 0.015836103 0.19308704 -0.082791016
000330 49 a6 99 3e 66 d6 16 3e 65 04 7d be ce f7 24 bc
       0.30009678 0.14730224 -0.24708708 -0.010068847
000340 1e 6c 54 3c 98 eb 3f ba 59 79 06 bd 70 38 09 bc
       0.01296523 -0.0007321178 -0.03283057 -0.008375272
000350 7a 87 62 bc aa 48 a6 bc 12 a0 32 bd 95 2b 07 bd
       -0.013826245 -0.02029832 -0.043609686 -0.033000547
000360 05 08 1b bd 87 6b 57 ba a1 e3 b7 bc 41 91 7e bd
       -0.037849445 -0.0008217622 -0.02244741 -0.062150244
000370 12 89 3d bd 84 08 9f 39 a8 46 0d bd c3 97 4b bd
       -0.0462733 0.00030333188 -0.03449121 -0.049705278
000380 3c 64 48 bc 30 b5 47 bd 29 c8 59 bc eb 2e 31 bc
       -0.012230929 -0.04875678 -0.013292351 -0.010814409
000390 fa 5f a3 bb 33 f9 d3 bc 0c 6d 0d bd da cf 48 bd
       -0.0049858065 -0.025875663 -0.034527823 -0.049026348
0003a0 af 97 a3 bc ac 89 b4 bc 6c b7 40 3c 59 d1 15 bd
       -0.01996979 -0.022038303 0.011762481 -0.036576603
0003b0 a1 06 4e bd b9 1c 91 b8 5c 06 a4 bc 97 43 bb ba
       -0.05029929 -6.919489e-05 -0.020022564 -0.0014287111
0003c0 22 cb 0e bc 20 59 00 bb f3 f8 18 3c 56 cf d6 bc
       -0.008715423 -0.0019584373 0.009336698 -0.026221912
0003d0 90 ab d6 bc d4 e2 bc bc 53 fa 10 bd 6c 15 24 bd
       -0.026204854 -0.023057379 -0.035394978 -0.040059492
0003e0 a7 2c 55 3c e3 2e 4f bb 05 42 c4 bc 77 5f 02 3c
       0.013011134 -0.003161364 -0.023957262 0.007957331
0003f0 43 05 50 3d 32 73 ad b9 bc dc 8c 3b 8a 7e ee 3d
       0.050786268 -0.00033082959 0.0042987745 0.11645229

module.cnn.4.bias f4 [64]
000000 8d 68 0b bf 2d 2a 1e bf 5f 7d b4 be 8b a7 4e 3e
       -0.54456407 -0.61783105 -0.352519 0.201811
000010 34 9a 11 be 13 23 44 3f 63 5c 2b bd 0e 99 88 bd
       -0.1421898 0.7661602 -0.041836154 -0.06669818
000020 67 e7 2c be d5 57 92 be 32 15 44 bd 48 24 32 be
       -0.16885148 -0.28582636 -0.047871776 -0.17396653
000030 1f c9 50 be 54 e2 06 bf 3d 32 36 bb fa 19 23 bf
       -0.20389222 -0.526891 -0.002780094 -0.6371151
000040 5d 4e ac be 99 90 45 bf fe 18 7e be 61 0d 3c 3e
       -0.33653536 -0.77173764 -0.24814221 0.18364479
000050 85 4a 3b 3d a2 dd 5a bd 8a d3 ee bd b5 35 1d be
       0.045725364 -0.05343402 -0.116614416 -0.15352519
000060 96 11 ee bd 43 bc 0f bf dd 4c 3d be 75 dc 93 be
       -0.11624448 -0.5614664 -0.18486352 -0.28879133
000070 a6 5e 28 bf 4f c3 b5 ba 50 3f cc bc a5 f4 ed be
       -0.6576942 -0.0013867411 -0.024932534 -0.4647571
000080 7e 48 01 bf 89 01 b8 be 97 cd b7 be ed 6c 3e bd
       -0.5050124 -0.3593867 -0.3589904 -0.0464906
000090 08 82 90 be 4e 68 59 3d c0 c9 3c bd 6a b6 2b bf
       -0.28224206 0.05307799 -0.04609084 -0.67075217
0000a0 ac 12 1d bf 8e 00 63 be fe 1e 0e bf 0f 90 29 bf
       -0.61356616 -0.2216818 -0.5551604 -0.6623544
0000b0 e1 05 f3 be 92 a8 d9 be 85 d2 a3 be da 01 17 bf
       -0.47465423 -0.4251142 -0.3199655 -0.589872
0000c0 29 86 e2 be 21 98 2f be 2d 1a 6f be 12 b2 18 bf
       -0.4424298 -0.17147876 -0.23349829 -0.59646714
0000d0 d2 83 35 bd d4 88 28 bf d1 e5 94 be 74 2b bc be
       -0.044315167 -0.65833783 -0.29081586 -0.36751902
0000e0 fa 51 37 bf 85 ff c7 3e 19 c2 3b 3e 89 49 3d be
       -0.7160946 0.39062133 0.18335761 -0.18485083
0000f0 01 21 09 be ef 6f 98 be fb 23 f9 be ab 4c 4b bf
       -0.13391496 -0.297729 -0.48660263 -0.7941386

module.cnn.6.weight f4 [64, 64, 3, 3]
000000 54 2d b2 3c 9a 97 66 bc f0 50 ff 39 40 01 21 3c
       0.02175013 -0.014074231 0.00048697693 0.009826958
000010 5d a0 70 bc 26 24 57 3c ba 55 86 3c c8 d4 39 3c
       -0.014686671 0.013131177 0.0163983 0.011342235
000020 f7 e5 d4 ba d6 f3 c6 3a 35 23 ae 3c 34 77 fa bc
       -0.0016242851 0.001517887 0.021257022 -0.030574419
000030 c4 b1 c0 3c 8b 0d 34 bd c8 30 b7 bc ae 38 9a bc
       0.023522265 -0.043958228 -0.022362128 -0.018825855
000040 72 da fe bb 8c e4 17 3c 73 ad a3 3c 01 78 a5 3c
       -0.0077775056 0.009270798 0.019980168 0.020198824
000050 c3 bf 2a 3b c0 ea 6c 3c e2 3f 52 bb 78 0f 49 bd
       0.002605424 0.014460266 -0.0032081534 -0.049087018
000060 2f 38 f9 bc c9 76 1e bd 9f 3b df bc 83 9f d8 3a
       -0.030422298 -0.0386875 -0.02725011 0.001652703
000070 3c 4a ac bc f1 e9 dc bc 76 53 bc bd d4 c4 e8 3b
       -0.021031491 -0.02696702 -0.091956064 0.007103542
000080 e2 39 b8 bd 55 97 1b bc 83 64 a2 3c 02 e8 f8 bd
       -0.08995415 -0.00949653 0.019823318 -0.12153627
000090 b3 bb e4 bc 08 c7 54 bd 18 85 c4 3a cc 1a e6 3b
       -0.027921533 -0.051947623 0.0014993278 0.0070222374
0000a0 33 ae 17 bb a6 d5 c6 3b 21 01 76 bc ca a9 71 bc
       -0.0023144602 0.0060679493 -0.015014918 -0.0147499535
0000b0 fe a7 26 bd 59 e7 94 bc 06 e5 4b 3c d6 4e a7 bc
       -0.040687554 -0.018176721 0.01244474 -0.020423334
0000c0 ce 48 3b bc 99 fd 9a 3c 1b a2 e3 bd 87 b0 2c 3c
       -0.011430932 0.018919753 -0.111149035 0.010540134
0000d0 ad db 22 3a 83 0e e5 bd dd 12 07 3c 1d b4 8b bc
       0.0006212544 -0.111844085 0.008244243 -0.017053658
0000e0 08 19 9c bc a7 92 a0 3c a9 01 9f bc 31 61 8e bc
       -0.019054905 0.01960118 -0.019409971 -0.017380329
0000f0 5c 29 00 3c 6b 2a 33 bd ff e3 5b bc e1 70 8f 3c
       0.007822361 -0.043741625 -0.013421058 0.01750988
000100 ac 03 ec 3c 28 d9 dc bc e3 5f 0f 3c 7a 6f dd bd
       0.028810345 -0.026959017 0.0087508885 -0.10812278
000110 2a 57 65 bd 62 f6 f5 3c c1 fa c2 bb 69 11 ef bd
       -0.05599133 0.030024711 -0.0059503024 -0.116732426
000120 2a 40 8e bc 3a 47 89 bc 2d 80 3f 3b 94 0d b6 bb
       -0.01736458 -0.016757596 0.0029220686 -0.005555818
000130 92 17 91 ba 5d 68 24 3c a3 a4 a8 bc 34 5f 1f bd
       -0.0011069647 0.010034648 -0.020586317 -0.038909152
000140 18 cc e7 ba 46 e3 92 3c c0 f2 9d bc a9 a0 4f bb
       -0.0017684726 0.017930638 -0.019280791 -0.0031681454
000150 16 0d 96 3c 2f 91 3c bc 7b 0e bd bc 5f dd 9c 3b
       0.018316787 -0.011509224 -0.023078194 0.0047871317
000160 26 75 8f bb 24 38 b2 bc 2b d8 e8 bc 66 5a 3c bd
       -0.004377979 -0.021755286 -0.02842339 -0.04598465
000170 a0 47 fa bc c7 e2 79 bc 10 51 9f ba b1 a0 0d 3c
       -0.030551732 -0.015251822 -0.0012154896 0.008644269
000180 94 ef 09 3c 0a ad 00 bd 9d c1 00 bd 23 00 9c bc
       0.008418936 -0.031415023 -0.031434644 -0.019043034
000190 22 0c 54 3a 63 52 06 3b 36 f9 87 bd ab 0a f3 bd
       0.0008088966 0.0020495884 -0.0663933 -0.11867269
0001a0 f5 ff 89 bd 79 9f b5 ba 72 7a cc bc 75 41 a1 bd
       -0.06738273 -0.0013856731 -0.02496073 -0.07873813
0001b0 68 40 0a 3c 5d 33 fb 3b 84 57 de 3c 0c a9 cf bc
       0.008438207 0.007666035 0.02714134 -0.025349163
0001c0 5d 74 5b 3c f1 e1 7b 3c 02 93 df 3c 6a 2c c2 bc
       0.013394442 0.015373693 0.027291778 -0.023702819
0001d0 0a f8 1f bd 57 24 d3 bc 87 57 48 bd ce 86 5f bc
       -0.039054908 -0.025774164 -0.048911598 -0.01364298
0001e0 8d 69 da bc 27 07 ba bc 8e ed af 3a 14 c0 ba bc
       -0.026661659 -0.022708489 0.0013422237 -0.022796668
0001f0 c0 08 41 bd 84 a4 0c bd 99 5e 59 bb 9e 8d 0a bd
       -0.047127485 -0.03433658 -0.0033167957 -0.033826463
000200 91 80 01 3b 50 d6 67 3c 66 0c b7 bb 6d fc c7 bd
       0.001976047 0.014150217 -0.005586195 -0.09764943
000210 74 1c 28 3c 40 cd ad bc 7d 5d df bd 0e 63 9a bc
       0.01026069 -0.021216035 -0.10906503 -0.018846061
000220 0a 63 2f 3c 12 78 0b bd 95 ae b4 bc 10 65 91 3c
       0.010704765 -0.034050055 -0.022055903 0.017748386
000230 b1 38 33 3c 0e a9 86 bc 29 26 04 bc 36 31 3c 3c
       0.010938809 -0.016438033 -0.008065739 0.011486342
000240 3c 80 eb bc 06 b0 4d 3c 54 99 5e 3b 4f 18 62 bc
       -0.02874767 0.012554174 0.0033965902 -0.013799741
000250 ec 3f 8d bc 0e 38 cd bc 71 2b df bc 5f 06 28 bc
       -0.017242394 -0.025051143 -0.027242394 -0.010255425
000260 94 4e 94 3b 7d 98 d6 ba c4 b1 56 b9 d8 a5 d6 bc
       0.004525969 -0.0016372349 -0.00020474853 -0.026202127
000270 7b b9 cc 3c dc 60 47 ba dd f9 6a bc 64 c0 85 3c
       0.024990788 -0.0007605681 -0.014341799 0.01632709
000280 c3 04 e6 39 37 cb 36 3c ed be f5 3c 19 15 0d 3c
       0.00043872566 0.011156849 0.029998267 0.008610987
000290 6e e1 93 3b 35 d8 f2 bc 5f b7 a1 3a 31 07 69 bc
       0.0045129573 -0.029644111 0.0012337974 -0.014222906
0002a0 45 db 7d bc ea 8d 9e bb 5f c8 0a bd 46 1d 79 bc
       -0.015494172 -0.004838695 -0.033882495 -0.015204733
0002b0 08 78 71 bc 34 e2 f5 3c ea 7c 6b bc 4c d5 3d bc
       -0.01473809 0.030015089 -0.014373044 -0.0115864985
0002c0 21 3f 2d bd d7 1e e3 bd 95 df db bd d3 68 5e 3c
       -0.042296533 -0.110898666 -0.10736004 0.013574797
0002d0 b3 a5 e3 3c d8 3c 93 bc e2 9c 7d bc 47 7e 16 3c
       0.027788972 -0.017973348 -0.015479298 0.00918538
0002e0 f3 11 c9 3c a2 9a aa bc e6 a3 94 bc e0 2e aa ba
       0.024544692 -0.020825688 -0.01814456 -0.001298394
0002f0 b3 1c f5 3c d6 d0 b8 bc f8 27 19 bc 41 6d 1e bd
       0.029920911 -0.022560518 -0.009347908 -0.03867841
000300 a9 1d 90 bd df 7f f6 bd 52 48 a5 3b c9 02 9b bd
       -0.07036907 -0.12036108 0.0050440216 -0.075688906
000310 be bd dc bd 32 99 09 3b 0c cc f9 3b 7b f5 86 bc
       -0.10778378 0.0020995853 0.0076232012 -0.016474476
000320 36 05 c3 bb d0 a0 cc 3c ee 83 fb bc a4 bf c6 bb
       -0.005951549 0.024979025 -0.030702557 -0.006065326
000330 67 00 86 3c 4e cb e3 3c 52 e7 1c 3b a7 f3 88 39
       0.016357614 0.027806904 0.0023941589 0.00026121477
000340 7b 4e 86 3c 30 48 ea bc de cd 6d ba 82 6d 6b 3c
       0.016394844 -0.028598875 -0.0009071509 0.01436937
000350 f6 ea 5a bb df 13 7a bc 8b 5b 7d 3b 95 f2 1a bc
       -0.0033404208 -0.015263527 0.00386593 -0.00945725
000360 11 c2 54 bc e3 9d 94 3b e9 e2 23 bd 3f 68 81 bd
       -0.012985722 0.004535423 -0.04001132 -0.063187115
000370 9d c8 fa bd a6 bf 20 bd 86 2b f2 bd 5d db e3 bc
       -0.12245295 -0.03924527 -0.11824708 -0.027814562
000380 68 1e cb bc 71 0b 83 3c bb d3 d2 3b 4b cb ee ba
       -0.024794772 0.015996667 0.0064339316 -0.0018218545
000390 1b b6 96 3c ef b5 52 bb 49 b2 2a bd 8e 7b b8 3c
       0.018397382 -0.0032151898 -0.041673932 0.022519853
0003a0 ae 29 b9 bb c1 cc bf 3a ba dc 88 bb 30 22 e1 3b
       -0.0056507206 0.0014633165 -0.0041767033 0.0068705305
0003b0 f2 1d 28 bd 5e 34 a2 3c 39 c2 2b bd e5 9d 3a bc
       -0.041044183 0.019800361 -0.041933272 -0.011390184
0003c0 6c d9 36 bc b8 a0 47 bd 64 9d 4b bb d8 64 a6 3c
       -0.011160236 -0.048737258 -0.0031069154 0.020311758
0003d0 9e 2c be bc 58 55 06 bd e0 05 f1 3c 59 e4 cb bc
       -0.023214635 -0.032796234 0.029421747 -0.024889158
0003e0 9e 41 d2 bc a3 25 55 bc b8 6c b1 bc 37 b3 52 bd
       -0.025666054 -0.013009462 -0.021658286 -0.051440444
0003f0 eb 12 ea bb 18 75 ce bc ab 18 7d bc e5 de e3 3b
       -0.0071433685 -0.025202319 -0.015447776 0.0069540613

module.cnn.6.bias f4 [64]
000000 a9 d8 05 be 07 49 15 bd 01 1b d0 bd 0a bf 43 bf
       -0.1307093 -0.036446597 -0.101614006 -0.7646338
000010 fa 7b 83 bb 19 82 0b bc 39 ff ba be b5 d4 9e 3d
       -0.004012582 -0.008514904 -0.36522844 0.077554144
000020 db 7a 8a be b2 2d 64 bd d1 2d 1d bf 0b dc 8d be
       -0.27046856 -0.05570764 -0.61398035 -0.27706942
000030 a8 42 93 bd af f6 07 be 1f 6d 22 be 53 82 76 be
       -0.07190448 -0.13277696 -0.15861939 -0.24073152
000040 32 d9 98 be b8 52 85 bd 29 71 46 be 5c f4 db be
       -0.29853207 -0.06509918 -0.19379105 -0.4295987
000050 bb 43 fc bc a2 a0 5f bd 6f 49 4b be 6a 04 d4 bc
       -0.030794015 -0.05459655 -0.19852231 -0.025881011
000060 83 03 05 bc e1 0e aa be 95 30 b7 bc 86 e6 a7 be
       -0.008118513 -0.33214477 -0.022362033 -0.32793063
000070 74 3b d4 3d f3 b9 2e bf f4 53 66 bc 90 4e 08 bf
       0.10362902 -0.68252486 -0.014058102 -0.53244877
000080 7d e4 f6 bd d8 49 22 be 7c 67 66 be 55 4d e1 be
       -0.120552994 -0.15848482 -0.22500414 -0.44004312
000090 8f 0e ac be 05 2e 49 be 11 1b ac be 20 b4 8c bd
       -0.33604857 -0.19646461 -0.336144 -0.068702936
0000a0 4d 52 b9 bd 4e 96 92 be e8 d3 ea bd cb 58 11 bd
       -0.09048901 -0.28630298 -0.11466199 -0.03548507
0000b0 b8 71 86 bd e5 e5 e4 bd 8b cf 0b bd 52 c0 5e be
       -0.06564659 -0.111766614 -0.034133475 -0.21753052
0000c0 5a e5 b6 bc 52 79 76 be 74 62 6b be 94 65 6d bd
       -0.02232616 -0.24069718 -0.22986776 -0.0579582
0000d0 9e a5 d0 be 88 a8 19 be af f5 30 be 78 71 e2 bd
       -0.40751356 -0.15005696 -0.17281221 -0.11056799
0000e0 34 b2 0c be 82 81 f5 bd 61 ea 87 be 69 63 c2 3e
       -0.13739854 -0.11987592 -0.26546004 0.3796647
0000f0 28 d1 dd be 3a 5b bd bc 4e 0a f8 be 02 6b 2a bd
       -0.43323636 -0.02311479 -0.48445362 -0.041605957

module.cnn.8.weight f4 [64, 64, 3, 3]
000000 36 eb e2 bb c2 15 91 bc 93 e8 21 3c fd a1 cd bc
       -0.006925012 -0.01771057 0.00988211 -0.025101656
000010 1e 41 c8 3c 57 1b 9e bc 7d 7e b9 bb cf e8 30 3d
       0.024445113 -0.019300146 -0.0056608305 0.043190774
000020 10 94 85 39 06 b9 89 bc 9b 24 09 bb a4 0c b2 bc
       0.00025478052 -0.016811859 -0.002092636 -0.021734543
000030 22 42 e4 3b be 9f 9f bc c3 29 12 3d 1a b3 c7 3c
       0.0069658915 -0.01948535 0.03568436 0.024377394
000040 1f 89 32 3d b9 be 4e 3c a1 8a 5e 3b 61 07 ad bc
       0.0435878 0.012618714 0.003395714 -0.021121683
000050 dd c7 a5 3b a1 57 81 bb 34 d4 a6 bc a3 63 93 3c
       0.005059226 -0.0039472138 -0.020364858 0.017991846
000060 d4 3b 95 3c 7d 38 6b bb bf 06 ee 3c 7b 0a 73 bc
       0.018217005 -0.0035891824 0.029055951 -0.014834042
000070 e6 51 7a bc 55 7e e0 3c 91 90 55 3c 9f e2 98 3e
       -0.015278315 0.02740399 0.013034956 0.29860398
000080 86 bc 0d 3f b9 6c 30 bc 4a ac b4 3c a6 38 42 3e
       0.5536579 -0.010768109 0.02205481 0.18966922
000090 c9 d5 ba 3c a1 a9 91 bc 65 f4 3c bc 82 3d dd 3c
       0.022807019 -0.01778108 -0.011532878 0.027006868
0000a0 f3 77 46 3c e5 49 dd bc 85 67 f7 bb 17 a1 fc bc
       0.012113559 -0.027012775 -0.0075501823 -0.030838532
0000b0 64 57 6a bc d4 eb 7a 3b 24 e5 f3 bb 92 ff 11 3c
       -0.014303062 0.0038287537 -0.007443087 0.00891103
0000c0 79 40 e7 bc ba 9d 8f 3c db 96 6c bc 43 de 09 bc
       -0.028228985 0.017531265 -0.014440264 -0.008414808
0000d0 27 98 29 bc de 2c 56 bb 2f f1 bb bc 33 2f e8 bc
       -0.010351217 -0.0032680552 -0.022942154 -0.028342819
0000e0 83 00 27 3b 1b 89 6f bc db 74 6a 3d 42 78 ae 3e
       0.0025482483 -0.014620091 0.05724035 0.34076124
0000f0 61 fc bd 3c 65 04 fe 3e cc cf 4f 3e 22 6c 13 3c
       0.023191633 0.49612728 0.20294112 0.008997949
000100 b1 d3 72 bc f5 60 e2 3b 11 fe ea bc f3 b7 23 be
       -0.014820979 0.006908531 -0.028685601 -0.1598814
000110 48 1c fa be 69 6a 28 3c e5 3d d8 3d 17 93 f3 bb
       -0.48849702 0.010279276 0.105586804 -0.007433306
000120 bd be dc bc e8 3c 7f 3c 79 b6 81 bc 99 74 ed 3c
       -0.02694642 0.015578486 -0.01583408 0.028986262
000130 9d 6f ab 3d 11 62 56 3d 31 39 12 bc 2c e4 aa bd
       0.08370898 0.052339617 -0.008924768 -0.083443016
000140 07 80 30 3e 2f 34 b5 bc 41 32 ef 3c 61 cc 21 bc
       0.17236339 -0.02211961 0.029198768 -0.009875388
000150 39 22 5e bc c3 0a a5 bc fb d7 91 bc 9c 75 c5 3c
       -0.013557964 -0.020146733 -0.017803183 0.024103932
000160 fb e0 b9 bc 4f d1 8d bc 72 5c 98 3c 10 84 87 3c
       -0.022690287 -0.01731172 0.018598769 0.016542464
000170 0a 8b cf bc 0a 13 f1 3b 24 46 e3 bd 10 22 72 3d
       -0.025334854 0.007357006 -0.11097363 0.059114516
000180 56 f9 10 3c 0c 7f 48 3e 95 e8 59 bf 18 72 96 3c
       0.008848509 0.19579715 -0.85120517 0.018364951
000190 0e 79 bd 3b 5a 73 ea bc d5 1c 82 3c c2 8e 0e 3e
       0.005782253 -0.028619457 0.015882889 0.13921645
0001a0 68 3d ad 3e 60 6d 57 3c 0f 22 2a 3e 6b 60 3a be
       0.33835912 0.013148636 0.16614555 -0.18200843
0001b0 2c 94 71 3c 47 b6 60 3a 20 27 67 3a 36 e7 72 3c
       0.0147448 0.00085720833 0.0008817781 0.014825633
0001c0 e6 ee 16 3d c7 38 0c bf 04 a1 a8 3c 1f 12 08 3f
       0.036848925 -0.54774135 0.02058459 0.5315265
0001d0 87 31 c1 3e e4 f9 d3 3b 22 19 ee bc fe 6f c3 bc
       0.377331 0.0064689983 -0.029064719 -0.023857113
0001e0 fd a6 16 bc dc 40 7b bc 35 53 23 bd 24 db 75 3c
       -0.009195087 -0.015335288 -0.039874274 0.0150058605
0001f0 7f d2 a9 bc cf 68 81 3c 88 cc 65 3c 65 3c ab bc
       -0.020730255 0.015797047 0.014025815 -0.020902822
000200 75 86 54 bc 21 18 25 3b ef 2c 54 3d 7a 51 de 3c
       -0.01297151 0.0025191384 0.051800665 0.02713846
000210 87 24 58 bc 27 d2 5d bc 8c 46 ae 3d 67 d9 9a bc
       -0.013192303 -0.013538874 0.085095495 -0.018902494
000220 1e 7f 8a bb 61 7f cf 3b b1 60 79 bc a1 ea ef be
       -0.0042265793 0.0063323234 -0.015220807 -0.46858695
000230 d5 7e a2 3e 12 b0 f3 3c d1 ac 03 3f e9 7b 1c be
       0.3173739 0.029747043 0.5143557 -0.15281643
000240 b9 a5 c9 bc 4f 1d 9e bc 16 db 6e bc 9c 58 55 bc
       -0.024615156 -0.019301085 -0.014578601 -0.013021614
000250 95 4d 00 bf d2 47 24 3e ba 42 13 bc fa 59 14 3e
       -0.5011838 0.16043022 -0.008988077 0.14487448
000260 3a 3c 22 be 5e 5b 85 3c dc 21 02 bc 65 23 ef 3c
       -0.15843287 0.016278919 -0.007942643 0.029191682
000270 53 58 da 3c 9c 85 a4 bd b4 26 33 bc fa ab 89 3b
       0.026653444 -0.080332965 -0.0109345205 0.0042014094
000280 c5 0a e5 3e 00 b4 9a 3d 45 d2 7d 3a 77 e3 86 bc
       0.4473478 0.075538635 0.00096825167 -0.016465886
000290 fc 9a bd bc 7e 8d ac bc d2 6f dc bc c1 ec a5 3d
       -0.023145191 -0.021063562 -0.026908789 0.08101798
0002a0 36 2b a6 3c 31 64 f6 bc 57 a9 bf bc 91 17 c1 3c
       0.020284276 -0.030077072 -0.023396177 0.023570808
0002b0 51 83 f2 bb bb 5a 69 3c ba e6 b7 bc a0 0f 43 bd
       -0.007400908 0.014242823 -0.022448886 -0.047622323
0002c0 4a e4 fb bd b4 72 86 b9 1e 46 eb be f1 0b 02 3e
       -0.12299402 -0.00025643932 -0.45951933 0.12699868
0002d0 2f ec bb 3c 1d 50 db 3c 87 93 c4 3c 33 66 d7 3a
       0.02293977 0.0267716 0.023996128 0.0016433656
0002e0 64 28 0c 3d 6f 37 33 3d 44 f5 0d bc 9d 23 cd 3b
       0.034218207 0.043754037 -0.008664433 0.006260349
0002f0 31 40 10 bd 54 08 f8 bc 46 25 fa bc ef d7 cf ba
       -0.035217468 -0.030277409 -0.030535351 -0.00158572
000300 44 a6 b7 bc e9 09 47 3d ac 1c 41 3c 19 4c fb 3c
       -0.022418149 0.048593435 0.011786621 0.030675935
000310 3e 7e 3d bd 53 dd 87 bb d0 4e 45 39 a8 97 33 bc
       -0.046262972 -0.004146257 0.00018816744 -0.010961451
000320 50 50 7f bc be a4 8f bc 90 d5 d2 3d f2 34 33 3e
       -0.015583113 -0.01753461 0.1029464 0.17500666
000330 a2 24 91 bb ca 6c d9 3d 98 08 b2 bd bc f7 85 3c
       -0.004429416 0.10616453 -0.086930454 0.01635348
000340 fb 00 f6 39 6e 91 54 bc 15 44 bb 39 aa 36 4b 3c
       0.00046921507 -0.012974126 0.00035718144 0.01240317
000350 c3 fb 18 bd 6b fa 89 bc ee d9 27 3b 5c 56 95 bc
       -0.037349474 -0.016843041 0.0025612074 -0.018229656
000360 e5 71 87 3c 0d c6 94 bc b9 fc e8 bb 14 01 07 bc
       0.016533801 -0.018160844 -0.007110205 -0.008240003
000370 31 68 e5 bc ad 35 b0 bb 27 96 c6 bc 9c f6 a8 3b
       -0.028003784 -0.0053774924 -0.02424152 0.0051563513
000380 de 5a e7 bc 24 b9 ba bc e5 ff 20 3b 38 9f 36 3c
       -0.028241571 -0.02279336 0.0024566588 0.011146359
000390 d3 8e e2 bb 33 08 cd bc fb f1 7b 3d 7e 57 8c bb
       -0.0069139986 -0.025028324 0.061510067 -0.004282891
0003a0 e2 81 4e 3e 90 8b 46 3e 14 0d b1 bc 11 52 c4 bc
       0.20166734 0.19389176 -0.021612681 -0.023964914
0003b0 9a 39 ac bc 1c 3f 95 bc 1a 55 1c bd a8 ea 19 bd
       -0.02102356 -0.01821857 -0.038167097 -0.0375773
0003c0 5f 39 d6 3c 85 8b 5e bd 77 18 66 bd a7 69 c5 3c
       0.026150404 -0.054332275 -0.056175675 0.02409823
0003d0 c6 30 9f bc 68 59 7f bc 79 26 a0 bc 9d f0 fa be
       -0.019432437 -0.015585281 -0.019549595 -0.49011698
0003e0 a7 91 20 bd 77 02 06 bc cd 00 04 be c3 9d c3 bc
       -0.039201405 -0.008179299 -0.1289093 -0.023878938
0003f0 59 ed be 3c b6 c4 17 3b b4 e9 08 3c 84 aa 17 bb
       0.023306536 0.002315802 0.0083565 -0.0023142407

module.cnn.8.bias f4 [64]
000000 58 80 b8 3e 35 e1 4a bd 41 69 8d be 6b 86 3c be
       0.3603542 -0.04953118 -0.27619365 -0.18410651
000010 34 0d c7 3d c6 05 41 3f ae 87 4f be 31 7d 2c be
       0.09719315 0.75399435 -0.20266601 -0.16844632
000020 8d c4 85 be 28 a1 0f be 84 1d 10 be b5 84 60 be
       -0.2612652 -0.1402632 -0.1407376 -0.21925624
000030 40 de da bb c4 ee 00 3d a5 61 4a be 65 94 32 be
       -0.0066793263 0.031477705 -0.19763811 -0.1743942
000040 1c 29 e8 bd 0f a6 18 be fe 79 96 bd 30 8d 9b bd
       -0.11335966 -0.14907096 -0.07347487 -0.07595289
000050 95 8a fa bc 5f 3e ad be 41 2a 0f be 5f 25 2f be
       -0.03058366 -0.33836648 -0.13980962 -0.171041
000060 b5 bc 02 bf 8a d7 06 be 12 f6 17 bf 5f e9 54 be
       -0.51069194 -0.13168159 -0.5935985 -0.20792149
000070 66 fc d1 bd 28 3e 18 3e 7c 6e 05 bf 3d 68 05 3f
       -0.10253219 0.1486746 -0.5212171 0.5211218
000080 fc 25 c8 be 48 40 5e be 1c 5d 02 3d c4 8c bb bd
       -0.3909148 -0.21704209 0.031827077 -0.09157708
000090 bc 83 0f be d8 72 55 bd 5f f9 2d bf 08 9d c0 be
       -0.14015096 -0.052111477 -0.67958635 -0.37619805
0000a0 c4 0f 56 be 75 78 69 3f b7 5b 0c bf 4c 27 ab be
       -0.20904452 0.9119943 -0.54827446 -0.3342842
0000b0 55 11 65 be b2 12 ab be 0e 7d 4a be 5d e1 9f 3d
       -0.22369893 -0.334127 -0.19774267 0.078066565
0000c0 8e 7b 66 bd e0 c1 8a bd 79 cb a9 be 46 49 fe be
       -0.056270175 -0.0677526 -0.3316305 -0.49665278
0000d0 ce 6e 14 3f 5f dc da bd 72 bd cc be 28 e0 33 be
       0.57981575 -0.10686564 -0.39988285 -0.17565978
0000e0 2a 6f dd bc 35 a0 73 be f5 b3 0d be 41 9f 0f be
       -0.027030546 -0.23791583 -0.1383818 -0.14025594
0000f0 45 b6 45 be 83 f4 81 be 7a 08 f7 3e e5 58 34 bc
       -0.19307812 -0.2538186 0.48248655 -0.011007522
