Sem 2/Intelligent Robots/Assignments/Lab 2/BehaviourCloning/Checkpoints/adam_2_extra_conv_e3.pt (torch, 378083 bytes, 10 tensors)

module.cnn.0.weight f4 [32, 3, 3, 3]
000000 9e 5d a9 3e 0e b2 90 3e c4 8d 90 3e d3 2f 05 3f
       0.33079237 0.28260845 0.2823316 0.520261
000010 5b a8 ee 3e 00 89 f3 3e 3e 64 88 3e d9 fe cf 3e
       0.4661282 0.4756546 0.2663898 0.4062412
000020 be 54 c5 3e 62 cb 35 bd fd a3 ad 3c 57 19 d6 3d
       0.38541216 -0.044383414 0.02119636 0.10454052
000030 5e 4b 39 3e 28 b2 cc 3d 53 b0 0f 3e 4a 2d 85 bd
       0.18095157 0.09994918 0.14032106 -0.06502779
000040 ff f7 cf bc 2e e6 0f be cf c3 98 be dc 7b ad be
       -0.025386808 -0.1405265 -0.2983689 -0.3388356
000050 2c 0f a6 be 51 18 6e be 06 a2 63 be 43 f9 11 be
       -0.3243345 -0.23251463 -0.22229776 -0.14255242
000060 e3 c4 cd be 90 8f b5 be 39 f6 cf be 56 d9 70 3c
       -0.40189275 -0.35461092 -0.4061754 0.014700254
000070 ad 13 53 be 28 23 96 be 69 84 2f 3e 3e b8 c9 be
       -0.20612974 -0.29323697 0.17140354 -0.39398378
000080 0d 63 c8 bc a8 ee 9c bd c4 a2 a2 be 3c fc db 3d
       -0.024461294 -0.076627076 -0.31764805 0.10741469
000090 f6 fa 84 3e da fe 0b 3e ae e0 5e 3e d3 ad 87 3e
       0.25972718 0.13671437 0.21765396 0.26499805
0000a0 47 e0 b8 3d 54 0f 84 3e a6 41 77 3e bd 77 0f 3e
       0.090271525 0.25792944 0.24146137 0.1401052
0000b0 c9 29 dd 3e 9e 61 0e be 15 cc 3f be 78 6b 57 bd
       0.43195942 -0.13904426 -0.18730195 -0.052592725
0000c0 ed 1b 5e 3d 7c fc b0 be a6 f1 00 be ab dd 77 be
       0.05422585 -0.3456763 -0.12592182 -0.24205653
0000d0 94 9c e8 be 6e fc 0f 3e 55 ce 83 bd ba 8b 1d 3e
       -0.4543196 0.14061138 -0.06435839 0.15385333
0000e0 91 3f 98 3d 8c 37 cc bd f4 c0 2a 3e 3c 4c 99 3d
       0.07433999 -0.09971532 0.16675168 0.07485244
0000f0 07 3c a7 3b 92 21 47 3d 1d 02 60 3e 0e 78 28 bd
       0.0051035914 0.048616 0.21875806 -0.041130118
000100 98 49 04 3e 89 16 5f bc a3 0e 85 3e f1 5f 9c b8
       0.12918699 -0.013616213 0.2598773 -7.45653e-05
000110 b1 e5 06 3d 22 5c 05 3e 1c e9 92 3e 39 94 50 3e
       0.032933895 0.13023427 0.28693473 0.20369042
000120 93 db 13 be ee ec ad be 1a 61 e7 be 89 27 50 be
       -0.1443923 -0.33969826 -0.4519127 -0.20327581
000130 08 6e 7f be 10 83 e2 bd 07 8a bb 3d da 42 f9 3d
       -0.24944317 -0.110601544 0.09157186 0.12170954
000140 50 d5 1f be 02 4a 32 be f7 07 0d bd 27 4c 3c be
       -0.15608716 -0.17411044 -0.034431424 -0.18388425
000150 89 47 8a 3e 1f 75 55 3e 37 82 8e 3e eb eb 85 bd
       0.27007702 0.2084546 0.2783372 -0.065391384
000160 c6 5a 1f 3d b2 92 8a 3d b4 89 5d 3e 8f c4 60 3e
       0.038904928 0.06766261 0.21634561 0.21949981
000170 56 52 8d 3e 0e 66 71 3e 66 b9 4a 3e aa 3c 2c 3e
       0.2760188 0.23574087 0.19797286 0.16820017
000180 fd 97 0b 3e a9 fd ac 3d 07 b8 01 3d 79 8a 4a be
       0.13632198 0.08446819 0.031669643 -0.19779386
000190 99 4b 76 bd bd 4f f5 3c 0f 94 7c be e0 5c 0c be
       -0.06013069 0.029945249 -0.24665855 -0.13707304
0001a0 4b 4f 9d bd 14 d2 f9 be 76 94 ab be 2b bf bb be
       -0.076811396 -0.4879309 -0.33511704 -0.36669287
0001b0 b0 8c 70 3d ca a9 ae 3d c3 d8 8c 3e 5b 06 57 3e
       0.05872792 0.085284784 0.27509126 0.20998518
0001c0 5d ca 30 3e f7 38 e4 3d b4 6e e5 3d d5 0d 10 3e
       0.17264695 0.11143678 0.112027556 0.14067777
0001d0 25 55 7b 3e 7c bc cd be 3a 33 ad be e2 e2 cd be
       0.24544199 -0.40182865 -0.33828145 -0.4021216
0001e0 bc 40 8e be 44 eb ca be 84 93 82 be 3d 69 a8 be
       -0.27783763 -0.39632618 -0.2550317 -0.3289279
0001f0 7b de c1 be 7c 7b a1 be 18 34 33 3e 60 83 0a 3e
       -0.37865052 -0.31539524 0.17500341 0.13526678
000200 4d b6 9c 3e d4 1a 5c 3e f5 7c a5 3e e6 32 ad 3e
       0.30607834 0.21494609 0.32321897 0.33827895
000210 fa 4e 2a 3e fe 91 b6 3e b4 d8 8e 3e 10 94 9f bd
       0.1663169 0.35658258 0.27899706 -0.077919126
000220 04 31 90 bd 95 c0 58 be a1 bc 78 3e 5d f9 89 3b
       -0.07040599 -0.21167214 0.24290706 0.0042106346
000230 86 54 b3 bd 9c 2a 0f be b3 3e 3c 3a 93 66 2a be
       -0.08756356 -0.13981098 0.0007180974 -0.16640691
000240 d8 94 e9 bd b4 70 38 3e 68 f2 29 3e 71 7c a3 3e
       -0.11405343 0.18011743 0.16596377 0.3193088
000250 fc 25 ac 3e 4f a2 fc bb ac 8e e8 3c 04 46 a9 bd
       0.3362273 -0.0077097784 0.028388344 -0.082653075
000260 f5 8e 06 3d 18 6c 9c be 5c 53 23 3e ed 3c 1d be
       0.03285118 -0.3055122 0.15949768 -0.15355273
000270 cb 54 76 3e c0 07 46 3e 51 f4 81 3d f4 aa da bd
       0.24055783 0.19338894 0.06345428 -0.10677138
000280 25 fe 04 3d dd 6f 89 3c a6 ed 42 3d f6 09 06 be
       0.032468934 0.016776973 0.04758992 -0.13089737
000290 6b d8 81 3d 4e cc fa 3c 6f bc 2a bd 5d 85 1a 3e
       0.063401066 0.030614998 -0.04168361 0.15089937
0002a0 17 dc 7b 3d 46 fa 0a 3c 02 5d 9e 3c b9 05 00 bd
       0.06148919 0.008482521 0.019331459 -0.031255458
0002b0 04 ed ab 3d 0b a2 0b bd 6a 7a c0 bd 77 34 0a bd
       0.083948165 -0.034090083 -0.09398349 -0.03374144
0002c0 de c4 da bd 2f 35 e5 3c c4 12 43 3e c7 5b 5f bd
       -0.10682081 0.027979461 0.19050127 -0.054530885
0002d0 01 6f f6 bb cd 8a e3 3c d2 a6 ee bc 28 78 8a bd
       -0.007520557 0.027776146 -0.02913228 -0.06761199
0002e0 06 4f 41 3d 4a 3a 30 3d 1f 72 2c 3d 8f a2 94 3c
       0.047194503 0.04302434 0.04210102 0.01814392
0002f0 ef 43 8f 3c 2f af 0c bd b5 31 b3 bd 7f a9 4b bd
       0.017488448 -0.034346756 -0.08749715 -0.04972219
000300 ea 4a 87 3d ef 7b b5 3d 67 8d 49 bd a1 04 8f 3d
       0.066060856 0.08861529 -0.049207117 0.06983305
000310 16 01 e8 3d 95 64 19 3e 02 3b a2 3d b6 21 b5 3d
       0.11328332 0.14979775 0.07921411 0.088443205
000320 6a f2 85 bc c3 e2 c4 bd c4 c2 53 3d f6 8c c4 3c
       -0.016350944 -0.09613564 0.051699415 0.023992997
000330 9e 68 37 3c 96 a3 8a bd 15 cd ff bb 62 9b e3 bd
       0.011194376 -0.06769483 -0.00780643 -0.11113621
000340 ad f7 6f bd 90 b7 af 3d d8 c6 60 3d 9a 60 89 bc
       -0.05858581 0.08579934 0.054877132 -0.016769696
000350 0e 1f 4b be c9 8d 81 bd 60 e4 20 bd 96 c2 35 3e
       -0.19836065 -0.063258715 -0.039280295 0.1775001
000360 70 88 db 3d 67 fe d7 3d e9 e4 72 3e 46 55 80 3d
       0.10719383 0.1054657 0.23720135 0.062662646
000370 54 be 2e bd e5 0e 9d 3d b3 28 24 be 8b 31 38 be
       -0.04266198 0.076688565 -0.1603115 -0.17987649
000380 76 97 82 be 1e e9 a7 3e 53 78 da 3e 56 e6 ac 3e
       -0.2550618 0.32795042 0.42669925 0.33769482
000390 67 06 ca 3b 49 2c 70 bd 4e 6d 0e be b3 9a 49 3e
       0.006165314 -0.058635984 -0.13908884 0.1968792
0003a0 68 0f f5 3d 26 24 4e 3e 1c e0 8a 3e c7 64 a3 3e
       0.11965829 0.20130977 0.27124107 0.31912825
0003b0 96 47 57 3e 6b 51 86 be 39 76 af be 95 3a f5 be
       0.21023402 -0.26233992 -0.34269884 -0.47896257
0003c0 5c 2b 32 bd b5 49 80 be 5c 49 39 be 03 ae 7a be
       -0.043498382 -0.25056234 -0.1809439 -0.24480443
0003d0 b2 9e 36 be 17 3f 4c be 00 60 ff bd d8 70 c6 bd
       -0.17833975 -0.19945942 -0.124694824 -0.09689492
0003e0 b1 1e ab bc 2d 77 a5 3d e9 2c 92 bd 24 a0 c7 3c
       -0.020888658 0.080793716 -0.07137472 0.024368353
0003f0 e9 99 d7 3d dd bb af bd 5c f7 13 bd 74 65 9b 3d
       0.10527403 -0.08580754 -0.036124572 0.0758771

module.cnn.0.bias f4 [32]
000000 8b b1 45 be ae 62 4f 3e 29 09 1e bf 94 5c 53 bf
       -0.19306009 0.20252487 -0.6173273 -0.8256314
000010 40 a3 38 be 23 f6 23 bf 18 6f 4e bf aa f1 3b bf
       -0.18031025 -0.6404745 -0.80638266 -0.73415625
000020 c8 8b 44 bf 4c c7 9e bf b3 9b 9c be c5 39 49 bf
       -0.7677579 -1.240457 -0.3058754 -0.78603774
000030 f1 d7 27 bf bd b5 4c bf f9 c6 b1 be e8 32 46 bf
       -0.65563875 -0.7996481 -0.34722117 -0.77421427
000040 49 1c f9 be 35 3d 32 3e 5a 67 10 bf 57 2a d5 be
       -0.48654392 0.17406161 -0.564077 -0.41633865
000050 2e 13 36 bf 23 00 3a bf b0 3a cc be e2 0b 56 bf
       -0.71123016 -0.7265646 -0.39888525 -0.8361188
000060 4b 24 68 bf c5 7d f5 be c3 bd 76 bf 1b 1e 65 bf
       -0.9068038 -0.47947517 -0.96383303 -0.8949906
000070 cf 23 63 bf 8f 03 3e bf 05 fe 22 bf 94 bb 85 bf
       -0.88726515 -0.7422418 -0.63668853 -1.0447869

module.cnn.2.weight f4 [64, 32, 3, 3]
000000 48 68 83 3d d1 8f 7e bd 36 19 a1 be 13 36 07 3d
       0.064163744 -0.062148873 -0.31464547 0.033010554
000010 6e 9e 2c be e9 0d 04 be 18 64 1d 3d fb 48 c8 bd
       -0.16857311 -0.12895931 0.038425535 -0.09779545
000020 21 32 8f bd 66 5b dd bd 41 5b 45 be 0d b5 0b be
       -0.06991983 -0.108084485 -0.19273092 -0.13643284
000030 76 e8 d5 bd 78 92 02 be bd 62 30 be 03 f2 b7 3c
       -0.10444729 -0.12751186 -0.17225166 0.022454267
000040 95 66 84 bd 9c 81 04 be 4a 56 47 bd 07 08 57 be
       -0.064648785 -0.12940067 -0.048666276 -0.20999156
000050 95 9d 94 be 11 64 34 be e0 5d 10 be ec 6d 28 be
       -0.29026476 -0.17616297 -0.1409831 -0.16448182
000060 dd 50 74 be af 10 f1 bd 93 d8 14 be d0 0d 1e be
       -0.23858972 -0.1177076 -0.14535742 -0.15434957
000070 bd db 2f 3b c1 0f 95 be b6 43 b8 bd 72 13 90 be
       0.0026833855 -0.29113582 -0.0899729 -0.28139836
000080 41 30 5c be 88 da f8 bd f7 16 4c be 31 72 8a bd
       -0.21502782 -0.121510565 -0.19930635 -0.067600615
000090 03 87 db bd 48 2e 05 be ba 55 9f bd fa 1f a9 bd
       -0.10719111 -0.13005936 -0.07780023 -0.08258052
0000a0 34 7b 71 bd a3 f5 a1 bd 3b a3 15 bd 5a f8 a2 bd
       -0.058955386 -0.079081796 -0.03653262 -0.079575256
0000b0 93 40 18 be bb 3d 81 be d9 72 59 be 56 88 8e be
       -0.14868383 -0.2524241 -0.21235217 -0.2783839
0000c0 cb c5 88 bd da 53 1b bc d8 e2 85 be 92 ea 1f bd
       -0.06678351 -0.009480441 -0.2614963 -0.039042063
0000d0 08 eb 4c be 8e 3d e9 bc b0 37 c2 39 e1 af 87 bc
       -0.20011532 -0.028471734 0.00037044054 -0.016563358
0000e0 8f a1 51 3c 1f 34 cf 3c ee a3 cc 3b c7 a4 15 bc
       0.012794866 0.025293408 0.006245128 -0.009133524
0000f0 db 6c c9 3c 37 af f8 3d 8b 15 ae 3d 54 e6 4a be
       0.02458804 0.121427946 0.08500203 -0.19814426
000100 61 79 d3 bd 0a 7f e2 bd 1b 17 4d bd 56 f9 2d bd
       -0.103258856 -0.11059387 -0.050070863 -0.042474113
000110 ad 78 b0 bd 4a fb 97 bc 46 a6 a8 bd a9 03 6a bd
       -0.08616767 -0.018552441 -0.08234839 -0.057132397
000120 40 0e 6c be 79 c9 3d be 63 74 14 be 38 a5 94 bc
       -0.23052311 -0.18533887 -0.14497523 -0.018145189
000130 2a 1f 25 be 09 2e 54 be e9 60 7f bd 0e e9 4f be
       -0.1612517 -0.20720686 -0.06234828 -0.20303747
000140 56 49 3a be 9f 68 88 be 04 17 bc 3c a8 a3 02 be
       -0.18192038 -0.2664232 0.022960193 -0.12757742
000150 6d 98 3a be ef 32 80 bd 71 1f be bd 2b 33 0f bd
       -0.18222208 -0.06259715 -0.09283341 -0.034960907
000160 59 98 2a be 21 56 92 bd 87 fd 77 bd 20 77 5b be
       -0.16659679 -0.07145334 -0.060544517 -0.21432161
000170 fa c4 5c be 4b a3 16 3d e8 e3 4c be 00 0b 70 be
       -0.21559516 0.036776822 -0.20008814 -0.23441696
000180 6c a0 c1 3d 80 72 03 be 91 54 e9 bd 41 d3 0e be
       0.09454426 -0.12836647 -0.11393083 -0.13947774
000190 1a 3a c9 bd 0b 61 d1 3c b1 16 1d be e9 84 6c bd
       -0.09825535 0.025558969 -0.15340687 -0.05774394
0001a0 87 3c 69 bd 29 e5 82 bd 55 2e 5d bc 6d 64 01 be
       -0.05694249 -0.06391365 -0.013499816 -0.12635966
0001b0 98 4a fd bd 41 8c 1a be e6 09 b8 be 7b 23 44 bd
       -0.12367743 -0.15092565 -0.35945052 -0.0478854
0001c0 64 de 05 bd 08 35 67 be 5d 24 f1 3d f9 03 23 bd
       -0.03268279 -0.22578824 0.11774514 -0.03979871
0001d0 25 10 8a bc 3b f3 09 be bd 3d 4f be d1 4a 2c be
       -0.016853401 -0.13471691 -0.20238395 -0.16825415
0001e0 05 3d b0 bd 4c 41 ab bd fc ab ae bd 96 66 0c bc
       -0.086053886 -0.08362064 -0.08528897 -0.00856938
0001f0 dd 6e 3e bd b3 77 aa bd 47 13 4b be de a8 72 be
       -0.046492446 -0.08323612 -0.19831572 -0.2369723
000200 60 84 16 bd d5 5f dc bd 75 f0 88 bd ab e8 d4 bc
       -0.036747336 -0.10760466 -0.066864885 -0.025989851
000210 aa 26 95 bd 15 5e 98 3a 3b 57 02 be bd c1 06 be
       -0.07282765 0.0011624718 -0.12728588 -0.13159843
000220 10 aa 40 bc bc 71 83 be 38 ba 03 be e3 22 0a 3e
       -0.011759296 -0.2567271 -0.12864006 0.1348987
000230 b2 0d e7 bd ef d2 48 3d 9e 07 5a 3c 1f b0 f8 3d
       -0.11281909 0.049029287 0.01330748 0.121429674
000240 2a c0 e6 bd b7 75 45 be af d8 9b be 2c d4 98 bd
       -0.11267121 -0.19283186 -0.30438754 -0.074623436
000250 bb 1e 10 be 52 f8 48 be d5 0b 97 bd ce 4e 02 be
       -0.14074223 -0.19625977 -0.07375304 -0.12725374
000260 6b ac 3c be 8f 33 97 be f5 26 30 be b1 9e 6b be
       -0.18425147 -0.29531524 -0.17202361 -0.23009755
000270 a4 b2 13 bd cd b7 e4 bc cc 07 ce bc 42 55 89 bd
       -0.036059037 -0.027919674 -0.025150202 -0.06705715
000280 7c f2 a5 be fb 6b 75 be 10 d6 2f be a3 af ea bd
       -0.32411563 -0.23966973 -0.17171502 -0.11459281
000290 95 f8 8a be dd 0f ff bd ac 74 47 be dd cc 6d be
       -0.27142778 -0.124541976 -0.194781 -0.2322268
0002a0 f6 9e c2 bd c5 a8 af bd d9 df 19 be 70 94 5c be
       -0.09502976 -0.08577112 -0.15026797 -0.21541
0002b0 30 c5 48 be bb 5e bc bd e3 e8 36 be 49 0c 51 be
       -0.19606471 -0.09197756 -0.17862277 -0.20414843
0002c0 9d 8b 89 bd 2a 0a 18 be b5 5f 48 be cb 1e ec bd
       -0.06716082 -0.14847627 -0.1956776 -0.11529311
0002d0 a5 10 c2 bd 19 76 d9 bd d9 65 33 be 75 b8 0f be
       -0.09475831 -0.106182285 -0.1751932 -0.14035209
0002e0 f4 4e 57 be dc 96 be bd 94 38 28 be e5 8f 58 bd
       -0.21026212 -0.09306118 -0.16427833 -0.052871604
0002f0 ae 9a d0 3c 49 e5 9c bd 20 42 45 be 5b ad 7d be
       0.025464382 -0.0766092 -0.19263506 -0.24773161
000300 61 b4 4b be 96 4d 45 be 30 0a 59 be 60 d3 5d 3b
       -0.19893028 -0.19267878 -0.21195292 0.0033847913
000310 82 23 cf bd db ef 3e bd be 1a a9 be f9 d2 4f be
       -0.101141945 -0.046615463 -0.33028215 -0.20295323
000320 03 d7 84 be a8 f2 a8 be 91 67 e5 bd 73 78 13 be
       -0.2594529 -0.32997632 -0.11201394 -0.14401416
000330 14 a1 1d be aa ca 9a bd 3a cf ed bd 99 56 c1 bd
       -0.15393478 -0.07558186 -0.11611791 -0.09440345
000340 f7 d2 3e be ea 31 42 bd 36 c9 9c 3e e3 c4 69 3e
       -0.18635164 -0.047410883 0.30622262 0.22829013
000350 37 7d 35 be ac 6b dd 3d 7c ce 2d be 86 3c 8e be
       -0.17723547 0.108115524 -0.16973299 -0.2778055
000360 42 45 0f be 3e 92 11 bd 93 41 51 be c5 10 06 be
       -0.13991264 -0.035539858 -0.20435171 -0.13092335
000370 82 ad ca bd 15 36 bd bd c2 ef 22 be 4c 5a 44 bd
       -0.09896375 -0.09238831 -0.15911773 -0.047937676
000380 61 bb 1f be 7f 65 54 be 3e 3f 00 be 78 4f 8a be
       -0.15598823 -0.20741843 -0.12524125 -0.27013755
000390 74 2f e8 bd 22 e8 52 be a6 d6 29 be 42 2d e9 3c
       -0.11337176 -0.20596364 -0.16585788 0.028463963
0003a0 5f 5f 13 be 22 d7 0a be e5 60 40 be 8c 04 8a bd
       -0.1439185 -0.13558629 -0.18786962 -0.067391485
0003b0 56 5b 97 3d f1 8a 07 3e 5b a1 0d 3e 42 8c b7 bd
       0.07390468 0.13236596 0.13831083 -0.08962299
0003c0 7a d5 85 bd e3 a0 a8 be 7a 6e ab bd b4 f9 13 be
       -0.06534858 -0.32935247 -0.08370681 -0.14450723
0003d0 8f 34 04 be 0e d6 86 3c 19 30 e8 3b 99 c4 92 bd
       -0.12910675 0.016459491 0.007085812 -0.07166404
0003e0 37 f1 cd 3d f6 3b 39 3d 0e 6d 57 3d 9d 85 26 be
       0.10055774 0.0452232 0.052594237 -0.16261907
0003f0 e8 7b 3d be 25 18 2c be fd 24 4a be d1 4d b9 bd
       -0.18504298 -0.16806085 -0.19740672 -0.090480454

module.cnn.2.bias f4 [64]
000000 ed 22 72 be 58 4a cb bd bf 80 e7 bd d7 d0 8e be
       -0.23646136 -0.09926289 -0.11303853 -0.27893707
000010 cc 18 76 3e 6d 36 01 be 85 c7 01 be 89 1b 83 be
       0.24032897 -0.12618418 -0.12673767 -0.25606945
000020 34 bf 8f 3f 4c 6e b1 be dc 3a 2a bd de 44 4b be
       1.1230226 -0.34654462 -0.04156004 -0.1985049
000030 3d 6b 92 3e b8 f9 bd bd 5a d0 e6 bd 04 90 1d be
       0.2859744 -0.09276146 -0.11270209 -0.15386969
000040 ee 06 47 be ed 73 39 3e 51 3b ec be 64 a0 04 bd
       -0.19436237 0.18110628 -0.46139005 -0.032379523
000050 a6 03 bb be 82 10 a8 bd b8 46 63 bd 9c 21 f5 bd
       -0.3652622 -0.082062736 -0.055487365 -0.11969301
000060 d0 31 ca bd 38 cb 28 bd 33 97 a4 be a8 2e 97 bd
       -0.09872782 -0.04120943 -0.32146606 -0.07381946
000070 8b cf 0f be 24 12 1d bd e8 46 23 bf 18 e5 2d be
       -0.14044015 -0.03834738 -0.6378007 -0.16981924
000080 42 d2 ca bd 9b 52 8d bd d0 7d 8f be 8b 47 0d be
       -0.09903385 -0.06900521 -0.28025675 -0.13796823
000090 31 29 b5 be 16 78 3e be ab 88 5d be 7e 13 76 be
       -0.3538299 -0.18600497 -0.21634166 -0.24030873
0000a0 97 39 ac be 70 75 0e be 1d eb 17 bd f9 a5 d0 bd
       -0.33637688 -0.13911986 -0.037089456 -0.10187907
0000b0 58 bf ad bd 7c 9c 81 be f1 70 5e bd 91 a4 01 be
       -0.084837615 -0.253147 -0.054306928 -0.12660433
0000c0 6b d6 ec bd 8f a9 34 be 7f 0c 19 bc 38 c5 a7 bd
       -0.115643345 -0.17642806 -0.009341358 -0.08191913
0000d0 f4 6d 2d be e3 70 2f be b9 2a 25 bd 63 e5 fd be
       -0.16936475 -0.17132907 -0.040323947 -0.4958907
0000e0 30 23 d9 3e ee a8 9b be 0b a3 0b be 9f 2d fb be
       0.42409658 -0.3040232 -0.13636415 -0.49058244
0000f0 6c d6 e5 3a 1e 42 e8 3e 6b 9c 8d be 37 a8 cd be
       0.0017535216 0.45362943 -0.276584 -0.401674

module.cnn.4.weight f4 [64, 64, 3, 3]
000000 04 16 3a bd 89 d8 d3 3a d8 ee 03 bd 51 89 da bd
       -0.045431152 0.0016162555 -0.0322102 -0.10670722
000010 2e 58 ec 3d ed 34 fd bd 9a 64 3b bd 6a 3c 47 3d
       0.115402564 -0.123636104 -0.045750238 0.0486416
000020 a2 f0 ed 39 64 be 3a bd ba 7b 4e bd 16 8e 67 bc
       0.00045383448 -0.045591727 -0.050410964 -0.014132997
000030 bd c6 25 bd b8 69 57 bd 33 a9 21 bb 1e 0e f5 bc
       -0.040472735 -0.052591056 -0.00246675 -0.029913958
000040 ce 19 83 bc a3 d7 97 bc 06 7f 29 bd 04 ac 18 bd
       -0.016003516 -0.01853544 -0.041380905 -0.037273422
000050 3f 2e 3c bc 8a 1b 4a bd 20 53 d8 bc 93 e4 cb bc
       -0.011485635 -0.04934267 -0.026406825 -0.024889266
000060 c3 b6 20 bd e6 d0 06 3c 82 88 4a bd bd b6 92 bd
       -0.039236795 0.008228516 -0.04944659 -0.07163761
000070 9c 4b 86 be 19 0a 80 3d 6a 1b 70 3d 00 38 6f 3e
       -0.2622956 0.06251926 0.058619894 0.23361206
000080 38 9c ba 3e 4c 64 0d 3e 4a 2a 7b 3e 83 db 0b be
       0.3644731 0.13807791 0.24527851 -0.13657956
000090 72 d5 f0 bd c3 26 d2 bd 78 f3 91 bd 1d 1a ff 3e
       -0.117594615 -0.102612995 -0.07126516 0.4982461
0000a0 d1 bd 3f be ab 0f 65 3e 0b fe 0c 3d 93 dd 0e bf
       -0.18724753 0.22369258 0.03442196 -0.55806845
0000b0 e0 b2 b6 bd 28 98 14 be 9d 80 33 3e 59 35 b4 bd
       -0.089208364 -0.14511168 0.17529531 -0.08799238
0000c0 f5 f3 a6 be b5 f5 7b 3e d6 5e 23 bf 5a 9c 7f be
       -0.32608 0.24605449 -0.63816583 -0.24961987
0000d0 fe 9a 15 bf 4e 2b 19 bf 6f 58 e8 bc 4b 64 0b bc
       -0.58439624 -0.598317 -0.02836248 -0.008507798
0000e0 9d a2 e7 bc 9e eb 0e 3d 59 c6 02 bd d1 ef 1f bd
       -0.028275782 0.03489267 -0.03192744 -0.039047066
0000f0 c9 5f 2a bd 75 07 58 bd ec b3 00 bd 57 e1 04 3c
       -0.041595254 -0.052741487 -0.031421587 0.008110366
000100 88 7d 10 3d e9 46 b1 bc c3 9b 18 be a6 5b 0e be
       0.035275966 -0.021640258 -0.14903168 -0.13902149
000110 3d da 8d 3c 2e 15 97 bd ee f9 2e be cc f6 d1 bd
       0.017315978 -0.073770866 -0.17087528 -0.10252151
000120 93 01 5a bd 5a 06 7e be f4 25 7d bf eb d0 31 3e
       -0.053224158 -0.2480711 -0.98886037 0.17364852
000130 e8 8e ab be 35 78 88 be 67 a6 6f 3e 97 79 a3 be
       -0.33507466 -0.2665421 0.23403321 -0.31928703
000140 d4 9d db be a9 e1 5f be d1 6b a7 bd ba 2a 19 3e
       -0.4289385 -0.21863426 -0.08174861 0.14957705
000150 47 79 ea be e3 ad aa 3e 1c 2d 7e bd c7 e9 ef be
       -0.45795652 0.3333579 -0.06205474 -0.46858045
000160 3d 2d b6 be 41 43 11 be ba f7 96 3c e5 66 9b 3b
       -0.3558139 -0.14185812 0.018428672 0.0047424906
000170 a2 fc 41 bd 53 66 c1 3c 64 67 22 bd 75 c5 c8 3b
       -0.04736007 0.023608362 -0.039649382 0.0061270543
000180 0e 93 99 3b cd a2 43 b9 92 a0 3a bd 8d 13 05 be
       0.0046867197 -0.00018657297 -0.045563288 -0.1299574
000190 6b f9 42 3d 92 22 20 be 6f 48 b9 be 26 96 6c 3e
       0.047601145 -0.15638188 -0.36188075 0.23104152
0001a0 85 aa 8a 3d 0c db 06 be b7 64 e5 3c 40 c1 2d 3e
       0.06770805 -0.13169497 0.028002126 0.1696825
0001b0 9b 87 d3 be 5c 30 1b be a8 88 c5 bc 7d 32 bd 3e
       -0.41314396 -0.15155166 -0.024113014 0.36952582
0001c0 ec 31 0b bd c2 60 92 be ed 81 9d bd b7 fd 33 be
       -0.033983156 -0.28589445 -0.07690797 -0.17577253
0001d0 b3 74 d8 3d 76 23 26 bd 82 ba a3 3d be 6f f9 bc
       0.105691336 -0.040561162 0.07994558 -0.03044879
0001e0 46 47 03 bd 01 8d 70 3d 5f 8f da bd b6 ee a8 bd
       -0.032050394 0.05872822 -0.10671877 -0.082486555
0001f0 09 05 8d bd 02 33 77 bd e1 7d 07 bd 80 36 cd bc
       -0.06885726 -0.06035138 -0.03307903 -0.025050402
000200 7f 29 b1 3a 90 73 b9 bc b8 4f 81 bc 27 70 61 bb
       0.0013516395 -0.022638112 -0.015785083 -0.0034399123
000210 24 b9 a1 bc 86 d0 23 bd f0 8e 99 bc c2 d9 c4 bc
       -0.019741602 -0.039993785 -0.018744916 -0.024029616
000220 71 39 da bc 9d ad 2c 3d 54 1d 85 3b fb 76 97 bc
       -0.026638718 0.042157758 0.004062334 -0.018489351
000230 22 b3 08 bd b4 ef d1 bc e2 23 6c bb 40 f6 ec bc
       -0.03337396 -0.025626995 -0.003603213 -0.028926015
000240 7f 71 dc bc 5c 08 f7 bc b7 5e 29 bd fc 1c 47 bd
       -0.026909588 -0.030155353 -0.041350093 -0.048611626
000250 42 06 3f bd 84 61 17 3c 2d e6 29 3d 19 c6 c3 bc
       -0.046636827 0.009239558 0.04147928 -0.023898171
000260 47 83 2d 3d ef 6a a2 3d ce dd b6 3e 72 25 8d bc
       0.042361524 0.07930552 0.357161 -0.01722977
000270 5b 73 14 bf 0f 2c 07 be a1 0e 15 bc 69 10 49 bf
       -0.5798852 -0.13200401 -0.009097726 -0.78540665
000280 6d c0 d3 bd 57 43 31 3f 17 98 84 3d f0 65 cc 3c
       -0.10339437 0.6924338 0.06474321 0.024950951
000290 9a 70 cd be 37 84 b5 be d4 62 da be 28 26 84 3e
       -0.4012497 -0.35452434 -0.42653525 0.2581036
0002a0 44 9d 58 3b 00 4a 6c be db 2d e1 3e 6e 68 97 bc
       0.0033052722 -0.23075104 0.43980297 -0.018482413
0002b0 54 b2 43 bd 99 65 b4 bc 09 e8 3f bd 59 91 f4 bc
       -0.04777749 -0.022021102 -0.046852145 -0.029854463
0002c0 43 37 84 ba c2 41 ca bc ba 0f 17 bc e8 2d 40 bc
       -0.001008727 -0.024689559 -0.009220058 -0.011729695
0002d0 e6 41 13 3b da fa 0f bc 89 07 ba 3d 43 7b e3 bc
       0.0022469698 -0.008787835 0.090834685 -0.027768737
0002e0 62 fa 7d bc e6 c1 0e bd 44 c3 c0 3d 46 68 27 bd
       -0.01550159 -0.034852885 0.09412244 -0.040870927
0002f0 f6 47 fb bb 83 8d 90 3c 14 9c 37 3e d3 57 fd bd
       -0.0076684905 0.017645603 0.17930633 -0.12370267
000300 20 d7 78 3b 2f b5 10 3d 78 60 08 be 6e fe 94 bb
       0.0037970021 0.03532904 -0.1331805 -0.004546932
000310 ec 69 fb bb 81 26 1e be c5 04 40 bc 04 16 ce bc
       -0.007672539 -0.15444376 -0.011719887 -0.025156982
000320 14 b0 f1 3c d8 b9 40 bd c0 95 24 bd 02 2b d3 3c
       0.029502906 -0.047052234 -0.040181875 0.025777344
000330 62 12 2d bd 26 51 2f 3d 28 24 1f 3c 04 b5 50 bc
       -0.04225386 0.042802 0.00971321 -0.01273847
000340 61 69 8c 3b 3a d5 21 bc 41 d7 25 bd 55 bd 21 bc
       0.004285023 -0.009877497 -0.040488485 -0.0098718
000350 74 ee b7 bc 9a b4 e9 bc 31 e5 56 bd d3 de 2d bd
       -0.02245257 -0.0285285 -0.052464668 -0.04244883
000360 ce 1b fc bd e4 6b d9 bc ae 15 28 bf 67 e4 4c 3e
       -0.12309991 -0.026540704 -0.6565808 0.20009004
000370 5f 35 39 bf 3e 7c da be 98 2c de be ad f1 53 bf
       -0.7234706 -0.42672914 -0.43393397 -0.8279064
000380 19 56 f4 3d 14 b1 51 bd ee c1 83 bc 61 3f d1 bc
       0.11930484 -0.051194265 -0.016083684 -0.025542917
000390 01 dd be 3b 6b c6 09 bd f8 49 4f bd e1 5e 24 bd
       0.0058246856 -0.03363649 -0.05060765 -0.040129546
0003a0 51 94 c2 bc 3f 59 0d bd 75 dd 73 bd 7c cb a8 3d
       -0.023752363 -0.03450894 -0.05953737 0.082419366
0003b0 88 4a 09 3e 01 1e 33 be f5 09 20 be 8e 21 a4 3d
       0.13407338 -0.17491914 -0.15628798 0.080142125
0003c0 d7 e0 36 be b4 3c 7b 3d ad f0 c5 3c 86 71 34 3c
       -0.17859207 0.061337188 0.024162615 0.011013394
0003d0 7d e7 e4 bc d1 35 08 bd 8b b5 f6 bc fa 7a 1e bd
       -0.027942413 -0.03325445 -0.030115863 -0.0386915
0003e0 65 79 30 3b 8a c7 0f bc dd 19 db bc 3c 5e 03 3b
       0.0026927826 -0.008775601 -0.026745731 0.0020045182
0003f0 1a c6 bf 3d 8c 4d 95 3e 1d 0e 97 3e 77 ae 89 bc
       0.09363957 0.29160726 0.29502955 -0.016806824

module.cnn.4.bias f4 [64]
000000 20 c7 4b 3e 4a 99 96 be e8 b9 77 be 17 e1 60 be
       0.19900179 -0.29413825 -0.24192011 -0.21960865
000010 7c 26 de bd 5d 9f e0 be 7e 27 76 3e c8 ab f3 bd
       -0.10847184 -0.43871585 0.24038503 -0.11897999
000020 a3 81 21 be 68 b1 1d 3e 17 5d 28 bf 9d 1e af 3e
       -0.15772109 0.15399706 -0.65767044 0.34203044
000030 9d 00 4c be 43 5e 9e bd 8c df e3 be 2d 9e 56 3e
       -0.19922109 -0.07732823 -0.4450649 0.20958777
000040 79 42 0b be ed 3f 25 be 5e 45 b1 bd ef 67 e2 bd
       -0.13599576 -0.16137667 -0.08655809 -0.1105498
000050 fc f2 39 3e 49 ac 3e 3f 6f 61 08 be 36 21 43 be
       0.18159097 0.74481636 -0.13318418 -0.19055638
000060 49 37 24 be b4 83 71 be 1c 95 03 3e c5 bf 05 be
       -0.16036715 -0.23585397 0.1284985 -0.13061436
000070 36 e0 35 be b5 25 8e 3e b8 12 49 be 47 00 38 be
       -0.17761311 0.27763143 -0.19636047 -0.17968856
000080 5b 5e f4 bd e9 b9 88 be 0b 35 1a 3e f7 b2 c0 be
       -0.119320594 -0.26704338 0.15059297 -0.3763654
000090 9f c1 d6 be 72 24 0f be 0e c5 1c 3f ae 62 51 be
       -0.41944596 -0.13978747 0.6123818 -0.204478
0000a0 64 24 71 be ed 6a cd be 04 da 1f 3f 38 dc b0 bd
       -0.23549038 -0.4012064 0.6244204 -0.086357534
0000b0 42 b7 9a be dd 02 57 3c 6a 67 df 3e b1 02 64 bd
       -0.3021794 0.013123241 0.43633586 -0.05566663
0000c0 a5 2c 28 3e a3 c1 d3 be 7c 61 5e 3f 52 61 00 bf
       0.1642328 -0.4135867 0.868675 -0.501485
0000d0 14 33 59 3e 46 46 7c 3e db 82 ca bd 4f 8e 0d be
       0.21210891 0.24636182 -0.0988824 -0.13823818
0000e0 eb 7b 3c be 92 8d e0 be 82 f4 e3 bd a8 9f de be
       -0.18406646 -0.4385801 -0.111306205 -0.43481183
0000f0 68 81 8a be e0 c0 bf be ba 4e 91 bd d9 5b cd bd
       -0.27051854 -0.3745184 -0.07095094 -0.10027284

module.cnn.6.weight f4 [64, 64, 3, 3]
000000 7e 36 c1 3d 02 f7 28 3f 1b a7 f6 3e b7 30 90 3e
       0.09434222 0.66001904 0.48174366 0.28162166
000010 d4 95 d6 be 37 f5 18 3e 74 69 86 be e2 3e 16 bf
       -0.41911185 0.14937292 -0.2625233 -0.586897
000020 cc 87 7e bf 74 af ea 3e 2e f0 b5 3e 5c 5a cf 3e
       -0.9942596 0.45836985 0.35534805 0.40498626
000030 71 0a 89 3e 82 6b d5 be 4c 2a 4e be bc 41 5d be
       0.2676578 -0.41683584 -0.20133322 -0.21607107
000040 70 4f 9f be 4d 54 20 3d 36 0d 1b 3e 91 5b 3c bd
       -0.31115294 0.039142895 0.15141758 -0.045985762
000050 5e ec e9 bd 4a 94 4a bf 61 dd b6 bd 6d 5e ab 3d
       -0.114220366 -0.7913252 -0.089289434 0.0836762
000060 3a d4 52 be 94 72 48 3c 98 6b 26 3e 7d 1f d2 3c
       -0.2058877 0.012234349 0.16251981 0.02564978
000070 57 d6 61 3d bc d5 30 bd cc a2 3e bd 79 a2 11 bd
       0.05513605 -0.043172583 -0.046541974 -0.035555337
000080 34 d2 d7 3d d7 c0 ba bc ba 7e cf 3d 84 f6 3c 3c
       0.1053814 -0.022797031 0.10131593 0.011533383
000090 7f 57 19 be 08 71 a1 bd 44 c7 1f bd 47 6b c7 bd
       -0.14974783 -0.07882887 -0.039008394 -0.097372584
0000a0 a6 56 b9 bd 19 8b 0e bd 9c 95 83 3c d4 5d 3c bd
       -0.0904973 -0.034800623 0.01606255 -0.04598792
0000b0 a2 2a b3 bd 21 76 88 3e 4b 70 09 be f7 74 4d bd
       -0.08748366 0.26652625 -0.13421743 -0.050160374
0000c0 af cb 3f 3e 1a a4 78 be 02 b9 d1 be f1 3d 0d 3e
       0.18730043 -0.2428135 -0.40961462 0.1379316
0000d0 35 c9 42 be 5c 06 0e be 54 6c 78 3e 43 17 75 3b
       -0.19022067 -0.13869613 0.24260074 0.0037397898
0000e0 c2 6b a1 be 4d 2b ce 3e a9 67 40 bf de db a5 be
       -0.31527525 0.4026741 -0.7515817 -0.32394308
0000f0 bb 17 a0 bd 19 db e3 be e7 08 37 be 9b 1a c3 3d
       -0.07817026 -0.44503096 -0.1787449 0.09526559
000100 93 a0 b5 3e b3 b3 ad be 06 51 cf 3e 8b 5c 10 3f
       0.3547407 -0.33926162 0.40491503 0.5639121
000110 48 26 89 3e ea 56 f0 bd 45 a6 cd be 9c f2 25 bf
       0.2678702 -0.117353275 -0.40165916 -0.6482332
000120 d3 9b d3 bd b5 0d 0b 3c ed 6a fd 3d 06 71 3a ba
       -0.103324555 0.008487155 0.1237391 -0.0007112179
000130 19 80 15 3e c6 0e ee 39 37 f7 83 bd 79 85 f0 3d
       0.14599647 0.00045405905 -0.06443637 0.11744208
000140 18 64 1c 3b 36 c0 22 3f 36 ca cf 3d 17 13 9d 3e
       0.0023863371 0.6357454 0.101459906 0.30678627
000150 0b 9b 38 3d 93 2e 44 bf a2 2b c8 3e 3a d5 14 3f
       0.045069735 -0.76633567 0.3909579 0.5813786
000160 df df 86 3e 5b b7 c0 be 4d aa 33 bf 84 e0 65 be
       0.26342675 -0.3763989 -0.70181733 -0.22448927
000170 31 f2 90 be c1 a8 8c be 72 31 88 be ee ee d0 bd
       -0.28309777 -0.274725 -0.26600224 -0.10201822
000180 97 64 1a 3e 48 52 51 be 66 db db be 48 ef 4c 3f
       0.15077434 -0.20441544 -0.42940825 0.80052614
000190 31 5a 11 3e b1 ca 2a be 0d c9 d7 3e 3e db b2 bd
       0.14194562 -0.16678883 0.42145577 -0.087332234
0001a0 9d de 1b bf be 12 bc 3d 14 a1 46 3e 2f 98 b4 3e
       -0.60886556 0.09183262 0.19397384 0.35272357
0001b0 e8 2c c5 bd ef e8 d1 bc 92 2a 17 3d da 6a 1b bd
       -0.09627706 -0.025623767 0.036905833 -0.0379437
0001c0 41 ca da bd ed 74 27 3c 67 c6 26 3d 44 e4 ae 3c
       -0.10683108 0.010220748 0.040716555 0.02134908
0001d0 a5 08 c2 bd 45 04 22 bd 98 7a 1e bc 8e a0 e4 3c
       -0.09474305 -0.039554853 -0.009672783 0.02790859
0001e0 dd b4 81 3c 82 b2 9d bc 9a 5c 02 3c b1 f0 63 3d
       0.015833313 -0.019250158 0.007956648 0.055649463
0001f0 20 ec 74 bc 75 72 cd 3c 88 5b c0 be 6b ad 36 bf
       -0.014948875 0.025078991 -0.37569833 -0.71358365
000200 80 30 e3 be 21 3b 80 3e 7e 55 da 3d 00 3a 8d bd
       -0.4437294 0.25045112 0.106608376 -0.06895828
000210 6a 4a 84 be 1f e8 18 3e 90 bb 3d be 99 a0 8e 3e
       -0.25838023 0.14932297 -0.1852858 0.278569
000220 50 d3 e5 bd 63 67 ef be ee 50 ae be fd a0 78 bf
       -0.11221945 -0.46758565 -0.3404612 -0.9712065
000230 70 13 0d bf b2 19 31 bf 91 fa 8c 3e de 42 cf 3e
       -0.55107784 -0.6917983 0.27534917 0.40480703
000240 ea 2e 77 be 0a 12 36 3d c7 b8 a7 3d ce 20 5e 3d
       -0.2413899 0.044450797 0.0818954 0.054230504
000250 ee f7 9c bc 32 d5 4d bd b3 8d 33 3d c5 69 a0 bd
       -0.01916119 -0.050252147 0.043836307 -0.07832674
000260 ba 25 45 be 82 be b2 bd 66 60 04 be 9e f7 20 3d
       -0.19252673 -0.08727743 -0.12927398 0.039298646
000270 71 e8 1e bd 42 32 07 bd 13 8f 06 be ec 3d 35 3d
       -0.038795892 -0.033006914 -0.13140516 0.044248506
000280 01 22 4e 3d 79 e7 2f bd 0f 9d 47 3c 4e 20 b2 bc
       0.050325397 -0.04294536 0.012183442 -0.02174392
000290 06 0f 0b bd f5 2f 2b be 03 4f 30 bd d3 a8 cb bc
       -0.033949874 -0.16717513 -0.0430441 -0.024860775
0002a0 96 fd 5a 3d f0 04 cd 3d 75 17 23 3d 60 f4 09 bf
       0.053464495 0.100107074 0.039817292 -0.5388851
0002b0 46 9f c2 be 3c bf e8 be 26 41 55 bf dc 7c 0b 3f
       -0.3801214 -0.454584 -0.83302534 0.54487395
0002c0 cd c4 8a 3d 00 1f f6 3d 97 c2 81 3e f1 ed b0 3d
       0.06775818 0.120176315 0.25343773 0.08639134
0002d0 88 7f 9b 3e 6c 4d 8b 3d de 53 61 3f db bf 73 be
       0.30370736 0.068018764 0.88018596 -0.23803656
0002e0 a9 23 26 be e3 ac 19 bd 88 d7 78 be e5 13 24 be
       -0.16224541 -0.037518393 -0.24300969 -0.16023214
0002f0 b4 82 86 be e6 90 88 3d e0 6c a7 be ec 30 fd 3d
       -0.26271594 0.06668262 -0.32700253 0.12362847
000300 a0 f0 f2 3e 45 72 9d be c5 49 8e 3e 67 9b c6 3a
       0.47449207 -0.30751243 0.27790657 0.0015152515
000310 bd d2 87 3e f3 f4 a7 be d0 8b 03 be 12 e4 09 be
       0.26527968 -0.3280407 -0.12846303 -0.13465908
000320 bd 27 a7 bd 6d a8 d2 bd 87 8d 3b be 6c a6 01 be
       -0.08161876 -0.10286031 -0.18315707 -0.12661141
000330 23 60 8b bd 66 26 1d 3e 07 bc 7c bd e2 97 01 be
       -0.06805446 0.15346679 -0.061702754 -0.12655595
000340 58 58 db 3d 6c bb e9 3b d5 55 0b bd 1e ac 3c 3d
       0.107102096 0.007132938 -0.034017403 0.04606258
000350 0c bf 14 3d 5d d1 de bd 87 d7 2f 3d d0 32 c0 bd
       0.03631501 -0.108797766 0.042930152 -0.09384692
000360 e3 07 81 3e 89 96 49 3e 40 bb b5 3d 35 a7 16 3d
       0.2520133 0.19686331 0.08873606 0.036780555
000370 58 86 90 3d 82 40 02 3c 2e 16 73 be d1 c6 50 bd
       0.07056874 0.00794995 -0.2373893 -0.050970856
000380 66 25 28 3e 53 70 2d be d6 eb 04 3e 9c 63 2d 3e
       0.16420516 -0.1693738 0.1298059 0.16932529
000390 27 13 82 be c4 8c 21 be 70 01 e7 be 1d d7 af be
       -0.25405237 -0.15776354 -0.45118284 -0.34343806
0003a0 e4 4b 88 be ae 05 14 be 2b ec 8f 3e 39 d9 6a 3e
       -0.266204 -0.14455292 0.2810987 0.22934426
0003b0 e7 0d 4e be 48 d0 c0 3e a5 2a 75 3d f7 ab 25 3f
       -0.20122491 0.37658906 0.059855122 0.6471552
0003c0 44 17 12 3e 88 d3 31 3f 17 1d 94 3e 82 88 21 3d
       0.14266688 0.69463396 0.28928444 0.039436825
0003d0 06 15 45 be 5e a0 90 be c5 cb c1 be 7c 42 83 3e
       -0.19246301 -0.2824735 -0.37850776 0.2563666
0003e0 43 ac 31 3e 68 e0 10 bf ac a8 74 bf 3c ea 09 bf
       0.17350869 -0.56592417 -0.9556987 -0.5387304
0003f0 eb 12 ea bb 18 75 ce bc ab 18 7d bc 34 9f 0a ba
       -0.0071433685 -0.025202319 -0.015447776 -0.00052880053

module.cnn.6.bias f4 [64]
000000 20 37 e8 bd 5e b6 8d bd dc e8 23 3e 2e 52 59 3d
       -0.11338639 -0.069195494 0.16006798 0.05305689
000010 61 22 5d be 3c 37 80 bd f5 0c b5 be b3 83 e0 be
       -0.21595146 -0.06260535 -0.35361448 -0.4385048
000020 ba aa aa be e7 5c 60 be 21 84 03 be af 52 97 be
       -0.3333338 -0.2191044 -0.12843372 -0.2955527
000030 a6 4d 97 be 13 2e 48 3d 1e 34 27 bd 80 18 07 be
       -0.2955143 0.048872065 -0.040821187 -0.1319294
000040 06 d7 ec be 45 9f 8a bd c6 64 87 bd 6a a5 53 bf
       -0.462578 -0.067686595 -0.06611018 -0.82674277
000050 c1 25 03 bf b8 60 6e be 44 f7 a5 3e 22 30 a6 bc
       -0.5122948 -0.23279083 0.3241521 -0.020286623
000060 ed e2 15 3d e0 41 bc 3d d1 bf d5 3d 87 a9 04 be
       0.036593366 0.09192252 0.10436977 -0.12955295
000070 0f 2d fe 3c c1 e3 a2 b8 74 10 48 be 51 14 4e 3c
       0.031027345 -7.7671844e-05 -0.19537526 0.012578086
000080 17 ea 1e 3e 38 9e af bc 69 34 06 bf 8a 65 03 be
       0.15518986 -0.02143775 -0.5242372 -0.12831703
000090 61 ee b9 be 48 0f 52 bc 20 74 db bd 84 07 ba be
       -0.3631468 -0.012821026 -0.107155085 -0.3633386
0000a0 79 d2 1f bd 93 8a 0a 3e dc 7a 44 3c 32 4d 34 be
       -0.03901908 0.13529424 0.011992183 -0.17607573
0000b0 ea 13 db be 61 53 31 be 2a a0 39 3e f0 88 d4 bc
       -0.4278863 -0.17316963 0.18127504 -0.025944203
0000c0 dd ba 72 bd 0a 8f 2c bf 36 e5 e3 3d c4 38 00 be
       -0.059260238 -0.6740576 0.11127703 -0.12521654
0000d0 5c 30 c0 be d8 87 79 be a6 1d 49 be 69 02 88 3e
       -0.37536895 -0.24368227 -0.19640216 0.2656434
0000e0 c8 41 c9 be 9f a4 b8 be 0f bb bf bd 29 a8 8e be
       -0.39308 -0.36063096 -0.093618505 -0.2786267
0000f0 aa d5 20 be 12 c8 a0 bd 35 f3 e7 bc bf 35 00 bf
       -0.15706506 -0.078506604 -0.028314212 -0.5008201

module.fc.0.weight f4 [5, 67]
000000 0f d4 13 be a9 2a 33 be d1 58 b2 bb b9 d4 2b be
       -0.14436363 -0.17496742 -0.0054427166 -0.16780366
000010 cd 91 84 bc ab 55 8e be 5f 64 87 3e e9 83 e9 3d
       -0.016182804 -0.27799734 0.26443765 0.11402113
000020 2c 8d 9c bd 73 3d 01 be 5e aa 43 be 2a fc cc bd
       -0.07644114 -0.12621097 -0.19107959 -0.10009034
000030 59 64 71 be 54 29 fa 3d 80 95 71 bb 31 88 6c 3d
       -0.23573436 0.12214914 -0.003686279 0.05774707
000040 19 28 a9 be 74 32 0e 3d 5a b2 11 bd fc 16 ad 3d
       -0.33038405 0.034716085 -0.03557048 0.084516495
000050 9f c8 7d be c9 b1 16 be 4f 0b aa 3c 17 9e 95 bc
       -0.24783562 -0.14716257 0.020757345 -0.01826386
000060 e6 3e 11 3e ec 26 18 bd f0 10 6d be 8e 16 6e be
       0.1418415 -0.037146494 -0.23150992 -0.23250791
000070 7d 5d cd 3d aa c0 74 3d 47 25 fb 3d 6e 23 99 bc
       0.10027597 0.05975405 0.122629695 -0.018693652
000080 45 24 15 be 38 09 74 bd 55 de 0d 3e b2 fc 10 bd
       -0.14564617 -0.059579104 0.13854344 -0.03539724
000090 4d bc ab 3d de 80 1c be 0a 30 2f be 50 3e 41 3e
       0.08385525 -0.15283534 -0.17108169 0.18871427
0000a0 99 94 0a bb 11 4f 30 3e 2e b4 e0 bd 3a ac 55 3e
       -0.00211457 0.17217661 -0.109718665 0.2086648
0000b0 ab e0 09 be 1a de 9d bc 9d 7b e5 bd bf 05 98 3d
       -0.1346461 -0.019270945 -0.11205218 0.07422971
0000c0 90 8d e5 bc 5f 60 15 3d 80 76 34 bd 18 b5 3f be
       -0.028021604 0.03646886 -0.044058323 -0.18721426
0000d0 f6 4c be bc bf fa be bc 68 2a 1f bd 66 66 d6 bd
       -0.023230057 -0.023312924 -0.0388588 -0.1046875
0000e0 6c 6f 1f be 21 cc 85 be b7 95 14 bd de ac 7e bd
       -0.15569848 -0.261323 -0.03627559 -0.062176578
0000f0 44 be 06 3e 33 bd c3 bd 51 fd 7f bd ee b7 2d be
       0.13158518 -0.09557571 -0.06249744 -0.16964695
000100 62 bd 51 be 86 f1 5e bf ef a2 52 3f 0b 76 5f 3e
       -0.204824 -0.87087286 0.82279867 0.21822374
000110 33 b8 78 3c f7 bb 2e 3e cf a3 0e be 99 f5 8d bc
       0.015180635 0.1706389 -0.13929676 -0.017329024
000120 01 64 bb 3d 3e 98 7f 3d 0f b1 59 3c 44 3d 34 be
       0.091499336 0.06240105 0.013286843 -0.17601496
000130 8d 1e 12 be 56 59 b8 bd 7a 89 e1 ba 66 3b 8d bd
       -0.14269467 -0.090014145 -0.0017207109 -0.06896095
000140 d7 c5 38 3d 1f 16 0f 3c bb 53 51 3d 5c 90 1e 3e
       0.04511055 0.008733301 0.051105242 0.15484756
000150 b4 50 9c bd ad 19 68 bd b2 7d 74 be 28 2f ab 3d
       -0.076325804 -0.05666511 -0.23876074 0.08358604
000160 2d 5b 66 3e 4a 80 2a 3e 01 f9 12 3c 29 14 74 3c
       0.22495718 0.16650501 0.0089705 0.014897385
000170 ae 3a f5 bd 65 c7 29 be 95 91 05 be 5d be bc bd
       -0.11974083 -0.16579969 -0.13043816 -0.092159964
000180 6e da 9c 3b d8 a6 b6 3d 10 e5 40 be bd 12 dc 3d
       0.004786781 0.08918542 -0.1883738 0.107457615
000190 26 59 a2 3c 44 0c 92 bd d8 e1 1f be 14 a5 81 bd
       0.0198179 -0.07131246 -0.15613496 -0.06330314
0001a0 8c f9 75 bd cc cb 1e bc 56 0e e5 3d e6 ad 32 be
       -0.06005244 -0.009692144 0.11184375 -0.1744915
0001b0 28 2c b1 3d 88 28 b2 bd 3a 3e b0 bd 15 1a 24 be
       0.08651 -0.08699137 -0.08605619 -0.16025575
0001c0 a5 bd 4a bc ba 12 b7 3d ab af 4f 3d d2 53 a3 3c
       -0.012374316 0.08939119 0.05070464 0.01993743
0001d0 37 03 d8 bd 20 d0 fe bd 5d 71 5f bc 44 88 10 be
       -0.10547488 -0.124420404 -0.013637868 -0.14114481
0001e0 16 8c 25 bd 80 c5 86 be b2 b1 27 be 26 ac cb be
       -0.0404168 -0.26322556 -0.16376379 -0.39779776
0001f0 37 98 05 be 76 43 b0 3c 66 3a bf bb c2 b7 b0 bb
       -0.13046347 0.021516543 -0.005835819 -0.0053929994
000200 93 77 36 be b1 d8 94 bc a4 c1 96 bc 4e 77 c8 3d
       -0.17819051 -0.018169733 -0.018402882 0.097883806
000210 e7 3c 94 bf 7d ec 03 3f fa 97 12 3c b8 c5 c8 3c
       -1.1581086 0.5153273 0.008947367 0.024508342
000220 e1 da bb 3d 21 15 7a 3d b3 13 09 3c 2d c4 c9 3d
       0.09172607 0.061055306 0.008366513 0.09851871
000230 0f 53 d1 bd f4 07 b7 3c fb f9 28 3c b4 c8 0c be
       -0.1022092 0.02234266 0.010313506 -0.13748437
000240 48 e7 f9 3d 13 c9 1b bd 07 1a 0f bd cc 3d a6 bd
       0.122023165 -0.038033556 -0.03493693 -0.081172556
000250 9f 34 85 bb 99 3c 2f 3c 08 53 bb bd 2d 39 75 3d
       -0.004065111 0.0106956 -0.09146696 0.05986898
000260 6e 2d 14 bd f9 23 5e be 2f 7a cc bd 38 7a 25 3d
       -0.036176138 -0.2169341 -0.09984242 0.04039976
000270 c8 2a 29 3e 10 b0 0e 3d a7 03 a8 bd e8 e2 48 3d
       0.16520226 0.034835875 -0.08203822 0.04904452
000280 ff d6 b8 bd ea d0 2e 3d a8 25 34 be 1f 1c bf bc
       -0.09025382 0.042679705 -0.1759249 -0.023328839
000290 89 ae 82 bd a0 14 c2 bd 22 72 5b 3d 6d 40 06 bd
       -0.06380946 -0.0947659 0.053575642 -0.032776285
0002a0 71 fc 03 bd f3 3c 07 3e 52 03 d3 bd 52 16 a4 3d
       -0.03222317 0.13206844 -0.10303368 0.0801207
0002b0 47 e5 c1 3d 1a 98 8d 3d ec 5b 21 bd c1 de 5d bc
       0.09467559 0.06913777 -0.039394304 -0.013541878
0002c0 14 9f cc 3c 3c 4d 32 be d1 cf 0f 3d 62 27 51 bd
       0.024978198 -0.17412275 0.0351103 -0.05106295
0002d0 53 fd 87 3d 57 03 31 3d 25 d8 fb 3d dd 8e f2 bb
       0.06640115 0.043216076 0.12297086 -0.0074022845
0002e0 6c fa cf 3c 38 d0 96 3d 8c 28 f5 bd e3 de 74 bd
       0.025387965 0.07363933 -0.11970624 -0.059782874
0002f0 5e 40 0e bd 81 e0 36 be 37 59 78 bb 51 87 0a 3e
       -0.034729354 -0.17859079 -0.0037894973 0.13528182
000300 e5 f1 90 bd 43 92 26 3d 35 a0 ce bd 56 e8 4e ba
       -0.07077388 0.04066683 -0.10089151 -0.0007892897
000310 c9 c8 77 bd 81 eb 47 be cb fe 9f 3e 5f 52 ee be
       -0.060494218 -0.19523431 0.3124908 -0.4654722
000320 dd 18 16 bf bf a3 33 bc 1b cb 88 bd 54 3f 49 be
       -0.5863169 -0.010964333 -0.06679364 -0.19653064
000330 96 5a 7d 3d 73 d2 60 3d 77 ad 2b 3d be 94 fb bd
       0.061853968 0.0548882 0.041913476 -0.1228423
000340 e6 9c 8b bd 85 bc 01 be 77 4c 3b 3e 48 bc 3f bd
       -0.068170354 -0.1266957 0.18290888 -0.04681042
000350 93 95 01 be e5 e3 60 3e 15 60 57 bd 3d 6a 88 3c
       -0.12654714 0.21961935 -0.052581865 0.01665222
000360 b0 e2 a0 3d a1 3f 53 be 1d 81 02 bc df 79 90 3d
       0.07855737 -0.20629741 -0.007965353 0.07054495
000370 ea 5e d4 be 5b 97 36 3e 20 2d d9 bc f5 e5 dc 3c
       -0.41478664 0.17831175 -0.026510775 0.02696512
000380 55 b2 c2 bc 2a 2c bf bd 38 ba aa bd d2 64 42 3e
       -0.023766676 -0.093345955 -0.083363 0.18983772
000390 a5 26 f6 bb fa 6f 38 be 92 23 72 bd c8 60 3e be
       -0.007511931 -0.18011466 -0.059115954 -0.18591607
0003a0 a4 1a bb bd bb c7 50 3d 85 8f 23 bd b9 16 48 be
       -0.09135941 0.050971728 -0.039931793 -0.19539918
0003b0 f3 a4 8f bd b0 ef af bd 29 23 9c 3a 44 e5 06 be
       -0.070138834 -0.08590639 0.0011912334 -0.13173395
0003c0 1c ae 7a bd 66 a1 8a bd 9f b4 c7 bd fd 57 42 3e
       -0.0612012 -0.067690656 -0.097512476 0.18978877
0003d0 5a bd e4 bd 5d 01 0a be bb ad 58 bd 7a b0 0a 3e
       -0.111689284 -0.13477083 -0.052900057 0.13543883
0003e0 25 3f 14 3e 57 a5 3f be 9d 04 d4 bc a2 bd 2c 3e
       0.14477213 -0.18715416 -0.025881106 0.16869214
0003f0 26 ab e0 3d 69 85 99 bd 3b 57 1a 3d 72 b4 16 3e
       0.10970144 -0.07496149 0.037680846 0.14717272

module.fc.0.bias f4 [5]
000000 54 b9 7d 3e 1e 03 8c bb 40 a8 fd bc d8 ca f3 bd
       0.24777728 -0.0042728325 -0.030964017 -0.11903924
000010 af e4 1f 3d
       0.03903645
