Sem 2/Intelligent Robots/Assignments/Lab 2/BehaviourCloning/Checkpoints/adam_2_extra_conv_e9.pt (torch, 378083 bytes, 10 tensors)

module.cnn.0.weight f4 [32, 3, 3, 3]
0	0x3e840c88	0.2579081
1	0x3e9b9bec	0.30392396
2	0x3e5b006e	0.21386883
3	0x3ef71150	0.48255396
4	0x3f10994b	0.56483907
5	0x3edd55e9	0.43229607
6	0x3ec891bd	0.3917369
7	0x3f010a8d	0.50406724
8	0x3ec798fa	0.389839
9	0x3cdef6de	0.027217325
10	0x3d9d24b0	0.07673013
11	0x3e384856	0.17996344
12	0x3d98ce20	0.0746119
13	0x3d07b7b1	0.033134166
14	0x3dbc0778	0.09181112
15	0xbd3139df	-0.04326808
16	0xbdc4010a	-0.09570511
17	0xbe1a4f5f	-0.1506934
18	0xbe91eb2b	-0.2849973
19	0xbea18815	-0.31549135
20	0xbe8255ea	-0.25456172
21	0xbe96c8e9	-0.29450157
22	0xbe9dcd57	-0.30820724
23	0xbe79e7db	-0.24404852
24	0xbea363c8	-0.31912065
25	0xbec354c0	-0.38150597
26	0xbed74c1b	-0.4205025
27	0x3dd2867a	0.102795556
28	0xbdf38197	-0.11889952
29	0xbe536332	-0.20643309
30	0x3dcd2aff	0.100179665
31	0xbed39178	-0.4132192
32	0xbc47f884	-0.012205247
33	0xbdfd36d4	-0.12363973
34	0xbed54d36	-0.4166047
35	0x3e16ecdc	0.14738792
36	0x3e4d93cd	0.20075913
37	0x3db4d81d	0.08830283
38	0x3e2a4c55	0.16630681
39	0x3e81ace2	0.25327212
40	0x3d73345e	0.059376113
41	0x3e8dbb1e	0.27681822
42	0x3e9c55ee	0.3053431
43	0x3dd282a6	0.102788255
44	0x3ef307bd	0.4746684
45	0xbdae19df	-0.08501028
46	0xbe3a08a1	-0.18167354
47	0xbda7c724	-0.0819228
48	0x3d9b0a8b	0.0757037
49	0xbeadefab	-0.33971915
50	0xbdd64656	-0.10462634
51	0xbdcf9f93	-0.10137858
52	0xbedcf70f	-0.4315724
53	0x3e0837c6	0.13302526
54	0x3d0603af	0.032718357
55	0x3ea024fa	0.3127821
56	0x3e998545	0.2998449
57	0xbbdb8506	-0.0066992072
58	0x3e1d79b9	0.15378465
59	0x3e2206bb	0.1582288
60	0x3d815301	0.0631466
61	0x3d946aff	0.072469704
62	0x3e475c67	0.19468842
63	0xbdd6037d	-0.10449884
64	0x3e038a45	0.12845714
65	0x3cfcaae6	0.03084321
66	0x3e7a0ff7	0.24420153
67	0x3d01ebae	0.031718902
68	0x3d90b35d	0.07065461
69	0x3e20fb5d	0.15720887
70	0x3e84311c	0.25818717
71	0x3e2df536	0.16988072
72	0xbe141bf6	-0.14463791
73	0xbe780c75	-0.24223502
74	0xbeb45097	-0.35217735
75	0xbcaa3915	-0.020779172
76	0xbdef01f3	-0.11670294
77	0xbd17eaa0	-0.03708899
78	0x3e609852	0.21933106
79	0x3e4e34c6	0.20137319
80	0xbdc35c58	-0.095390975
81	0xbd8cd8f2	-0.068773165
82	0xbd83d0ea	-0.064363316
83	0xbe631c61	-0.22178794
84	0x3e29bce7	0.16575967
85	0x3e3e400a	0.18579116
86	0x3e3543af	0.177016
87	0x3da9d54f	0.082926385
88	0x3ddee94b	0.10884341
89	0x3e4ee8f8	0.20206058
90	0x3e469b38	0.19395149
91	0x3dd4215d	0.10357926
92	0x3de514b9	0.11185593
93	0x3e202988	0.15640843
94	0x3e3a4c66	0.18193206
95	0x3dcb83e4	0.099372655
96	0x3e27d55a	0.16389981
97	0x3dc57f26	0.09643392
98	0x3e00c3c6	0.12574682
99	0xbe0b729d	-0.1361794
100	0xbdd46f5e	-0.10372804
101	0xbd7d0d7b	-0.061780434
102	0xbe8642d6	-0.26222867
103	0xbde9bd55	-0.11413065
104	0xbe07ac8b	-0.13249414
105	0xbec9fca7	-0.3945057
106	0xbe92183f	-0.28534123
107	0xbe785a98	-0.24253309
108	0x3df8174d	0.12113819
109	0x3df66766	0.120314404
110	0x3e6eb6d9	0.23311938
111	0x3e4a25a8	0.19740927
112	0x3e1af3ed	0.15132113
113	0x3dce300d	0.10067759
114	0x3e1e6aa5	0.15470369
115	0x3e17b681	0.14815713
116	0x3e64bcc9	0.22337641
117	0xbee4101f	-0.4454355
118	0xbed1d396	-0.4098174
119	0xbf0198bf	-0.506237
120	0xbec213ee	-0.3790583
121	0xbee90bbd	-0.45516768
122	0xbec39946	-0.38202876
123	0xbeb94a39	-0.3618944
124	0xbed64454	-0.41849005
125	0xbeca7088	-0.3953898
126	0x3e6fb069	0.23407139
127	0x3e82adb1	0.2552314
128	0x3e9bf0ec	0.30457246
129	0x3e727383	0.23676877
130	0x3ec0a12d	0.37622967
131	0x3eb0db36	0.34542245
132	0x3e588136	0.2114304
133	0x3ec82573	0.3909107
134	0x3ea0aecb	0.31383356
135	0x3be0d52c	0.0068613496
136	0xbdb31e6a	-0.087460354
137	0xbd1aec42	-0.03782297
138	0x3eccbbfd	0.39987174
139	0x3d0dbaf9	0.03460214
140	0xbe40c69f	-0.18825768
141	0xbddf44eb	-0.10901817
142	0xbe0208fe	-0.12698743
143	0xbe6de157	-0.23230492
144	0xbdebf280	-0.115208626
145	0x3d11d8b6	0.035607062
146	0x3e2d9f6a	0.16955343
147	0x3eaa4199	0.33253172
148	0x3e934e07	0.28770468
149	0xbe1c4bf3	-0.15263347
150	0x3c98092a	0.018559057
151	0xbdec42f8	-0.11536211
152	0xbd258197	-0.04040679
153	0xbe8df78c	-0.27727926
154	0xba51af88	-0.00079988735
155	0xbe29c185	-0.16577728
156	0x3e77cf60	0.24200201
157	0x3e0a681a	0.13516274
158	0xbe007263	-0.12543635
159	0xbdc788be	-0.097428784
160	0xbd8cbb83	-0.068717025
161	0xbd91cccc	-0.0711914
162	0x3c5834c3	0.013196173
163	0xbe03692c	-0.12833089
164	0x3beac704	0.007164838
165	0xbcc5cb54	-0.024144806
166	0x3d7adfae	0.061248474
167	0x3e1ded84	0.15422636
168	0x3e06feb4	0.13183099
169	0x3d9379bf	0.072009556
170	0xbd1539e3	-0.03643216
171	0x3d543cf2	0.051815934
172	0x3e0e8d86	0.13921174
173	0xbbb2718e	-0.0054456657
174	0xbdc431b2	-0.09579791
175	0x3d41f578	0.047353238
176	0xbd9dc778	-0.07704061
177	0x3e312903	0.17300801
178	0x3e5c5d27	0.2151991
179	0xbd88ff79	-0.066893525
180	0xbdd3f21c	-0.10348913
181	0xbd924f21	-0.07143999
182	0xbe2e0677	-0.16994654
183	0xbe80d1a4	-0.25159943
184	0xbd539d1a	-0.051663496
185	0xbdc61c15	-0.09673325
186	0x3d78f500	0.060780525
187	0xbd18973e	-0.03725361
188	0xbdc27432	-0.09494819
189	0xbd527365	-0.05137958
190	0xbdcce96d	-0.1000546
191	0xbe00f360	-0.1259284
192	0x3d7ac540	0.06122327
193	0x3d7248c8	0.05915144
194	0xbdd57e93	-0.10424533
195	0x3e07bd29	0.13255753
196	0x3e165b76	0.14683327
197	0x3e0474ee	0.1293523
198	0x3d8984e3	0.06714799
199	0x3d971691	0.07377351
200	0xbd36eadf	-0.044657584
201	0xbdd08d39	-0.10183186
202	0x3c36359c	0.01112118
203	0xbcf5f47e	-0.03002381
204	0xbcb62489	-0.022234218
205	0xbdae019b	-0.084964
206	0xbd2600b0	-0.040528
207	0xbd35f1ac	-0.04441993
208	0xbc499e8b	-0.012305866
209	0x3d71fa96	0.059076868
210	0x3d753fab	0.05987517
211	0x3b8de28c	0.004329985
212	0xbe266b64	-0.16251904
213	0xbd106cd8	-0.03526005
214	0xbc7c75a0	-0.015408903
215	0x3e0bece6	0.13664588
216	0x3dcafcf5	0.09911529
217	0x3e1d70c7	0.15375052
218	0x3e344775	0.17605384
219	0xbe127c91	-0.14305331
220	0xbe244ade	-0.16044185
221	0x3da7c6ce	0.08192216
222	0xbea805d8	-0.32816958
223	0xbe322da2	-0.1740022
224	0xbe7dba19	-0.24778022
225	0x3e858ba7	0.2608311
226	0x3e9f42fe	0.31105798
227	0x3e059518	0.13045156
228	0xbdc31670	-0.09525764
229	0xbe06920a	-0.13141647
230	0xbd3d7914	-0.046258047
231	0x3df31200	0.118686676
232	0x3e2cb1b5	0.16864665
233	0x3e5c4b28	0.21513045
234	0x3e89fcf0	0.26950788
235	0x3e804de5	0.2505943
236	0x3c2e6f6b	0.010646681
237	0xbeaa8b20	-0.3330927
238	0xbecbbdbe	-0.397932
239	0xbeaf4584	-0.34232724
240	0xbddf38e8	-0.10899526
241	0xbe234561	-0.15944435
242	0xbde968d1	-0.11396945
243	0xbe7dc267	-0.2478119
244	0xbdc790a8	-0.09744388
245	0xbe0dd7f8	-0.13851917
246	0xbe101594	-0.14070731
247	0xbdcba24f	-0.09943067
248	0xbd4d8d8a	-0.05018381
249	0xbdb39bbf	-0.087699406
250	0xbe36b420	-0.1784215
251	0xbd65b38d	-0.056079436
252	0x3e0f0c3b	0.1396951
253	0x3d15695b	0.036477428
254	0x3df75d57	0.1207835
255	0x3d943cd4	0.072381645

module.cnn.0.bias f4 [32]
0	0xbe09421c	-0.13404125
1	0xbd8ec867	-0.069718175
2	0xbf7954d7	-0.9739508
3	0xbf711261	-0.9416867
4	0xbe54695e	-0.2074332
5	0xbf5fcd11	-0.8742228
6	0xbf7b7a16	-0.98233163
7	0xbf5fe974	-0.87465596
8	0xbf6da58e	-0.9283074
9	0xbfc6e992	-1.554003
10	0xbe964ab0	-0.29353857
11	0xbf6a1d98	-0.91451406
12	0xbf3fd6fd	-0.7493742
13	0xbfa0ce47	-1.2562951
14	0xbe9e1e7d	-0.30882636
15	0xbf536eef	-0.82591146
16	0xbf16b1cd	-0.5886505
17	0x3e430bd3	0.1904748
18	0xbf2856ff	-0.65757746
19	0xbf2462e3	-0.6421339
20	0xbf46efc0	-0.7770958
21	0xbf5c000c	-0.8593757
22	0xbef88d2b	-0.48545203
23	0xbf23fe75	-0.64060146
24	0xbfa0f657	-1.2575177
25	0xbedc3214	-0.43006957
26	0xbf952e4d	-1.1654755
27	0xbfa11f9f	-1.2587775
28	0xbf65b883	-0.8973467
29	0xbf3f1e03	-0.7465517
30	0xbf73145e	-0.9495295
31	0xbf9fd819	-1.2487823

module.cnn.2.weight f4 [64, 32, 3, 3]
0	0x3d46ae85	0.04850628
1	0xbd406fe6	-0.046981715
2	0xbe73912c	-0.23785847
3	0xbd2e03cd	-0.042484093
4	0xbe02807b	-0.12744324
5	0xbdc7a656	-0.09748523
6	0x3cedf665	0.029048154
7	0xbd97686b	-0.07392963
8	0xbd587f4b	-0.05285577
9	0xbda757bf	-0.08171033
10	0xbe1530e9	-0.14569439
11	0xbdd33a91	-0.10313905
12	0xbdfd4325	-0.123663224
13	0xbe3b2fac	-0.18279904
14	0xbe3614da	-0.17781392
15	0x3c8b0da2	0.016974274
16	0xbd482d23	-0.04887117
17	0xbe1d59bd	-0.15366264
18	0xbd16b2c3	-0.036791574
19	0xbe228d21	-0.15874149
20	0xbe60b25f	-0.21943043
21	0xbe085f23	-0.13317542
22	0xbdda4690	-0.1065799
23	0xbdfea4ed	-0.12433801
24	0xbe66da81	-0.2254429
25	0xbdb63bb2	-0.08898105
26	0xbde10c51	-0.10988677
27	0xbdeef8b8	-0.11668533
28	0x3b04f1b6	0.0020285673
29	0xbe61602f	-0.22009347
30	0xbd8c5c8f	-0.06853592
31	0xbe59d53b	-0.21272747
32	0xbe267405	-0.16255195
33	0xbdbc2174	-0.09186068
34	0xbe1a4abe	-0.15067574
35	0xbd515198	-0.051103204
36	0xbda5f2fb	-0.081029855
37	0xbdc95d18	-0.09832209
38	0xbd70e5ed	-0.058813024
39	0xbd8b4490	-0.06800187
40	0xbd368b79	-0.044566605
41	0xbd74ded4	-0.059782818
42	0xbce23db8	-0.02761732
43	0xbd93da20	-0.072193384
44	0xbde63089	-0.11239726
45	0xbe4367b6	-0.19082531
46	0xbe246430	-0.16053843
47	0xbe5780e0	-0.21045256
48	0xbdd2d90d	-0.102953054
49	0xbde73310	-0.11289036
50	0xbe4a6ce2	-0.19768098
51	0xbcf1c876	-0.029514533
52	0xbe1ae88d	-0.15127774
53	0xbcb05135	-0.021523098
54	0x3992d319	0.0002800457
55	0xbc4d27b3	-0.012521672
56	0x3c1e783c	0.009672221
57	0x3c9ca3d0	0.01912108
58	0x3b9ab3c7	0.004721138
59	0xbbe2400a	-0.0069046067
60	0x3c9843b9	0.01858698
61	0x3dbc008f	0.09179794
62	0x3d839818	0.06425494
63	0xbe19630b	-0.14979188
64	0xbd9fddb9	-0.07805962
65	0xbdab3b02	-0.08360864
66	0xbd1b0960	-0.037850738
67	0xbd0382a8	-0.032107025
68	0xbd85694c	-0.065142244
69	0xbc65c8a6	-0.014024889
70	0xbd7ef982	-0.062249668
71	0xbd30e81f	-0.043190118
72	0xbe327384	-0.17426878
73	0xbe0f79dc	-0.1401133
74	0xbde073a3	-0.10959556
75	0xbc60be05	-0.013717179
76	0xbdf9a7f0	-0.12190235
77	0xbe206774	-0.15664464
78	0xbe2a1655	-0.16610081
79	0xbe1d2d5f	-0.15349339
80	0xbe0cd4d2	-0.1375306
81	0xbe4e3c43	-0.20140176
82	0x3c8e2f6e	0.0173566
83	0xbdc584a8	-0.09644443
84	0xbe0d0fca	-0.13775554
85	0xbd41d3a4	-0.047320977
86	0xbd8fbb24	-0.07018116
87	0xbcd880cf	-0.026428608
88	0xbe00f62d	-0.12593909
89	0xbd5d404d	-0.0540164
90	0xbd3b797d	-0.045770157
91	0xbe25e6e6	-0.16201362
92	0xbe26e502	-0.16298297
93	0x3ce3c08d	0.027801776
94	0xbe1ae33d	-0.15125747
95	0xbe6b42c7	-0.22974692
96	0xbca97a33	-0.020688152
97	0xbe28ed9e	-0.16496894
98	0xbdb062ba	-0.086125806
99	0xbdd7f11f	-0.10544037
100	0xbd981d1c	-0.07427427
101	0x3c9e4814	0.019321479
102	0xbded8088	-0.11596781
103	0xbd32cc3e	-0.04365181
104	0xbd30506c	-0.043045446
105	0xbd45e86f	-0.04831737
106	0xbc273562	-0.010205599
107	0xbdc3a19f	-0.09552311
108	0xbdbf7c63	-0.09349897
109	0xbde9a8f2	-0.11409177
110	0xbe8b1fd5	-0.27172723
111	0xbd1444e3	-0.036198508
112	0xbcca663d	-0.024706954
113	0xbe2eca17	-0.17069279
114	0x3db64a70	0.089009166
115	0xbd0db57a	-0.034596898
116	0xbcd76d8f	-0.026297359
117	0xbdd09393	-0.101843975
118	0xbe1cab27	-0.15299664
119	0xbe0240da	-0.12720051
120	0xbd853bd5	-0.06505553
121	0xbd8176c0	-0.06321478
122	0xbd840a95	-0.06447331
123	0xbbd44744	-0.006478222
124	0xbd0ff7c1	-0.035148386
125	0xbd80dd5a	-0.062922195
126	0xbe198548	-0.14992249
127	0xbe3770ac	-0.17914075
128	0xbce39167	-0.027779294
129	0xbda6982e	-0.08134495
130	0xbd4f09f7	-0.050546613
131	0xbca0f539	-0.019648181
132	0xbd6182be	-0.055056326
133	0xbd931a41	-0.07182742
134	0xbe209ea5	-0.15685518
135	0xbdcbbd75	-0.099482454
136	0xbc11a47f	-0.008889317
137	0xbe46bc9c	-0.19407886
138	0xbdc72918	-0.09724635
139	0x3dd0db08	0.10198027
140	0xbdaeacbb	-0.085290395
141	0x3c893d6d	0.016752923
142	0xbd2871ee	-0.041124277
143	0x3cf891ca	0.030342955
144	0xbdae720a	-0.08517845
145	0xbe154509	-0.14577116
146	0xbe6ba25c	-0.23011154
147	0xbd671079	-0.056412194
148	0xbdd9e66b	-0.10639652
149	0xbe17eb09	-0.14835753
150	0xbd645fa3	-0.05575527
151	0xbdc50393	-0.09619822
152	0xbe0ea0cf	-0.13928531
153	0xbe649c13	-0.22325163
154	0xbe052b03	-0.13004689
155	0xbe322019	-0.17395057
156	0xbd85605a	-0.06512518
157	0xbda431ef	-0.080173366
158	0xbd3e193b	-0.04641078
159	0xbdb50833	-0.088394545
160	0xbe7ae4eb	-0.24501388
161	0xbe3f8914	-0.18704635
162	0xbe04ed63	-0.12981181
163	0xbdb16ae6	-0.086629674
164	0xbe521bc4	-0.20518404
165	0xbdc0cf98	-0.09414595
166	0xbe16c9e2	-0.1472545
167	0xbe33c3e4	-0.17555195
168	0xbd9321ea	-0.07184203
169	0xbd84cadc	-0.06484005
170	0xbde8a647	-0.1135984
171	0xbe26c01f	-0.16284226
172	0xbe17c4d4	-0.14821178
173	0xbd8e65d7	-0.06953018
174	0xbe0a43f9	-0.13502492
175	0xbe1e08d6	-0.15433058
176	0xbd4ff631	-0.050771896
177	0xbde5df01	-0.11224175
178	0xbe177958	-0.14792383
179	0xbdb27fe7	-0.08715802
180	0xbd92b566	-0.07163505
181	0xbda466aa	-0.08027394
182	0xbe079d67	-0.13243638
183	0xbdd94abf	-0.1060996
184	0xbe22c2f3	-0.1589468
185	0xbd901651	-0.070355065
186	0xbdfe54f0	-0.12418544
187	0xbd23b73e	-0.039969675
188	0x3c9db464	0.019251056
189	0xbd6d356b	-0.05791227
190	0xbe151dcf	-0.14562152
191	0xbe3fc683	-0.1872807
192	0xbe19ffc7	-0.15038978
193	0xbe152689	-0.14565481
194	0xbe24143e	-0.16023347
195	0x3b27b2e8	0.0025588814
196	0xbd9c9729	-0.07646019
197	0xbd105879	-0.035240624
198	0xbe7fa8b2	-0.24966696
199	0xbe1d1c85	-0.1534291
200	0xbe48d863	-0.19613795
201	0xbe7f6c7c	-0.24943727
202	0xbdad6bc8	-0.08467823
203	0xbddef6ab	-0.10886892
204	0xbdee5333	-0.11636963
205	0xbd6a0770	-0.057136
206	0xbdb3c5b0	-0.0877794
207	0xbd922807	-0.07136541
208	0xbe10430b	-0.14088075
209	0xbd12ceaa	-0.03584162
210	0x3e6d0b4e	0.23148844
211	0x3e30b84c	0.17257804
212	0xbe093503	-0.13399129
213	0x3da76419	0.08173389
214	0xbe036235	-0.12830432
215	0xbe570e49	-0.21001543
216	0xbdd89bee	-0.10576616
217	0xbcdc165e	-0.026866134
218	0xbe1e309c	-0.1544823
219	0xbdcab1c5	-0.09897188
220	0xbd9937c3	-0.07481339
221	0xbd8f09c5	-0.06984285
222	0xbdf659b7	-0.120288305
223	0xbd146d9b	-0.03623734
224	0xbdf180c5	-0.11792139
225	0xbe2091b1	-0.15680577
226	0xbdc1e668	-0.09467775
227	0xbe511db0	-0.20421481
228	0xbdaf8504	-0.085702926
229	0xbe1f6f6a	-0.15569845
230	0xbe0062b8	-0.12537658
231	0x3cb044cd	0.021517182
232	0xbdded0ff	-0.108797066
233	0xbdd1e8ed	-0.10249505
234	0xbe116ce5	-0.14201696
235	0xbd50ad9a	-0.05094681
236	0x3d64d8b9	0.055870745
237	0xbb84c5e6	-0.0040519116
238	0x3c8e578e	0.017375734
239	0xbd8abff5	-0.06774894
240	0xbd4a58e1	-0.049401168
241	0xbe7ef17c	-0.24896806
242	0xbd81991d	-0.06328032
243	0xbddfb8e1	-0.10923935
244	0xbdc7e11d	-0.09759734
245	0x3c4bdc73	0.012442696
246	0xbdd7e6d6	-0.10542075
247	0xbd5de861	-0.054176692
248	0x3d9bae08	0.07601553
249	0x3d0c08be	0.034188025
250	0x3d22d9cb	0.039758485
251	0xbdfbc52d	-0.12293468
252	0xbe0f3ef9	-0.13988866
253	0xbe021a45	-0.12705334
254	0xbe18cfea	-0.14923063
255	0xbd8c165e	-0.06840204

module.cnn.2.bias f4 [64]
0	0xbe598260	-0.2124114
1	0xbd99af37	-0.07504123
2	0xbdaf0298	-0.085454166
3	0xbe7ca71c	-0.24673122
4	0x3e552057	0.20813118
5	0xbe0ac451	-0.13551451
6	0xbdc435d7	-0.09580582
7	0xbe696797	-0.22793423
8	0x3fa14ab9	1.2600929
9	0xbecbf08e	-0.39831966
10	0xbe12f232	-0.14350203
11	0x3db50bc8	0.08840138
12	0x3e932ebb	0.2874659
13	0xbe08d120	-0.13361025
14	0xbdae7e5c	-0.08520195
15	0xbdee393e	-0.11632012
16	0xbe167661	-0.14693595
17	0x3d87db4d	0.06633625
18	0xbf116e99	-0.56809384
19	0xbcc8851e	-0.024477538
20	0xbeb791a6	-0.35853308
21	0xbe3f4346	-0.18678007
22	0xbd2bcfea	-0.04194633
23	0xbdb94fad	-0.090484
24	0xbe18c566	-0.14919052
25	0xbcff30f9	-0.031151282
26	0xbe7fc060	-0.24975729
27	0xbdf0fd79	-0.11767096
28	0xbde21ba4	-0.11040428
29	0xbced7999	-0.028988646
30	0xbf4567b2	-0.7711135
31	0xbe03733a	-0.12836924
32	0xbd9953bf	-0.074866764
33	0xbd55aa4b	-0.052164357
34	0xbe5c377f	-0.21505545
35	0xbdd5996f	-0.10429656
36	0xbe88f4f4	-0.26749384
37	0xbe101024	-0.14068657
38	0xbe277a23	-0.16355185
39	0xbe3a045f	-0.1816573
40	0xbd391fda	-0.04519639
41	0xbdd7647c	-0.10517213
42	0xbd48d382	-0.049029835
43	0xbe79ca02	-0.24393466
44	0xbd8356fe	-0.06413077
45	0xbea64912	-0.32477623
46	0xbe9e9436	-0.3097245
47	0xbdc40191	-0.09570611
48	0xbeaf9dfa	-0.34300214
49	0xbe54dd35	-0.20787509
50	0xbe17670b	-0.14785402
51	0xbe1877cb	-0.14889447
52	0xbe031a9a	-0.12803116
53	0xbe1db922	-0.15402654
54	0xbcf9b947	-0.030483855
55	0xbec239ee	-0.37934822
56	0x3ee26bd3	0.44222888
57	0xbe6b59b1	-0.22983433
58	0xbe097e26	-0.13427028
59	0xbed93339	-0.42421892
60	0xbe0034f1	-0.12520196
61	0x3f2f4b92	0.68474686
62	0xbe61c163	-0.22046427
63	0xbeff9271	-0.49916413

module.cnn.4.weight f4 [64, 64, 3, 3]
0	0xbd0cae85	-0.034346122
1	0x3aa0263a	0.0012218424
2	0xbcc777cc	-0.024349116
3	0xbda533e6	-0.080665395
4	0x3db2aad3	0.087239884
5	0xbdbf6bec	-0.09346756
6	0xbd0da745	-0.03458335
7	0x3d169f15	0.036772806
8	0x39b3df0b	0.0003430772
9	0xbd0d2c15	-0.034465868
10	0xbd1c1744	-0.038108125
11	0xbc2f0c7a	-0.010684127
12	0xbcfaa32b	-0.030595383
13	0xbd22d742	-0.039756067
14	0xbaf46a95	-0.0018647487
15	0xbcb9410e	-0.022614028
16	0xbc463885	-0.012098436
17	0xbc659304	-0.014012102
18	0xbd002012	-0.031280585
19	0xbce6d357	-0.028176947
20	0xbc0e410d	-0.0086825015
21	0xbd18c8b7	-0.03730079
22	0xbca3891c	-0.01996284
23	0xbc9a2480	-0.018816233
24	0xbcf2fd3f	-0.029661773
25	0x3bcbd497	0.006220411
26	0xbd191b99	-0.037379835
27	0xbd5dd338	-0.054156512
28	0xbe4b09d6	-0.19827971
29	0x3d419584	0.04726173
30	0xba041d29	-0.00050397456
31	0x3e337f40	0.17529011
32	0x3e5ac9cd	0.21366043
33	0x3dd5c538	0.10438007
34	0x3e419ef0	0.18908286
35	0xbdca31a1	-0.09872747
36	0xbeac4d77	-0.3365285
37	0xbde06340	-0.109564304
38	0xbd199ffe	-0.037506096
39	0x3e4be63d	0.19912048
40	0x3cb62d0a	0.022238273
41	0x3e5e8457	0.21730171
42	0x3e9d19f6	0.3068387
43	0xbf2c3161	-0.67262846
44	0xbe64ab2d	-0.22330923
45	0xbec1b903	-0.37836465
46	0xbea63d80	-0.32468796
47	0xbedbbbda	-0.42916757
48	0xbca6d12c	-0.020363413
49	0x3effd6a1	0.49968436
50	0x3e1b435e	0.15162417
51	0xbd814162	-0.06311299
52	0xbf062c01	-0.52410895
53	0x3e78b4e7	0.24287759
54	0xbcafa39e	-0.021440323
55	0xbbd2bfcc	-0.0064315554
56	0xbcaf1bcf	-0.021375565
57	0x3cd8159d	0.026377494
58	0xbcc5b987	-0.024136318
59	0xbcf1d078	-0.029518351
60	0xbd00cb28	-0.031443745
61	0xbd234f89	-0.039870773
62	0xbcc29807	-0.023754133
63	0x3bc8e82c	0.0061311927
64	0x3cda76b4	0.02666793
65	0xbc860582	-0.016360048
66	0xbde6ba8b	-0.11266049
67	0xbdd73db5	-0.105098166
68	0x3c5678b5	0.013090302
69	0xbd646dd9	-0.05576882
70	0xbe0445f1	-0.12917306
71	0xbd9eb7a9	-0.07749874
72	0xbea7b6e2	-0.32756716
73	0xbe0ab924	-0.13547188
74	0xbf433ac5	-0.7626155
75	0xbe15d607	-0.14632426
76	0xbdfe72ce	-0.12424241
77	0xbf14c9ab	-0.5812022
78	0xbd834a85	-0.06410698
79	0xbf5edf1b	-0.8705918
80	0x3dc920cf	0.09820711
81	0x3e14c5c6	0.1452857
82	0x3e3354f7	0.1751288
83	0xbd026128	-0.031830937
84	0xbf5ceef9	-0.86302143
85	0x3ecf0fed	0.40441838
86	0xbe639b37	-0.22227179
87	0xbec19d15	-0.37815157
88	0xbd1345c8	-0.03595522
89	0xbe72c654	-0.23708469
90	0x3c644116	0.013931533
91	0x3b6af541	0.003585175
92	0xbd12a62e	-0.035803013
93	0x3c9233f0	0.017847031
94	0xbcf58c36	-0.029974084
95	0x3b97c506	0.0046316413
96	0x3b6832fb	0.0035430777
97	0xb913e51c	-0.00014104362
98	0xbd0d15d6	-0.034444652
99	0x3cab00b6	0.020874362
100	0x3ec74de8	0.38926625
101	0x3eee3cf4	0.4653088
102	0xbf0c2d2c	-0.54756427
103	0x3e821754	0.25408423
104	0xbe68a2f4	-0.22718412
105	0x3e1f00ce	0.1552765
106	0x3e4e5a25	0.20151575
107	0xbe92df0b	-0.28685793
108	0xbeeff978	-0.46870017
109	0xbe07f326	-0.13276348
110	0x3d94b018	0.0726015
111	0x3ef8f9a8	0.48627973
112	0x3cd81eb0	0.02638182
113	0xbf028eca	-0.5099913
114	0xbe38d45c	-0.18049759
115	0xbdf31a7b	-0.11870285
116	0x3e3aab84	0.1822949
117	0xbcfb2fac	-0.03066238
118	0x3d778a81	0.060434822
119	0xbcbc9169	-0.023018556
120	0xbcc67d0e	-0.024229553
121	0x3d35d985	0.044396896
122	0xbda5386c	-0.08067402
123	0xbd7f668a	-0.06235365
124	0xbd5534a5	-0.05205216
125	0xbd3adf3e	-0.045623057
126	0xbcccdbea	-0.025007207
127	0xbc9b20c9	-0.018936532
128	0x3a85efa5	0.0010218514
129	0xbc8c3333	-0.017114257
130	0xbc43829d	-0.011932996
131	0xbb2a6ce1	-0.0026004838
132	0xbc7482c7	-0.014923758
133	0xbcf7ac17	-0.030233426
134	0xbc682cbc	-0.014170822
135	0xbc94ce3e	-0.01816475
136	0xbca4f823	-0.020137852
137	0x3d028bf8	0.031871766
138	0x3b494347	0.0030710266
139	0xbc650249	-0.013977596
140	0xbcceacaa	-0.025228817
141	0xbc9eb265	-0.019372175
142	0xbb3283ae	-0.0027239132
143	0xbcb320a8	-0.021866158
144	0xbca6a595	-0.020342628
145	0xbcbabed8	-0.02279608
146	0xbd00077a	-0.03125713
147	0xbd16872e	-0.03675001
148	0xbd106916	-0.035256468
149	0x3be4e205	0.0069849514
150	0x3d006e86	0.031355403
151	0xbc93ff7c	-0.01806616
152	0x3d032a6e	0.032022886
153	0x3dd73ade	0.10509275
154	0x3e9f2699	0.31084135
155	0xbe2764cb	-0.16347043
156	0xbf412ba8	-0.7545724
157	0x3c901514	0.017588176
158	0x3df8bacb	0.12145003
159	0xbf611451	-0.87921625
160	0x3d465a77	0.048426118
161	0x3f308191	0.689477
162	0x3dcd85f8	0.10035318
163	0x3d9ffd5d	0.07811997
164	0xbe7f3a88	-0.24924672
165	0xbebc2438	-0.36746383
166	0xbebe6eed	-0.37194005
167	0x3dd84209	0.1055947
168	0x3d9bc0ef	0.076051585
169	0xbe6c8722	-0.23098424
170	0x3f0f65f6	0.56014955
171	0xbc64ec7a	-0.013972396
172	0xbd13f0b9	-0.036118243
173	0xbc88604d	-0.016647482
174	0xbd111109	-0.035416637
175	0xbcb8e3e6	-0.022569608
176	0xba47e530	-0.0007625399
177	0xbc98e5bc	-0.018664233
178	0xbbe4658b	-0.0069701127
179	0xbc11462c	-0.008866828
180	0x3adea4bf	0.0016986354
181	0xbbd9afcc	-0.006643271
182	0x3d8ca387	0.06867128
183	0xbcabf71f	-0.02099186
184	0xbc400014	-0.011718769
185	0xbcd7d71e	-0.026347693
186	0x3d91b79b	0.07115098
187	0xbcfd1c44	-0.030897267
188	0xbbbdf496	-0.005796979
189	0x3c5a8f00	0.013339758
190	0x3e0acc04	0.13554388
191	0xbdbf8674	-0.09351817
192	0x3b3c1ede	0.0028704922
193	0x3cdacafd	0.02670812
194	0xbdce300f	-0.1006776
195	0xbdfc458b	-0.12317952
196	0xbbbe0e6b	-0.0058000586
197	0xbdef1df1	-0.11675633
198	0xbc1126f1	-0.008859382
199	0xbc9bc9ee	-0.019017186
200	0x3cb6b379	0.022302376
201	0xbd11b07a	-0.03556869
202	0xbcf8d7fa	-0.030376423
203	0x3c9fa24b	0.019486567
204	0xbd02d6aa	-0.031943
205	0x3d04885a	0.032356597
206	0x3bf09aa2	0.0073426524
207	0xbc1dc7eb	-0.009630184
208	0x3b544b72	0.0032393602
209	0xbbf4ad5f	-0.0074669565
210	0xbcfabbed	-0.030607188
211	0xbbf48928	-0.0074626394
212	0xbc8b0ae8	-0.016972974
213	0xbcb0abe2	-0.021566335
214	0xbd2272b3	-0.039660167
215	0xbd036e77	-0.03208777
216	0xbeb03aa7	-0.34419748
217	0xbed10412	-0.40823418
218	0xbf246f9b	-0.64232796
219	0xbe52fb7e	-0.20603749
220	0xbf0d56ad	-0.5521038
221	0xbe8bb4a1	-0.27286246
222	0xbe03fd3c	-0.1288957
223	0xbf6a10d8	-0.9143195
224	0x3ca3de1f	0.020003377
225	0xbd1e83d3	-0.038699936
226	0xbc47349d	-0.01215854
227	0xbc9e2ef7	-0.019309504
228	0x3b904a7b	0.00440341
229	0xbcd04f8a	-0.025428552
230	0xbd1cb46a	-0.038257994
231	0xbcf88485	-0.030336628
232	0xbc9319d6	-0.017956655
233	0xbcd5b46a	-0.026087005
234	0xbd385b7a	-0.045009114
235	0x3d7f315c	0.062302932
236	0x3dcf9315	0.101354755
237	0xbe0766eb	-0.13222854
238	0xbdf1f853	-0.11814942
239	0x3d78274d	0.060584355
240	0xbe0a3dd5	-0.1350015
241	0x3d3dec0b	0.046367686
242	0x3c95a292	0.018265996
243	0x3c086969	0.008325913
244	0xbcad0a41	-0.021123054
245	0xbccdf05d	-0.025139028
246	0xbcba7fdf	-0.022766052
247	0xbcef9cbd	-0.029249543
248	0x3b0569d8	0.0020357277
249	0xbbd961b2	-0.0066339606
250	0xbca5a00f	-0.020217923
251	0x3ac69f7b	0.001515373
252	0x3d90f7b6	0.07078497
253	0x3e61bd2a	0.22044817
254	0x3e64630b	0.22303407
255	0xbc502b22	-0.012705596

module.cnn.4.bias f4 [64]
0	0x3f140ddc	0.5783365
1	0xbedde0fb	-0.4333571
2	0xbee03d7a	-0.43796903
3	0xbe8dbcfd	-0.2768325
4	0x3db4dca2	0.08831145
5	0xbeb08eec	-0.3448404
6	0x3f41107b	0.7541577
7	0xbe254860	-0.1614089
8	0xbdf42e88	-0.11922938
9	0x3e55c374	0.2087534
10	0xbf296913	-0.66175956
11	0x3e9d9f3d	0.30785552
12	0xbe1a39de	-0.15061137
13	0xbe40012f	-0.18750452
14	0xbf0cb2b0	-0.54960155
15	0x3f556502	0.8335725
16	0xbe18bb6a	-0.14915243
17	0xbdf9d908	-0.121995986
18	0xbdc0434c	-0.09387836
19	0x3db8ee20	0.09029794
20	0x3f14b982	0.5809556
21	0x3f6e5c92	0.9311
22	0xbdce317d	-0.10068033
23	0xbd9e94d0	-0.077432275
24	0xbdf28739	-0.11842198
25	0x3e657a34	0.22409898
26	0x3ea4f0db	0.32215008
27	0xbd6ca58c	-0.057775065
28	0xbe097f31	-0.13427426
29	0x3ececffb	0.40393052
30	0xbe274fa4	-0.16338974
31	0x3e894790	0.2681241
32	0xbe0cf1a4	-0.13764054
33	0x3e3b69f3	0.18302135
34	0x3ecf5582	0.40494925
35	0xbf11d5a2	-0.569666
36	0xbef7b02d	-0.483766
37	0xbeccab55	-0.39974466
38	0x3f477a78	0.7792125
39	0xbe26c31c	-0.16285366
40	0xbe364a75	-0.1780184
41	0x3d3eaaed	0.046549726
42	0x3f0e14c8	0.5550046
43	0xbd4ff61f	-0.05077183
44	0xbde4f94a	-0.111803606
45	0xbd3a8be2	-0.04554356
46	0x3f50a0e3	0.81495494
47	0xbb5374d2	-0.0032265675
48	0xbcff099a	-0.031132508
49	0xbe09d057	-0.13458382
50	0x3f8d145d	1.1021839
51	0xbe3c0a72	-0.1836336
52	0x3dc1f0dc	0.094697684
53	0x3e3ab779	0.18234052
54	0xbe9ede35	-0.31028906
55	0xbe198b19	-0.14994468
56	0x3ec1235c	0.3772229
57	0xbe8fe5be	-0.28104967
58	0x3ed1a98c	0.40949667
59	0x3d6b6423	0.057468545
60	0xbeb20687	-0.34770605
61	0xbd39c923	-0.045357835
62	0xbe11ffa9	-0.14257683
63	0xbd9b3ca0	-0.07579923

module.cnn.6.weight f4 [64, 64, 3, 3]
0	0x3e508732	0.20364073
1	0x3ef75c86	0.48312777
2	0x3ef7e6fd	0.48418418
3	0x3ebd3096	0.3695113
4	0xbe1957ef	-0.1497495
5	0x3daf58ea	0.08561881
6	0xbea21d0a	-0.3166278
7	0xbf0b2576	-0.54354036
8	0xbfaffc07	-1.3748788
9	0xbd95c6bf	-0.073132984
10	0x3ea5e8e5	0.32404247
11	0x3f083882	0.53211224
12	0x3ee77f8f	0.45214507
13	0xbf0b6d80	-0.5446396
14	0xbe3fce7a	-0.18731108
15	0x3e0ce336	0.13758549
16	0xbeb053be	-0.3443889
17	0xbda7a89a	-0.08186455
18	0xbd9e521a	-0.077305034
19	0x3da6e323	0.08148792
20	0xbf14900f	-0.58032316
21	0xbec4ce38	-0.38438582
22	0xbe312068	-0.17297518
23	0x3e698d9e	0.22807929
24	0x3d436f22	0.047713406
25	0xbe188735	-0.14895327
26	0x3da213e3	0.07913949
27	0x3c9ed67c	0.019389383
28	0x3d2aba98	0.041681856
29	0xbd05afea	-0.032638468
30	0xbd0a6fbf	-0.033797976
31	0xbcdc2ecc	-0.026877783
32	0x3da326df	0.079663984
33	0xbc8d2de6	-0.0172338
34	0x3d9cdc5f	0.0765922
35	0x3c0ed92b	0.008718769
36	0xbe4c9683	-0.1997929
37	0xbde45683	-0.11149313
38	0x3eaa61b4	0.33277667
39	0x3d9e3ccc	0.0772644
40	0x3e579c03	0.21055607
41	0x3e5d2baa	0.21598688
42	0x3d10b823	0.035331856
43	0x3e87795b	0.26459774
44	0x3e888173	0.26661262
45	0x3e4e5066	0.20147857
46	0xbdcfccac	-0.1014646
47	0xbd1b4f5d	-0.037917484
48	0x3e10fbde	0.1415858
49	0xbe3bf81d	-0.18356366
50	0xbe9e89bf	-0.30964467
51	0x3dd58ad5	0.10426871
52	0xbe134206	-0.14380655
53	0xbdd6bbe6	-0.104850575
54	0x3f0cd37f	0.5501022
55	0xbd9f5c7d	-0.077813126
56	0xbcfbf4d2	-0.030756388
57	0x3f0ab374	0.54180074
58	0xbf3e362f	-0.7430143
59	0x3b627a54	0.0034557777
60	0x3dc7da1e	0.097583994
61	0xbe3d66c1	-0.18496229
62	0xbe050791	-0.12991168
63	0xbda32cd8	-0.07967538
64	0x3e6dd744	0.23226649
65	0xbee63249	-0.4496024
66	0x3ec28414	0.37991393
67	0x3f536efd	0.8259123
68	0x3f1daff2	0.61596596
69	0xbeb8489e	-0.35992903
70	0xbe96b025	-0.29431263
71	0xbf1f1be9	-0.6215196
72	0xbd9ff7e5	-0.07810954
73	0x3bd23be3	0.0064158305
74	0x3dbf94e0	0.093545675
75	0xba0cf264	-0.0005376695
76	0x3de2090e	0.11036883
77	0x39b3f5e2	0.00034324737
78	0xbd478458	-0.048710197
79	0x3db5d3e7	0.08878308
80	0x3aec7389	0.0018039803
81	0x3ed932c2	0.42421538
82	0xbeb3af6e	-0.3509478
83	0x3e23d789	0.16000189
84	0xbee11e3d	-0.43968382
85	0xbf0a2dcb	-0.53976125
86	0x3f0237b9	0.50866276
87	0x3f03da4e	0.5150498
88	0x3e4ded4a	0.2011005
89	0xbf35bf13	-0.7099468
90	0xbec98c03	-0.39364633
91	0x3e2bce47	0.16777907
92	0xbef7cfea	-0.48400813
93	0xbee39c24	-0.44455063
94	0x3e14d139	0.14532937
95	0xbd1cd646	-0.038290285
96	0x3f3001d1	0.6875277
97	0x3e995f0f	0.29955336
98	0xbddb0fb2	-0.10696353
99	0x3f1dfc05	0.61712676
100	0x3d7630ff	0.06010532
101	0x3d690b22	0.056895383
102	0x3ed1f5bb	0.4100779
103	0xbe2875b9	-0.16451158
104	0xbf29a9b7	-0.6627459
105	0x3e104d82	0.14092067
106	0x3d97908f	0.07400619
107	0x3f0641ec	0.5244434
108	0xbd950dad	-0.07277999
109	0xbc9ead5c	-0.019369774
110	0x3ce48e5d	0.027899915
111	0xbceafb43	-0.028684264
112	0xbda56468	-0.080757916
113	0x3bfd2f50	0.0077265874
114	0x3cfc27ad	0.030780638
115	0x3c84356a	0.016138751
116	0xbd92af4b	-0.07162341
117	0xbcf4f51f	-0.02990204
118	0xbbef9c26	-0.0073123155
119	0x3cacd44e	0.021097329
120	0x3c4419f5	0.011969079
121	0xbc6e6dbe	-0.014552532
122	0x3bc5189a	0.0060148956
123	0x3d2c4ed1	0.042067353
124	0xbc392792	-0.011300938
125	0x3c9b4d7a	0.018957842
126	0xbef806b2	-0.48442608
127	0xbf1b8d76	-0.6076273
128	0xbe392a61	-0.18082573
129	0x3e8c45a7	0.2739689
130	0x3e8cf977	0.27534077
131	0xbe88178d	-0.26580468
132	0xbe98ac76	-0.29819077
133	0x3e63ee70	0.22258925
134	0xbea41429	-0.3204663
135	0x3ebbcc1b	0.36679158
136	0x3e58be5f	0.21166371
137	0xbebaa9a3	-0.36457548
138	0xbe1a805f	-0.15088032
139	0xbe86c321	-0.26320747
140	0xbf0480ba	-0.5175892
141	0xbe5118cd	-0.20419617
142	0xbd55a1fd	-0.052156437
143	0x3ebb8ecf	0.36632392
144	0xbe3adc1f	-0.18248032
145	0x3d09a400	0.03360367
146	0x3d7d9571	0.061910097
147	0x3d27ed36	0.040997706
148	0xbc6d51b7	-0.014484814
149	0xbd1b98ae	-0.037987404
150	0x3d07bba7	0.033137944
151	0xbd7289b5	-0.05921336
152	0xbe150839	-0.14553918
153	0xbd871e20	-0.06597543
154	0xbdc823c7	-0.09772449
155	0x3cf35eba	0.029708255
156	0xbcf04107	-0.029327882
157	0xbccc688f	-0.024952201
158	0xbdcb702f	-0.09933507
159	0x3d0904c2	0.033451803
160	0x3d1bd2fb	0.038043004
161	0xbd04faa5	-0.032465596
162	0x3c16e87f	0.009210705
163	0xbc86a6bd	-0.016436929
164	0xbcd23dd8	-0.025664255
165	0xbe016990	-0.12637925
166	0xbd054988	-0.032540828
167	0xbc99f6fd	-0.018794531
168	0x3d258a9a	0.040415384
169	0x3d9afbd7	0.07567566
170	0x3cf69535	0.030100444
171	0xbe698139	-0.22803201
172	0xbde15812	-0.11003126
173	0xbf64a60f	-0.89315885
174	0xbe9eaca7	-0.30991098
175	0x3ea81dd6	0.32835263
176	0x3e51f81e	0.20504805
177	0x3ef4632c	0.47731912
178	0x3ecfc13c	0.40577114
179	0x3dac1e0c	0.084041685
180	0x3e13a4b1	0.14418294
181	0x3dc8e54d	0.09809361
182	0x3f1623b1	0.5864821
183	0xbdde0521	-0.10840822
184	0x3e027b52	0.12742355
185	0xbe6e41fe	-0.23267362
186	0xbd8b3c61	-0.06798626
187	0xbdb9919f	-0.09060978
188	0xbf16ac19	-0.5885635
189	0x3e13aab7	0.14420591
190	0xbf17577c	-0.59117866
191	0xbd7b1b24	-0.06130518
192	0x3e99abba	0.3001383
193	0xbd87d5a8	-0.066325486
194	0x3e3f8ac7	0.18705283
195	0xbe8abe5e	-0.27098364
196	0x3e7908ec	0.2431981
197	0xbf027f30	-0.5097532
198	0xbdc6e3b8	-0.09711403
199	0xbdd07cbe	-0.10180043
200	0xbd7cbb14	-0.06170185
201	0xbd9f3ed5	-0.07775656
202	0xbe0dc659	-0.13845195
203	0xbdc40458	-0.09571141
204	0xbd52b979	-0.05144641
205	0x3ded9868	0.11601335
206	0xbd3f0fc6	-0.046645902
207	0xbe349bad	-0.1763751
208	0x3cfc61f8	0.030808434
209	0xbd8ee488	-0.069771826
210	0x3e31095d	0.17288728
211	0x3cf4272c	0.029803835
212	0x3dc5f6bc	0.096662015
213	0x3dce70a9	0.10080082
214	0x3e84ed46	0.25962275
215	0x3e09fadb	0.134746
216	0xbeab9407	-0.33511373
217	0x3dd96be2	0.1061628
218	0x3ec4cfa9	0.38439682
219	0x3d485f17	0.04891881
220	0xbe5f9211	-0.21833064
221	0x3ed1575c	0.40886962
222	0xbdaf5c48	-0.08562523
223	0xbed879cd	-0.42280427
224	0xbc6a25c0	-0.014291227
225	0xbcfe3bfe	-0.031034466
226	0x3f0f8057	0.56055206
227	0x3d551e80	0.05203104
228	0x3de64e5c	0.112454146
229	0xbeb0b29e	-0.34511274
230	0xbf5a2fae	-0.85229003
231	0xbe78c582	-0.24294093
232	0x3e4b9629	0.198815
233	0xbdaf7ce6	-0.08568744
234	0x3f308877	0.6895823
235	0x3e9428d2	0.28937393
236	0xbd419d8d	-0.047269393
237	0x3ef1de28	0.47239804
238	0x3eaf2106	0.34204882
239	0x3f4ac556	0.7920736
240	0x3cda6ad3	0.026662266
241	0x3f1413bf	0.5784263
242	0x3cf7ee41	0.030264976
243	0xbe34c426	-0.1765295
244	0xbf7bbff3	-0.98339766
245	0x3d8f32f8	0.069921434
246	0xbf10327e	-0.56327045
247	0xbef1592c	-0.47138345
248	0xbcbc5c4a	-0.022993226
249	0xbf2b4cf5	-0.669143
250	0xbf5d96ea	-0.865584
251	0xbdcd6fbf	-0.100310795
252	0xbbb0f3b2	-0.0054001445
253	0xbc9c123a	-0.01905166
254	0xbc3f565b	-0.011678304
255	0xb9d1952f	-0.00039974737

module.cnn.6.bias f4 [64]
0	0xbd5f6fc0	-0.054549932
1	0xbd564219	-0.05230913
2	0x3eaff599	0.34367064
3	0x3d8a2161	0.06744648
4	0xbe3b6ff7	-0.1830443
5	0x3e162e9a	0.14666215
6	0xbef00af5	-0.4688336
7	0xbf060c95	-0.5236295
8	0xbeff3028	-0.49841428
9	0xbe8a0843	-0.26959428
10	0xbdc6d82d	-0.09709201
11	0xbe64cb8f	-0.22343276
12	0xbe509fec	-0.20373505
13	0x3db2c286	0.08728509
14	0xbd71f6f2	-0.059073396
15	0xbdcc4159	-0.099734016
16	0xbf0a731a	-0.5408188
17	0xbd519546	-0.05116775
18	0xbd4cb5a2	-0.049977906
19	0xbf6dfd2c	-0.92964435
20	0xbeb1b9f0	-0.34712172
21	0xbe5d7aae	-0.2162883
22	0x3ea58062	0.3232451
23	0xbc7b42ff	-0.015335797
24	0x3df464eb	0.11933311
25	0xbd9bfb60	-0.07616305
26	0x3dda6690	0.106640935
27	0xbdc89312	-0.097936764
28	0x3e978df9	0.29600504
29	0xb87647c7	-5.871782e-05
30	0xbe321ba6	-0.1739336
31	0x3dddf716	0.108381435
32	0x3d8adb1e	0.067800745
33	0xbc84c2d8	-0.01620619
34	0xbef12b43	-0.4710332
35	0xbdc6aa66	-0.0970047
36	0xbf10dfa9	-0.5659128
37	0xbe470fb6	-0.19439587
38	0xbe679b03	-0.22617726
39	0xbe8cc48c	-0.27493703
40	0xbcf1a3bf	-0.029497026
41	0x3eb7772e	0.35833114
42	0x3dcbd2c9	0.099523135
43	0xbea66ad2	-0.32503372
44	0xbf0311c8	-0.5119901
45	0xbead61e6	-0.33863753
46	0x3ebfea2f	0.37483355
47	0xbca0ac98	-0.01961355
48	0xbdadc0bb	-0.08484026
49	0xbf399efd	-0.7250822
50	0x3dab0ca4	0.083520204
51	0xbd848e6f	-0.064724796
52	0xbf011c33	-0.50433654
53	0xbe734504	-0.23756796
54	0xbd6265ce	-0.05527287
55	0x3ef25dc5	0.47337165
56	0xbf164e34	-0.5871308
57	0xbe79964d	-0.24373741
58	0xbd90ef79	-0.07076926
59	0xbe89fa0d	-0.26948586
60	0x3ca7c777	0.020480854
61	0xbd73174b	-0.059348386
62	0xbcaf5800	-0.021404266
63	0xbf6ffddf	-0.9374675

module.fc.0.weight f4 [5, 67]
0	0xbe3b1282	-0.18268779
1	0xbe07709b	-0.1322655
2	0xbc94fa7f	-0.018185852
3	0xbe65e976	-0.2245234
4	0xbc833266	-0.016015243
5	0xbe9a1805	-0.3009645
6	0x3ea8caee	0.32967323
7	0x3e2fa9a2	0.17154554
8	0xbcee8366	-0.02911539
9	0xbe2a3864	-0.16623074
10	0xbe13eac3	-0.14445023
11	0xbd9af551	-0.07566322
12	0xbe9246e3	-0.28569707
13	0x3e32ca8c	0.17460078
14	0x3d8dd3dd	0.06925175
15	0x3d32ceb1	0.043654148
16	0xbedcd571	-0.43131593
17	0x3cd6ff00	0.02624464
18	0xbcdc4704	-0.026889332
19	0x3e98d378	0.29848838
20	0xbda9f8b3	-0.08299389
21	0xbd0d9411	-0.034565035
22	0x3c1790d9	0.009250843
23	0xbc623608	-0.013806827
24	0x3e470bb3	0.19438057
25	0xbd778c5c	-0.06043659
26	0xbe865396	-0.26235646
27	0xbe33fbd2	-0.1757653
28	0x3e009141	0.1255541
29	0x3d390730	0.04517287
30	0x3dcb2dbd	0.09920833
31	0xbd59bcba	-0.0531585
32	0xbe1159ad	-0.14194365
33	0xbd387ce1	-0.04504097
34	0x3ddbeb31	0.107382186
35	0xbcdb3631	-0.026759239
36	0x3e2a06d6	0.1660417
37	0xbe40362a	-0.18770662
38	0xbe8bcf07	-0.27306387
39	0x3e11ecb9	0.14250459
40	0xbad18539	-0.0015985138
41	0x3e567e9a	0.20946732
42	0xbe572895	-0.21011575
43	0x3e81ff17	0.2538993
44	0xbe921b1f	-0.28536317
45	0x3d9ee25b	0.07758018
46	0xbe1d726a	-0.15375677
47	0x3d65d867	0.05611458
48	0xbd420038	-0.04736349
49	0xbd794d93	-0.060864996
50	0xbd7722b4	-0.06033583
51	0xbe857962	-0.2606917
52	0x3ca23375	0.019799927
53	0xbcb5beeb	-0.022185763
54	0xbe16d036	-0.14727864
55	0xbe0b2ee7	-0.1359211
56	0xbe464500	-0.19362259
57	0x3b554abd	0.0032545768
58	0xbce0a65e	-0.02742308
59	0xbd45ca7f	-0.04828882
60	0x3e4b0e82	0.19829753
61	0xbd93f8e1	-0.07225204
62	0xbd418424	-0.04724516
63	0x3d925589	0.07145221
64	0xbe0ecae4	-0.13944584
65	0xbf51e00f	-0.8198251
66	0x3f7a7274	0.9783089
67	0x3e70f768	0.23531878
68	0x3c3c075e	0.011476366
69	0x3e0c287a	0.13687316
70	0xbe281328	-0.16413558
71	0xbc6b5eb6	-0.014365843
72	0x3dc993a0	0.0984261
73	0x3d040bf2	0.032237954
74	0x3df08910	0.117448926
75	0xbea44cf5	-0.32089964
76	0xbe422371	-0.18958832
77	0xbd8b5c6d	-0.06804738
78	0xbaaa8023	-0.0013008158
79	0xbdd458df	-0.10368513
80	0x3d33b323	0.04387201
81	0xbda7e280	-0.08197498
82	0x3d1e3e22	0.038633473
83	0x3db828fa	0.08992191
84	0xbd6c5679	-0.057699654
85	0xbd2f74c0	-0.04283595
86	0xbdeee7ea	-0.11665328
87	0xbd5ca8a0	-0.05387175
88	0x3e589ba9	0.2115313
89	0x3e0007d9	0.12502994
90	0x3bde379e	0.0067815324
91	0xbc938817	-0.018009229
92	0xbe1943af	-0.14967225
93	0xbe252b91	-0.161299
94	0xbdc9f376	-0.098608896
95	0xbe1dfeb8	-0.15429199
96	0x3b6d2521	0.003618546
97	0x3e0426e2	0.12905458
98	0xbe2c556e	-0.16829464
99	0x3e047d22	0.1293836
100	0x3c75767a	0.01498186
101	0xbe05e27c	-0.13074678
102	0xbdf1bb32	-0.11803283
103	0xbca5ff2b	-0.020263275
104	0xbd96a4ab	-0.07355627
105	0xbe19be79	-0.15014066
106	0x3dad8bb6	0.08473913
107	0xbe071171	-0.13190247
108	0x3da01149	0.07815797
109	0xbdd9ea44	-0.10640386
110	0xbc897959	-0.016781496
111	0xbd92151e	-0.07132934
112	0xbdb27212	-0.087131634
113	0x3e0004a0	0.12501764
114	0x3d1d019a	0.038331605
115	0x38677f8a	5.519347e-05
116	0xbe0ba93a	-0.13638774
117	0xbe2c7234	-0.1684044
118	0x3b042976	0.0020166314
119	0xbe5e03d9	-0.21681155
120	0xbd698d4f	-0.057019528
121	0xbe90ed04	-0.2830583
122	0xbe399d92	-0.18126515
123	0xbef628a0	-0.4807787
124	0xbe45e202	-0.19324496
125	0x3c8540bf	0.016266225
126	0xbc8dcfc2	-0.01731098
127	0xbcf39b64	-0.029737182
128	0xbe09ef74	-0.1347025
129	0xbc610c7e	-0.0137358885
130	0xbe9e8da9	-0.30967453
131	0x3e0a9c78	0.1353625
132	0xbf9bf41c	-1.2183871
133	0x3f00ccc6	0.5031246
134	0x3a2de46c	0.0006633464
135	0x3c97c539	0.01852666
136	0x3e1134f1	0.14180352
137	0x3dad55f3	0.08463659
138	0x3bf3558d	0.00742597
139	0x3e155e54	0.14586765
140	0x3a1ac6fc	0.0005904285
141	0xbca669c9	-0.020314114
142	0x3c9fd3bc	0.019510143
143	0xbe035cf5	-0.12828429
144	0x3dbcea97	0.09224432
145	0xbceb8a9e	-0.028752621
146	0xbc106651	-0.008813457
147	0xbd80b44f	-0.06284391
148	0xbb8b442b	-0.0042500696
149	0x3c0478ad	0.008085412
150	0x3d01812c	0.03161733
151	0x3d39614f	0.045258816
152	0xbce007c9	-0.027347462
153	0xbebcc1a9	-0.368665
154	0xbe8f7cf7	-0.28025028
155	0x3b3d6df9	0.002890466
156	0x3e0819a5	0.13291033
157	0x3cd7bc6c	0.026334964
158	0xbdab3dd1	-0.083614
159	0x3d71f24f	0.059068974
160	0xbb9b5352	-0.004740157
161	0x3d0426ac	0.032263443
162	0xbe13e66c	-0.14443368
163	0xbc907953	-0.017635977
164	0xbd858a7a	-0.06520553
165	0xbdc1bc23	-0.09459712
166	0x3d44ce93	0.048048567
167	0xbccaf92b	-0.024777016
168	0x3d3b30ab	0.04570071
169	0x3dcc78df	0.09983992
170	0xbdf83f5f	-0.12121462
171	0x3da4891c	0.08033964
172	0xbd444ee4	-0.0479268
173	0x3d55f310	0.052233756
174	0xbcf3f59f	-0.029780207
175	0x3cb099ec	0.02155777
176	0x3cf6996d	0.030102456
177	0xbe2ba985	-0.16763885
178	0x3c791d99	0.015204811
179	0xbca666b1	-0.020312639
180	0x3dabdb3b	0.08391424
181	0x3d05d2a6	0.032671593
182	0x3e1eb1e0	0.15497541
183	0xbe5ccc32	-0.2156227
184	0xba723a1d	-0.0009240227
185	0x3ca71d8e	0.020399835
186	0xbe0fb024	-0.14032036
187	0xbda45950	-0.080248475
188	0xbcfa48fb	-0.030552378
189	0xbe129e0d	-0.14318104
190	0xbdb31626	-0.08744459
191	0x3e9f3b48	0.31099916
192	0xbd5b2601	-0.05350304
193	0x3c5bf335	0.013424684
194	0xbdec3c53	-0.115349434
195	0xba1c6a09	-0.0005966728
196	0xbd3b5134	-0.04573174
197	0xbdec363b	-0.11533781
198	0x3e8a27c3	0.2698346
199	0xbf0046b8	-0.5010791
200	0xbf1ef025	-0.6208518
201	0xbccfccb7	-0.02536617
202	0xbd4ed13c	-0.05049251
203	0xbe642112	-0.2227824
204	0x3da13921	0.078722246
205	0x3cc7a491	0.024370464
206	0x3cdae560	0.026720703
207	0xbea0f89b	-0.3143967
208	0xbea5d333	-0.32387695
209	0xbe494b36	-0.19657597
210	0x3e470812	0.19436672
211	0xbd10f05c	-0.035385475
212	0xbdc3eb20	-0.09566331
213	0x3ea112b4	0.31459582
214	0xbd8b0ece	-0.06789933
215	0x3c1fbbee	0.009749396
216	0x3d733f4c	0.059386536
217	0xbe90f09e	-0.28308576
218	0xbbc55014	-0.006021509
219	0x3d5a7129	0.053330574
220	0xbf23489e	-0.6378268
221	0x3e75c748	0.24001801
222	0xbd8942d3	-0.06702199
223	0x3ce9389d	0.028469378
224	0xbc9330a5	-0.017967531
225	0xbe2278f3	-0.15866451
226	0xbe052e4d	-0.13005944
227	0x3e2860be	0.16443154
228	0xbbba12e2	-0.0056785205
229	0xbe643adf	-0.22288083
230	0xbd370b1a	-0.04468832
231	0xbe5e799f	-0.21726082
232	0xbe02fe23	-0.12792258
233	0x3c6156be	0.013753591
234	0xbcf749a0	-0.030186474
235	0xbdd3d7a4	-0.103438646
236	0xbd592d09	-0.053021464
237	0xbe463075	-0.19354422
238	0xbc043255	-0.008068641
239	0x3d3a406b	0.04547159
240	0xbd3d855e	-0.046269767
241	0xbd519881	-0.05117083
242	0xbdf81a89	-0.12114436
243	0x3e78573b	0.24252026
244	0xbe3f7b03	-0.18699269
245	0xbe5a1d89	-0.2130033
246	0xbdf4ebf6	-0.119590685
247	0x3d981e71	0.07427681
248	0x3de022c8	0.10944134
249	0xbdfbf669	-0.123028584
250	0x3dbcc35a	0.09216948
251	0x3e4815b7	0.19539534
252	0x3e4ab64d	0.19796105
253	0xbdfbe975	-0.12300388
254	0x3c6101e7	0.013733364
255	0x3e480c04	0.19535834

module.fc.0.bias f4 [5]
0	0x3eac8cfc	0.33701313
1	0x3c83fa6f	0.016110627
2	0xbdcefdf1	-0.10107029
3	0xbe2f1fef	-0.17102025
4	0x3d075156	0.033036552
