Sem 2/Intelligent Robots/Assignments/Lab 2/BehaviourCloning/Checkpoints/adam_3_extra_conv_e7.pt (torch, 674763 bytes, 14 tensors)

module.cnn.0.weight f4 [32, 3, 3, 3]
0	0x3dcb9ca7	0.099419884
1	0x3d87a182	0.06622602
2	0xbe17aa82	-0.14811137
3	0x3d153330	0.03642577
4	0xbd02350a	-0.031788863
5	0xbc73dbff	-0.014883994
6	0xbe3b8e63	-0.18316035
7	0x3e0b4704	0.13601309
8	0x3c7f757f	0.015591978
9	0x3eaa883a	0.33307058
10	0x3ed8d513	0.42350063
11	0x3e26140b	0.16218583
12	0x3ec7b445	0.39004722
13	0x3e105dee	0.14098331
14	0x3dc213f2	0.094764605
15	0x3c9a9db4	0.018874027
16	0x3e4caadb	0.19987051
17	0xbdc49263	-0.095982336
18	0x3dde6674	0.10859385
19	0x3d3929c9	0.045205865
20	0xbe49fa50	-0.19724393
21	0x3ab2056c	0.0013581938
22	0xbe0e9038	-0.13922203
23	0xbd72ca7d	-0.05927514
24	0xbe8ffbba	-0.2812174
25	0xbd94e368	-0.07269937
26	0xbe5d120a	-0.21588913
27	0xbe578153	-0.21045427
28	0xbde8642d	-0.11347232
29	0xbdc54024	-0.096313745
30	0xbd7cfa2d	-0.061762024
31	0xbe86d989	-0.2633784
32	0x3db9ca08	0.090717375
33	0xbe907c3b	-0.2821978
34	0xbe4896e9	-0.19588818
35	0xbdfbe9e0	-0.123004675
36	0x3e7e7ba4	0.24851853
37	0x3eabab3d	0.33529082
38	0xbbf313d1	-0.007418134
39	0x3e3098da	0.17245808
40	0x3e1620f7	0.14661013
41	0xbda2914e	-0.07937871
42	0xbd3877b6	-0.04503604
43	0x3d57ae31	0.052656356
44	0xbe62fd2c	-0.2216689
45	0xbdee4d0c	-0.11635789
46	0xbd164833	-0.03668995
47	0xbe940f93	-0.28918132
48	0xbd4f17b0	-0.0505597
49	0xbe882cd7	-0.2659671
50	0xbee5554a	-0.44791633
51	0xbed398f0	-0.4132762
52	0xbec01c7a	-0.37521726
53	0xbed82374	-0.4221455
54	0x3e4375ae	0.1908786
55	0x3dc76e4e	0.09737836
56	0x3e2c357b	0.16817276
57	0x3ecb28b9	0.39679506
58	0x3eaa95a9	0.33317307
59	0x3e70524a	0.23468891
60	0x3ed3850e	0.4131245
61	0x3e2712cf	0.16315769
62	0x3ebd60c3	0.36987886
63	0x3d7c7c18	0.061641783
64	0x3e2e025b	0.16993086
65	0x3acae455	0.0015479425
66	0x3e2f5e64	0.17125851
67	0x3ddffe98	0.10937232
68	0x3c90f799	0.017696189
69	0x3c1d5d15	0.009604712
70	0x3e847d84	0.2587701
71	0x3df9dde4	0.122005254
72	0xbe133341	-0.1437502
73	0xbeaf1e77	-0.3420293
74	0xbf06c6f0	-0.52647305
75	0xbf10aa16	-0.5650953
76	0xbed51ca1	-0.41623405
77	0xbee1ee6d	-0.44127217
78	0xbed6001d	-0.4179696
79	0xbe8c9cfa	-0.27463514
80	0xbefa63ce	-0.4890427
81	0xbe8f5b3b	-0.2799929
82	0xbd47857d	-0.04871129
83	0x3c6d57f1	0.014486299
84	0xbd165183	-0.03669883
85	0xbc9cbf0d	-0.019134069
86	0xbe582620	-0.21108294
87	0xbe6ffaf3	-0.23435573
88	0xbc8af18e	-0.016960885
89	0x3d837c73	0.06420221
90	0x3e876743	0.2644597
91	0x3eb31437	0.3497636
92	0x3ee52cac	0.44760644
93	0x3f021d2f	0.5082578
94	0x3ea39c3c	0.31955135
95	0xbd0c3cb5	-0.034237582
96	0x3e80b55d	0.2513837
97	0x3dce9182	0.10086347
98	0x3d803858	0.06260747
99	0xbe7f6bbe	-0.24943444
100	0xbda7e1bb	-0.081973515
101	0xbcf0528d	-0.029336238
102	0x3c70ffdd	0.01470944
103	0xbd20d1aa	-0.03926245
104	0xbeba5b82	-0.3639794
105	0xbe9bbd34	-0.30417788
106	0xbe8e0096	-0.27734822
107	0xbe6f4668	-0.23366702
108	0x3db5980d	0.08866892
109	0xbdb694e9	-0.08915121
110	0x3e8fff8c	0.28124654
111	0x3e146696	0.14492258
112	0xbe1cd664	-0.15316159
113	0xbec457de	-0.38348287
114	0xbdaf984a	-0.08573969
115	0xbd1e38ee	-0.03862851
116	0x3b98e826	0.004666346
117	0x3daf7e39	0.08568997
118	0x3cee5171	0.029091569
119	0x3e1087f9	0.1411437
120	0x3e0e66eb	0.13906448
121	0xbdc74c76	-0.09731381
122	0xbe8c7a9c	-0.27437294
123	0xbd8bde54	-0.06829515
124	0xbd69fe72	-0.057127424
125	0xbdaf882e	-0.08570896
126	0x3bf599f5	0.0074951597
127	0x3c178113	0.009247082
128	0x3e9083db	0.28225598
129	0x3ce2c13d	0.027680034
130	0x3e24c7f1	0.16091897
131	0xbe32de6b	-0.17467658
132	0xbe50a980	-0.20377159
133	0x3db72883	0.08943274
134	0x3c8377b3	0.016048288
135	0x3e2f1ef5	0.17101653
136	0xbdaf6d45	-0.085657634
137	0x3d4e8ee5	0.050429244
138	0x3c971261	0.018441381
139	0xbdedb3b4	-0.11606541
140	0x3deccfee	0.11563097
141	0xbe26582f	-0.16244577
142	0xbd2075d2	-0.039174862
143	0xbe5017e4	-0.20321614
144	0x3e05cca5	0.13066347
145	0x3c84842b	0.016176304
146	0x3e439929	0.19101395
147	0x3d60746c	0.05479853
148	0x3de38a4c	0.111103624
149	0xbc035cbe	-0.008017717
150	0x3c2d788b	0.010587822
151	0xbc53c7e3	-0.012926075
152	0xbb25bad4	-0.002528836
153	0xbea411df	-0.32044885
154	0xbe0e23f6	-0.13880906
155	0xbe4fd5a1	-0.20296337
156	0xbe36139f	-0.17780922
157	0xbdd6400e	-0.10461436
158	0x392fe2db	0.00016773811
159	0xbe24f286	-0.1610814
160	0x3cb81cb0	0.022474617
161	0xbd9b230d	-0.07575045
162	0x3ce3fbf8	0.027830109
163	0xbb902f7e	-0.0044001928
164	0x3e527f59	0.20556392
165	0x3e16e5ba	0.14736071
166	0xbd389535	-0.04506417
167	0x3e8f1e8c	0.27952993
168	0x3d84d173	0.06485262
169	0xbd7a45af	-0.06110161
170	0x3e8fee1e	0.28111356
171	0xbe096371	-0.1341684
172	0xbe4d8c42	-0.20073035
173	0xbeaa6221	-0.3327799
174	0xbbfeb75d	-0.0077733235
175	0xbe66baa2	-0.22532132
176	0xbe9a26fb	-0.30107865
177	0xbd7cf871	-0.06176037
178	0xbe402718	-0.18764913
179	0xbe85055e	-0.25980657
180	0x3d9a40ff	0.07531928
181	0x3d9b0d54	0.075709015
182	0x3dbfec70	0.09371269
183	0x3e1a88d1	0.15091254
184	0x3dfdfe2a	0.124019936
185	0x3e3209ef	0.17386602
186	0x3e1646a9	0.14675392
187	0x3d164152	0.036683388
188	0x3e3783e5	0.17921408
189	0xbd94eec4	-0.072721034
190	0xbdfa22d3	-0.122136734
191	0x3d18e856	0.037330948
192	0xbdad6b94	-0.084677845
193	0x3c2dd824	0.010610614
194	0xbe047e83	-0.12938885
195	0xbce45dbd	-0.02787673
196	0x3d95ae64	0.07308653
197	0x3dd1e34e	0.10248433
198	0x3e9b4e13	0.30333003
199	0x3e426b29	0.18986191
200	0x3df557e9	0.11979658
201	0x3d9a6a57	0.07539814
202	0x3e63f112	0.2225993
203	0x3dcab358	0.09897488
204	0x3d436241	0.047701124
205	0xbaaccf4d	-0.0013184339
206	0x3da332c5	0.07968668
207	0xbe234d68	-0.15947497
208	0xbe0ef45b	-0.13960402
209	0xbbeab7bc	-0.007163016
210	0xbd64a0a6	-0.05581727
211	0xbc5376f3	-0.012906778
212	0xbead8596	-0.3389098
213	0xbe6af2ba	-0.22944155
214	0xbe1ab87e	-0.1510944
215	0xbd27802c	-0.04089372
216	0x3b76de6f	0.0037669202
217	0x3eee4324	0.465356
218	0x3ead87fc	0.3389281
219	0xbef2d5c1	-0.47428706
220	0xbea53e43	-0.32274064
221	0xbd96ce78	-0.073635995
222	0xbe572673	-0.21010761
223	0xbe45c2f9	-0.19312657
224	0x3e3e4b3b	0.18583386
225	0x3eea0a8c	0.45711172
226	0x3f3feef0	0.74973965
227	0x3ed131c3	0.40858278
228	0xbda436c5	-0.08018259
229	0xbe8000c2	-0.25000578
230	0xbeace225	-0.33766285
231	0x3d4aa575	0.0494742
232	0xbec39cc4	-0.3820554
233	0xbcf7c475	-0.030245045
234	0x3e508d2d	0.20366354
235	0x3f027f59	0.5097557
236	0x3e5c57a6	0.2151781
237	0xbe2518ad	-0.16122694
238	0xbea89cf9	-0.3293226
239	0xbed8b5f8	-0.4232633
240	0x3cf3680c	0.0297127
241	0xbf081ba8	-0.531672
242	0xbe15106a	-0.14557043
243	0xbeca396b	-0.3949693
244	0x3d1d827f	0.03845453
245	0x3e71b7cd	0.2360527
246	0xbed6b7af	-0.41937014
247	0x3d3e9a0b	0.046533626
248	0x3e221a23	0.15830283
249	0xbd109bfa	-0.035305
250	0xbe59592a	-0.2122542
251	0xbe17352b	-0.14766376
252	0xbd0a5463	-0.033771884
253	0x3e02f561	0.12788917
254	0x3eacbd8d	0.33738366
255	0xbe034682	-0.12819865

module.cnn.0.bias f4 [32]
0	0xbfa2a2c0	-1.2705917
1	0xbf9c09e0	-1.2190514
2	0xbf5c24e6	-0.859938
3	0xbf898e5a	-1.0746567
4	0xbfafd288	-1.3736124
5	0xbf9f42f4	-1.2442307
6	0xbf4a32ef	-0.7898397
7	0xbf697b99	-0.9120422
8	0xbf1a4ea7	-0.60276264
9	0xbfa11022	-1.2583048
10	0xbf92f7de	-1.1481893
11	0xbf9cd8b6	-1.2253635
12	0xbf69f658	-0.91391516
13	0x3f0afae3	0.5428907
14	0xbf8b6666	-1.0890625
15	0xbf5e33b6	-0.86797655
16	0xbf8c939d	-1.0982548
17	0xbe90b26a	-0.2826112
18	0xbdf7fc6f	-0.12108695
19	0xbf54cb1d	-0.83122426
20	0xbf6fa9a5	-0.9361823
21	0xbf5ca328	-0.86186457
22	0xbf81359a	-1.0094483
23	0xbfbdbfa2	-1.4824107
24	0xbfaa62bb	-1.331138
25	0xbef1b983	-0.47211847
26	0xbf922c08	-1.1419687
27	0xbf9943db	-1.1973833
28	0xbf81bf80	-1.0136566
29	0xbf342806	-0.7037357
30	0xbe9dd04f	-0.3082299
31	0xbfa6551d	-1.2994725

module.cnn.2.weight f4 [64, 32, 3, 3]
0	0xbe640324	-0.22266823
1	0xbda27f17	-0.07934397
2	0xbdb1ce56	-0.086819336
3	0xbe3827a5	-0.17983873
4	0xbdaca1c5	-0.084292926
5	0xbdede2f0	-0.116155505
6	0xbd7b9266	-0.061418913
7	0xbdd9e873	-0.10640039
8	0xbce35dd4	-0.027754702
9	0xbe161eae	-0.14660141
10	0xbdfa44e6	-0.122201726
11	0xbdd9089e	-0.10597347
12	0xbe0f3a35	-0.13987048
13	0xbdf33b74	-0.11876574
14	0xbe17afd3	-0.14813165
15	0xbdb060e2	-0.08612229
16	0xbd63ab1f	-0.055583116
17	0xbca73edc	-0.020415716
18	0xbdfbd317	-0.122961216
19	0xbe26fb64	-0.16306835
20	0xbe03dc7d	-0.12877078
21	0xbd924213	-0.07141509
22	0xbe1e7e5e	-0.15477893
23	0xbd845651	-0.06461776
24	0xbe6790df	-0.22613858
25	0xbe210d4a	-0.15727726
26	0xbe4d36f3	-0.20040493
27	0xbe39d78e	-0.18148634
28	0xbdd6a0dd	-0.10479901
29	0xbdc283cf	-0.09497797
30	0xbe0759c1	-0.13217832
31	0xbc85b9bd	-0.016323918
32	0xbe08ae8c	-0.13347834
33	0xbdf666e4	-0.120313436
34	0xbd07f696	-0.033194147
35	0xbdbad5f5	-0.0912284
36	0x3d719dd8	0.058988422
37	0x3dbe35fa	0.09287639
38	0x3d639ce1	0.055569533
39	0xbda2a466	-0.07941513
40	0xbe211e4f	-0.15734218
41	0x3dba68b4	0.09102002
42	0xbe1ba722	-0.15200475
43	0xbe3cf886	-0.18454179
44	0xbe0a6868	-0.1351639
45	0xbd14af8f	-0.03630024
46	0xbd3734e4	-0.044728175
47	0xbcd22520	-0.025652468
48	0xbd54dce0	-0.051968455
49	0xbc962c38	-0.018331632
50	0xbe212759	-0.15737666
51	0x3d9cc7ad	0.07655273
52	0xbda4d6b7	-0.08048766
53	0xbc38192c	-0.01123647
54	0xbe02b7cc	-0.12765425
55	0xbdc669c1	-0.0968814
56	0xbd6875ac	-0.056752846
57	0xbcceca8e	-0.02524307
58	0xbcbf5051	-0.023353728
59	0xbd2eac26	-0.042644642
60	0xbe42b556	-0.19014487
61	0xbdce6b13	-0.100790165
62	0xbd3cd744	-0.04610373
63	0xbe179210	-0.14801812
64	0xbe16fa6f	-0.1474397
65	0xbde04a74	-0.10951701
66	0xbdff22a9	-0.12457783
67	0xbdc727d2	-0.09724392
68	0xbd81a87f	-0.06330966
69	0xbe0c62fb	-0.13709633
70	0xbe0b9db5	-0.13634379
71	0xbe0cd9fe	-0.13755032
72	0xbe936e90	-0.2879529
73	0xbe16946e	-0.14705059
74	0x3d756e0a	0.059919395
75	0x3d26ae91	0.040693823
76	0xbdeafa1f	-0.11473488
77	0xbdfacea7	-0.12246447
78	0xbd1ab1aa	-0.03776709
79	0xbb7d5547	-0.0038655566
80	0x3d77c390	0.060489237
81	0xbce6d9d5	-0.028180042
82	0xbe1503c4	-0.14552218
83	0xbdae1829	-0.08500702
84	0xbd02b44c	-0.031910226
85	0xbe462f4c	-0.1935398
86	0xbe05b434	-0.13057023
87	0xbe302be3	-0.17204241
88	0xbe5a72c0	-0.21332836
89	0xbe9d4155	-0.30713907
90	0xbe31f6c5	-0.17379291
91	0xbd9b218a	-0.075747564
92	0xbe0d0148	-0.1377002
93	0xbdf4566c	-0.11930546
94	0xbdb99da0	-0.09063268
95	0xbda35e08	-0.079769194
96	0xbe077161	-0.13226844
97	0x3ca87961	0.02056569
98	0xbdafccdb	-0.08583995
99	0xbe543ade	-0.20725581
100	0xbdffb6d6	-0.12486045
101	0x3d15abdc	0.03654085
102	0xbe905468	-0.28189397
103	0xbd8ffdba	-0.070308164
104	0xbd6cd827	-0.057823326
105	0xbe243e1f	-0.16039322
106	0x3dd117ae	0.10209595
107	0x3d875c6a	0.066094235
108	0xbe261c53	-0.16221742
109	0xbe659d71	-0.2242334
110	0xbdb6e684	-0.08930686
111	0xbe1b7899	-0.15182723
112	0xbddc0170	-0.10742462
113	0xbe80c3b4	-0.2514931
114	0xbcf8bd05	-0.030363569
115	0xbd433e8d	-0.047667075
116	0xbd104fe8	-0.035232455
117	0xbd7fd0aa	-0.062454857
118	0xbd6c9536	-0.057759486
119	0xbe05ae8c	-0.13054866
120	0x3d361f2f	0.044463333
121	0xbd87385f	-0.06602549
122	0xbe3a287d	-0.18179508
123	0x3d753629	0.059866104
124	0xbea0e8cd	-0.31427613
125	0xbe4c2e3f	-0.19939516
126	0xbe5d7261	-0.21625663
127	0xbcd2384a	-0.025661606
128	0x3ca4024f	0.020020632
129	0x3d25fb28	0.040522724
130	0xbd89fb0e	-0.06737338
131	0xbdcd2885	-0.10017494
132	0xbdbf75b9	-0.09348626
133	0x3da210e1	0.07913376
134	0xbcb7fcfc	-0.0224595
135	0xbbfdd74f	-0.007746614
136	0xbdec5014	-0.11538711
137	0xbe2dc0c7	-0.1696807
138	0xbe65e253	-0.22449617
139	0xbe2a4606	-0.16628274
140	0xbda5c112	-0.08093466
141	0xbd86a8e8	-0.06575185
142	0xbd2787c5	-0.040900964
143	0xbda52f37	-0.08065646
144	0xbde34f08	-0.110990584
145	0xbdad65b8	-0.08466667
146	0xbddfbd4f	-0.109247796
147	0xbe0be9f0	-0.13663459
148	0xbd3a1cef	-0.04543775
149	0xbd598e1f	-0.053114053
150	0xbda28f46	-0.079374835
151	0xbd564fba	-0.052322127
152	0xbdaedf34	-0.08538666
153	0xbe88923d	-0.2667407
154	0xbd999a7c	-0.07500169
155	0x3d04a929	0.032387886
156	0xbd26fa37	-0.040765967
157	0xbd2cbe69	-0.042173777
158	0xbdf68b2c	-0.12038264
159	0x3c041970	0.008062705
160	0xbd9d898f	-0.07692253
161	0xbe3d4899	-0.18484725
162	0xbe134eeb	-0.14385574
163	0xbe113938	-0.14181983
164	0xbe0f35b2	-0.13985327
165	0x3da97f34	0.08276215
166	0xbd116e1d	-0.035505403
167	0xbd9f6aa0	-0.07784009
168	0xbe521d2d	-0.20518942
169	0xbdfe8a3c	-0.1242871
170	0xbe785d97	-0.24254452
171	0xbdddd3c9	-0.108314104
172	0xbe5fead7	-0.21866928
173	0xbcb4c9c1	-0.02206886
174	0xbe94c546	-0.29056758
175	0xbe4ff0d7	-0.20306717
176	0xbe3ce806	-0.18447885
177	0xbdf8f149	-0.121553965
178	0xbdd4ec55	-0.10396639
179	0xbc192739	-0.00934773
180	0xbe4bd8ef	-0.19906972
181	0xbde4eced	-0.111780025
182	0xbda5bf9d	-0.08093188
183	0xbd37bca4	-0.044857636
184	0xbdbfd661	-0.093670614
185	0xbd93ec6b	-0.072228275
186	0xbe34653a	-0.1761674
187	0xbde8e86e	-0.113724574
188	0xbd789b4a	-0.06069497
189	0x3bbc10a5	0.005739289
190	0x3831d16f	4.239514e-05
191	0x3a7cc440	0.00096422806
192	0xbc21ae7a	-0.009868259
193	0xbd887937	-0.06663745
194	0xbd8bc1ae	-0.06824051
195	0xbd9c0368	-0.07617837
196	0xbd15b0d7	-0.0365456
197	0xbd18f307	-0.037341144
198	0x3ca087b6	0.019595962
199	0xbe57408b	-0.21020715
200	0xbd19546a	-0.03743402
201	0x3d8c2704	0.06843379
202	0x3dbf2a0a	0.0933419
203	0x3db81617	0.08988588
204	0xbdd5401b	-0.10412618
205	0xbd33a718	-0.043860525
206	0xbc91ad04	-0.017782696
207	0xbe06fe60	-0.13182974
208	0xbe1d34f9	-0.15352239
209	0xbd8cdfc2	-0.06878616
210	0xbe270651	-0.16311003
211	0xbd944136	-0.072390005
212	0xbdee741d	-0.116432406
213	0xbdf988d1	-0.12184299
214	0xbe050349	-0.12989534
215	0xbe0c06f3	-0.13674526
216	0x3dcbcd83	0.099513076
217	0xbe247cb0	-0.1606319
218	0xbd96e2a8	-0.0736745
219	0xbdfda7d1	-0.12385524
220	0xbd105fc1	-0.035247568
221	0xbdd54cf8	-0.10415071
222	0xbd8acdee	-0.06777559
223	0x3cca0a0f	0.024663
224	0xbe975797	-0.29559013
225	0xbe6bbdca	-0.23021618
226	0xbd1eaa70	-0.03873676
227	0xbe824037	-0.25439617
228	0xbda3efc7	-0.08004718
229	0xbe99745a	-0.29971582
230	0xbc8c9d4f	-0.017164854
231	0x3c3d97c2	0.011571826
232	0xbdbef1ff	-0.09323501
233	0xbcc5f453	-0.024164354
234	0xbde636fc	-0.11240956
235	0x3c67bb08	0.014143713
236	0x3d10f0ec	0.03538601
237	0xbda4c33b	-0.0804505
238	0xbb8044a3	-0.003914432
239	0xbe06cde8	-0.13164485
240	0xbd8afe7e	-0.06786822
241	0x3de1bb12	0.11022009
242	0x3d129a10	0.035791457
243	0xbdc93413	-0.098243855
244	0xbde61a56	-0.11235492
245	0xbd83a1b6	-0.06427328
246	0xbd9be155	-0.07611338
247	0xbe438273	-0.19092731
248	0xbe037dba	-0.1284093
249	0xbe2ef3d3	-0.17085199
250	0xbe52fd4f	-0.20604442
251	0xbe549fd9	-0.20764102
252	0xbd92517a	-0.07144447
253	0xbd89bce3	-0.067254804
254	0xbe168296	-0.14698252
255	0xbd2f216a	-0.042756476

module.cnn.2.bias f4 [64]
0	0xbe4e0202	-0.20117953
1	0xbe8bca5e	-0.2730283
2	0xbe7eaac1	-0.24869825
3	0xbe984c39	-0.29745653
4	0xbdf05acc	-0.11736068
5	0xbdb072c9	-0.086156435
6	0xbd3ef636	-0.046621524
7	0xbd467dfd	-0.048459996
8	0xbdce9d07	-0.10088544
9	0x3fb03210	1.3765278
10	0xbe98a711	-0.29814962
11	0xbd203a25	-0.03911795
12	0xbddc5ac8	-0.10759503
13	0xbdbd574e	-0.09245168
14	0xbdb0f56c	-0.086405605
15	0xbea2c66c	-0.3179201
16	0xbeabf02f	-0.33581683
17	0xbf02af36	-0.510486
18	0xbdbcd0fd	-0.09219549
19	0xbe6f6506	-0.23378381
20	0xbdf3923d	-0.11893127
21	0xbe641260	-0.22272635
22	0x3c97605c	0.018478565
23	0xbe5ecb8f	-0.21757339
24	0xbe815e99	-0.25267485
25	0xbea15c43	-0.31515703
26	0xbdd7073a	-0.10499425
27	0xbdcdf7ab	-0.100570045
28	0xbd794a2a	-0.060861744
29	0xbe2813f4	-0.16413862
30	0xbd4036ff	-0.04692745
31	0xbe1e37f2	-0.15451029
32	0xbe35c9c3	-0.17752747
33	0xbe484276	-0.19556603
34	0xbded04e4	-0.115731984
35	0xbda58d6b	-0.08083614
36	0xbdf6369a	-0.12022133
37	0xbe3db0c8	-0.18524468
38	0xbd947d4d	-0.07250462
39	0xbd5d1854	-0.05397828
40	0xbdff5965	-0.124682225
41	0xbdcb652d	-0.09931407
42	0xbe1ef7fd	-0.15524288
43	0xbeb8abe6	-0.36068648
44	0xbe2cb6ad	-0.1686656
45	0xbd885a4e	-0.06657849
46	0xbda9dec8	-0.08294445
47	0xbdccae82	-0.09994222
48	0xbddedf67	-0.10882454
49	0xbe65be5c	-0.22435898
50	0xbd522a63	-0.051309954
51	0xbd646d4b	-0.055768292
52	0xbe20dcc6	-0.15709218
53	0xbe0c8076	-0.13720879
54	0xbe8839f9	-0.2660673
55	0xbd7cc83a	-0.06171439
56	0xbe578768	-0.21047747
57	0xbda1c56e	-0.07898985
58	0xbe278d1c	-0.16362423
59	0xbec77e8c	-0.38963735
60	0xbd20aebf	-0.03922915
61	0xbd67531f	-0.056475755
62	0xbe0e4b52	-0.1389592
63	0xbd2fd9cb	-0.042932313

module.cnn.4.weight f4 [64, 64, 3, 3]
0	0xbced6ef7	-0.028983576
1	0x3defe6ec	0.11713967
2	0xbe03d2f2	-0.12873438
3	0xbdfe5df1	-0.12420262
4	0xbdac61f0	-0.084171176
5	0x3bad3abb	0.0052865422
6	0x39676122	0.00022066062
7	0x3c872701	0.01649809
8	0x3e044ded	0.12920351
9	0xbda55a47	-0.0807386
10	0xbe257ca0	-0.16160822
11	0xbc0d04af	-0.008607074
12	0xbe496321	-0.19666721
13	0xbe186be7	-0.14884911
14	0x3e146ca3	0.14494567
15	0xbdf09073	-0.117463015
16	0x3d29a532	0.04141731
17	0x3d804130	0.062624335
18	0x3d90706a	0.07052691
19	0xbe3de918	-0.1854595
20	0xbe0f0f33	-0.13970642
21	0x3daaf977	0.08348363
22	0x3d621087	0.055191543
23	0xbcd59194	-0.026070394
24	0x3c09f35b	0.008419837
25	0xbd2316d0	-0.039816678
26	0xbd8e6c7b	-0.06954285
27	0xbc6c14e3	-0.014409277
28	0xbc9fa7e9	-0.019489245
29	0x3ce21b1b	0.027600816
30	0xbbdb748b	-0.0066972426
31	0x3dff0927	0.124529175
32	0xbbd86e46	-0.0066049425
33	0x3d1cf95a	0.038323738
34	0x3c645cfb	0.013938184
35	0x3cf7897d	0.030216927
36	0xbd212189	-0.039338622
37	0xbc107214	-0.008816261
38	0x3d1bf45b	0.038074832
39	0xbcd4bf1a	-0.02597003
40	0xbd15754d	-0.03648882
41	0x3cce3255	0.025170485
42	0x3bf199e3	0.007373081
43	0x38e8cb6a	0.00011100511
44	0xbbba3c7d	-0.0056834803
45	0xbd285bfa	-0.04110334
46	0x3ba7dd1a	0.005122793
47	0xbd2348ff	-0.039864536
48	0xbd258fa9	-0.040420208
49	0x3be053a1	0.006845907
50	0xbcb9f737	-0.022700889
51	0x3b765b66	0.0037591099
52	0x3ac62328	0.0015116679
53	0xbc8583c2	-0.016298179
54	0xbcbaba26	-0.02279384
55	0x3cec0cbc	0.028814666
56	0x3c921bf3	0.017835593
57	0xbc0c78f4	-0.008573759
58	0x3c245723	0.010030541
59	0x3b60c703	0.0034298308
60	0xbbae0f25	-0.005311864
61	0xbbe1dec3	-0.0068930103
62	0xbc3a88d1	-0.011385159
63	0xbd136905	-0.035988826
64	0xbb5b5fff	-0.0033473966
65	0xbc852310	-0.01625207
66	0xbcd3c033	-0.025848484
67	0xbce121e8	-0.027481988
68	0xbc90fb86	-0.01769806
69	0x3ba09bce	0.004901386
70	0xbb4cfb84	-0.0031277845
71	0xbb905eaf	-0.0044058184
72	0xbe24da41	-0.16098882
73	0xbc8f71d5	-0.017510334
74	0x3dca6212	0.09881987
75	0x3d7eeb4b	0.06223611
76	0x3bd34949	0.0064479453
77	0x3c919d03	0.017775064
78	0xbced9caa	-0.029005367
79	0x3e28137b	0.16413681
80	0x3dc0b3b2	0.09409274
81	0xbe4cb95c	-0.19992584
82	0xbe6f62c5	-0.23377521
83	0xbf25893f	-0.64662546
84	0xbe8bb5d6	-0.27287167
85	0xbf052463	-0.52008647
86	0xbf0a93d1	-0.541318
87	0xbeb8becf	-0.36083075
88	0xbe71c436	-0.23610005
89	0xbf1c2145	-0.60988265
90	0xbdcf59f3	-0.10124578
91	0xbe71a5a4	-0.23598343
92	0xbdd83793	-0.10557475
93	0xbeca91b3	-0.39564285
94	0xbf30f36e	-0.69121444
95	0x3d2df0b0	0.042465866
96	0xbe38e874	-0.18057424
97	0xbe5e3c10	-0.217026
98	0x3e0dde0c	0.13854235
99	0xbce85139	-0.028359042
100	0xbbb9abb4	-0.0056662206
101	0xbc9c4b53	-0.019078886
102	0xbc0dab7b	-0.008646841
103	0xbc869140	-0.016426682
104	0xbcfc7270	-0.030816287
105	0xbc90c7a1	-0.017673315
106	0x39ebf465	0.0004500478
107	0xbcb52723	-0.022113388
108	0xbc8382f7	-0.01605366
109	0x3c36c47b	0.011155243
110	0xbbd069d6	-0.006360273
111	0xbc33bcbc	-0.010970291
112	0x3c2702ab	0.010193507
113	0xbc1a53bf	-0.009419381
114	0x3cf39f4d	0.029739046
115	0xbc611976	-0.0137389805
116	0xbc7bc057	-0.015365682
117	0xbd0d685a	-0.034523346
118	0xbc8205c7	-0.015871895
119	0xbc89de5d	-0.016829664
120	0xbcec867e	-0.028872725
121	0xbd583a43	-0.052789938
122	0x3bf5fd9e	0.00750704
123	0x3c1bfc42	0.009520592
124	0xbc8167f1	-0.015796633
125	0x3bf2f877	0.007414873
126	0xbd026503	-0.031834614
127	0xbba781ac	-0.0051118936
128	0x3c0da572	0.008645402
129	0x3c48befe	0.012252567
130	0xbde572f8	-0.11203569
131	0x3b4784ef	0.0030444225
132	0xbc27caeb	-0.0102412505
133	0xbcec60ff	-0.028854845
134	0xbbb43979	-0.0055000153
135	0x3daae698	0.083447635
136	0x3e2019f9	0.15634908
137	0x3eb9ecc7	0.3631346
138	0xbbb75cdf	-0.005595788
139	0x3dad2e26	0.08456068
140	0x3e3e60e0	0.18591642
141	0xbd14e6eb	-0.036353033
142	0xbe3a4c82	-0.18193248
143	0x3d38fbbe	0.045161955
144	0xbab5171d	-0.0013816092
145	0x3e981dc9	0.29710224
146	0x3e3288f4	0.17435056
147	0xbd4b5997	-0.049645986
148	0xbe8063c0	-0.25076103
149	0x3dd5b640	0.10435152
150	0xbd832a68	-0.06404573
151	0x3dc20b15	0.0947477
152	0xbdbc5d2b	-0.09197458
153	0xbe903980	-0.2816887
154	0xbe01f198	-0.12689817
155	0xbe84082c	-0.25787485
156	0x3df13193	0.11777034
157	0xbdf0a53f	-0.11750268
158	0x3d3eee00	0.046613693
159	0xbe041f07	-0.12902461
160	0x3e4b25b1	0.19838597
161	0xbe14d7a3	-0.14535384
162	0xbe9ca4be	-0.30594438
163	0x3e4a2d16	0.19743761
164	0xbe2912c2	-0.16511062
165	0x3e2347b9	0.15945329
166	0x3eb4002d	0.35156384
167	0x3e494fd6	0.19659361
168	0xbdf1ae3a	-0.11800809
169	0x3f1091b4	0.56472325
170	0xbd0d65f5	-0.034521062
171	0x3df0656e	0.11738096
172	0xbcaccb8d	-0.021093154
173	0x3d94ac6f	0.072594516
174	0x3da98512	0.08277334
175	0x3beaa3fb	0.0071606613
176	0x3d92e67b	0.07172867
177	0x3dae3dae	0.08507858
178	0x3d9a1085	0.07522682
179	0x3e1f1f80	0.1553936
180	0xbd11bc7f	-0.035580155
181	0x3d73b3d4	0.05949767
182	0xbd05f336	-0.032702647
183	0xbc9b4d77	-0.018957837
184	0xbd436c8d	-0.047710944
185	0xbcae63b7	-0.021287782
186	0xbd0c14b5	-0.034199435
187	0xbdc67f08	-0.09692198
188	0xbbb0c9ac	-0.005395135
189	0xbdccec19	-0.100059696
190	0x3d126605	0.035741825
191	0xbe060fc1	-0.13091947
192	0xbdf46492	-0.11933245
193	0x3e2d681a	0.16934243
194	0xbe19f0e6	-0.15033302
195	0xbbf1fad0	-0.0073846355
196	0xbe9f8e50	-0.31163263
197	0x3ddbb920	0.10728669
198	0xbea6f184	-0.32606137
199	0xbe1e5f88	-0.1546613
200	0xbcebcadb	-0.028783252
201	0xbe800cc4	-0.2500974
202	0x3e38081a	0.1797184
203	0xbc9d1eb3	-0.019179678
204	0x3d91e6c6	0.07124095
205	0x3e81f94a	0.25385505
206	0xbebee201	-0.37281802
207	0x3dbcd485	0.092202224
208	0x3e31e10b	0.17371003
209	0xbda29872	-0.07939233
210	0xbcdcd1e7	-0.026955558
211	0x3dcc9cf6	0.099908754
212	0xbe0f4347	-0.13990508
213	0x3d803ae0	0.062612295
214	0xbe698ca2	-0.22807553
215	0xbe1a761e	-0.1508412
216	0xbcfe93ae	-0.031076279
217	0xba30dee9	-0.00067470834
218	0xbc96fb87	-0.018430484
219	0xbd510341	-0.051028494
220	0xbd1b9e4f	-0.03799277
221	0x39829307	0.00024905076
222	0xbce7fd32	-0.028318975
223	0xbe378e25	-0.17925318
224	0xbc248841	-0.010042251
225	0xbea0dc1c	-0.3141793
226	0xbe1d9935	-0.15390475
227	0xbeb68645	-0.35649315
228	0xbd89a4b9	-0.067208715
229	0xbde186b5	-0.110120215
230	0xbe65db77	-0.22447
231	0xbd98f694	-0.07468906
232	0xbd65fb1c	-0.05614768
233	0xbd248560	-0.04016626
234	0x3c1e3ad3	0.0096575795
235	0xbcf60438	-0.030031309
236	0xbd292839	-0.041298125
237	0xb86e49f5	-5.68125e-05
238	0xbc86ac19	-0.016439484
239	0xba99c0d9	-0.0011730447
240	0xbbea7b41	-0.0071558063
241	0xbad2c294	-0.0016079717
242	0x3bfb3286	0.007665935
243	0xbcb05e98	-0.02152948
244	0xbcb04135	-0.021515468
245	0xbc9b15b5	-0.01893125
246	0xbcee1158	-0.029061005
247	0xbd06b877	-0.032890763
248	0x3c2f06e4	0.010682795
249	0xbb2a1b77	-0.0025956312
250	0xbca1231e	-0.019670065
251	0x3bd615ee	0.006533376
252	0x3d12ac92	0.035809107
253	0xbdd45be5	-0.1036909
254	0x3da51a19	0.08061618
255	0x3deffd52	0.11718239

module.cnn.4.bias f4 [64]
0	0xbf191551	-0.5979815
1	0xbf131641	-0.5745583
2	0xbf05d6c8	-0.52280855
3	0x3e2f5b9c	0.1712479
4	0xbdef17f3	-0.1167449
5	0x3f89bdb7	1.0761021
6	0xbebaa86e	-0.36456627
7	0x3e11dbe6	0.14244041
8	0xbead5c12	-0.33859307
9	0xbebc380b	-0.36761507
10	0xbd347afa	-0.044062592
11	0xbde67822	-0.11253382
12	0xbe2b6c7a	-0.167406
13	0xbe85a8d7	-0.26105377
14	0x3dc79b87	0.09746461
15	0xbf29b555	-0.66292316
16	0xbea0e5af	-0.31425235
17	0xbf3b0932	-0.73060906
18	0xbe50a066	-0.20373687
19	0x3e7fb494	0.24971229
20	0x3b486004	0.0030574808
21	0xbe5f7e73	-0.2182558
22	0x3da189e8	0.07887632
23	0xbe734a3d	-0.23758788
24	0xbdd786ff	-0.10523795
25	0xbf4e33df	-0.805479
26	0xbf116a83	-0.5680315
27	0xbee31d1e	-0.44358152
28	0xbf49437a	-0.78618586
29	0xbaec9413	-0.0018049501
30	0x3d0a8fd8	0.033828586
31	0xbed64852	-0.4185205
32	0xbf06b0e1	-0.52613646
33	0xbf1229c2	-0.5709497
34	0xbe99304b	-0.29919657
35	0x3c6b137f	0.01434791
36	0x3da044a2	0.07825591
37	0xbd931b19	-0.07182903
38	0x3e38fb05	0.18064506
39	0xbf23bbcb	-0.63958424
40	0xbf154777	-0.5831217
41	0xbebbc4ee	-0.36673683
42	0xbf35af59	-0.70970684
43	0xbf725c61	-0.9467221
44	0xbf0ed554	-0.5579426
45	0xbf223c5e	-0.63373363
46	0xbe886f5b	-0.26647457
47	0xbf151ee0	-0.58250237
48	0xbeb9fcf0	-0.36325788
49	0xbe7d0d0b	-0.24712007
50	0xbe4450a7	-0.19171391
51	0xbf1bcd55	-0.60860187
52	0x3dad5a39	0.08464474
53	0xbf3c6dfa	-0.7360531
54	0xbe82775e	-0.25481695
55	0xbdad0d33	-0.08449783
56	0xbf6b50cf	-0.9192018
57	0x3f0b3eba	0.5439259
58	0x3e82f8af	0.25580356
59	0xbdda9b5d	-0.106741644
60	0xbad2d4b3	-0.0016085118
61	0xbe984bbd	-0.29745284
62	0xbf0d151b	-0.5511033
63	0xbf58d32c	-0.8469722

module.cnn.6.weight f4 [64, 64, 3, 3]
0	0x3c924aee	0.017857995
1	0xbc3d53cc	-0.011555623
2	0x39d1a08a	0.00039983197
3	0x3c043175	0.008068432
4	0xbc4590fe	-0.012058495
5	0x3c30a449	0.010781356
6	0x3c5c9764	0.013463829
7	0x3c1893a7	0.009312547
8	0xbaaeccdc	-0.0013336199
9	0x3aa359a0	0.0012462623
10	0x3c8ef9c6	0.017453086
11	0xbccda4f4	-0.02510307
12	0x3c9e362c	0.01931294
13	0xbd13d4fb	-0.036091786
14	0xbc9668a5	-0.018360445
15	0xbc7d3fa0	-0.015457064
16	0xbbd13f73	-0.0063857376
17	0x3bf96cb4	0.0076118354
18	0x3c866355	0.016404787
19	0x3c87dba2	0.016584221
20	0x3b0c31bb	0.0021391946
21	0x3c42853f	0.011872589
22	0xbb2ca025	-0.002634057
23	0xbd25147d	-0.040302742
24	0xbccc9f13	-0.024978196
25	0xbd021b60	-0.031764388
26	0xbcb748f7	-0.02237366
27	0x3ab1dbcd	0.0013569534
28	0xbc8d7575	-0.017267922
29	0xbcb56180	-0.022141218
30	0xbd9aa015	-0.075500645
31	0x3bbf1d6a	0.005832364
32	0xbd97424d	-0.07385693
33	0xbbff7f42	-0.0077971527
34	0x3c855531	0.016275974
35	0xbdcc5d6b	-0.099787556
36	0xbcbbcd51	-0.02292505
37	0xbd2eb377	-0.04265162
38	0x3aa15a4b	0.0012310235
39	0x3bbced89	0.005765621
40	0xbaf9134b	-0.0019002942
41	0x3ba340ca	0.0049820887
42	0xbc49fb68	-0.012328006
43	0xbc466afa	-0.012110466
44	0xbd08d530	-0.033406436
45	0xbc7483b1	-0.014923976
46	0x3c276884	0.01021779
47	0xbc895e6e	-0.01676866
48	0xbc19c51f	-0.009385376
49	0x3c7e8286	0.015534049
50	0xbdbae61c	-0.09125921
51	0x3c0dc93d	0.008653936
52	0x3a05b6de	0.00051007967
53	0xbdbc1133	-0.09182968
54	0x3bddce02	0.006768943
55	0xbc656843	-0.014001909
56	0xbc802a03	-0.015645033
57	0x3c83d6a0	0.016093552
58	0xbc828d65	-0.015936563
59	0xbc69cd3b	-0.014270122
60	0x3bd27442	0.0064225504
61	0xbd131ac6	-0.035914205
62	0xbc348a84	-0.011019353
63	0x3c6b8b67	0.014376498
64	0x3cc1c7a6	0.02365477
65	0xbcb553b5	-0.022134641
66	0x3beb6f84	0.0071849246
67	0xbdb5cf56	-0.08877437
68	0xbd3c4cbc	-0.045971617
69	0x3cc9f28a	0.024651784
70	0xbba01669	-0.004885484
71	0xbdc44975	-0.09584323
72	0xbc699705	-0.014257197
73	0xbc616cb8	-0.013758831
74	0x3b1d3b4a	0.0023991638
75	0xbb95797d	-0.0045616017
76	0xba6e417a	-0.0009088736
77	0x3c06fcad	0.008238954
78	0xbc8a76ed	-0.016902411
79	0xbd02da35	-0.03194638
80	0xbabe5121	-0.0014520028
81	0x3c713464	0.014721964
82	0xbc81af05	-0.015830526
83	0xbb2a7915	-0.0026012112
84	0x3c766611	0.015038983
85	0xbc1ad2c0	-0.009449661
86	0xbc9b398f	-0.018948345
87	0x3b80cb47	0.0039304825
88	0xbb6b9264	-0.003594541
89	0xbc9253c9	-0.017862218
90	0xbcbf2d4a	-0.023337025
91	0xbd1aa5c4	-0.037755743
92	0xbccd7e04	-0.025084503
93	0xbc4d2b50	-0.012522534
94	0xba82ce97	-0.0009979781
95	0x3be89130	0.007097386
96	0x3be28132	0.006912374
97	0xbcd34c8a	-0.025793333
98	0xbcd36e3d	-0.025809402
99	0xbc801593	-0.015635287
100	0x3a2e19fc	0.0006641445
101	0x3adc91e1	0.0016828143
102	0xbd5f4835	-0.05451222
103	0xbdc78ca5	-0.09743623
104	0xbd629c25	-0.055324692
105	0xba951f34	-0.0011377097
106	0xbca7e306	-0.020493995
107	0xbd846636	-0.06464808
108	0x3be305b8	0.006928172
109	0x3bce3fbb	0.0062942184
110	0x3cb68db9	0.022284376
111	0xbcaa7ff7	-0.020812972
112	0x3c342ee3	0.010997507
113	0x3c4ececf	0.012622549
114	0x3cb790c5	0.022407899
115	0xbc9f6d2d	-0.019461239
116	0xbd0357b0	-0.032066047
117	0xbcad5bb9	-0.0211619
118	0xbd247dcf	-0.040159043
119	0xbc3786b8	-0.011201553
120	0xbcb353bb	-0.021890512
121	0xbc98bcfe	-0.018644806
122	0x3a90721b	0.0011020334
123	0xbc9954da	-0.018717218
124	0xbd1e7db4	-0.0386941
125	0xbce6f2ed	-0.028192008
126	0xbb32789d	-0.0027232536
127	0xbce384be	-0.027773257
128	0x3ad4a7c9	0.001622432
129	0x3c3e5984	0.011618022
130	0xbb964abb	-0.0045865453
131	0xbda432c4	-0.08017495
132	0x3c0a071b	0.008424546
133	0xbc8eb2fe	-0.017419335
134	0xbdb764b8	-0.089547575
135	0xbc7d8515	-0.015473624
136	0x3c100069	0.00878916
137	0xbce50589	-0.02795674
138	0xbc94595e	-0.01810902
139	0x3c6ec0c1	0.014572323
140	0x3c13267c	0.008981343
141	0xbc5d202b	-0.013496439
142	0xbbd90083	-0.0066223755
143	0x3c1a83f3	0.009430873
144	0xbcc15b9c	-0.023603253
145	0x3c28e133	0.010307598
146	0x3b36c3e2	0.0027887751
147	0xbc39a2a4	-0.01133028
148	0xbc67f21e	-0.014156846
149	0xbca87ee0	-0.020568311
150	0xbcb73bb9	-0.022367345
151	0xbc09f4f5	-0.008420219
152	0x3b7388da	0.0037160427
153	0xbab031a3	-0.0013442527
154	0xb9304650	-0.00016810861
155	0xbcb03c8d	-0.021513248
156	0x3ca816ab	0.020518621
157	0xba23b332	-0.0006244659
158	0xbc40ed64	-0.011775348
159	0x3c5ba22b	0.013405363
160	0x39bcdb75	0.00036021663
161	0x3c16154a	0.009160349
162	0x3cc9c4fc	0.024630062
163	0x3be7abf5	0.0070700594
164	0x3b72d5b7	0.0037053654
165	0xbcc76345	-0.024339328
166	0x3a84c6ea	0.0010130082
167	0xbc3f53d8	-0.011677705
168	0xbc506dd4	-0.012721498
169	0xbb822e5b	-0.003972811
170	0xbce3e51c	-0.027819209
171	0xbc4c8908	-0.012483843
172	0xbc46421e	-0.0121007245
173	0x3cc9e1ef	0.024643866
174	0xbc4158e2	-0.0118009765
175	0xbc1bdcd1	-0.009513096
176	0xbd0e3eb4	-0.034727767
177	0xbdba7a14	-0.09105316
178	0xbdb486df	-0.08814787
179	0x3c369bf5	0.0111455815
180	0x3cbae90d	0.022816205
181	0xbc71c769	-0.014757016
182	0xbc503abc	-0.012709316
183	0x3bf7202f	0.0075416784
184	0x3ca51686	0.020152342
185	0xbc8c1322	-0.017098967
186	0xbc741515	-0.0148976045
187	0xba8bba6b	-0.0010660415
188	0x3cc93fe3	0.024566596
189	0xbc97be2d	-0.0185233
190	0xbbfb7fb9	-0.007675138
191	0xbd02138f	-0.031756934
192	0xbd6ca71e	-0.057776563
193	0xbdca6391	-0.09882272
194	0x3b87b469	0.0041413796
195	0xbd7e8b0d	-0.062144328
196	0xbdb53d49	-0.0884958
197	0x3ae1f335	0.0017238619
198	0x3bcd189e	0.006259038
199	0xbc5d9dbe	-0.013526378
200	0xbba01f00	-0.004886508
201	0x3ca80274	0.020508982
202	0xbcce81be	-0.02520835
203	0xbba32ea8	-0.004979927
204	0x3c5c0b38	0.013430409
205	0x3cbb07da	0.022830892
206	0x3b00d373	0.0019657284
207	0x3960e365	0.00021447016
208	0x3c5c8b79	0.013460987
209	0xbcc05b6a	-0.02348109
210	0xba433fcb	-0.00074481656
211	0x3c414c42	0.011797966
212	0xbb33be1a	-0.0027426542
213	0xbc4d53a2	-0.012532147
214	0x3b5004fa	0.0031741248
215	0xbbfe7065	-0.0077648633
216	0xbc2eaf61	-0.010661931
217	0x3b740b36	0.0037238128
218	0xbd068f02	-0.032851227
219	0xbd547fde	-0.051879756
220	0xbdcde7e6	-0.10053997
221	0xbd03fb92	-0.032222338
222	0xbdc6d56e	-0.09708677
223	0xbcbb1506	-0.022837173
224	0xbca6c551	-0.02035776
225	0x3c57304c	0.0131340735
226	0x3bad1979	0.0052825776
227	0xbac40fe0	-0.0014958344
228	0x3c777c12	0.015105264
229	0xbb2d0105	-0.0026398313
230	0xbd0c269e	-0.034216516
231	0x3c97782e	0.018489923
232	0xbb98072e	-0.0046395278
233	0x3a9d7a40	0.0012014583
234	0xbb60bde2	-0.0034292866
235	0x3bb8d8b3	0.005641067
236	0xbd0a0855	-0.033699352
237	0x3c852da5	0.016257117
238	0xbd0d05cb	-0.034429353
239	0xbc1938c2	-0.009351911
240	0xbc1620f6	-0.009163132
241	0xbd23e77c	-0.040015683
242	0xbb272d79	-0.0025509282
243	0x3c889dfe	0.016676899
244	0xbc9c2478	-0.019060358
245	0xbcdc96c1	-0.026927354
246	0x3cc5e459	0.024156736
247	0xbca767f6	-0.020435315
248	0xbcaca191	-0.021073135
249	0xbc2f0129	-0.010681429
250	0xbc91ac8f	-0.017782478
251	0xbd2cfec9	-0.04223517
252	0xbbc02fb8	-0.0058650635
253	0xbca9831d	-0.020692402
254	0xbc4fcdee	-0.012683375
255	0x3bbb17e9	0.0057096374

module.cnn.6.bias f4 [64]
0	0xbddbca06	-0.10731892
1	0xbd92227a	-0.07135482
2	0xbdaadd6d	-0.08343015
3	0xbf2dcc33	-0.6788971
4	0xbdaaa52c	-0.08332285
5	0x3db613c2	0.08890487
6	0xbf01ba2c	-0.506747
7	0x3e4c5871	0.19955613
8	0xbe6365d9	-0.2220682
9	0xbd3b5875	-0.045738656
10	0xbf24e6f1	-0.6441489
11	0xbeaf75fb	-0.342697
12	0x3d64e8a8	0.05588594
13	0xbddf440a	-0.10901649
14	0xbe055c41	-0.13023473
15	0xbe183dc2	-0.14867309
16	0xbe906bb1	-0.28207162
17	0x3e15f52b	0.14644305
18	0xbe22ee37	-0.15911184
19	0xbee8ef1e	-0.45494932
20	0xbccf1f43	-0.025283461
21	0xbd379bfa	-0.044826485
22	0xbe1b18f4	-0.15146238
23	0xbd8933a2	-0.06699301
24	0xbeb1b820	-0.3471079
25	0xbe9a9bee	-0.3019709
26	0xbc966879	-0.018360363
27	0xbd0c7f57	-0.03430113
28	0x3e75364d	0.23946495
29	0xbf7b2027	-0.98095936
30	0xbe154b7d	-0.14579578
31	0xbf10d68a	-0.5657736
32	0xbdcab5f4	-0.09897986
33	0xbe9900d7	-0.29883453
34	0xbe504fec	-0.20342988
35	0xbe698c28	-0.22807372
36	0xbe8d449e	-0.27591413
37	0xbe440d0c	-0.19145602
38	0xbeb36007	-0.350342
39	0xbd670c88	-0.056408435
40	0xbd982889	-0.074296065
41	0xbe840a9c	-0.25789344
42	0xbdc0ce3d	-0.09414337
43	0xbceeac92	-0.029135022
44	0xbd5cc566	-0.05389919
45	0xbdbbefe8	-0.09176618
46	0xbe090796	-0.133818
47	0xbd4f2b8a	-0.05057863
48	0x3d1fa6c9	0.038977418
49	0xbe148f4f	-0.14507793
50	0xbe300bf4	-0.1719206
51	0xbd42ea2a	-0.047586598
52	0xbebe1fe6	-0.37133712
53	0xbdfc5281	-0.12320424
54	0xbe114b0f	-0.14188789
55	0xbdd59b1c	-0.104299754
56	0xbd240221	-0.040041093
57	0xbdc9928a	-0.09842403
58	0xbd9b2197	-0.07574766
59	0x3f053d10	0.520463
60	0xbeaa7712	-0.33293968
61	0xbe18ebbb	-0.14933674
62	0xbf40d1b0	-0.7531996
63	0xbd0bebf3	-0.034160566

module.cnn.8.weight f4 [64, 64, 3, 3]
0	0xbbba4fb6	-0.005685772
1	0xbc6e3e7e	-0.0145412665
2	0x3c04ef5d	0.008113709
3	0xbca8d5b5	-0.020609716
4	0x3ca46b55	0.020070711
5	0xbc81d050	-0.015846401
6	0xbb984ccd	-0.0046478272
7	0x3d11407f	0.0354619
8	0x395b5953	0.00020918743
9	0xbc62277c	-0.013803359
10	0xbae133c8	-0.001718157
11	0xbc923023	-0.017845219
12	0x3bbb6936	0.005719329
13	0xbc830f30	-0.015998453
14	0x3cf003b4	0.02929864
15	0x3ca3f680	0.020015001
16	0x3d129620	0.0357877
17	0x3c29bf85	0.010360603
18	0x3b36b7c9	0.002788054
19	0xbc8e10d7	-0.017342014
20	0x3b881d54	0.004153887
21	0xbb54649c	-0.00324086
22	0xbc88f995	-0.016720572
23	0x3c720725	0.014772211
24	0x3c750e9d	0.014957097
25	0xbb4120c3	-0.002946899
26	0x3cc36e78	0.023856387
27	0xbc478c7c	-0.01217949
28	0xbc4d8676	-0.012544265
29	0x3cb851e9	0.022499995
30	0x3c2f58e2	0.010702344
31	0x3db9559f	0.09049534
32	0x3f4894c5	0.78352004
33	0xbc10da65	-0.008841132
34	0x3dcb7ffb	0.0993652
35	0x3e62ef96	0.22161707
36	0x3c9966ad	0.018725717
37	0xbc6f3141	-0.014599145
38	0xbc1b241f	-0.009469061
39	0x3cb5a63d	0.022173995
40	0x3c22f3c8	0.009945817
41	0xbcb5b06a	-0.022178847
42	0xbbcb21ad	-0.006199083
43	0xbe2d51e8	-0.16925776
44	0xbc4067e2	-0.011743518
45	0x3b4e04dd	0.0031436004
46	0xbbc84018	-0.006111156
47	0x3befbe6a	0.0073164003
48	0xbcbddea5	-0.023177454
49	0x3e619d35	0.22032626
50	0xbe896719	-0.2683647
51	0xbbe264b8	-0.0069089793
52	0xbc3e4cd0	-0.011614993
53	0x3cbb6d97	0.022879405
54	0xbc9a4f58	-0.018836662
55	0xbcbea299	-0.023270892
56	0x3b091e0a	0.0020922446
57	0xbc44abb4	-0.012003828
58	0x3db6061c	0.08887884
59	0x3ecbe2dc	0.39821517
60	0x3c9bfcd2	0.019041453
61	0x3f082ca2	0.53193104
62	0x3e97beec	0.2963785
63	0x3bf2151a	0.0073877694
64	0xbc475f97	-0.0121687865
65	0x3bb9de72	0.0056722695
66	0xbcc0f0d3	-0.023552334
67	0xbedf71bb	-0.43641457
68	0xbf5b794f	-0.8573198
69	0x3c0a4744	0.008439843
70	0x3e22450a	0.15846649
71	0x3d92fe29	0.071773835
72	0xbcb53e18	-0.022124335
73	0x3c519025	0.012790714
74	0xbc55005d	-0.013000575
75	0x3cc2f684	0.023799188
76	0x3d8cc1c6	0.06872897
77	0x3d3004f8	0.04297349
78	0xbbf01cfe	-0.007327675
79	0xbd8c4f9d	-0.068511225
80	0x3e10ea5b	0.141519
81	0xbc94c6ec	-0.01816126
82	0x3cc46467	0.023973657
83	0xbc04d832	-0.008108186
84	0xbc3661e1	-0.011131735
85	0xbc878202	-0.016541485
86	0xbc6f7d5d	-0.014617291
87	0x3ca21fa5	0.01979048
88	0xbc989da7	-0.018629862
89	0xbc68e0e8	-0.014213778
90	0x3c7a3139	0.015270525
91	0x3c5e87d8	0.013582192
92	0xbcaa6757	-0.02080123
93	0x3bc5ef24	0.0060404707
94	0xbe28a448	-0.16468918
95	0x3dd3b289	0.10336787
96	0x3bee0fca	0.007265066
97	0x3e992efb	0.29918656
98	0xbf30059f	-0.6875858
99	0x3c770c1e	0.015078573
100	0x3b9b9123	0.0047475263
101	0xbcc07ed2	-0.023497973
102	0x3c55a86a	0.013040641
103	0x3e05eabb	0.13077824
104	0xbe05a4c0	-0.13051128
105	0x3c30e070	0.010795698
106	0x3e50578f	0.20345901
107	0x3d807549	0.0627237
108	0x3c465939	0.012106233
109	0x3a387fdf	0.0007038097
110	0x3a3dc9e5	0.00072398625
111	0x3c476f98	0.012172602
112	0x3c6f7faf	0.0146178445
113	0xbf42043d	-0.7578772
114	0x3c8a73fd	0.01690101
115	0x3ef118cb	0.47089228
116	0x3ea249c8	0.31696916
117	0x3bae0b06	0.0053113727
118	0xbcc37d90	-0.023863584
119	0xbca076e0	-0.019587934
120	0xbbf76326	-0.007549661
121	0xbc4e4ac8	-0.012591071
122	0xbd061925	-0.032738823
123	0x3c49dc29	0.012320557
124	0xbc8b6ecf	-0.017020611
125	0x3c5480c7	0.012970156
126	0x3c3cad3a	0.01151591
127	0xbc8c97c1	-0.017162206
128	0xbc2e7e6d	-0.010650259
129	0x3b078cea	0.0020683357
130	0x3d2e34eb	0.042530935
131	0x3cb688c3	0.02228201
132	0xbc3176c0	-0.010831535
133	0xbc36204f	-0.011116101
134	0x3d8f16eb	0.06986793
135	0xbc7e4728	-0.015519895
136	0xbb636ce0	-0.0034702346
137	0x3baa5dc7	0.0051991674
138	0xbc4cc049	-0.012497016
139	0xbed76ad7	-0.420737
140	0x3cf8e233	0.030381298
141	0x3cc8147c	0.02442383
142	0x3f06817b	0.5254132
143	0x3d43fc05	0.047847766
144	0xbca5902c	-0.020210348
145	0xbc81d1ee	-0.015847173
146	0xbc441cd0	-0.01196976
147	0xbc2f2b01	-0.010691405
148	0xbf276722	-0.65391743
149	0x3ef5c27f	0.4799995
150	0xbbf1d11a	-0.007379663
151	0x3ef871aa	0.4852422
152	0x3d1e57c1	0.038657907
153	0x3c5afc34	0.013365794
154	0xbbd5b0ab	-0.0065213046
155	0x3cc45837	0.023967845
156	0x3cb3459d	0.02188378
157	0xbe2f865e	-0.17141101
158	0x3d0ef5e4	0.03490247
159	0x3b6211fa	0.0034495578
160	0x3e4656c9	0.19369043
161	0x3d52be16	0.05145081
162	0x3a506676	0.0007949838
163	0xbc5d801f	-0.013519316
164	0xbc9bad09	-0.019003408
165	0xbc8dac7d	-0.017294163
166	0xbcb4fd81	-0.022093536
167	0x3d883ba7	0.06652003
168	0x3c886ef3	0.016654467
169	0xbcca4cce	-0.024694826
170	0xbc9d5d1d	-0.019209439
171	0x3c9e89e3	0.019352859
172	0xbbc71d8e	-0.0060765212
173	0x3c3f987d	0.011694071
174	0xbc96fe0a	-0.018431682
175	0x3e8b0deb	0.27159056
176	0xbeba50ce	-0.36389774
177	0xb95cc6fe	-0.00021054965
178	0xbf57ee3b	-0.84347886
179	0xbeaca936	-0.33722848
180	0x3c9a4b3b	0.0188347
181	0x3cb4113f	0.02198088
182	0x3ca16637	0.01970206
183	0x3ab0da89	0.0013492863
184	0x3ce62715	0.028094808
185	0x3d13256c	0.03592436
186	0xbbe91bd6	-0.007113914
187	0x3ba86e1c	0.005140079
188	0xbcecdfc6	-0.028915297
189	0xbccba58b	-0.02485921
190	0xbccd61e6	-0.025071096
191	0xbaaaa66d	-0.001301957
192	0xbc96c909	-0.018406408
193	0x3d236bd1	0.039897744
194	0x3c1e8e18	0.0096774325
195	0x3cce53ff	0.025186537
196	0xbd1b9563	-0.037984263
197	0xbb5f1a5c	-0.003404281
198	0x3921ffc0	0.00015449431
199	0xbc137451	-0.0089999
200	0xbc51a00e	-0.012794508
201	0xbc6be075	-0.014396776
202	0xbe3c608d	-0.18396206
203	0x3e6d28e8	0.23160136
204	0xbb6e56ee	-0.0036367732
205	0xbee08a80	-0.43855667
206	0xbe95f85d	-0.2929105
207	0x3c5bfcf7	0.013427011
208	0x39c9fb46	0.0003852492
209	0xbc2e8771	-0.010652409
210	0x3999c13d	0.00029326408
211	0x3c26d932	0.010183619
212	0xbcfb3727	-0.030665947
213	0xbc62930b	-0.013829003
214	0x3b09d05d	0.0021028735
215	0xbc150e09	-0.0090975845
216	0x3c5e6a00	0.013575077
217	0xbc744d08	-0.014910944
218	0xbbbf4b46	-0.0058378307
219	0xbbddb0d3	-0.006765464
220	0x3f1c10ec	0.6096332
221	0xbdab3d64	-0.08361319
222	0xbca30c7e	-0.019903418
223	0x3d12e43f	0.035862204
224	0x3e54a6bd	0.2076673
225	0xbc994f26	-0.018714499
226	0x3b043059	0.002017042
227	0x3c15f12d	0.009151739
228	0xbbba0407	-0.0056767496
229	0xbca85782	-0.02054954
230	0x3d4edc01	0.05050278
231	0xbb667491	-0.0035164694
232	0x3e298d9c	0.16557926
233	0x3cf5325a	0.029931236
234	0xbc915e34	-0.017745115
235	0xbca13059	-0.019676374
236	0xbc8d67dc	-0.017261438
237	0xbc7513f8	-0.014958374
238	0xbd005b49	-0.031337056
239	0xbcfcbf34	-0.030852892
240	0x3cafe38b	0.021470806
241	0xbd36b886	-0.04460957
242	0xbd3ceba1	-0.04612315
243	0x3ca215cf	0.01978579
244	0xbc82b415	-0.01595501
245	0xbc51a77b	-0.012796278
246	0xbc837dd4	-0.01605121
247	0xbf1ad06e	-0.6047429
248	0x3d310b32	0.043223567
249	0xbbdc0e9d	-0.006715609
250	0xbe617a66	-0.22019348
251	0xbcc2bab3	-0.023770666
252	0x3c9cc2e1	0.019135894
253	0x3af93846	0.0019013963
254	0x3be0d321	0.006861106
255	0xbaf90d35	-0.0019001128

module.cnn.8.bias f4 [64]
0	0x3ead3a1b	0.33833393
1	0xbe679cc6	-0.22618398
2	0xbe9bbe76	-0.30418748
3	0xbe452d41	-0.19255544
4	0x3e4c1ce1	0.19932891
5	0x3f66c283	0.9014055
6	0xbe050448	-0.12989914
7	0xbe0d9f25	-0.1383024
8	0xbe913c98	-0.28366542
9	0xbdebda94	-0.115163
10	0xbdeca6df	-0.11555266
11	0xbf0ed538	-0.55794096
12	0x3e0c161d	0.1368031
13	0x3e07730d	0.13227482
14	0xbec4b81c	-0.38421714
15	0xbbd3be7a	-0.0064619156
16	0x3db35a84	0.08757499
17	0xbdfaaa1d	-0.12239478
18	0xbf159506	-0.58430517
19	0xbd7f6ead	-0.062361408
20	0xbccdb4d5	-0.025110641
21	0xbf1f31ec	-0.6218555
22	0xbddaa7b3	-0.10676517
23	0xbe0fcd98	-0.14043272
24	0xbee09434	-0.4386307
25	0xbe0a0b91	-0.13480975
26	0xbed9df1c	-0.4255303
27	0xbe7683d4	-0.24073726
28	0x3d5dff09	0.0541983
29	0x3f06e78a	0.5269705
30	0xbf3a86c0	-0.7286186
31	0x3f548983	0.83022326
32	0xbf1da591	-0.6158076
33	0xbe19f0e2	-0.15033296
34	0x3dbb7f7f	0.09155177
35	0xbd4128f0	-0.04715818
36	0xbe0ec8cb	-0.13943784
37	0x3e1f5006	0.1555787
38	0xbf716d5f	-0.9430751
39	0xbebc3074	-0.36755717
40	0xbe2f95ac	-0.17146939
41	0x3f852277	1.0401143
42	0xbef3c564	-0.47611535
43	0xbeb6c7b4	-0.35699236
44	0xbeaf906f	-0.34289882
45	0xbefdece8	-0.49594808
46	0xbe265698	-0.1624397
47	0x3e8e90da	0.27844888
48	0xbd5b6337	-0.053561416
49	0xbd63da6d	-0.05562823
50	0xbebc942d	-0.368318
51	0xbee385c2	-0.44437987
52	0x3f7d4979	0.98940235
53	0x3ddf1494	0.10892597
54	0xbece5d63	-0.40305623
55	0xbe13afc2	-0.14422515
56	0xbc521acc	-0.012823772
57	0xbe66a553	-0.22524004
58	0xbde8b0c4	-0.1136184
59	0xbe35c7e6	-0.17752036
60	0xbdf2ab08	-0.11849028
61	0xbeb34dfb	-0.35020432
62	0x3f2e6d68	0.6813569
63	0xbc14131e	-0.009037761

module.cnn.10.weight f4 [64, 64, 3, 3]
0	0xbc3e607f	-0.011619686
1	0xbc2d2712	-0.010568397
2	0xbb9e8934	-0.004838133
3	0x3b4a2e97	0.0030850524
4	0x3a31a50c	0.0006776608
5	0x3b97b878	0.0046301447
6	0x3bfbf03f	0.0076885517
7	0x3bad754d	0.0052935244
8	0xbc4dc342	-0.01255876
9	0x3cbc63c4	0.02299679
10	0x3c900fad	0.0175856
11	0xbc71985c	-0.014745798
12	0x3cb024ed	0.021501983
13	0x3ce8ae28	0.028403357
14	0x3bca384c	0.006171262
15	0xbcc2e914	-0.023792781
16	0x3c976848	0.018482342
17	0xbca26a3d	-0.019826049
18	0xbcc7d447	-0.024393214
19	0x3c0498fd	0.008093116
20	0x3c54858d	0.012971294
21	0xbc9df42d	-0.019281471
22	0xbe20c21d	-0.15699048
23	0x3c9110a4	0.01770813
24	0xb798e9ad	-1.8228626e-05
25	0x3bf8b3d0	0.0075897947
26	0x3ccac2cd	0.024751091
27	0x3c199af4	0.009375323
28	0xbc3a0b9b	-0.011355306
29	0xbc354817	-0.011064551
30	0x3cbb49be	0.022862311
31	0xbd3b4364	-0.045718566
32	0xbc892aeb	-0.016744098
33	0x3c9705c0	0.018435359
34	0xbc1e0df9	-0.009646886
35	0x3c440a76	0.011965385
36	0x3c123949	0.008924791
37	0x3c941d97	0.018080516
38	0x3bca7207	0.006178144
39	0xbc215557	-0.009847007
40	0xb9df9fcb	-0.0004265293
41	0xbb80a475	-0.003925855
42	0xbbdfc811	-0.0068292697
43	0xbc9b1532	-0.018931005
44	0xbc9f3f77	-0.019439442
45	0x3ae9f253	0.0017848708
46	0x3c6b0c1b	0.014346148
47	0x3cb45a07	0.022015585
48	0xbb472fcd	-0.0030393482
49	0xbdb01b9f	-0.08599018
50	0x3ba0ca0c	0.0049068984
51	0x3a585460	0.0008252319
52	0xbcba9368	-0.022775367
53	0x3c12f87e	0.008970378
54	0x3ca4346d	0.02004453
55	0xbcb3828a	-0.021912832
56	0x3c94f9d3	0.018185532
57	0xbcb32c17	-0.02187161
58	0xbd8b4e54	-0.06802049
59	0x3c65bb92	0.014021771
60	0x3bbceb0f	0.005765326
61	0xbc52eb9a	-0.012873555
62	0xbcb58d42	-0.022162084
63	0xbc49b8b5	-0.012312104
64	0xbcb3e63e	-0.021960374
65	0xbc981fcb	-0.018569848
66	0xbcc4ce9d	-0.024024302
67	0xbcbd5bab	-0.023115
68	0xbc912484	-0.017717607
69	0xbcc461a1	-0.023972334
70	0xbb6fd32a	-0.003659437
71	0x3c54f67b	0.012998219
72	0xbb470af7	-0.0030371526
73	0xbc1257c0	-0.008932054
74	0x3c91f403	0.01781655
75	0x3cc3341a	0.023828555
76	0xbda9a05e	-0.08282541
77	0xbb9f9679	-0.0048702327
78	0x3c23bd8a	0.00999392
79	0x3ca8ce02	0.020606045
80	0x3c2e7806	0.010648733
81	0xbc01f94f	-0.007932975
82	0x3bd7a0ba	0.0065804394
83	0x3b943be1	0.0045237397
84	0xbbd3336b	-0.0064453385
85	0xbbb2caa0	-0.0054562837
86	0x3c28623c	0.010277327
87	0xba8fa826	-0.0010960146
88	0xbc8c7752	-0.01714674
89	0xbc6ca84e	-0.014444424
90	0xbcb31d7c	-0.021864645
91	0xbccb2777	-0.024799092
92	0xbc3ed00f	-0.011646285
93	0xbcbbc6c5	-0.02292193
94	0xbc806555	-0.015673319
95	0xbccb9ced	-0.024855101
96	0xbc1432de	-0.009045331
97	0x3c2429fc	0.0100197755
98	0xbcabfe6a	-0.020995338
99	0x3c7e5fdd	0.015525785
100	0x3c1e0306	0.0096442755
101	0x3c27265a	0.010202015
102	0x3c60752e	0.013699813
103	0xbbae34e4	-0.0053163636
104	0x3c84fc2c	0.016233526
105	0x3c6aec3c	0.014338549
106	0x3c81b3ca	0.0158328
107	0x3ccea3af	0.025224535
108	0xbc5b1a9c	-0.013373043
109	0xbc9ee936	-0.019398313
110	0x3cb3a1c5	0.021927724
111	0x3be28631	0.0069129695
112	0xbdccb862	-0.09996106
113	0x3c95b359	0.018273996
114	0xbcc625e9	-0.024187999
115	0xbc6e0d45	-0.014529531
116	0x3bb1a580	0.0054213405
117	0xbc93b671	-0.01803133
118	0xbc469640	-0.012120783
119	0x3c2a4371	0.010392056
120	0xbbefe35e	-0.0073208055
121	0xbe1fcf9a	-0.15606537
122	0x3ac3d20f	0.0014939922
123	0x3c349a47	0.011023111
124	0x3c7138f0	0.014723048
125	0x3c453cf2	0.012038456
126	0x3c441cd5	0.011969765
127	0x3cb8ca3c	0.02255737
128	0x3c930c90	0.017950326
129	0x3babde01	0.005244971
130	0xbc95baf2	-0.018277619
131	0xbc6e738e	-0.014553918
132	0xbc2e762c	-0.010648292
133	0xbc04f3bc	-0.008114751
134	0x3af6524d	0.0018792838
135	0xbc6c0994	-0.0144065805
136	0x3ba9d1a7	0.005182463
137	0x3ca8654e	0.020556118
138	0x3c61d23f	0.013783037
139	0xbde5f307	-0.112279944
140	0x3c94e948	0.018177643
141	0x3b0b89e7	0.0021291913
142	0x3c83347b	0.016016236
143	0x3c8dd38f	0.017312793
144	0xbbd630dd	-0.0065365867
145	0xbbfb3aa0	-0.0076669008
146	0x3bee80d2	0.00727854
147	0x3ba20213	0.004944095
148	0x3c567624	0.01308969
149	0x3c8e183f	0.017345546
150	0xbc29bf8b	-0.010360609
151	0xbade7f36	-0.0016975168
152	0x3b80e9c4	0.003934117
153	0x3c8afa34	0.01696501
154	0x3c535f1f	0.012901097
155	0x3b3c290e	0.0028710994
156	0xbc15ea7f	-0.0091501465
157	0xbb511553	-0.003190358
158	0xbc277190	-0.0102199465
159	0x3b6c4636	0.0036052591
160	0xbb5edca9	-0.0034006035
161	0x3b999b0c	0.0046876725
162	0xbbdf7d07	-0.0068203243
163	0xb936aa3d	-0.00017420291
164	0x3c9138a2	0.0177272
165	0x3c05b58c	0.00816096
166	0xbc6762ad	-0.014122647
167	0xbc8fcef5	-0.01755474
168	0x3b0c38e8	0.0021396223
169	0x3c39eeb0	0.011348411
170	0x3c804c21	0.015661301
171	0xbadca4f9	-0.0016833834
172	0x3cc8bbb9	0.024503576
173	0x3bd0cbc5	0.0063719475
174	0x3b2c9522	0.0026334007
175	0x3ce420bd	0.027847642
176	0x3c408fc2	0.0117530245
177	0x3af87069	0.0018954399
178	0xbc0c5461	-0.008565039
179	0x3c9c8c77	0.019109948
180	0x3cb9565d	0.022624189
181	0x3cabb2df	0.020959316
182	0xbc16bc69	-0.009200194
183	0x3c35b715	0.011091013
184	0x3c6c64e5	0.014428352
185	0x3c2de2e8	0.010613181
186	0x3c99a241	0.018754127
187	0x3b708f56	0.0036706529
188	0xbb8f3c16	-0.0043711765
189	0xbc65965e	-0.014012901
190	0x3c71edf5	0.014766206
191	0x3b13e393	0.0022566065
192	0xbbc3870f	-0.005967028
193	0xbca981fb	-0.020691862
194	0xba0af035	-0.0005300076
195	0x3aae7608	0.0013310323
196	0x3cc11113	0.023567712
197	0xbb340a79	-0.0027472063
198	0xbcc88ce1	-0.024481239
199	0xbc5c9c39	-0.013464981
200	0x3cc08c3d	0.02350437
201	0xbc7051fb	-0.014667983
202	0xbd060477	-0.0327191
203	0x3baf26bc	0.0053451937
204	0xbbc308b2	-0.0059519643
205	0x3bffd62a	0.007807513
206	0xbc2b4f7e	-0.010455964
207	0x3c2f9fcb	0.01071925
208	0xbca88254	-0.020569958
209	0x3b9f53a5	0.004862266
210	0xbca6d6d9	-0.02036612
211	0x3b71b882	0.0036883657
212	0xbca44454	-0.020052113
213	0x3c51b704	0.012799982
214	0xbc387b07	-0.011259801
215	0x3c7d6bb1	0.01546757
216	0xbb321983	-0.002717585
217	0xbcc98e5b	-0.024604013
218	0xbbe23c05	-0.0069041275
219	0xbb805ffe	-0.003917693
220	0x3a95c206	0.0011425621
221	0x3b29d9d4	0.002591719
222	0xbc413954	-0.011793453
223	0x3cad65cb	0.021166703
224	0xbc48f5c9	-0.012265631
225	0x3c971482	0.018442396
226	0xbc346971	-0.011011467
227	0xbca6f4a7	-0.020380331
228	0x3caf64b5	0.021410326
229	0xbe905f0a	-0.2819751
230	0xbc9c77e3	-0.019100135
231	0x3ca0ba02	0.019619945
232	0xbc0f9f9e	-0.008766083
233	0xbc23347d	-0.009961245
234	0xbba4e82b	-0.0050325594
235	0x3c2e46da	0.0106370095
236	0x3cb251be	0.021767493
237	0x3b08a000	0.002084732
238	0x3e5b342f	0.21406625
239	0xbb72a596	-0.0037024966
240	0x3cbc6760	0.022998512
241	0x3c8d7ac8	0.01727046
242	0x3c3782ff	0.0112006655
243	0xbc94e254	-0.018174328
244	0x3c9ff8df	0.01952785
245	0xbcc4d353	-0.024026548
246	0xbc099a8b	-0.008398662
247	0xbc8ec44d	-0.017427588
248	0x3c7e77e7	0.015531517
249	0xbcb5db2a	-0.022199232
250	0x3ca5d7ec	0.020244561
251	0x3cc88f14	0.024482287
252	0x3cbb5b00	0.02287054
253	0x3c4e4797	0.012590311
254	0xbbfae40d	-0.0076565803
255	0x3b7846c8	0.0037883986
