Sem 2/Intelligent Robots/Assignments/Lab 2/BehaviourCloning/Checkpoints/adam_3_extra_conv_e5.pt (torch, 674763 bytes, 14 tensors)

module.cnn.0.weight f4 [32, 3, 3, 3]
0	0x3d2266ef	0.039648946
1	0x3c317e8c	0.010833394
2	0xbe97479e	-0.29546827
3	0xbd70ab26	-0.05875697
4	0xbdaa17ac	-0.08305296
5	0xbe2934a8	-0.16523993
6	0xbe7b9ca9	-0.2457148
7	0x3e1eb02a	0.15496889
8	0xbd47d1f3	-0.048784208
9	0x3ea373b7	0.3192422
10	0x3ecb8910	0.39753008
11	0x3cfe030c	0.031007312
12	0x3eb04b57	0.3443248
13	0x3dfefce5	0.124505796
14	0xbd536f91	-0.05162007
15	0x3c735070	0.014850721
16	0x3e84cabe	0.2593593
17	0xbe315a19	-0.17319526
18	0x3daef514	0.08542839
19	0x3c073475	0.008252253
20	0xbeaf2490	-0.34207582
21	0xbd770950	-0.060311615
22	0xbe2a9676	-0.16658959
23	0xbe543a12	-0.20725277
24	0xbe96fbb9	-0.29488924
25	0xbd043e2c	-0.032285854
26	0xbe96e77a	-0.29473478
27	0xbe7d90b2	-0.24762228
28	0xbd859b91	-0.065238126
29	0xbdd47eca	-0.103757456
30	0xbd9f9ed5	-0.07793967
31	0xbe79ffec	-0.24414033
32	0x3dc20b85	0.094748534
33	0xbeb0a6a5	-0.3450214
34	0xbe3f9fa6	-0.18713245
35	0xbe058d52	-0.1304219
36	0x3e8cc088	0.2749064
37	0x3ed60019	0.4179695
38	0x3a329053	0.0006811667
39	0x3e4ca96f	0.19986509
40	0x3e4768a5	0.19473512
41	0xbdaa59b3	-0.0831789
42	0xbd93acf3	-0.07210722
43	0x3dad4c53	0.08461823
44	0xbe694c44	-0.22783
45	0xbdbe3140	-0.092867374
46	0x3d13a417	0.03604516
47	0xbe91f4ef	-0.28507182
48	0xbc5c1b5f	-0.01343426
49	0xbe646952	-0.22305802
50	0xbee6b64f	-0.45060965
51	0xbee6735f	-0.45009896
52	0xbeb0b711	-0.3451467
53	0xbed81691	-0.42204717
54	0x3e23f259	0.16010417
55	0x3df2be1d	0.118526675
56	0x3e6f1b7f	0.23350333
57	0x3eba51a4	0.36390412
58	0x3ec05c06	0.37570208
59	0x3e9a51a6	0.30140418
60	0x3ec8e01c	0.39233482
61	0x3e46daa8	0.19419348
62	0x3eecac35	0.46225134
63	0xbcdc6d15	-0.026907483
64	0x3e4b4ae2	0.19852784
65	0x3d68cdb2	0.05683679
66	0x3dd51cf3	0.10405912
67	0x3e17c8d2	0.148227
68	0x3da1f628	0.07908279
69	0xbc6d55a1	-0.014485748
70	0x3e9c76d9	0.30559424
71	0x3e4a4084	0.19751173
72	0xbe55ec46	-0.20890912
73	0xbea28b96	-0.3174712
74	0xbefa6691	-0.48906377
75	0xbf18ba7b	-0.59659547
76	0xbebb3439	-0.3656328
77	0xbebc5ede	-0.36791128
78	0xbebf45fb	-0.37358078
79	0xbe55a337	-0.20863043
80	0xbed619f4	-0.41816676
81	0xbe8022b2	-0.2502647
82	0x3d1bbe00	0.038022995
83	0x3db4545c	0.08805153
84	0xbd2f4f0a	-0.042799987
85	0x3b969060	0.0045948476
86	0xbe7d7486	-0.24751481
87	0xbe7e01bc	-0.24805349
88	0xbcfabf8b	-0.030608913
89	0xbc0e1a17	-0.0086732125
90	0x3e88baa5	0.26704898
91	0x3ec2b19f	0.3802614
92	0x3ee470f0	0.44617414
93	0x3ee62819	0.44952467
94	0x3e935735	0.2877747
95	0xbe253532	-0.16133574
96	0x3e323605	0.1740342
97	0x3cece11b	0.028915932
98	0xbda63e32	-0.081173316
99	0xbe568093	-0.20947485
100	0xbb8af210	-0.004240282
101	0x3cc03385	0.023462066
102	0x36f05e19	7.163512e-06
103	0xbc9405fa	-0.018069256
104	0xbedc9f49	-0.43090275
105	0xbead6a0c	-0.3386997
106	0xbe9d7411	-0.30752614
107	0xbeab3dd2	-0.33445603
108	0x3dba1836	0.09086649
109	0xbd50bb88	-0.050960094
110	0x3eaeddf6	0.34153718
111	0x3deed6af	0.116620414
112	0xbdeb0fdd	-0.11477635
113	0xbece381e	-0.4027719
114	0xbda315d5	-0.079631485
115	0xbc10cb99	-0.008837604
116	0xba7a0b5d	-0.00095384364
117	0x3d9f4190	0.07776177
118	0x3d02521b	0.031816583
119	0x3e3729b5	0.17887004
120	0x3da49856	0.08036868
121	0xbdd8a8a1	-0.105790384
122	0xbea83432	-0.32852322
123	0xbdb4256a	-0.08796199
124	0xbd8d81b0	-0.069095016
125	0xbe08a024	-0.13342339
126	0xbc8f50f2	-0.017494652
127	0x3c31b4aa	0.010846296
128	0x3ea1b060	0.31579876
129	0xbd1a9cc2	-0.037747152
130	0x3e2cbc18	0.16868627
131	0xbe63e3ee	-0.22254917
132	0xbe6a3e86	-0.22875413
133	0x3dd03309	0.10165984
134	0xbc9061f1	-0.017624827
135	0x3e2c88cc	0.16849059
136	0xbd842126	-0.06451635
137	0x3da4935d	0.0803592
138	0xbc6478dc	-0.013944831
139	0xbdf20f53	-0.11819329
140	0x3df30480	0.11866093
141	0xbe3e9e06	-0.18614969
142	0xbd5b3b70	-0.05352348
143	0xbe6c829f	-0.23096703
144	0x3dc5771a	0.096418574
145	0xbc336289	-0.010948786
146	0x3e4eabe3	0.20182757
147	0x3b7ae257	0.0038281882
148	0x3db4902b	0.0881656
149	0xbcf0848f	-0.029360084
150	0xbcf004f7	-0.029299242
151	0xbd614324	-0.05499567
152	0xbd0d9c62	-0.034572966
153	0xbebdac34	-0.37045443
154	0xbe2d75e3	-0.16939501
155	0xbe54c141	-0.20776846
156	0xbe7134c3	-0.23555283
157	0xbe03ce43	-0.12871651
158	0xbc59dae5	-0.013296817
159	0xbe4ee6c3	-0.20205216
160	0xbc2dba3f	-0.010603487
161	0xbdc30e2a	-0.09524186
162	0x3cc53e56	0.024077576
163	0xbcaa5107	-0.02079059
164	0x3e4a452f	0.19752954
165	0x3e329664	0.17440182
166	0xbd000e98	-0.031263918
167	0x3e7d5623	0.2473989
168	0x3e065ff8	0.13122547
169	0xbd25120a	-0.040300407
170	0x3e813f60	0.25243664
171	0xbe02813f	-0.12744616
172	0xbe40a945	-0.18814571
173	0xbeb7290f	-0.35773513
174	0x3c6977fb	0.014249797
175	0xbe56fce3	-0.20994906
176	0xbeacca88	-0.3374827
177	0xbca9ea7f	-0.0207417
178	0xbe326615	-0.17421754
179	0xbe9815ec	-0.29704225
180	0x3dbe4c47	0.092918925
181	0x3da61ece	0.08111344
182	0x3d861633	0.06547203
183	0x3e3ed5ea	0.18636289
184	0x3e114f03	0.14190297
185	0x3e0d6207	0.13806926
186	0x3e56878b	0.20950143
187	0x3d38f6ce	0.045157246
188	0x3e0fa233	0.14026718
189	0xbd8523cd	-0.06500969
190	0xbdd063c0	-0.10175276
191	0x3d1efb82	0.038814075
192	0xbdc3ef22	-0.09567095
193	0x3bdce254	0.0067408476
194	0xbe19b26d	-0.1500947
195	0xbc2fa31a	-0.010720039
196	0x3db8874a	0.09010179
197	0x3d87884f	0.06617796
198	0x3ea2c97b	0.31794342
199	0x3e5b8da3	0.21440749
200	0x3dd3dd84	0.10344985
201	0x3d4e23a9	0.050326977
202	0x3e640a93	0.22269659
203	0x3d9523b1	0.07282198
204	0x3d6a4de7	0.0572032
205	0x3c554e32	0.0130191315
206	0x3d06ba66	0.032892607
207	0xbe1b068a	-0.15139213
208	0xbde29bf4	-0.11064902
209	0xbc8bf882	-0.017086271
210	0xbda745b2	-0.0816759
211	0xbc8bfd0f	-0.017088441
212	0xbebe04ba	-0.3711298
213	0xbe6f45db	-0.23366491
214	0xbe06e2e2	-0.13172486
215	0xbd94116c	-0.072298855
216	0xb9fa4d55	-0.00047741333
217	0x3eca942b	0.39566168
218	0x3e9d3b9c	0.3070954
219	0xbef136c4	-0.47112095
220	0xbeb02295	-0.34401384
221	0xbdda7e0f	-0.10668575
222	0xbe8be1f6	-0.27320832
223	0xbe7e68bc	-0.2484464
224	0x3da0f12c	0.078585
225	0x3eff245e	0.49832433
226	0x3f354f7f	0.70824426
227	0x3ec20a4b	0.37898478
228	0xbd4fd38a	-0.05073885
229	0xbe829de4	-0.25511086
230	0xbebbd21c	-0.36683738
231	0xba99ec00	-0.0011743307
232	0xbedf376e	-0.43596977
233	0xbde683f8	-0.1125564
234	0x3e6f4366	0.23365554
235	0x3ee595f3	0.44840965
236	0x3e1af296	0.15131602
237	0xbe156257	-0.14588295
238	0xbeb2b10f	-0.3490071
239	0xbef6a245	-0.48170677
240	0xbd22aaf8	-0.03971383
241	0xbf1d3deb	-0.61422604
242	0xbe82a9a3	-0.25520048
243	0xbebb2d74	-0.36558115
244	0x3d1f0c09	0.038829837
245	0x3e487042	0.19574073
246	0xbeca9865	-0.39569393
247	0x3d91f112	0.07126059
248	0x3db41fe4	0.08795145
249	0xbd86e2a8	-0.065862
250	0xbe4a08cb	-0.19729917
251	0xbe5e7380	-0.21723747
252	0xbc1eabd0	-0.009684518
253	0x3e061565	0.13094099
254	0x3e916ab2	0.28401715
255	0xbe039e64	-0.1285339

module.cnn.0.bias f4 [32]
0	0xbfa23589	-1.2672588
1	0xbf9e6ef0	-1.2377605
2	0xbf662018	-0.8989272
3	0xbf8e16e8	-1.110074
4	0xbfb15da5	-1.3856703
5	0xbfa243e0	-1.2676964
6	0xbf45fa42	-0.7733499
7	0xbf6dcae6	-0.92887723
8	0xbf2fa0c0	-0.6860466
9	0xbfa82b67	-1.3138245
10	0xbf9d5bfd	-1.2293698
11	0xbf9f04ab	-1.24233
12	0xbf7af6ae	-0.98032653
13	0x3efbfaa2	0.49214655
14	0xbf92b169	-1.1460391
15	0xbf6bc93e	-0.92103946
16	0xbf8881aa	-1.066457
17	0xbea830a7	-0.3284962
18	0xbdbff571	-0.09372986
19	0xbf675dba	-0.9037739
20	0xbf6d99ef	-0.9281301
21	0xbf66ace8	-0.90107584
22	0xbf813a58	-1.009593
23	0xbfbed1eb	-1.4907812
24	0xbfa7598a	-1.30742
25	0xbf09bd17	-0.53804153
26	0xbf98071f	-1.1877173
27	0xbf923dbb	-1.1425089
28	0xbf855695	-1.0417048
29	0xbf3f564d	-0.7474106
30	0xbea01593	-0.3126646
31	0xbfa6ae49	-1.3021938

module.cnn.2.weight f4 [64, 32, 3, 3]
0	0xbe6ea310	-0.23304391
1	0xbdaa1142	-0.08304073
2	0xbdba173b	-0.09086462
3	0xbe40bc4c	-0.1882183
4	0xbdb4acf6	-0.08822052
5	0xbdf8f886	-0.12156777
6	0xbd83a578	-0.06428045
7	0xbde40fbc	-0.111358136
8	0xbcedf5ea	-0.029047925
9	0xbe1d1d4a	-0.15343204
10	0xbe02f71e	-0.1278958
11	0xbde32573	-0.11091127
12	0xbe15e67e	-0.14638707
13	0xbdfe90d3	-0.12429967
14	0xbe1ec137	-0.15503393
15	0xbdb898d3	-0.09013524
16	0xbd6e46b7	-0.058172908
17	0xbcaf09d9	-0.021367
18	0xbe03c761	-0.12869026
19	0xbe2ec34f	-0.17066692
20	0xbe0a0160	-0.13477087
21	0xbd991298	-0.074742496
22	0xbe25e0da	-0.16199055
23	0xbd8a80d3	-0.067628525
24	0xbe725af5	-0.2366751
25	0xbe288e8b	-0.16460626
26	0xbe56c6b2	-0.20974234
27	0xbe42802e	-0.18994209
28	0xbde0a10e	-0.10968219
29	0xbdcb9418	-0.09940356
30	0xbe0da81e	-0.13833663
31	0xbc8bf4ef	-0.017084567
32	0xbe0f0d19	-0.1396984
33	0xbe00f113	-0.12591963
34	0xbd0e4c68	-0.034740835
35	0xbdc38a6e	-0.09547888
36	0x3d7cdfee	0.061736993
37	0x3dc712e7	0.09720402
38	0x3d6e37c9	0.05815867
39	0xbdaa384c	-0.08311519
40	0xbe28a04e	-0.16467401
41	0x3dc3186c	0.095261425
42	0xbe22e7bc	-0.15908712
43	0xbe45c68f	-0.19314025
44	0xbe10db47	-0.14146148
45	0xbd1b9d37	-0.03799173
46	0xbd3fbe48	-0.046812326
47	0xbcdbefa9	-0.026847677
48	0xbd5ec80d	-0.054390002
49	0xbc9d2b7a	-0.01918577
50	0xbe28a9bf	-0.16471003
51	0x3da415b4	0.08011952
52	0xbdac84fd	-0.08423803
53	0xbc40ad1d	-0.011760023
54	0xbe08cf0a	-0.13360229
55	0xbdcfa872	-0.1013955
56	0xbd734a69	-0.059397135
57	0xbcd86d5a	-0.02641933
58	0xbcc83a6d	-0.024441922
59	0xbd36cfb2	-0.044631667
60	0xbe4bc7d7	-0.19900452
61	0xbdd80940	-0.10548639
62	0xbd45a3af	-0.048251804
63	0xbe1ea20e	-0.15491506
64	0xbe1e034c	-0.15430945
65	0xbdeabde2	-0.114619985
66	0xbe0582d1	-0.13038184
67	0xbdd06f64	-0.10177496
68	0xbd87b30f	-0.066259496
69	0xbe12ed75	-0.14348395
70	0xbe121f3f	-0.14269732
71	0xbe136a36	-0.14395985
72	0xbe9a4d2c	-0.30137002
73	0xbe1d989e	-0.1539025
74	0x3d806ea9	0.06271107
75	0x3d2e72bd	0.04258989
76	0xbdf5ed0c	-0.12008104
77	0xbe033f24	-0.12817055
78	0xbd21e6da	-0.039526798
79	0xbb849157	-0.004045646
80	0x3d81a757	0.06330746
81	0xbcf19b81	-0.029493095
82	0xbe1bf526	-0.15230235
83	0xbdb634d3	-0.08896794
84	0xbd08cb60	-0.03339708
85	0xbe4f6b49	-0.2025577
86	0xbe0bef25	-0.13665445
87	0xbe386145	-0.18005855
88	0xbe64a076	-0.22326836
89	0xbea49526	-0.3214504
90	0xbe3a4185	-0.18189056
91	0xbda25c08	-0.0792771
92	0xbe139333	-0.14411621
93	0xbdffb90d	-0.124864675
94	0xbdc243b8	-0.094855726
95	0xbdaafaad	-0.08348594
96	0xbe0dc0e3	-0.13843112
97	0x3cb052df	0.021523891
98	0xbdb7fdd7	-0.08983963
99	0xbe5e1e58	-0.21691263
100	0xbe05d079	-0.13067807
101	0x3d1ca53e	0.038243525
102	0xbe970ded	-0.29502812
103	0xbd96b340	-0.07358408
104	0xbd77e152	-0.060517617
105	0xbe2be54e	-0.16786692
106	0x3ddad5b6	0.106852934
107	0x3d8daae6	0.06917362
108	0xbe2dd9ea	-0.16977659
109	0xbe705041	-0.23468114
110	0xbdbf6c13	-0.093467854
111	0xbe22b713	-0.1589015
112	0xbde641c8	-0.112430155
113	0xbe86c396	-0.26321095
114	0xbd022a02	-0.031778343
115	0xbd4c577d	-0.049888123
116	0xbd170935	-0.036874015
117	0xbd85de00	-0.06536484
118	0xbd779b36	-0.060450755
119	0xbe0be93c	-0.1366319
120	0x3d3e9b8b	0.046535056
121	0xbd8d853a	-0.069101766
122	0xbe42d50e	-0.19026586
123	0x3d80517f	0.06265544
124	0xbea86845	-0.3289205
125	0xbe55b1b2	-0.20868567
126	0xbe67c3d9	-0.22633304
127	0xbcdc03c0	-0.026857257
128	0x3caba6d0	0.020953566
129	0x3d2db726	0.042410992
130	0xbd9068ef	-0.070512645
131	0xbdd6b7a1	-0.10484243
132	0xbdc861a0	-0.097842455
133	0x3da99e3a	0.082821324
134	0xbcc08f85	-0.023505935
135	0xbc04d589	-0.008107551
136	0xbdf752db	-0.1207635
137	0xbe35d95a	-0.17758694
138	0xbe70987d	-0.2349567
139	0xbe323514	-0.1740306
140	0xbdad7a35	-0.08470575
141	0xbd8cef4b	-0.06881579
142	0xbd2f5602	-0.042806633
143	0xbdace1af	-0.08441483
144	0xbdede676	-0.116162226
145	0xbdb57a07	-0.088611655
146	0xbdea2a0b	-0.114338
147	0xbe126eea	-0.14300123
148	0xbd42c8ed	-0.0475549
149	0xbd63b131	-0.055588905
150	0xbdaa2227	-0.08307295
151	0xbd604c12	-0.054760046
152	0xbdb70520	-0.089365244
153	0xbe8eef67	-0.27917024
154	0xbda0c2b2	-0.07849635
155	0x3d0ad7a5	0.03389706
156	0xbd2ec216	-0.042665564
157	0xbd34caf2	-0.044138856
158	0xbe010409	-0.12599196
159	0x3c0a4124	0.008438382
160	0xbda4e0a2	-0.08050658
161	0xbe461a80	-0.19346046
162	0xbe1a2c00	-0.15055847
163	0xbe17fd59	-0.14842738
164	0xbe15e1be	-0.14636895
165	0x3db164ed	0.08661828
166	0xbd1834d7	-0.037159767
167	0xbda6d826	-0.08146696
168	0xbe5be75d	-0.21474977
169	0xbe053342	-0.13007835
170	0xbe81f825	-0.25384632
171	0xbde829c5	-0.11336092
172	0xbe6a59da	-0.22885838
173	0xbcbd3634	-0.023097135
174	0xbe9bb3f9	-0.30410746
175	0xbe59a140	-0.21252918
176	0xbe45b541	-0.19307424
177	0xbe024550	-0.12721753
178	0xbdded82b	-0.108810745
179	0xbc204a16	-0.009783288
180	0xbe55588e	-0.20834562
181	0xbdef97ae	-0.116988525
182	0xbdad78b0	-0.08470285
183	0xbd404c42	-0.046947725
184	0xbdc8c69a	-0.09803505
185	0xbd9ad0e4	-0.07559374
186	0xbe3ccd27	-0.18437634
187	0xbdf3c2ab	-0.11902364
188	0xbd821862	-0.06352307
189	0x3bc4d3e8	0.0060067065
190	0x383a1a78	4.4370507e-05
191	0x3a8445a0	0.0010091551
192	0xbc2936f0	-0.0103280395
193	0xbd8ed513	-0.069742344
194	0xbd9244e9	-0.0714205
195	0xbda34879	-0.079728074
196	0xbd1caa77	-0.038248505
197	0xbd201379	-0.03908107
198	0x3ca80270	0.020508975
199	0xbe61481c	-0.22000164
200	0xbd20795f	-0.03917825
201	0x3d92aea7	0.071622185
202	0x3dc81252	0.09769119
203	0x3dc0a9e0	0.09407401
204	0xbddf2fc6	-0.10897784
205	0xbd3c060d	-0.045904208
206	0xbc9876d1	-0.018611344
207	0xbe0d489d	-0.13797231
208	0xbe24883c	-0.16067594
209	0xbd93703a	-0.0719914
210	0xbe2ecec5	-0.17071064
211	0xbd9b2993	-0.07576289
212	0xbdf99073	-0.121857546
213	0xbe02947d	-0.12751956
214	0xbe0b35e5	-0.13594778
215	0xbe128d31	-0.14311673
216	0x3dd54ca1	0.104150064
217	0xbe2c2693	-0.1681159
218	0xbd9dea7c	-0.0771074
219	0xbe04bca7	-0.1296259
220	0xbd1719d6	-0.036889873
221	0xbddf3d3f	-0.10900354
222	0xbd9145bf	-0.07093381
223	0x3cd37409	0.025812166
224	0xbe9e64d4	-0.309363
225	0xbe76b9c6	-0.24094304
226	0xbd260ee8	-0.04054156
227	0xbe8851e4	-0.26624978
228	0xbdab935e	-0.083777174
229	0xbea09aca	-0.31368095
230	0xbc932ac0	-0.01796472
231	0x3c466d4f	0.012111022
232	0xbdc7d799	-0.09757919
233	0xbccf2d97	-0.025290294
234	0xbdf0f121	-0.11764742
235	0x3c728728	0.014802732
236	0x3d17b1d4	0.037034824
237	0xbdac708a	-0.084199026
238	0xbb863eb3	-0.00409683
239	0xbe0d15f7	-0.1377791
240	0xbd917871	-0.071030505
241	0x3dec3f92	0.115355626
242	0x3d196edb	0.037459236
243	0xbdd29409	-0.10282142
244	0xbdf0d336	-0.11759035
245	0xbd89c3e5	-0.06726817
246	0xbda324c2	-0.07965995
247	0xbe4c9e94	-0.19982368
248	0xbe099e2d	-0.13439246
249	0xbe371ab3	-0.17881279
250	0xbe5cd208	-0.21564496
251	0xbe5e8826	-0.21731624
252	0xbd9922bd	-0.07477329
253	0xbd902806	-0.07038884
254	0xbe1d85ed	-0.1538312
255	0xbd374a69	-0.044748697

module.cnn.2.bias f4 [64]
0	0xbe579b52	-0.21055344
1	0xbe924df9	-0.28575113
2	0xbe85443b	-0.26028618
3	0xbe9f64dd	-0.3113164
4	0xbdfb8dd7	-0.12282913
5	0xbdb8ab8c	-0.09017095
6	0xbd47dc03	-0.048793804
7	0xbd4fbd9d	-0.05071794
8	0xbdd83daa	-0.105586365
9	0x3fb37e35	1.402289
10	0xbec30dbe	-0.38096422
11	0xbd27b171	-0.040940706
12	0xbde69f3f	-0.112608425
13	0xbdc629ea	-0.09675963
14	0xbdb93432	-0.090431586
15	0xbea1bfe6	-0.3159172
16	0xbeb3f327	-0.35146448
17	0xbf08c60e	-0.5342721
18	0xbe30ac40	-0.17253208
19	0xbe486aad	-0.19571944
20	0xbe3e2892	-0.18570164
21	0xbe52c3ee	-0.20582554
22	0xbdc693e1	-0.096961744
23	0xbe692d11	-0.22771098
24	0xbe8765cd	-0.26444855
25	0xbea7d52d	-0.32779828
26	0xbde10c18	-0.10988635
27	0xbdd79086	-0.105256125
28	0xbe77931e	-0.24177215
29	0xbe46ef07	-0.19427119
30	0xbe72f695	-0.23726876
31	0xbe259746	-0.16170987
32	0xbe3e4220	-0.18579912
33	0xbe3664a6	-0.17811832
34	0xbdf8102a	-0.12112458
35	0xbdad4406	-0.0846024
36	0xbe00d7c3	-0.12582307
37	0xbe468765	-0.19387586
38	0xbce61f71	-0.028091164
39	0xbd6765ab	-0.056493443
40	0xbe059f73	-0.13049106
41	0xbdd4df3d	-0.10394142
42	0xbe90cd22	-0.28281504
43	0xbec35e50	-0.38157892
44	0xbe2f4591	-0.17116381
45	0xbd8eb496	-0.06968038
46	0xbdb1c913	-0.0868093
47	0xbdd63829	-0.104599304
48	0xbe2b23f9	-0.16712941
49	0xbe51bd0b	-0.2048227
50	0xbd47155c	-0.048604354
51	0xbd6f11fd	-0.058366764
52	0xbe285ba2	-0.16441205
53	0xbe130c70	-0.14360213
54	0xbe8e92d1	-0.27846387
55	0xbd8447b3	-0.06458988
56	0xbe619251	-0.22028472
57	0xbda94f0c	-0.0826703
58	0xbe8e42fb	-0.27785477
59	0xbecea4e7	-0.40360186
60	0xbd543f45	-0.05181815
61	0xbd721a6e	-0.059107237
62	0xbe14ec7f	-0.14543341
63	0xbd380b5f	-0.04493272

module.cnn.4.weight f4 [64, 64, 3, 3]
0	0xbcf87f1b	-0.030334046
1	0x3dfb148d	0.12259779
2	0xbe09f766	-0.13473281
3	0xbe051c16	-0.12998995
4	0xbdb46a20	-0.08809304
5	0x3bb54d14	0.00553287
6	0x3972290e	0.00023094213
7	0x3c8d7316	0.017266791
8	0x3e0a780e	0.1352236
9	0xbdad0e98	-0.08450049
10	0xbe2d326a	-0.16913763
11	0xbc1396bf	-0.009008109
12	0xbe52c53c	-0.20583051
13	0xbe1f8605	-0.15578468
14	0x3e1b5715	0.15169938
15	0xbdfbc5fb	-0.12293621
16	0x3d318cbc	0.043347105
17	0x3d863b16	0.065542385
18	0x3d972b54	0.07381311
19	0xbe46c252	-0.19410065
20	0xbe15b98a	-0.14621559
21	0x3db2f0f4	0.087373644
22	0x3d6c9938	0.05776331
23	0xbcdf851f	-0.027285157
24	0x3c1060e3	0.008812162
25	0xbd2ab05c	-0.041672096
26	0xbd950f51	-0.07278312
27	0xbc771500	-0.01508069
28	0xbca7182b	-0.020397266
29	0x3ceca447	0.028886927
30	0xbbe5ae44	-0.0070092995
31	0x3e057581	0.13033105
32	0xbbe283ee	-0.0069127
33	0x3d2449ea	0.040109552
34	0x3c6f00f3	0.014587629
35	0x3d0188e0	0.031624675
36	0xbd28a3ad	-0.04117172
37	0xbc172d13	-0.009227055
38	0x3d2338bd	0.03984903
39	0xbcdea8e8	-0.02718015
40	0xbd1c6c16	-0.038189016
41	0x3cd7cdca	0.026343245
42	0x3bfcdbca	0.0077166306
43	0x38f3a442	0.00011617738
44	0xbbc2ea09	-0.0059483093
45	0xbd30341d	-0.04301845
46	0x3bafaf78	0.0053614937
47	0xbd2ae4ba	-0.041722037
48	0xbd2d4660	-0.042303443
49	0x3beac77b	0.007164893
50	0xbcc2a15b	-0.02375858
51	0x3b80eb11	0.003934272
52	0x3acf5e96	0.0015821035
53	0xbc8bbc5a	-0.017057586
54	0xbcc36d6b	-0.023855885
55	0x3cf70c77	0.03015731
56	0x3c98ea9c	0.018666558
57	0xbc13048d	-0.008973253
58	0x3c2bff68	0.010497905
59	0x3b6b402a	0.00358964
60	0xbbb62b63	-0.0055593713
61	0xbbec6508	-0.0072141923
62	0xbc4339ef	-0.011915668
63	0xbd1a475c	-0.03766571
64	0xbb6598c4	-0.0035033682
65	0xbc8b5720	-0.017009318
66	0xbcdd9e23	-0.027052945
67	0xbceb9f71	-0.028762551
68	0xbc97bce0	-0.01852268
69	0x3ba8176d	0.0051297457
70	0xbb56889f	-0.003273524
71	0xbb9718b9	-0.0046111015
72	0xbe2c88b4	-0.16849023
73	0xbc9620e1	-0.018326225
74	0x3dd3d007	0.103424124
75	0x3d8565ea	0.06513579
76	0x3bdd2183	0.0067483797
77	0x3c986609	0.018603342
78	0xbcf8aef4	-0.030356862
79	0x3e2fe87b	0.17178528
80	0x3dc9ae39	0.098476835
81	0xbe166cc8	-0.14689934
82	0xbe6ddcf4	-0.23228818
83	0xbf1fa92b	-0.62367505
84	0xbeabdc50	-0.33566523
85	0xbf22b095	-0.6355069
86	0xbefec7a3	-0.49761686
87	0xbebdf91e	-0.37104124
88	0xbeb3fdd3	-0.3515459
89	0xbf41c27c	-0.75687385
90	0xbdd9539e	-0.10611652
91	0xbe7ebeb3	-0.24877433
92	0xbdc412ea	-0.0957392
93	0xbed95ad5	-0.42452112
94	0xbf38d716	-0.72203195
95	0x3c5abad3	0.013350206
96	0xbe3c5fe8	-0.1839596
97	0xbe6ab82d	-0.2292182
98	0x3e20974e	0.15682718
99	0xbcf3245e	-0.029680427
100	0xbbc2526b	-0.005930235
101	0xbca393a9	-0.01996787
102	0xbc14458e	-0.009049786
103	0xbc8cd680	-0.017192125
104	0xbd041aea	-0.03225223
105	0xbc9786cd	-0.018496895
106	0x39f6f2f8	0.00047101802
107	0xbcbd97f6	-0.02314375
108	0xbc89a3a7	-0.016801668
109	0x3c3f4888	0.011675008
110	0xbbda1fd2	-0.0066566253
111	0xbc3c1cad	-0.011481446
112	0x3c2ecaf2	0.010668503
113	0xbc21849b	-0.009858276
114	0x3cfef951	0.031124743
115	0xbc6b969f	-0.014379173
116	0xbc83bd8e	-0.016081598
117	0xbd13ff0a	-0.036131896
118	0xbc8814b7	-0.01661144
119	0xbc904afa	-0.017613877
120	0xbcf78bcb	-0.030218026
121	0xbd624d78	-0.05524966
122	0x3c00b9db	0.007856811
123	0x3c234100	0.009964228
124	0xbc876f96	-0.0165327
125	0x3bfe4aa7	0.007760364
126	0xbd087869	-0.033317957
127	0xbbaf4f9b	-0.005350066
128	0x3c143f37	0.009048275
129	0x3c5219a2	0.012823494
130	0xbdf023d5	-0.117255844
131	0x3b50d0d8	0.0031862762
132	0xbc2f9c69	-0.010718443
133	0xbcf76489	-0.030199306
134	0xbbbc9f4b	-0.005756294
135	0x3db2dd30	0.087335944
136	0x3e275eb9	0.16344728
137	0x3ec2a236	0.38014382
138	0xbbbfe842	-0.0058565447
139	0x3db53ff1	0.088500865
140	0x3e43db57	0.1912664
141	0xbd1bd715	-0.038046915
142	0xbe42fad8	-0.19041002
143	0x3d419a29	0.04726616
144	0xbabd8721	-0.0014459827
145	0x3e9f3443	0.3109456
146	0x3e3ada9d	0.18247457
147	0xbd54d313	-0.05195911
148	0xbe865f4c	-0.2624458
149	0x3ddfab8b	0.10921391
150	0xbd8946f9	-0.0670299
151	0x3dcb15ac	0.09916243
152	0xbdc52428	-0.09626037
153	0xbe96f1b3	-0.29481277
154	0xbe07ff95	-0.1328109
155	0xbe8a2f14	-0.26989043
156	0x3dfc6e95	0.12325779
157	0xbdfbdbbf	-0.122977726
158	0x3d47d367	0.048785593
159	0xbe0a46fd	-0.13503642
160	0x3e549cd5	0.20762952
161	0xbe1bc72f	-0.15212701
162	0xbeb2f1e4	-0.34950173
163	0x3d71ac4a	0.0590022
164	0xbd6dfa94	-0.058100298
165	0x3e1cad76	0.15300545
166	0x3dab385c	0.08360359
167	0x3e711e5b	0.23546736
168	0xbd4577a8	-0.048209816
169	0x3e847094	0.2586714
170	0xbda53057	-0.08065861
171	0x3dad5348	0.0846315
172	0xbcb4d8b5	-0.02207599
173	0x3d9b99f0	0.075977206
174	0x3db16b13	0.08663001
175	0x3bf592ce	0.007494307
176	0x3d99becb	0.07507094
177	0x3db65c15	0.08904282
178	0x3dbe4c91	0.09291948
179	0x3e2689ab	0.16263454
180	0x3af22199	0.0018473148
181	0xbb0f1555	-0.0021832783
182	0xbd0c3105	-0.034226436
183	0xbcb8d42b	-0.022562107
184	0xbc130bc6	-0.008974975
185	0xbcb683e3	-0.022279685
186	0xbd00ff72	-0.03149361
187	0xbce44255	-0.02786366
188	0x3cfcaf7c	0.030845396
189	0xbe0225a7	-0.12709676
190	0xbdad46f7	-0.08460801
191	0xbc5d9062	-0.013523193
192	0xbe1ca13d	-0.15295883
193	0x3e1e9740	0.15487385
194	0xbd3e4925	-0.046456475
195	0x3d38fc67	0.045162585
196	0xbe68aa8b	-0.22721307
197	0x3e77b120	0.24188662
198	0xbe880571	-0.2656665
199	0xbe1cacb4	-0.15300256
200	0xbdb42322	-0.087957636
201	0xbe234c84	-0.15947157
202	0x3e32b2cb	0.17451017
203	0xbd91b35a	-0.07114287
204	0x3e7f7b83	0.2494946
205	0x3e4242e2	0.18970826
206	0xbe9d5441	-0.30728343
207	0x3dc5a0cd	0.09649811
208	0x3e3a2acb	0.18180387
209	0xbdaa2bbe	-0.083091244
210	0xbce71bd9	-0.028211521
211	0x3dd625be	0.104564175
212	0xbe15f001	-0.14642335
213	0x3d86347a	0.06552978
214	0xbe746e67	-0.2387024
215	0xbe21a88f	-0.15786956
216	0xbd053831	-0.03252429
217	0xba391ca5	-0.00070614583
218	0xbc9e0472	-0.019289229
219	0xbd5ac064	-0.053406134
220	0xbd22de83	-0.039762985
221	0x3988a88f	0.00026065527
222	0xbcf2cc82	-0.029638533
223	0xbe401bb5	-0.1876057
224	0xbc2c32a7	-0.010510123
225	0xbea85aee	-0.32881874
226	0xbe24f0fd	-0.16107555
227	0xbebf078c	-0.37310445
228	0xbd900ec6	-0.07034068
229	0xbdec08ca	-0.11525114
230	0xbe70914a	-0.23492923
231	0xbda01730	-0.07816923
232	0xbd70b27a	-0.05876396
233	0xbd2c2fa4	-0.04203762
234	0x3c259a48	0.010107584
235	0xbd00bd52	-0.03143055
236	0xbd310a1b	-0.043222528
237	0xb8796452	-5.9459657e-05
238	0xbc8cf2a1	-0.017205538
239	0xbaa0ead6	-0.0012277018
240	0xbbf56824	-0.007489221
241	0xbadc94b8	-0.001682899
242	0x3c03734b	0.008023093
243	0xbcb89670	-0.022532672
244	0xbcb877b1	-0.02251801
245	0xbca24fa9	-0.019813376
246	0xbcf9291f	-0.030415116
247	0xbd0cff8e	-0.034423403
248	0x3c372ea8	0.011180557
249	0xbb3208aa	-0.0027165809
250	0xbca8a554	-0.020586647
251	0x3be00f89	0.0068377894
252	0x3cd441d6	0.0259103
253	0xbe004b17	-0.12528645
254	0x3dad385c	0.08458015
255	0x3d61a3cf	0.05508786

module.cnn.4.bias f4 [64]
0	0xbf13d3a4	-0.5774481
1	0xbf3926bd	-0.72324735
2	0xbf01fcc4	-0.50776315
3	0x3e48c2f4	0.19605619
4	0xbdfa3bf1	-0.12218464
5	0x3f7b9229	0.982699
6	0xbec8ffd4	-0.3925768
7	0x3d9cd990	0.07658684
8	0xbeb2a35f	-0.34890267
9	0xbec4fd3b	-0.3847445
10	0xbdb08d7e	-0.086207375
11	0xbdeb50b6	-0.11490004
12	0xbe336934	-0.175206
13	0xbe88ef49	-0.2674506
14	0xbc80b776	-0.015712481
15	0xbf387a8d	-0.72062
16	0xbe94105c	-0.2891873
17	0xbf43ae3c	-0.76437736
18	0xbe5a590b	-0.2132303
19	0x3e3d7a8c	0.18503779
20	0xbc954b87	-0.01822449
21	0xbdd3e979	-0.10347266
22	0x3e37ae54	0.17937595
23	0xbe7ea05a	-0.24865857
24	0xbdff4d24	-0.12465885
25	0xbf43f3d6	-0.7654394
26	0xbf0766f9	-0.528915
27	0xbeb2f881	-0.34955218
28	0xbf4be158	-0.7964072
29	0xbc87c921	-0.016575398
30	0x3cb65f23	0.022262162
31	0xbeea1d5e	-0.4572553
32	0xbf35d411	-0.7102671
33	0xbedc6eb6	-0.43053216
34	0xbea05395	-0.31313768
35	0xbc1fea5d	-0.009760466
36	0x3ddaaebb	0.106778584
37	0xbe253a3e	-0.16135499
38	0x3e75bd60	0.23998022
39	0xbf3dfa76	-0.742103
40	0xbf11106f	-0.566657
41	0xbe85e6db	-0.2615269
42	0xbf3484eb	-0.70515317
43	0xbf4cdead	-0.80027276
44	0xbf258189	-0.6465078
45	0xbf2b8f12	-0.6701518
46	0xbe8ed30c	-0.2789539
47	0xbf1c118d	-0.6096428
48	0xbec2a75c	-0.3801831
49	0xbe8c26f5	-0.27373472
50	0xbe4d765a	-0.20064679
51	0xbf2048f9	-0.6261135
52	0xbb2309f1	-0.0024877752
53	0xbf4c8369	-0.79888016
54	0xbe9e5aed	-0.30928746
55	0xbe8c7209	-0.27430752
56	0xbf68c6d9	-0.9092842
57	0x3f04b04d	0.51831514
58	0x3e68e771	0.22744538
59	0xbe400d79	-0.1875514
60	0xbe0f23f1	-0.13978554
61	0xbe9f645c	-0.31131256
62	0xbf13a7e0	-0.5767803
63	0xbf64649c	-0.8921602

module.cnn.6.weight f4 [64, 64, 3, 3]
0	0x3c991be0	0.01869005
1	0xbc462640	-0.01209408
2	0x39db651d	0.0004184627
3	0x3c0a5a46	0.008444374
4	0xbc4ec5a6	-0.012620365
5	0x3c38df52	0.011283712
6	0x3c66dea4	0.014091168
7	0x3c1fafa1	0.009746463
8	0xbab6f1ec	-0.0013957596
9	0x3aaaf614	0.0013043308
10	0x3c95a336	0.018266302
11	0xbcd73a0f	-0.026272802
12	0x3ca5956c	0.020212851
13	0xbd1ab87e	-0.0377736
14	0xbc9d6ac1	-0.019215943
15	0xbc84860a	-0.016177196
16	0xbbdaff50	-0.0066832677
17	0x3c0285c7	0.007966465
18	0x3c8ca63d	0.017169112
19	0x3c8e303f	0.01735699
20	0x3b12b9d5	0.0022388597
21	0x3c4b959a	0.0124258045
22	0xbb34ab41	-0.0027567896
23	0xbd2cc5cf	-0.042180832
24	0xbcd627f5	-0.0261421
25	0xbd082b54	-0.033244446
26	0xbcbfd35a	-0.02341621
27	0x3aba2550	0.0014201794
28	0xbc940cd0	-0.018072516
29	0xbcbdd534	-0.023172952
30	0xbda1d474	-0.0790185
31	0x3bc80518	0.006104123
32	0xbd9e4e8c	-0.077298254
33	0xbc05b35c	-0.008160438
34	0x3c8b8b8d	0.017034316
35	0xbdd5e309	-0.10443694
36	0xbcc48d55	-0.023993174
37	0xbd36d75a	-0.04463897
38	0x3aa8def0	0.0012883823
39	0x3bc5bb0a	0.0060342597
40	0xbb025715	-0.001988833
41	0x3baadc2a	0.005214234
42	0xbc5364b7	-0.01290243
43	0xbc4fa9b9	-0.012674742
44	0xbd0f3574	-0.034963086
45	0xbc7fe864	-0.015619371
46	0x3c2f3545	0.010693853
47	0xbc8fc4d7	-0.017549915
48	0xbc20ef4e	-0.00982268
49	0x3c852f3c	0.016257875
50	0xbdc39b5c	-0.09551117
51	0x3c1464ad	0.009057206
52	0x3a0bf1ef	0.000533848
53	0xbdc4d47f	-0.09610843
54	0x3be823b2	0.0070843333
55	0xbc7018a8	-0.014654316
56	0xbc8622ce	-0.016374018
57	0x3c89fb3f	0.016843436
58	0xbc88a2ab	-0.016679129
59	0xbc74b218	-0.014935039
60	0x3bdc429c	0.0067218076
61	0xbd19f557	-0.03758749
62	0xbc3cf41f	-0.011532812
63	0x3c7684ff	0.015046357
64	0x3ccacf13	0.024756944
65	0xbcbdc6c9	-0.023166077
66	0x3bf667cc	0.007519698
67	0xbdbe47f3	-0.09291067
68	0xbd4512eb	-0.048113745
69	0x3cd35b76	0.025800448
70	0xbba78c1f	-0.0051131393
71	0xbdcd6ed4	-0.100309044
72	0xbc74794a	-0.014921496
73	0xbc6beda1	-0.014399917
74	0x3b248ed5	0.0025109549
75	0xbb9c707b	-0.004774151
76	0xba795b7c	-0.00095122284
77	0x3c0d46d8	0.0086228475
78	0xbc90ea8b	-0.017689964
79	0xbd08f30c	-0.033434913
80	0xbac72f5e	-0.0015196612
81	0x3c7c7188	0.015407927
82	0xbc87b9e3	-0.01656813
83	0xbb326a75	-0.0027224098
84	0x3c80f0a4	0.015739746
85	0xbc220979	-0.009889954
86	0xbca27527	-0.019831253
87	0x3b86cb85	0.004113617
88	0xbb768c52	-0.0037620259
89	0xbc992529	-0.018694477
90	0xbcc815ba	-0.024424423
91	0xbd21da68	-0.03951493
92	0xbcd71130	-0.026253313
93	0xbc56ba8c	-0.013106
94	0xba88e6e4	-0.0010444787
95	0x3bf3673c	0.007428078
96	0x3bed0ef2	0.0072344476
97	0xbcdd24ec	-0.026995145
98	0xbcdd483d	-0.027011985
99	0xbc860d66	-0.01636381
100	0x3a3636bb	0.00069509045
101	0x3ae6d8e2	0.0017612244
102	0xbd69af9b	-0.057052236
103	0xbdd0d8f2	-0.10197629
104	0xbd6d2b1b	-0.057902437
105	0xba9c11e3	-0.0011907186
106	0xbcafb5ad	-0.021448934
107	0xbd8a9177	-0.067660265
108	0x3bed99d7	0.007251005
109	0x3bd7dbc9	0.0065874797
110	0x3cbf0f56	0.023322742
111	0xbcb271a9	-0.021782713
112	0x3c3c942d	0.011509937
113	0x3c5871c9	0.013210722
114	0x3cc01e73	0.02345202
115	0xbca6dacf	-0.020368008
116	0xbd09765d	-0.033560146
117	0xbcb56f90	-0.022147924
118	0xbd2c27bf	-0.042030092
119	0xbc4013f5	-0.011723508
120	0xbcbbaeed	-0.02291056
121	0xbc9fdae7	-0.01951356
122	0x3a972d1a	0.0011533827
123	0xbca079d6	-0.019589346
124	0xbd25e029	-0.04049698
125	0xbcf1b5d4	-0.029505648
126	0xbb3ac987	-0.0028501467
127	0xbcee1e90	-0.029067308
128	0x3ade9078	0.0016980311
129	0x3c473828	0.012159385
130	0xbb9d4b6f	-0.004800252
131	0xbdabd975	-0.08391086
132	0x3c107584	0.00881708
133	0xbc95595b	-0.018231085
134	0xbdbff075	-0.093720354
135	0xbc84aa74	-0.01619456
136	0x3c16b60d	0.009198678
137	0xbcefb17e	-0.02925944
138	0xbc9b42e3	-0.018952793
139	0x3c79e0aa	0.015251318
140	0x3c1a019e	0.0093998
141	0xbc676dde	-0.0141253155
142	0xbbe31cf5	-0.006930942
143	0x3c21b708	0.009870298
144	0xbcca5e18	-0.02470307
145	0x3c30bfb2	0.010787891
146	0x3b3f47e7	0.0029187144
147	0xbc4248f4	-0.011858214
148	0xbc72c0e6	-0.014816498
149	0xbcb0589f	-0.021526633
150	0xbcbfc572	-0.023409579
151	0xbc106290	-0.008812562
152	0x3b7ee1d8	0.0038891938
153	0xbab86750	-0.0014068875
154	0xb9387d09	-0.00017594187
155	0xbcb872cc	-0.022515677
156	0x3cafebd3	0.021474754
157	0xba2b53c8	-0.00065356167
158	0xbc49eaa5	-0.01232401
159	0x3c65de01	0.014029981
160	0x39c5a816	0.00037700002
161	0x3c1d1376	0.009587159
162	0x3cd32bd5	0.025777737
163	0x3bf2775b	0.007399482
164	0x3b7e2650	0.003878016
165	0xbcd0ad90	-0.025473386
166	0x3a8af6c2	0.0010602104
167	0xbc483e20	-0.012221843
168	0xbc5a2402	-0.013314249
169	0xbb883f32	-0.004157924
170	0xbcee838c	-0.02911546
171	0xbc5610d1	-0.013065533
172	0xbc4f7efa	-0.012664551
173	0x3cd34a19	0.025792168
174	0xbc4a5b3c	-0.0123508535
175	0xbc232001	-0.009956361
176	0xbd14df3f	-0.036345717
177	0xbdc32a90	-0.095296025
178	0xbdbcf051	-0.09225524
179	0x3c3f1e33	0.011664915
180	0x3cc39e71	0.023879262
181	0xbc7d0b6b	-0.015444617
182	0xbc59ee6b	-0.013301472
183	0x3c0151ea	0.007893065
184	0x3cacc7ef	0.02109143
185	0xbc9299e7	-0.017895652
186	0xbc7f747f	-0.01559174
187	0xba923d55	-0.0011157194
188	0x3cd2a062	0.025711242
189	0xbc9ed03d	-0.019386405
190	0xbc039bae	-0.008032722
191	0xbd082324	-0.033236638
192	0xbd77adf7	-0.06046864
193	0xbdd3d199	-0.10342712
194	0x3b8e0745	0.0043343627
195	0xbd8533af	-0.065039985
196	0xbdbdaf3b	-0.09261938
197	0x3aec7a7e	0.0018041877
198	0x3bd6a704	0.0065506715
199	0xbc67f134	-0.014156628
200	0xbba79518	-0.005114209
201	0x3cafd6a2	0.02146465
202	0xbcd82106	-0.026382934
203	0xbbaac93d	-0.0052119778
204	0x3c664c03	0.014056209
205	0x3cc3bec1	0.02389467
206	0x3b06d412	0.002057318
207	0x396b5df7	0.00022446351
208	0x3c66d22c	0.014088195
209	0xbcc951f8	-0.024575219
210	0xba4c58cc	-0.0007795214
211	0x3c4a4e03	0.012347701
212	0xbb3c1e1b	-0.0028704468
213	0xbc56e4b6	-0.013116052
214	0x3b59b645	0.0033220213
215	0xbc0525c2	-0.008126678
216	0xbc36d313	-0.011158722
217	0x3b7f6a2e	0.00389732
218	0xbd0cd423	-0.034381997
219	0xbd5e66a3	-0.0542971
220	0xbdd7800d	-0.105224706
221	0xbd0a21e6	-0.033723734
222	0xbdd01936	-0.101610586
223	0xbcc3cc8f	-0.023901252
224	0xbcae8a99	-0.021306323
225	0x3c613718	0.0137460455
226	0x3bb52a4b	0.0055287234
227	0xbacd328f	-0.0015655326
228	0x3c8181de	0.015808996
229	0xbb3510b0	-0.0027628355
230	0xbd12ae3b	-0.03581069
231	0x3c9e86f3	0.019351458
232	0xbb9f1c99	-0.004855704
233	0x3aa4d0a3	0.0012574386
234	0xbb6b3696	-0.003589069
235	0x3bc1757a	0.005903897
236	0xbd1076cc	-0.035269544
237	0x3c8b6232	0.017014597
238	0xbd1397e7	-0.036033537
239	0xbc205c6f	-0.009787663
240	0xbc1d1fae	-0.009590073
241	0xbd2b8aaa	-0.041880287
242	0xbb2ef7b9	-0.0026697947
243	0x3c8efbc6	0.01745404
244	0xbca36b0a	-0.019948501
245	0xbce6ddfa	-0.028182019
246	0x3ccf1ce0	0.025282323
247	0xbcaf34b1	-0.02138743
248	0xbcb4acbe	-0.022055026
249	0xbc3728a8	-0.011179127
250	0xbc987657	-0.018611116
251	0xbd350e5a	-0.04420314
252	0xbbc92432	-0.006138348
253	0xbcb16906	-0.021656524
254	0xbc597cce	-0.013274385
255	0x3bc3cf97	0.0059756744

module.cnn.6.bias f4 [64]
0	0xbde607b5	-0.11231939
1	0xbd98f175	-0.07467929
2	0xbdb2d395	-0.08731762
3	0xbf48ba2d	-0.7840908
4	0xbdb298a5	-0.08720521
5	0xbbefc2b0	-0.0073169097
6	0xbf0e1e80	-0.5551529
7	0x3e3eeccf	0.18645023
8	0xbe6dfe4b	-0.23241536
9	0xbd44134c	-0.047869965
10	0xbf1fef4a	-0.624745
11	0xbeccc8f6	-0.3999707
12	0x3b906ec3	0.004407735
13	0xbde9ab40	-0.114096165
14	0xbe0b92f1	-0.13630272
15	0xbe0013c4	-0.1250754
16	0xbebc8f71	-0.36828187
17	0x3d24e54f	0.04025775
18	0xbe2a85ce	-0.16652605
19	0xbf082bdb	-0.5319192
20	0xbcd8c5ca	-0.0264615
21	0xbd402a27	-0.0469152
22	0xbe6b6a8a	-0.2298986
23	0xbd8f9819	-0.07011432
24	0xbec63abb	-0.38716683
25	0xbea1d01c	-0.31604087
26	0xbc9d6a95	-0.019215861
27	0xbd6d00ad	-0.057861973
28	0x3e512002	0.20422366
29	0xbf6834d9	-0.9070564
30	0xbd988285	-0.074467696
31	0xbf219faa	-0.63134253
32	0xbdd42811	-0.103592046
33	0xbeaf84c3	-0.34280977
34	0xbe72582f	-0.23666452
35	0xbe865b93	-0.2624174
36	0xbe93d984	-0.2887689
37	0xbe343c0f	-0.17601036
38	0xbebac61f	-0.3647928
39	0xbd71d0ac	-0.059036896
40	0xbd9f3f82	-0.07775785
41	0xbeaf0549	-0.3418372
42	0xbdc9ca05	-0.09852985
43	0xbcf9cb8a	-0.030492563
44	0xbd670ec5	-0.05641057
45	0xbdc4b194	-0.09604183
46	0xbe0f6a17	-0.14005314
47	0xbe274a74	-0.16336995
48	0xbdfe0bcf	-0.12404596
49	0xbe27cd4c	-0.16386908
50	0xbe603da3	-0.21898513
51	0xbd4bff28	-0.049803883
52	0xbee79042	-0.45227247
53	0xbe040a2d	-0.12894507
54	0xbe181010	-0.14849877
55	0xbddf8f1c	-0.10915968
56	0xbe0b31d2	-0.13593224
57	0xbdd2f701	-0.103010185
58	0xbe39d662	-0.18148187
59	0x3ed60301	0.41799167
60	0xbef44904	-0.47711957
61	0xbe200bd5	-0.15629514
62	0xbf4111b7	-0.75417656
63	0xbd127105	-0.035752315

module.cnn.8.weight f4 [64, 64, 3, 3]
0	0xbbc2fe34	-0.0059507135
1	0xbc79585c	-0.01521882
2	0x3c0b210f	0.0084917685
3	0xbcb0b3a4	-0.021570034
4	0x3cac1479	0.021005856
5	0xbc87dcbe	-0.01658475
6	0xbb9f6578	-0.004864391
7	0x3d1804fc	0.03711413
8	0x396591c9	0.00021893451
9	0xbc6cb136	-0.014446547
10	0xbaebb21f	-0.0017982161
11	0xbc98ffc8	-0.018676654
12	0x3bc424dd	0.0059858398
13	0xbc892a7d	-0.016743893
14	0x3cfb32aa	0.030663807
15	0x3cab9a6e	0.020947661
16	0x3d196ab9	0.037455294
17	0x3c31a851	0.010843352
18	0x3b3f3b45	0.0029179615
19	0xbc94af57	-0.018150015
20	0x3b8e74e2	0.0043474296
21	0xbb5e4a15	-0.0033918668
22	0xbc8f5b77	-0.017499669
23	0x3c7d4e19	0.015460514
24	0x3c803cd2	0.015654001
25	0xbb4a2074	-0.0030842097
26	0x3ccc89a8	0.024967983
27	0xbc50d8c8	-0.012746997
28	0xbc571a0d	-0.01312877
29	0x3cc0e8ab	0.023548445
30	0x3c378483	0.011201027
31	0x3e1a54d8	0.15071428
32	0x3f467e91	0.77536875
33	0xbc179a59	-0.009253108
34	0x3dd4fb63	0.10399511
35	0x3e88ec9d	0.26743022
36	0x3ca08c7b	0.019598236
37	0xbc7a5671	-0.015279398
38	0xbc225ebb	-0.009910281
39	0x3cbe1d03	0.023207193
40	0x3c2a8ba6	0.010409271
41	0xbcbe27a6	-0.023212265
42	0xbbd498a4	-0.0064879227
43	0xbe35654b	-0.17714421
44	0xbc495f08	-0.012290724
45	0x3b579e4f	0.0032900756
46	0xbbd194b1	-0.006395899
47	0x3bfaea27	0.0076573077
48	0xbcc6b760	-0.024257362
49	0x3c76d213	0.015064734
50	0xbc4b4d89	-0.012408623
51	0xbbecf130	-0.0072309
52	0xbc11bbcf	-0.008894875
53	0xbb380ad5	-0.0028082628
54	0xbca17fff	-0.019714354
55	0xbcc78488	-0.024355188
56	0x3b0f818c	0.0021897284
57	0xbc4dd5ab	-0.012563149
58	0x3d4f43c1	0.050601725
59	0x3edff350	0.4374032
60	0x3ca34197	0.019928737
61	0x3ecfa54b	0.40555796
62	0x3e82f0f1	0.2557445
63	0x3bfd5cb3	0.007731998
64	0xbc50a9b8	-0.012735777
65	0x3bc28761	0.0059365486
66	0xbcc9ee40	-0.02464974
67	0xbf011b85	-0.50432616
68	0xbf6a241b	-0.9146134
69	0x3c10b880	0.008833051
70	0x3eb7630b	0.3581775
71	0x3d95d93e	0.07316826
72	0xbcbdb014	-0.02315525
73	0x3c5b53ed	0.013386709
74	0xbc5eed0e	-0.013606323
75	0x3ccc0c14	0.024908103
76	0x3d9350f3	0.07193174
77	0x3d38388c	0.044975802
78	0xbbfb4d24	-0.007669108
79	0xbd92d91d	-0.07170317
80	0x3e17aafb	0.14811318
81	0xbc9bb5b3	-0.01900754
82	0x3ccd8b07	0.025090707
83	0xbc0b08d5	-0.008485992
84	0xbc3ee18c	-0.011650454
85	0xbc8dd264	-0.017312236
86	0xbc7aa610	-0.015298381
87	0x3ca9ada5	0.020712683
88	0xbc9fba18	-0.019497916
89	0xbc73bac8	-0.014876075
90	0x3c82eccc	0.015982054
91	0x3c68e638	0.014215045
92	0xbcb257df	-0.021770416
93	0x3bcf282c	0.0063219275
94	0xbdf9e078	-0.12201017
95	0x3d9bb9a4	0.076037675
96	0x3bf9277d	0.0076035843
97	0x3ea6a0ea	0.32544643
98	0xbf3830d3	-0.719495
99	0x3c81476d	0.015781129
100	0x3ba2d0bc	0.0049687307
101	0xbcc9770f	-0.024592904
102	0x3c5f9d0b	0.013648282
103	0x3dfaff00	0.12255669
104	0xbe0ed7a2	-0.13949445
105	0x3c391e40	0.011298716
106	0x3dde8fb4	0.10867253
107	0x3e0b67ba	0.13613787
108	0x3c4f9726	0.012670314
109	0x3a4118be	0.00073660526
110	0x3a46a19e	0.00075771834
111	0x3c50ba75	0.012739767
112	0xbd8ac08f	-0.06775009
113	0xbf4d4883	-0.8018877
114	0x3c90e776	0.017688494
115	0x3f196827	0.5992455
116	0x3e8d0b3e	0.2754764
117	0x3bb62712	0.0055588568
118	0xbccc9974	-0.024975516
119	0xbca7f0db	-0.020500591
120	0xbc0174e6	-0.007901406
121	0xbc57e75e	-0.013177721
122	0xbd0c58ad	-0.034264255
123	0x3c534410	0.012894645
124	0xbc91edf4	-0.01781366
125	0x3c5e6797	0.013574502
126	0x3c4577c4	0.01205248
127	0xbc9324e9	-0.017961936
128	0xbc369fd8	-0.011146508
129	0x3b0ddddf	0.0021647138
130	0x3d3652ed	0.044512678
131	0x3cbf0a28	0.023320273
132	0xbc39bba3	-0.01133624
133	0xbc3e9cbb	-0.011634047
134	0x3d95c197	0.07312315
135	0xbc851026	-0.016243052
136	0xbb6e05a2	-0.0036319275
137	0x3bb24dd9	0.005441409
138	0xbc564ac0	-0.013079345
139	0xbeddd175	-0.43323866
140	0x3d66e231	0.056368057
141	0x3cd16715	0.025561849
142	0x3efbbc39	0.4916704
143	0x3dc0e146	0.094179675
144	0xbcad46ea	-0.021151979
145	0xbc87de70	-0.016585559
146	0xbc4d401a	-0.01252749
147	0xbc375472	-0.011189567
148	0xbef7f16d	-0.4842638
149	0x3ee25477	0.44205067
150	0xbbfd158e	-0.007723517
151	0x3ecaf346	0.39638728
152	0x3e43d84a	0.19125476
153	0x3c65305b	0.01398858
154	0xbbdfa5b0	-0.0068251714
155	0x3ccd7e44	0.025084622
156	0x3cbba01f	0.0229035
157	0xbe452f18	-0.19256246
158	0xba5fc61e	-0.00085362967
159	0x3b6c9abc	0.003610297
160	0x3eb1dd92	0.34739357
161	0xbd6ada4f	-0.0573371
162	0x3a5a1c47	0.00083202537
163	0xbc67d239	-0.014149242
164	0xbca2ede9	-0.019888835
165	0xbc94469d	-0.018100077
166	0xbcbd6c46	-0.023122918
167	0x3d8e9491	0.069619305
168	0x3c8eca45	0.017430434
169	0xbcd3b9ce	-0.025845435
170	0xbca4b22f	-0.020104496
171	0x3ca5ece4	0.02025456
172	0xbbd064a5	-0.006359654
173	0x3c4885e8	0.012238957
174	0xbc9e0711	-0.019290479
175	0x3e7a2b37	0.24430548
176	0xbe94a5d6	-0.29032773
177	0xb9671070	-0.00022036
178	0xbf1e30f8	-0.6179347
179	0xbed63d35	-0.41843572
180	0x3ca17bb2	0.019712303
181	0x3cbc7506	0.02300502
182	0x3ca8eb61	0.02062005
183	0x3ab91812	0.0014121553
184	0x3cf0e086	0.029403936
185	0x3d1a0080	0.037598133
186	0xbbf3f88b	-0.0074454
187	0x3bb0470c	0.005379563
188	0xbcf7e94b	-0.03026261
189	0xbcd522d4	-0.026017584
190	0xbcd6f3af	-0.026239244
191	0xbab299f5	-0.0013626205
192	0xbc9dcfb6	-0.019264083
193	0x3d2b090f	0.041756686
194	0x3c25f149	0.010128328
195	0x3cd7f109	0.026360052
196	0xbd22d52e	-0.039754085
197	0xbb697fad	-0.003562908
198	0x39298c4c	0.0001616936
199	0xbc1a5334	-0.009419251
200	0xbc5b649b	-0.013390685
201	0xbc76de16	-0.015067598
202	0xbe51c206	-0.2048417
203	0x3e7a86e1	0.24465515
204	0xbb7971e5	-0.0038062271
205	0xbea52867	-0.32257387
206	0xbe235318	-0.15949667
207	0x3c663d19	0.014052653
208	0x39d36495	0.00040319996
209	0xbc36a946	-0.011148756
210	0x39a0eb3d	0.00030692844
211	0x3c2e9f72	0.010658132
212	0xbd0375b7	-0.032094683
213	0xbc6d2195	-0.014473339
214	0x3b103c5c	0.0022008633
215	0xbc1bffe6	-0.00952146
216	0x3c68c703	0.014207604
217	0xbc7faf37	-0.015605739
218	0xbbc83525	-0.006109851
219	0xbbe80529	-0.0070806933
220	0x3f1230ae	0.5710553
221	0x3d7a1ed3	0.061064553
222	0xbcaaa597	-0.020830913
223	0x3d61ff0e	0.05517488
224	0x3e8e7aea	0.2782815
225	0xbca073dd	-0.019586498
226	0x3b0a591d	0.0021110245
227	0x3c1cedae	0.009578152
228	0xbbc2aecd	-0.005941248
229	0xbcb02f75	-0.021507004
230	0x3d587f91	0.05285603
231	0xbb71316b	-0.0036803137
232	0x3e317406	0.17329416
233	0x3d004f81	0.03132582
234	0xbc982425	-0.018571923
235	0xbca8b324	-0.020593233
236	0xbc93fe86	-0.018065702
237	0xbc803f9f	-0.015655337
238	0xbd06566d	-0.032797266
239	0xbd0442fd	-0.032290448
240	0x3cb81595	0.022471229
241	0xbd3f3c0a	-0.046688117
242	0xbd45b908	-0.048272163
243	0x3ca9a35f	0.020707784
244	0xbc88cb25	-0.01669843
245	0xbc5b6c65	-0.0133925425
246	0xbc899e48	-0.016799107
247	0xbf2d5066	-0.67700803
248	0xbdaa4b55	-0.0831515
249	0xbbe64f90	-0.0070285276
250	0xbe95ce00	-0.29258728
251	0x3d3f605d	0.04672276
252	0x3ca410a8	0.020027474
253	0x3b026a67	0.0019899847
254	0x3beb4ce2	0.007180796
255	0xbb0253e7	-0.0019886435

module.cnn.8.bias f4 [64]
0	0x3ea05134	0.31311953
1	0xbe6e95db	-0.23299353
2	0xbec963a6	-0.39333838
3	0xbe365218	-0.17804754
4	0x3dc4024f	0.09570753
5	0x3f5e445a	0.86823046
6	0xbe46e07e	-0.19421574
7	0xbe143898	-0.14474714
8	0xbeeb7d1e	-0.45993894
9	0xbdf6d7ef	-0.12052905
10	0xbdf7adb7	-0.1209368
11	0xbf0ab4ae	-0.54181945
12	0x3e1eddcd	0.15514298
13	0x3dcf883d	0.10133407
14	0xbeaea34a	-0.34108955
15	0xbcf1b53e	-0.029505368
16	0x3dc1407c	0.094361275
17	0xbe032c0e	-0.12809774
18	0xbf0ad446	-0.54230154
19	0xbd85aaa4	-0.06526688
20	0xbcd74ab8	-0.026280746
21	0xbf0bf0e0	-0.5466442
22	0xbe241ffe	-0.16027829
23	0xbe168114	-0.14697677
24	0xbeeb0af9	-0.4590681
25	0xbe5f5b2d	-0.21812125
26	0xbf0d0b20	-0.550951
27	0xbe810032	-0.25195462
28	0x3d31ae77	0.043379273
29	0x3f0000aa	0.50001013
30	0xbf3c545c	-0.7356622
31	0x3f471e29	0.77780396
32	0xbf227416	-0.63458383
33	0xbe8aaea4	-0.27086365
34	0x3da2edc5	0.07955507
35	0xbda129b6	-0.07869284
36	0xbe157026	-0.14593562
37	0x3d5f6e91	0.054548804
38	0xbf674c9f	-0.9035129
39	0xbeba277f	-0.36358258
40	0xbe37c41b	-0.17945902
41	0x3f7dfa8f	0.9921045
42	0xbf006c43	-0.50165194
43	0xbeaf5537	-0.342447
44	0xbe96d0bb	-0.29456124
45	0xbf0aec4a	-0.542668
46	0xbe6bbeea	-0.23022047
47	0x3e844c0b	0.25839266
48	0xbd460e2f	-0.04835337
49	0xbd6e7859	-0.05822024
50	0xbeda591d	-0.42646113
51	0xbefe8814	-0.49713194
52	0x3f64b99e	0.8934573
53	0xbd8eeeed	-0.06979165
54	0xbef47f31	-0.4775329
55	0xbe1a9184	-0.15094572
56	0xbbcedf96	-0.0063132746
57	0xbe9c07c1	-0.30474666
58	0xbdf38855	-0.11891238
59	0xbe3e402d	-0.18579169
60	0xbdb51606	-0.08842091
61	0xbe91a595	-0.28446642
62	0x3f288cc5	0.658398
63	0xbc1af946	-0.0094588455

module.cnn.10.weight f4 [64, 64, 3, 3]
0	0xbc473f7a	-0.01216113
1	0xbc353888	-0.011060841
2	0xbba5ec2d	-0.0050635547
3	0x3b539a38	0.0032287966
4	0x3a39ec0d	0.0007092364
5	0x3b9eca44	0.0048458893
6	0x3c03d6aa	0.008046785
7	0x3bb58a58	0.0055401735
8	0xbc5759cb	-0.013143967
9	0x3cc52b12	0.02406839
10	0x3c96c5f4	0.018404938
11	0xbc7cda30	-0.015432879
12	0x3cb859fc	0.022503845
13	0x3cf38598	0.029726788
14	0x3bd3a45d	0.0064588026
15	0xbccbfe02	-0.024901394
16	0x3c9e7650	0.019343525
17	0xbca9fb7f	-0.020749805
18	0xbcd123f3	-0.025529837
19	0x3c0ac6ba	0.008470232
20	0x3c5e6c98	0.013575695
21	0xbca55070	-0.020179957
22	0xbe283f9e	-0.16430518
23	0x3c97d2df	0.018533168
24	0xb7a009b0	-1.9077997e-05
25	0x3c022533	0.007943439
26	0x3cd43580	0.025904417
27	0x3c20c330	0.009812161
28	0xbc42b6bf	-0.01188439
29	0xbc3dba96	-0.01158013
30	0x3cc403de	0.023927625
31	0xbd43fd34	-0.047848895
32	0xbc8f8efe	-0.017524239
33	0x3c9e0f27	0.019294335
34	0xbc256b6b	-0.010096411
35	0x3c4d2ce3	0.012522909
36	0x3c19095f	0.009340613
37	0x3c9b043f	0.018922923
38	0x3bd3e0cd	0.0064660073
39	0xbc28d9c4	-0.010305826
40	0xb9ea0b2d	-0.00044640285
41	0xbb86a2dd	-0.0041087703
42	0xbbea3557	-0.007147472
43	0xbca24f20	-0.01981312
44	0xbca6ab0f	-0.020345239
45	0x3af4d8f6	0.0018680382
46	0x3c75ffe4	0.015014622
47	0x3cbcc173	0.023041463
48	0xbb5077bc	-0.0031809648
49	0xbd0d972c	-0.034567997
50	0x3ba847f5	0.005135531
51	0x3a6268ce	0.0008636833
52	0xbcc344fe	-0.023836609
53	0x3c19d18b	0.009388338
54	0x3cabdb31	0.020978542
55	0xbcbbdfd8	-0.022933885
56	0x3c9beac3	0.019032842
57	0xbcbb854b	-0.022890707
58	0xbd91cbce	-0.07118951
59	0x3c706fd8	0.014675103
60	0x3bc5b86e	0.0060339486
61	0xbc5cbf90	-0.013473406
62	0xbcbe02ec	-0.023194753
63	0xbc531f01	-0.01288581
64	0xbcbc480f	-0.022983579
65	0xbc9f365c	-0.0194351
66	0xbccdfa33	-0.025143718
67	0xbcc62e7d	-0.02419209
68	0xbc97e7a2	-0.018543068
69	0xbccd8821	-0.025089325
70	0xbb7affdd	-0.003829948
71	0x3c5ee2bf	0.013603865
72	0xbb505134	-0.0031786682
73	0xbc192951	-0.0093482295
74	0x3c98c0f6	0.018646698
75	0x3ccc4c8d	0.024938846
76	0xbd18ffe5	-0.037353415
77	0xbba705f2	-0.0050971443
78	0x3c2b5ea2	0.010459574
79	0x3cb0ab92	0.021566186
80	0x3c369924	0.01114491
81	0xbc0807a9	-0.008302608
82	0x3be1acd3	0.0068870573
83	0x3b9b23fd	0.0047345147
84	0xbbdd0a97	-0.006745647
85	0xbbbb1f45	-0.0057105147
86	0x3c303aa4	0.0107561685
87	0xba9659e2	-0.0011470879
88	0xbc9302d6	-0.017945688
89	0xbc77af35	-0.015117456
90	0xbcbb75f2	-0.02288339
91	0xbcd49eb1	-0.025954576
92	0xbc47b409	-0.01218892
93	0xbcc48681	-0.023989918
94	0xbc8660f4	-0.016403653
95	0xbcd519c7	-0.026013268
96	0xbc1b1a8b	-0.009466778
97	0x3c2bd04c	0.010486674
98	0xbcb4020c	-0.021973632
99	0x3c851d18	0.016249225
100	0x3c255ffa	0.010093683
101	0x3c2ef04c	0.010677408
102	0x3c6aea8c	0.014338147
103	0xbbb652e6	-0.0055640815
104	0x3c8b2e74	0.016989924
105	0x3c75de81	0.015006662
106	0x3c87bee2	0.016570512
107	0x3cd844a5	0.02639992
108	0xbc65502b	-0.013996164
109	0xbca650d8	-0.020302221
110	0x3cbc007e	0.022949453
111	0x3bed142a	0.0072350698
112	0xbe1cc029	-0.15307678
113	0x3c9cad16	0.019125503
114	0xbccf6178	-0.025315031
115	0xbc7924da	-0.01520654
116	0x3bb9ec88	0.0056739487
117	0xbc9a9885	-0.018871555
118	0xbc4fd71d	-0.012685564
119	0x3c323263	0.010876271
120	0xbbfb10d3	-0.0076619177
121	0xbe2741db	-0.16333716
122	0x3accf1dc	0.0015636045
123	0x3c3d0497	0.011536739
124	0x3c7c764f	0.015409066
125	0x3c4e6da6	0.012599384
126	0x3c4d401f	0.012527495
127	0x3cc1665e	0.023608383
128	0x3c99e672	0.018786643
129	0x3bb3e01b	0.005489362
130	0xbc9cb50d	-0.0191293
131	0xbc798fda	-0.015232051
132	0xbc369733	-0.011144447
133	0xbc0b25a2	-0.008492859
134	0x3b00e64c	0.0019668518
135	0xbc77092a	-0.0150778685
136	0x3bb1bb51	0.005423941
137	0x3cb03dd9	0.021513866
138	0x3c6c57e5	0.014425253
139	0xbcd3dc80	-0.025861979
140	0x3c9bd98a	0.01902463
141	0x3b120a6e	0.0022284049
142	0x3c895184	0.016762502
143	0x3c946f6e	0.01811954
144	0xbbe02bc0	-0.006841153
145	0xbc037788	-0.008024104
146	0x3bf99dc1	0.0076176827
147	0x3ba98ebd	0.0051744864
148	0x3c60744f	0.013699605
149	0x3c94b710	0.018153697
150	0xbc31a857	-0.010843358
151	0xbae8dd30	-0.0017766114
152	0x3b86eb71	0.0041174223
153	0x3c9173f7	0.017755492
154	0x3c5d3865	0.013502215
155	0x3b44ed83	0.0030048795
156	0xbc1ce6ba	-0.009576494
157	0xbb5ad341	-0.0033390077
158	0xbc2f3eb7	-0.010696105
159	0x3b774892	0.0037732464
160	0xbb693f07	-0.0035590546
161	0x3ba0c349	0.0049060923
162	0xbbe9e6d3	-0.007138112
163	0xb93f2d1f	-0.00018231988
164	0x3c97fcbc	0.01855313
165	0x3c0bf08e	0.008541239
166	0xbc722aa8	-0.014780678
167	0xbc968280	-0.018372774
168	0x3b12c151	0.0022393058
169	0x3c429869	0.011877158
170	0x3c86468d	0.016391063
171	0xbae6ecd9	-0.0017618194
172	0x3cd21637	0.025645358
173	0x3bda867c	0.006668864
174	0x3b349fba	0.0027561025
175	0x3ceec206	0.029145252
176	0x3c4988bb	0.0123006655
177	0x3b0201fb	0.0019837606
178	0xbc12de1e	-0.00896409
179	0x3ca3d7c2	0.020000342
180	0x3cc1f944	0.02367843
181	0x3cb3b2ef	0.021935908
182	0xbc1dc27c	-0.009628888
183	0x3c3e2e9c	0.011607792
184	0x3c77689d	0.015100625
185	0x3c35fd14	0.011107702
186	0x3ca0cad2	0.019627962
187	0x3b7bc4cf	0.0038416868
188	0xbb95e875	-0.00457483
189	0xbc7048d6	-0.014665803
190	0x3c7d33be	0.015454231
191	0x3b1ac7af	0.0023617556
192	0xbbcca367	-0.006245065
193	0xbb486a58	-0.0030580964
194	0xba116988	-0.00055470364
195	0x3ab6970e	0.0013930516
196	0x3cca1006	0.024665844
197	0xbb3c6dec	-0.0028752042
198	0xbcd1e522	-0.025621954
199	0xbc66e3b2	-0.014092373
200	0x3cc98510	0.024599582
201	0xbc7b849d	-0.015351442
202	0xbd0c430f	-0.03424364
203	0x3bb74ffa	0.0055942507
204	0xbbcc1f1d	-0.006229295
205	0x3c05e0e1	0.008171291
206	0xbc334adb	-0.01094314
207	0x3c37ceb2	0.011218714
208	0xbcb05c3e	-0.02152836
209	0x3ba6c023	0.0050888225
210	0xbcae9cfb	-0.021315088
211	0x3b7cfbd4	0.003860225
212	0xbcabebc7	-0.02098645
213	0x3c5b7caf	0.013396426
214	0xbc4113af	-0.011784478
215	0x3c849d21	0.016188206
216	0xbb3a65d8	-0.0028442051
217	0xbcd2f29e	-0.025750455
218	0xbbecc6aa	-0.007225831
219	0xbb865b5c	-0.0041002464
220	0x3a9cbc78	0.0011958024
221	0x3b31c3e3	0.0027124814
222	0xbc4a3a31	-0.0123429755
223	0x3cb57a1c	0.022152953
224	0xbc5252ea	-0.012837151
225	0x3c9e1e9a	0.019301701
226	0xbc3cd18e	-0.011524571
227	0xbcaebc3e	-0.021329995
228	0x3cb790df	0.022407947
229	0xbe971915	-0.29511324
230	0xbca3c240	-0.019990087
231	0x3ca8371b	0.020534089
232	0xbc1650f0	-0.00917457
233	0xbc2acf54	-0.010425407
234	0xbbac974e	-0.0052670604
235	0x3c3665ae	0.011132641
236	0x3cbaa0e6	0.0227818
237	0x3b0efde4	0.002181881
238	0x3e8b9133	0.27259216
239	0xbb7df3f6	-0.0038750148
240	0x3cc52edb	0.024070194
241	0x3c941266	0.01807518
242	0x3c401011	0.0117225805
243	0xbc9bd24e	-0.01902118
244	0x3ca76d3b	0.020437827
245	0xbccdff20	-0.025146067
246	0xbc100412	-0.008790033
247	0xbc956b75	-0.018239716
248	0x3c8529b1	0.016255232
249	0xbcbe544e	-0.023233559
250	0x3cad922f	0.02118787
251	0x3cd1e770	0.025623053
252	0x3cc415f8	0.023936257
253	0x3c57e404	0.013176922
254	0xbc034a50	-0.008013323
255	0x3b81ec2e	0.0039649224
