Sem 2/Intelligent Robots/Assignments/Lab 2/BehaviourCloning/Checkpoints/adam_2_extra_conv_e1.pt (torch, 378083 bytes, 10 tensors)

module.cnn.0.weight f4 [32, 3, 3, 3]
00000000: bb12 9d3e 9d69 893e 4822 373e 95bd db3e
00000010: f7ba 9b3e ad22 bb3e f811 8b3e 862d c93e
00000020: 847b ea3e 597a 19be 51ce 0a3d 687f c43c
00000030: 88ae 023e 767e 053c 57ba 8c3d c4cf bb3c
00000040: 9527 803d 63b6 02bd c11e 98be d55d 90be
00000050: 9ab0 a8be a471 65be 5aff 98be 907f 1fbe
00000060: 9af1 90be 22a1 9fbe 274f 93be f8c8 d0bc
00000070: 6f5b 91bd c4c7 69be 5a6f 2f3e ea5e 9ebe
00000080: 38d9 fa3c d7f0 f9bc eef7 49be 837f 113e
00000090: 7adb 563e 7e03 4d3e 4117 f43d 82c2 0f3e
000000a0: 6657 a83d 925c b23d 0b63 4f3e 9eae 503e
000000b0: 4c9c af3e a105 00be 74df 80bd 1444 b3bd
000000c0: cc6a 2e3d 8587 95be ca16 7dbe 709f 40be
000000d0: 2c0b a5be e10c 123e 7247 c83b 47bd 0a3e
000000e0: a5d3 1e3c 1be5 743c b3ad 933e 6e2f b73c
000000f0: 1a08 983d 0ee6 ba3d 41da 833e 3d9d ebbc
00000100: 6769 c83d f8bd 6bbd a890 7c3e 8b48 b93c
00000110: 3168 aebb dfcf ebbb 77eb 8a3e e132 263e
00000120: b543 9cbc f901 87be 376e b7be 38af 63be
00000130: 5366 22be bfe8 c1bb ed96 23bd 2191 c83d
00000140: 003f 21be f9fb 8fbd 9599 c53d fe83 17bd
00000150: d5d4 a53e 45fc 913e 060d 9e3e 4cc5 13be
00000160: e627 2ebd 1e88 683c 6a1a 3a3e b1e6 113e
00000170: 1998 803e 7605 a53e 95a6 683e c8fb 233e
00000180: 0370 0d3e 6427 993c e03b c8bc 8279 83be
00000190: 59a3 12be 5a3f 74ba 7664 00be 981d 85bd
000001a0: cdf8 56bc 3483 e3be 86dd a9be d959 9bbe
000001b0: 953d c73b 20d7 3fbc 15d0 723e 2c3f 353e
000001c0: 51f3 c33d 0fc0 11bd dc6e e93d da42 8c3d
000001d0: a9e3 303e f243 9cbe 15a9 91be ac8a a6be
000001e0: a1f5 3cbe ec05 aebe 2466 5fbe c7dd 6cbe
000001f0: 8b85 a6be 77bb 8abe 1f80 2b3e b759 253d
00000200: 1b97 903e c261 333e 9212 863e ff52 713e
00000210: b9a1 0a3e 6d22 9b3e 9d5c 3e3e 8976 e0bd
00000220: d105 4cbe 9a4e 9ebe c938 4a3e 59cd 97bd
00000230: 89c1 29be fc55 1d3c 4a0a a73d 741e a0be
00000240: ce17 433d 6c66 3f3e ccf9 053e 2e88 cd3e
00000250: 6649 933e 1e38 44be d2e7 923e 0f30 9fbc
00000260: 9ec5 e3bd c0d7 b2bd c702 863e 70da 22be
00000270: 1117 ab3e 0412 203e e26c d0bd 656b 013e
00000280: 0c6b 033e fe22 1ebe 5f17 ae3d cee0 fbbd
00000290: 4d80 083e 5214 693d 8c04 bc3c 3dd2 743e
000002a0: c895 7b3d c6b5 47bc 199f 4c3d 6ba4 06bd
000002b0: 591d 543d f8fe 3dbd 9900 cebd 0ef3 7fbd
000002c0: 2278 06be bf23 aa3c 5c09 063e ddfd dabd
000002d0: b19e 28bc 2eaf 3539 71af 22bc fb01 a7bd
000002e0: 673c 363d 7857 6d3d 5c24 b53c 3ff5 6bbd
000002f0: 3ab5 73bc 6df1 f0bc 5b8d d7bd 7f9c e1bd
00000300: 1360 b73d a158 043e 88a1 77bc 816c ab3c
00000310: 755b fe3d 6348 c53d d6b2 7f3d ba17 473d
00000320: e842 0fbe ac8e b2bd 405e 9b3d f8ba 193d
00000330: 30d5 c7bc aa59 c9bd dc07 acbd 37ed f3bd
00000340: f26e 99bd 1f11 1b3d a4e1 023e 2541 1a3d
00000350: 0b0f 25be 7f2f 46bd f4ef 623c 437c 583e
00000360: 3519 033e 2632 953d e063 103e de20 8ebc
00000370: 8be0 5cbd c23e c73d f978 65be 6867 24be
00000380: e8f3 62be 4b85 863e 654a 913e 9bea 103e
00000390: 1616 96bd f340 05be c33c 42be ee57 b73d
000003a0: 2f1a 7e3d c819 243e 9559 483e 2efa 2d3e
000003b0: 9d4a 2e3d 2d05 81be 1b79 87be e49b b8be
000003c0: 83bd babd d388 5fbe f47d 04be e5e9 5bbe
000003d0: da69 bdbd 3ec0 49be 3193 3fbe fc36 d7ba
000003e0: 56e4 28bc df45 ad3d 7fe0 523d 2bb8 9c3d
000003f0: 0a60 eb3c c5da 5abd af81 5bbd 14e7 c0bd
0.30678353 0.2683839 0.17884171 0.42918077 0.3041608 0.36549893 0.27162147 0.39292544
0.4579736 -0.14988078 0.033888165 0.023986533 0.12761891 0.008147826 0.06871479 0.022926219
0.0625755 -0.03191222 -0.29710963 -0.28196588 -0.32947236 -0.22406632 -0.29882318 -0.15576005
-0.28309327 -0.31177622 -0.28771326 -0.025486454 -0.07097518 -0.22830111 0.17132321 -0.3093179
0.030621156 -0.03051035 -0.19723484 0.14208798 0.20982161 0.20020863 0.11918498 0.14039043
0.08219795 0.08709063 0.20252626 0.20379111 0.34298933 -0.12502147 -0.0629262 -0.08753219
0.04258232 -0.29204956 -0.24715725 -0.1881082 -0.32235086 0.14262725 0.0061120326 0.13548766
0.009694015 0.014947201 0.2884346 0.022361483 0.0742342 0.09125911 0.25752452 -0.0287615
0.09785729 -0.057554215 0.24664557 0.022617599 -0.005322479 -0.007196411 0.2713277 0.16230346
-0.019075254 -0.26368693 -0.35826275 -0.2223481 -0.15859346 -0.005917638 -0.039938856 0.09793306
-0.15746689 -0.07030482 0.09648434 -0.036991112 0.3238894 0.2851278 0.3086931 -0.14430732
-0.04251852 0.014192609 0.18174139 0.14248158 0.2511604 0.3223073 0.22719796 0.16014016
0.1381226 0.01869554 -0.024442613 -0.2567864 -0.14320125 -0.00093173014 -0.12538323 -0.06499785
-0.013120842 -0.44436038 -0.3317682 -0.30341986 0.006080339 -0.011709005 0.2371219 0.1769988
0.09567893 -0.035583552 0.11398098 0.068486884 0.17274345 -0.30520588 -0.28449312 -0.32527673
-0.18453075 -0.33988893 -0.21816307 -0.23131476 -0.3252376 -0.2709615 0.16748093 0.040368762
0.28240284 0.1751776 0.26186043 0.23566817 0.13538255 0.30299702 0.18590017 -0.10960109
-0.19924094 -0.30919343 0.19748224 -0.07412214 -0.16577734 0.00960302 0.08156259 -0.31273234
0.047630124 0.18691415 0.13083571 0.4014296 0.28766936 -0.19162032 0.2869249 -0.019432096
-0.11121677 -0.08732557 0.26173994 -0.1590364 0.33416036 0.15631872 -0.10177018 0.12638624
0.12833804 -0.15443036 0.085005514 -0.122987375 0.13330193 0.056904145 0.022951387 0.23908325
0.06142214 -0.012189334 0.049956415 -0.032871645 0.0517858 -0.046385735 -0.10058708 -0.062487654
-0.13131765 0.020768998 0.13089508 -0.10692952 -0.010291741 0.00017326765 -0.009929524 -0.081546746
0.044491198 0.057944745 0.022112064 -0.05760693 -0.014874751 -0.029411996 -0.10525008 -0.110161774
0.089538716 0.12924434 -0.015114196 0.020925762 0.12419788 0.09632947 0.06242641 0.04860661
-0.13990366 -0.08718619 0.07586336 0.037531823 -0.024393648 -0.09831555 -0.083999366 -0.119104795
-0.07491864 0.037858125 0.12781388 0.037659783 -0.1611902 -0.04838514 0.013851155 0.21141152
0.12802584 0.07284956 0.141006 -0.017349657 -0.05392508 0.09728767 -0.22409429 -0.16055071
-0.22163355 0.2627357 0.2837707 0.14151995 -0.07328431 -0.13013057 -0.18968491 0.08952318
0.06203669 0.1602546 0.19565423 0.16989967 0.042551626 -0.2519926 -0.26459584 -0.36056435
-0.09118178 -0.21829538 -0.12938672 -0.21475942 -0.09248705 -0.19702241 -0.18708493 -0.0016419585
-0.010308346 0.084605925 0.051483627 0.07652315 0.028732318 -0.05343129 -0.053590473 -0.09419075

module.cnn.0.bias f4 [32]
00000000: 7c5b acbe b36b 9e3e 4605 7bbe b7a7 15bf
00000010: d0ef fcbd 8d7a 95be d32c 2fbf 1721 03bf
00000020: 6db2 36bf 351a 6bbf da13 54be 2517 ebbe
00000030: 9e7a cdbe 9087 16bf a055 7cbe cdb8 29bf
00000040: 521d 54be 4633 603e 2776 d8be 178d 92be
00000050: 1028 00bf 6c2f dbbe 775d 60be e2cc d2be
00000060: 1875 4bbf b468 0bbf 690d 27bf 57a8 06bf
00000070: 2ea7 36bf 2ede 05bf b565 91be 6329 3fbf
-0.33663547 0.30941543 -0.2451373 -0.5845904 -0.12350428 -0.2919506 -0.6842777 -0.51222366
-0.71366006 -0.91836864 -0.20710698 -0.45916095 -0.40132612 -0.588006 -0.24642038 -0.6629761
-0.2071431 0.2189456 -0.42277643 -0.28623268 -0.5006113 -0.42809618 -0.21910654 -0.41171938
-0.79475546 -0.5445664 -0.6525484 -0.52600616 -0.71348846 -0.52292144 -0.2839791 -0.74672526

module.cnn.2.weight f4 [64, 32, 3, 3]
00000000: 25ec 983d d31e 94bd 8e79 bbbe 5a59 1d3d
00000010: aae1 48be e6ac 19be 0a29 373d d313 e9bd
00000020: 1da4 a6bd c0cc 00be 54ab 65be d194 22be
00000030: 5c07 e6bd 55f3 17be 4f38 4bbe bc51 053d
00000040: 1214 9abd a668 19be 64f9 67bd f73c 7abe
00000050: bcf2 acbe 12ed 51be ed00 28be 8401 44be
00000060: a228 8ebe 6944 0cbe 6337 2dbe 8bee 37be
00000070: bfa6 4c3b 9d77 adbe f068 d1bd 49aa a7be
00000080: b21e 80be 8ecc 10be 3c81 6dbe 161d a1bd
00000090: 6278 ffbd 83fc 1abe 266c b9bd fae9 c0bd
000000a0: 862b 8cbd 8df7 bbbd 5329 02bd 01bf b9bd
000000b0: 4e84 2ebe cf66 96be 130d 7dbe 7fde a5be
000000c0: 892a 9fbd 4bc2 34bc 97ce 9bbe 6019 3abd
000000d0: 0978 6ebe ddb6 07bd 3804 e239 1ce7 9dbc
000000e0: 1ff4 733c 719c 263e 4f25 ee3b 0625 2ebc
000000f0: ee1c 443e 58b3 103e 3696 ca3d bd1e 6cbe
00000100: 3019 f6bd 46ca 03be 58ab 6ebd 5975 4abd
00000110: 615d cdbd 84dd b0bc 1a43 c4bd 1f2a 88bd
00000120: 385a 89be 48dc 5cbe c9c2 2cbe face a8bc
00000130: 2828 40be 73eb 76be 8098 94bd 83f3 71be
00000140: 70c9 58be 1dbe 9ebe b6e2 da3c 5207 18be
00000150: 7825 59be 5230 95bd 5640 ddbd 52a5 26bd
00000160: bd86 46be c74b aabd f94b 90bd ea65 7fbe
00000170: 3975 80be a3bd 593d 5232 6dbe 25ac 8bbe
00000180: 65ed f63d 1b66 16be d3b2 06be af35 26be
00000190: 6e2c eabd 10a9 f33c f9ce 36be 409f 89bd
000001a0: 47b6 87bd 8b53 98bd 87b2 80bc cd93 16be
000001b0: 9561 13be 0ada 33be c72b d6be 8840 64bd
000001c0: 6bc9 1bbd 0188 86be 7b7f 0c3e abb4 3dbd
000001d0: fdaa a0bc 5489 20be 272c 71be 5c80 48be
000001e0: f917 cdbd 5a4b c7bd 4545 cbbd 6863 23bc
000001f0: c19c 5dbd c060 c6bd 1653 6cbe ed31 8dbe
00000200: 3829 2fbd 5d3a 00be 2d5c 9fbd 9dc4 f7bc
00000210: 0788 a1bd 7b50 b13a 64ae 17be 04d2 1cbe
00000220: 7c35 60bc 21f7 98be 7b4b 19be cac0 203e
00000230: 1a71 06be 5fb4 693d 38ba 7d3c e7b3 103e
00000240: 0044 06be 23ca 65be eb5c b5be ecd9 b1bd
00000250: 71b7 27be dadf 69be d7c6 afbd 90a4 17be
00000260: 9390 5bbe 1ff5 afbe 47fe 4cbe 4b19 89be
00000270: 50e1 2bbd 3815 05bd 70c3 efbc 7cd1 9fbd
00000280: 0d1e c1be 5ccd 8ebe 1fa0 4cbe 338e 08be
00000290: 7fb9 a1be 5a69 14be be1c 68be 105e 8abe
000002a0: 617c e2bd 706b ccbd 6711 33be f658 80be
000002b0: 59a4 69be 2136 dbbd 73db 54be 6446 73be
000002c0: bd10 a0bd d2ee 30be 462e 69be d963 09be
000002d0: c7d6 e1bd d910 fdbd 32c5 50be 1c91 f2bd
000002e0: 798f 7abe 4fcb ddbd 7ac3 43be f704 7cbd
000002f0: 3cc2 f23c 7795 b6bd 1c8e 65be 149b 93be
00000300: 8b0e 6dbe 6e9b 65be 4993 7cbe 9112 813b
00000310: a50d f1bd df32 5ebd a7ca c4be d2d9 71be
00000320: ea96 9abe 049c c4be 787b 05be 949d 2bbe
00000330: 0570 37be aa22 b4bd 715f 0abe 46fe e0bd
00000340: 4111 5ebe 7dfd 61bd ce74 b63e 9e05 883e
00000350: 3b34 53be 35d6 003e 7f43 4abe 4586 a5be
00000360: 5cba 26be c667 29bd 6c84 73be 1004 1cbe
00000370: a1dc ebbd c330 dcbd 229d 3dbe 5580 64bd
00000380: 78e2 39be fa2b 77be a93e 15be abf4 a0be
00000390: b619 07be 2770 75be 56a5 45be 61ad 073d
000003a0: 6e80 2bbe 8492 21be 57e0 5fbe 7c9d a0bd
000003b0: 5d23 b03d 21bc 1d3e b4d1 243e 9599 d5bd
000003c0: 09bf 9bbd df3c c4be f27f c7bd fc33 2cbe
000003d0: e1d9 19be a3e9 9c3c 161a 073c 4bcc aabd
000003e0: 2aa9 ef3d ee8f 573d 7fb2 7a3d 4dc9 41be
000003f0: 0382 5cbe 5f45 48be cb3d 6bbe bba4 d7bd
0.07466916 -0.07232442 -0.36616176 0.03841529 -0.19617334 -0.15007362 0.044716872 -0.11380734
-0.08136771 -0.12578106 -0.22428638 -0.15877081 -0.112318724 -0.14838918 -0.19845699 0.03254865
-0.07523359 -0.14981326 -0.05663432 -0.24437319 -0.33778942 -0.20500591 -0.16406603 -0.19141203
-0.27765375 -0.13697971 -0.1691566 -0.1796209 0.0031227318 -0.3388032 -0.10225093 -0.32747105
-0.2502342 -0.14140531 -0.2319383 -0.07866876 -0.12474133 -0.15135388 -0.09053831 -0.094196275
-0.06844239 -0.09178076 -0.03177769 -0.09069634 -0.17042658 -0.29375312 -0.24712019 -0.32396314
-0.07771785 -0.011032651 -0.30431053 -0.045434356 -0.23287977 -0.033133376 0.00043109222 -0.01927524
0.014889746 0.16270615 0.007267631 -0.010628944 0.19151661 0.14130914 0.09891932 -0.230586
-0.12016523 -0.1287013 -0.058268875 -0.049428318 -0.10027576 -0.021590002 -0.09583111 -0.06648659
-0.26826644 -0.21568406 -0.1687118 -0.020606507 -0.18765318 -0.24113254 -0.072556496 -0.23628049
-0.21170592 -0.3100442 0.026719432 -0.14846542 -0.212057 -0.07284607 -0.10803287 -0.040685005
-0.19387336 -0.08315235 -0.07045741 -0.24941221 -0.25089434 0.053159367 -0.23163727 -0.27279773
0.12056998 -0.14687388 -0.13154154 -0.16231416 -0.114342555 0.029743701 -0.17852391 -0.06719828
-0.066265635 -0.074378096 -0.015710128 -0.14704819 -0.14392693 -0.17563644 -0.41830274 -0.055725604
-0.038033884 -0.26275638 0.13720505 -0.046314877 -0.019612784 -0.15677387 -0.23551999 -0.19580215
-0.10014338 -0.09731169 -0.099253215 -0.009972431 -0.05410457 -0.09686422 -0.2307857 -0.27577153
-0.04276392 -0.12522264 -0.07781253 -0.03024512 -0.07887273 0.0013528013 -0.14812618 -0.1531449
-0.013684627 -0.29876044 -0.149702 0.15698543 -0.13129082 0.05705678 0.015486293 0.14131127
-0.13111877 -0.2244039 -0.35422453 -0.086841434 -0.16378571 -0.22839299 -0.085828476 -0.1480887
-0.2144187 -0.343667 -0.20018874 -0.2677711 -0.04196292 -0.03249094 -0.029267997 -0.07803628
-0.3771824 -0.27891052 -0.19982956 -0.13335495 -0.31586835 -0.14493313 -0.22667214 -0.2702489
-0.1105888 -0.099814296 -0.17487107 -0.25067872 -0.228166 -0.10703684 -0.20786838 -0.2375732
-0.078156926 -0.17278603 -0.22771558 -0.13416995 -0.11027294 -0.12356729 -0.20387724 -0.11844084
-0.24468793 -0.10829794 -0.19117537 -0.061528172 0.029633634 -0.08915227 -0.22417492 -0.28829253
-0.23150079 -0.22422573 -0.2466556 0.003938981 -0.117701806 -0.054247733 -0.3843586 -0.23618248
-0.30193263 -0.3840028 -0.13035381 -0.1675933 -0.17913826 -0.08795674 -0.1351297 -0.10985999
-0.2168627 -0.055173386 0.3563599 0.26566786 -0.20625393 0.12581713 -0.1975231 -0.32329002
-0.16282028 -0.04135873 -0.23780984 -0.15235925 -0.11516691 -0.10751488 -0.18516973 -0.05578645
-0.18152797 -0.2413787 -0.14574684 -0.31436667 -0.13193402 -0.23968564 -0.19301352 0.03312433
-0.16748211 -0.15778548 -0.21862923 -0.07842538 0.08600495 0.15403797 0.1609562 -0.10429684
-0.076047964 -0.3832769 -0.097412005 -0.16816705 -0.1502452 0.019154375 0.0082459655 -0.08339747
0.11702187 0.052627496 0.061205383 -0.18924446 -0.2153397 -0.19557713 -0.22972791 -0.10529467

module.cnn.2.bias f4 [64]
00000000: 6807 8bbe 49ca e3bd 09b4 06be d8f5 a5bd
00000010: 7871 9f3d 0969 2cbd 3b70 f3bd 00d0 70be
00000020: cd12 573f b571 89be 5737 34bd 3e65 65bd
00000030: 07a4 803e 6f14 ddbd ab7f a6bb 325c 37be
00000040: 5692 5ebe 286b 703e 66f0 88be 630f c4bc
00000050: 5057 3fbb a6d4 fd3a 3704 60bd 1aa2 0ebe
00000060: 8ef0 153e 17e1 04bd 8e6a bdbe 61ef afbd
00000070: 7fbe 56bc 4223 a53a 23f9 96be ca5d 4abe
00000080: 6807 ecbd 1176 a4bd 23e1 a8bd 3069 24be
00000090: 5e87 80bd 50e8 48be 58de 30be be81 82be
000000a0: ba52 0ebe 85c8 25be aaca 30bd cf76 49bd
000000b0: 1eae 82bd fd3e 273d f9ba 68bd 73de 16be
000000c0: abce 09be e0b8 1abe 771b 32bc 75fa 9abd
000000d0: 8d42 b0bd 91a0 0cbe f658 15bd cc9e acbe
000000e0: 28d4 943e 05aa 40bd b8e0 73bc 0635 85bd
000000f0: 06c1 72bd 0748 7d3e 9578 80bd 5fc8 debe
-0.27154088 -0.11122567 -0.13154615 -0.081035316 0.07785314 -0.042092357 -0.11886641 -0.23516846
0.8401306 -0.26844564 -0.04399809 -0.056004755 0.25125143 -0.10794913 -0.005081137 -0.17906263
-0.2173551 0.23478377 -0.2674591 -0.023933118 -0.002919633 0.0019365742 -0.05469152 -0.13929024
0.14642546 -0.032441225 -0.36995357 -0.0859058 -0.013106941 0.0012599009 -0.2948695 -0.1976234
-0.1152485 -0.08030332 -0.082460664 -0.16055751 -0.06275819 -0.1961987 -0.17272317 -0.2548961
-0.13898745 -0.16189773 -0.043162026 -0.04918557 -0.063808665 0.040831555 -0.056818936 -0.14733295
-0.13457744 -0.15109587 -0.010870806 -0.07567302 -0.086064436 -0.13733126 -0.036461793 -0.33714902
0.29068112 -0.047037143 -0.01488512 -0.06504254 -0.059266113 0.24734508 -0.06272999 -0.43512246

module.cnn.4.weight f4 [64, 64, 3, 3]
00000000: b48d 58bd ee87 f63a bd88 19bd 2551 febd
00000010: 3e85 093e 0655 13be 0d13 5abd 47db 673d
00000020: e472 0a3a a751 59bd 564a 70bd ccbb 86bc
00000030: 2aeb 40bd 9fae 7abd 1f21 3cbb bb96 0ebd
00000040: da90 98bc 05b4 b0bc 613f 45bd 2dab 31bd
00000050: bafd 5abc c532 6bbd 41be fbbc a146 edbc
00000060: 0507 3bbd a3e3 1c3c 90b1 6bbd 153d a1bb
00000070: d79b ccb8 5ae2 b3bb 917e 66bd c0e4 423d
00000080: 71ad 793d 9b4e 733d bcb4 723d b9a7 a3bc
00000090: f7e1 eabd fb00 bebc 7335 fd3d 7ab8 e53e
000000a0: 44ca 34bf fbf2 80be c2fd 2dbe 87ee 1dbf
000000b0: 4553 c7be c9dc cabb d78c 663d 1368 17bc
000000c0: 9dd8 7339 c32a e23b d3ee 13bd 72ad d0bb
000000d0: 7083 433d 32e1 f5bc 8c31 07bd d036 22bc
000000e0: c2c7 06bd 1052 263d b72f 18bd 7e1f 3abd
000000f0: ed44 46bd 2f66 7bbd 6ec6 15bd f6a2 1a3c
00000100: c825 283d 5d4d cebc 4298 31be 85aa 25be
00000110: efe8 cebc b8d1 afbd c781 b7bc 5b57 f4bd
00000120: c17b b4ba 765a fbbe 3990 cdbe 4c12 433e
00000130: 29c5 9ebe 79c0 113e 2fad 253d 9b37 b4be
00000140: b5b6 d8be 5909 25bd f142 18be 619c 00be
00000150: 1778 b3be 77f8 af3e 068c 5abe 91a6 d2be
00000160: dd79 73be 108a b9be 77af af3c 81d8 b43b
00000170: 7fbf 61bd 9110 e13c 72fe 3cbd aca4 e93b
00000180: 08b8 b23b c4aa 63b9 f62e 59bd 10a9 0bbd
00000190: 1452 403d 0007 993c 10f1 afbc f6ff b73d
000001a0: ce3e b2bc b560 f2bc 6650 b23c 2a8c a23c
000001b0: c9da 98be 8cb3 24bf 3bf9 66be e794 0c3e
000001c0: c383 14be c3d5 f7bd 90e5 c53d 48e0 20be
000001d0: 9480 22bf 1257 41bd 1789 be3d 6a23 11bd
000001e0: c0c5 18bd c9f7 8b3d 2e58 febd 6e97 c4bd
000001f0: cf1b a4bd 21d6 8fbd efac 1dbd e5cf eebc
00000200: 2a2b ce3a a4d0 d7bc bd7b 96bc a92c 83bb
00000210: aa33 bcbc b9a2 3ebd 3db3 b2bc a514 e5bc
00000220: 2ff4 fdbc 4ff3 483d bfe8 9a3b 8c43 b0bc
00000230: cf14 1fbd 0e4f f4bc c966 89bb 37e1 09bd
00000240: a744 00bd 50bd 0fbd c619 45bd b8b6 67bd
00000250: ee4c 5ebd 8a2a 303c 65b7 453d d8d3 e3bc
00000260: f7eb 493d 20d8 94be 0ae7 383e 9228 22bd
00000270: f354 00bf 912b 2fbe 7a56 30bd f1c0 12bf
00000280: 4f1c 02be dbe4 ba3e f5e5 9d3c 6901 95bd
00000290: 9515 cabe fb39 fbbd c115 99be b06e 213d
000002a0: bb74 f0bd 2a7c b8be ccba a83e 9832 b0bc
000002b0: d7bc 63bd d5ee d1bc b053 5fbd 284e 0ebd
000002c0: 02dd 99ba 3e5f ebbc 5fcb 2fbc ffa4 5fbc
000002d0: 1a5e 2b3b ad8d 27bc 710b 75bd 085d 04bd
000002e0: dfc7 93bc 7c21 26bd af4d 58bd 11d1 42bd
000002f0: 2536 12bc 5b38 a83c 94e5 8c3d 7e70 a43c
00000300: 121a e7bb 52ba 9e3d d2e2 24bb 6e63 adbb
00000310: 7c2a 6c3d 0432 97bc 2375 5fbc 06d4 efbc
00000320: 2ea1 0c3d da47 60bd 4488 3fbd 7588 7c3d
00000330: 9868 49bd 7805 4c3d 7832 393c dfe0 72bc
00000340: a466 a33b 5c54 3cbc 67fe 40bd 8b38 3cbc
00000350: d60b d6bc 23fc 07bd 6b14 7abd 8356 4abd
00000360: cf4d 11be 141d 9cbe b881 4fbe 9297 00be
00000370: 1244 9ebe 3482 4bbd abb1 d6be aca7 43bf
00000380: 81eb 583e 3806 74bd 7854 99bc da81 f3bc
00000390: f21c de3b 2d55 20bd 5b3a 71bd 6648 3fbd
000003a0: 0670 e2bc ce7d 24bd 7ae5 8dbd 706e c43d
000003b0: ffc4 1f3e 9b71 50be e93d 3abe 0101 bf3d
000003c0: 18d2 54be 9b2f 923d 3c59 e63c bafc 513c
000003d0: f330 05bd fc82 1ebd 208d 0fbd 986d 38bd
000003e0: 3a5e 4d3b f651 27bc 5ff9 febc 7ce0 183b
000003f0: 025f 243d b3ba baba 895e 9ebb 1ceb 003d
-0.052869514 0.0018808821 -0.03748392 -0.12417821 0.13429734 -0.14387903 -0.053240824 0.056605604
0.0005281402 -0.053056385 -0.058664642 -0.01644697 -0.04709927 -0.061201688 -0.0028706265 -0.034811717
-0.018623758 -0.021570215 -0.048156146 -0.043376137 -0.013366157 -0.057421464 -0.030730369 -0.028964343
-0.04566099 0.009575757 -0.057542384 -0.0049206116 -9.7565055e-05 -0.0054896297 -0.056273047 0.047581434
0.060956422 0.059401136 0.059254393 -0.019977437 -0.114688806 -0.023193827 0.1236371 0.44867307
-0.7062113 -0.2518538 -0.16991332 -0.6169209 -0.38930717 -0.0061908704 0.05628666 -0.009241122
0.0002325498 0.0069020703 -0.036116432 -0.0063683325 0.04773277 -0.030014608 -0.033006236 -0.009900764
-0.032905348 0.040605605 -0.03715488 -0.04544019 -0.048405576 -0.061376747 -0.03656619 0.009438267
0.041051656 -0.025183374 -0.17343238 -0.1617833 -0.025257556 -0.085849226 -0.02240075 -0.11930724
-0.0013769792 -0.49092454 -0.40149096 0.19049948 -0.31009796 0.14233579 0.040448364 -0.35198674
-0.42326894 -0.040292118 -0.14869286 -0.12559654 -0.3505256 0.3436925 -0.21342477 -0.41142705
-0.23776956 -0.36238146 0.021445973 0.0055189733 -0.055114266 0.02747372 -0.046141095 0.007130226
0.005454067 -0.00021712022 -0.0530233 -0.034096777 0.046953276 0.018680096 -0.021477252 0.089843675
-0.021758463 -0.02958713 0.021766853 0.019842226 -0.2985442 -0.64336467 -0.22556011 0.13728677
-0.14503388 -0.12101319 0.09662926 -0.15710557 -0.63477445 -0.047202177 0.093034916 -0.035434164
-0.037297964 0.06834371 -0.12419163 -0.095991954 -0.080131166 -0.07023264 -0.038495 -0.029151866
0.0015729417 -0.026344605 -0.01836955 -0.0040031266 -0.022973854 -0.046541903 -0.021813983 -0.027963946
-0.031000225 0.049060162 0.0047274525 -0.021516584 -0.038838204 -0.029822852 -0.004193161 -0.033662047
-0.031315472 -0.03509265 -0.048120283 -0.05657074 -0.054272585 0.01075233 0.0482706 -0.027810976
0.0492973 -0.2907114 0.18056884 -0.039589472 -0.5012962 -0.17106463 -0.04305122 -0.57325655
-0.12706111 0.36502728 0.019274691 -0.072756596 -0.3946959 -0.12266918 -0.2989941 0.0394122
-0.117410146 -0.3603223 0.32955015 -0.0215085 -0.055600014 -0.02562658 -0.05452317 -0.034742504
-0.0011738839 -0.028731938 -0.01072964 -0.013650178 0.0026148618 -0.010226649 -0.059825365 -0.032315284
-0.018039642 -0.040559277 -0.05280846 -0.047562663 -0.008924042 0.020534685 0.06879726 0.020073172
-0.0070526684 0.077503815 -0.002515961 -0.005291394 0.057657704 -0.018456466 -0.013638767 -0.029275905
0.0343334 -0.054756023 -0.046760812 0.061653573 -0.049172014 0.049809903 0.011303537 -0.014824121
0.004986601 -0.011494722 -0.047117617 -0.01148809 -0.02612869 -0.03319944 -0.06105463 -0.04939891
-0.14189838 -0.30490935 -0.20264328 -0.1255782 -0.3091131 -0.04968472 -0.41932425 -0.7642772
0.21183588 -0.059576243 -0.018717036 -0.029725004 0.006778353 -0.03914373 -0.058893543 -0.046699904
-0.027641308 -0.04015904 -0.06928535 0.09591377 0.15602492 -0.20355837 -0.1818768 0.09326363
-0.2078327 0.07137986 0.028118722 0.012816602 -0.032517385 -0.038699135 -0.035046697 -0.04502639
0.003133668 -0.010212412 -0.031124769 0.0023327162 0.04012967 -0.0014246315 -0.004833047 0.031474218

module.cnn.4.bias f4 [64]
00000000: a150 2bbe e355 39be d0a2 2dbe 6fba 09be
00000010: e842 01be a196 cabc ea16 4cbc 8229 4bbd
00000020: eb3e 37be 3ec5 2d3e 956e b0be aa21 5a3e
00000030: 4c67 6dbe 5761 a9bd 37ac 80be f33d 9a3c
00000040: 06f9 01be 484e 40be 934b cebd 9e07 6fbe
00000050: 891b 01bd 2ac9 e53e bfb5 1ebe f713 63be
00000060: 52ae 07bd 9245 97bd 85be dbbd 1834 cdbd
00000070: 8be7 d7bd a08d d43d cf46 18be 607e 89be
00000080: ef03 febd a596 ffbd a587 c9be dbc0 2fbe
00000090: 6e91 a5be d668 01bd 8dee aa3e 63f4 77be
000000a0: ed74 0dbe 50af 04bf 1c30 1a3f 7cd7 89bd
000000b0: 3ed3 aabe 7a77 ee3c d025 5c3e 4d04 9bbc
000000c0: ef09 d33c 7e48 62be 2185 1f3f 8eb5 a7be
000000d0: 197f bc3d 785e 0f3e 8a76 9dbd 8cbb 24be
000000e0: 6c74 73bd d44f eebe ee24 cdbd 465a 99be
000000f0: 63e4 73be 820e d5be d1f8 aabd b951 e2bd
-0.16729976 -0.1809917 -0.1695664 -0.13450025 -0.12623179 -0.024730029 -0.012456635 -0.04960013
-0.17895095 0.16969773 -0.34459367 0.21301904 -0.23183936 -0.08270519 -0.2513139 0.018828368
-0.12692651 -0.18779862 -0.100730084 -0.2334275 -0.0315204 0.44880038 -0.15499018 -0.22175585
-0.03312523 -0.07386316 -0.10729698 -0.10019702 -0.1054221 0.10378575 -0.14870761 -0.2685423
-0.12403094 -0.12479905 -0.393613 -0.17163412 -0.32337517 -0.03159412 0.33385125 -0.2421432
-0.13814135 -0.51830006 0.6022966 -0.067305535 -0.3336429 0.029109705 0.214988 -0.01892295
0.025761573 -0.22097966 0.62312514 -0.32755703 0.092039295 0.1400088 -0.07688625 -0.16087168
-0.0594372 -0.4654528 -0.100168094 -0.29951686 -0.23817591 -0.4161263 -0.08348239 -0.110507436

module.cnn.6.weight f4 [64, 64, 3, 3]
00000000: cbad b63e db88 6c3d cb9f 4fbe 7b86 a23e
00000010: 2cbf c9be e61e b8bd a03d 6e3d a6c2 f1be
00000020: d361 f1be 719a a83e 0322 063f bbde 083f
00000030: 410f 88be c810 adbc 9368 7fbc eb3b 9abe
00000040: 0571 47be d8a5 3f3d 1732 cb3d 6dcc 8c3c
00000050: 54da 353e b5cb babe 4216 96bd 5fd1 febc
00000060: 136a 37be 1ac8 753d 9977 393d b486 f43c
00000070: 1968 833d afc9 4dbd 33d9 5dbd 6498 2abd
00000080: 4028 fb3d 7f54 d9bc c177 f13d cae6 5b3c
00000090: c372 32be bfdf bbbd 47f0 39bd cf11 e8bd
000000a0: 06af d7bd b8e1 25bd e420 993c 1c35 5bbd
000000b0: 4b80 d0bd 274e 9dbb ad85 6e3d ffa9 4b3d
000000c0: aa83 5dbd eb64 86bb 883e 95bd 84f6 ed3d
000000d0: b8a2 363d 3600 a63c c6b5 503e 5e6b b93c
000000e0: 2347 09bf 17bb d53e e0df 43bf a524 e1be
000000f0: 1ef8 1ebb cc69 7cbe 25c5 7fbe 5cc1 d93e
00000100: e205 e73e 3db3 e73d 9cb2 ab3e 3a2e b23e
00000110: 0f71 843d 998c dbbd edbc 57be d0ac 09bf
00000120: 5141 f6bd 0fd2 213c 6574 133e 9ff7 58ba
00000130: 50fa 2d3e 7084 0a3a 7d92 99bd 69f3 0b3e
00000140: 23ff 353b 222a 573e 608b 9d3c 8a30 423e
00000150: fd62 0d3d d0f7 a9be 9f6e 663e 9cde d63e
00000160: cbbf 273e fb5b 1abf f34e 0ebf 58e9 2abe
00000170: 354a 1dbe 673d 84be 5bb7 c1be a14a 07be
00000180: ba80 48be 4db2 163e 8eba 63bd 336a 0f3f
00000190: 33c0 7a3e 634c 563d 30c2 603e 6c99 1e3e
000001a0: 9c1b 9fbe dbf4 b1bd 314a d03d 614c a13c
000001b0: 6775 e5bd 2e47 f4bc 9cea 2f3d 1ddd 34bd
000001c0: b29c febd c5df 423c b414 423d c386 cb3c
000001d0: 77cd e1bd 1d8b 3cbd 2d6d 38bc b107 053d
000001e0: 70f1 963c 4e84 b7bc a7b4 173c 5aa1 843d
000001f0: fa82 8ebc ae15 ef3c 562e 14bc e8ff f3be
00000200: ee8c 20be fec4 cdbc 7686 4a3e 746b c93d
00000210: 161c 09be 2be4 74bd 4f5c 18bd ea7d 4dbe
00000220: 7e33 cabb 9577 c9bc 56eb 34bf 1fce 0abf
00000230: 69f2 e5be 92b9 03bf c33f 833d f48c 1e3d
00000240: bcd3 8fbe 6be1 533d c02e c33d 9a3f 813d
00000250: 2eab b6bc 8d88 6fbd 9cf3 503d 64ad babd
00000260: 0b6d 65be 7602 d0bd e00c 1abe 7e52 3b3d
00000270: 00ed 38bd ee54 1dbd 0897 1cbe 93ea 523d
00000280: f0e1 6f3d 6fb4 4cbd c04b 683c 614a cfbc
00000290: 99d3 21bd 3337 47be e12c 4dbd 1c01 edbc
000002a0: 75d8 7e3d 3696 ee3d 5ccb 3d3d e8e7 c3be
000002b0: 7089 fe3d f656 f3bd e464 d7be 1067 90bc
000002c0: 0bcc 9dbd ee4b 12be 6f29 023e 42d1 12be
000002d0: 1590 833e ef00 d83d c608 193f a363 3cbd
000002e0: b2b0 803d e1c0 b4be 0238 b2bd eda1 85be
000002f0: b676 9dbe 0875 023d 1952 b7bc 4864 d43d
00000300: 0e57 c23e 3b04 7abd 49f8 4f3e a580 3bbe
00000310: 9f36 023e 4d5f d2be 7c15 19be b177 20be
00000320: ef85 c2bd 0f26 f5bd b442 5abe 9ce0 16be
00000330: f731 a2bd 39e1 363e a10e 93bd b7cf 16be
00000340: 1542 ff3d 1600 083c fe25 22bd 3790 5b3d
00000350: ab19 2d3d 5aa6 01be d5a1 4c3d b5aa dfbd
00000360: 89a2 bf3d 3fb6 9c3d b71a fbbc 1d09 c23d
00000370: 0c10 4cbc 894a 78bc 50b9 573b fe0a 943c
00000380: 8b4b bc3b 6f09 afbc 7d36 b5bd ded9 ba3d
00000390: f241 b53d 80a3 fabc d424 99bd 7a82 34b9
000003a0: 4523 923b a1d9 e5bc a0f4 143e 4f31 cd3e
000003b0: c0d6 aabd f7fe b63d 54fb 883c ca32 273f
000003c0: 51e6 2b3e aebf 4f3f a87f 513e 3fa4 b53d
000003d0: 67e2 dcbe 4c20 90be 66fd aebe fe2e e5bd
000003e0: 28c2 80bb 164d e9bd 0444 47bf 768d 04bf
000003f0: 0633 08bc a842 f0bc 8a44 93bc 7951 21ba
0.3567947 0.057747703 -0.202758 0.31743225 -0.39403665 -0.089902684 0.05816424 -0.47218817
-0.47144946 0.3293033 0.5239565 0.5346486 -0.26574138 -0.021126166 -0.015588897 -0.3012384
-0.19476707 0.04678902 0.09921663 0.017187322 0.17759067 -0.3648354 -0.07328464 -0.031105695
-0.17911558 0.060005285 0.045280073 0.029849388 0.064163394 -0.05024117 -0.054162215 -0.041649237
0.122635365 -0.026529549 0.11790419 0.013421724 -0.1742659 -0.091735356 -0.045395162 -0.11331522
-0.1053143 -0.040498465 0.018692441 -0.053517446 -0.1018072 -0.0048005763 0.058232952 0.049722668
-0.054080643 -0.004101386 -0.072873175 0.11619285 0.044588774 0.020263772 0.20381841 0.022634204
-0.5362417 0.417443 -0.7651348 -0.4397327 -0.0024256776 -0.24649733 -0.24977548 0.42530334
0.45121676 0.11313484 0.33534706 0.34800893 0.06466877 -0.10720176 -0.21068163 -0.53779316
-0.12024177 0.009876742 0.1439987 -0.00082766445 0.16990018 0.0005284017 -0.074986435 0.13667072
0.0027770482 0.21012166 0.019231498 0.18963829 0.03451823 -0.33196878 0.22503136 0.41966712
0.16381757 -0.602966 -0.55589217 -0.16690576 -0.15360339 -0.25828096 -0.37835202 -0.13212062
-0.19580355 0.14716454 -0.055597834 0.5602142 0.2448738 0.05231894 0.21949077 0.15488213
-0.31075752 -0.086892806 0.10170401 0.01968974 -0.11204033 -0.029819097 0.04294835 -0.044156183
-0.12432231 0.011894171 0.047383025 0.024844533 -0.110255174 -0.046031106 -0.011256498 0.03247804
0.018425673 -0.022401955 0.0092593795 0.06476088 -0.017396439 0.029185142 -0.0090442505 -0.47656178
-0.1567876 -0.025118347 0.19777855 0.09834948 -0.1338962 -0.05978791 -0.037197407 -0.20067564
-0.006170689 -0.024593154 -0.70671594 -0.54220766 -0.44911507 -0.5145503 0.06408646 0.038708642
-0.28091228 0.051728647 0.09530401 0.06310959 -0.022298422 -0.058479834 0.051013574 -0.09115103
-0.22404878 -0.101567194 -0.15043974 0.045732968 -0.045147896 -0.038411073 -0.15291989 0.05149324
0.05856508 -0.049976762 0.014178216 -0.025304021 -0.039508436 -0.1945465 -0.050091628 -0.028931193
0.06221815 0.11649744 0.046336517 -0.38262868 0.12428558 -0.11881821 -0.4206916 -0.017627269
-0.07704934 -0.14286777 0.12711118 -0.14337638 0.25695863 0.10547053 0.5977901 -0.04599346
0.06283702 -0.35303405 -0.08702089 -0.26100102 -0.30754632 0.03184989 -0.022378014 0.1037069
0.37957042 -0.06103919 0.20309557 -0.18310793 0.12716149 -0.41088334 -0.14949602 -0.15670659
-0.09498202 -0.1197015 -0.21314508 -0.14734119 -0.07919686 0.17859353 -0.071805246 -0.14727674
0.12463776 0.008300802 -0.039587013 0.05360433 0.042260807 -0.12661114 0.049959023 -0.10921232
0.09357173 0.07651948 -0.030652387 0.094743945 -0.012454998 -0.015154489 0.0032916851 0.018071648
0.00574631 -0.021366803 -0.088482834 0.09123586 0.08850469 -0.030595541 -0.074777275 -0.00017214744
0.004459771 -0.028057875 0.14546442 0.40076682 -0.083417416 0.089353494 0.016721405 0.6531187
0.16787077 0.81151855 0.20458853 0.08869218 -0.4314148 -0.2814964 -0.34177703 -0.11190604
-0.003929395 -0.11391656 -0.7783816 -0.5177835 -0.008312946 -0.02932866 -0.017977018 -0.0006153803

module.cnn.6.bias f4 [64]
00000000: 8a0d d6bd 2eea a4bd 79e6 933d 7d13 92bd
00000010: d0f7 6abe eb74 6dbc f7d0 b4bc 5b1c ecbc
00000020: aa4f b9be e8e0 04be d45e 05be a2e8 4dbe
00000030: e626 65be b00d 5c3b 5a94 42bd 05f1 febd
00000040: c918 c6be 8c51 a1bd b38f 9dbd aac7 fdbe
00000050: e2c2 f2be 6abb 89bd 6a99 b33e cd65 c1bc
00000060: a709 38bd 969a 063d 3886 28bc 0062 1abe
00000070: dff3 9cbc 328f bdb8 c6ad d9bd 845e 573d
00000080: 5443 b53e 275f ccbc 9540 5bbe fbe8 18be
00000090: 0b98 51be cee3 61bc 6d62 ffbd d218 c4be
000000a0: 3e50 b9bc f03c 073e 88a4 d3bd 7f5e 31be
000000b0: ad23 92be e55b 4ebe 4e66 c93c 4e8f 88bc
000000c0: 2809 08bd 01a4 b5be 2498 0c3d 2d46 aabd
000000d0: 8fb8 8dbe 72b4 fdbd afbc 4abe 7ba0 1c3e
000000e0: 1779 47be f23b 1cbe 5d1f dfbd 03df a0be
000000f0: 68b8 9ebe 231b bbbd a4f6 06bd dba9 dbbd
-0.10451801 -0.08052479 0.072216935 -0.07132623 -0.22946095 -0.014493207 -0.022072298 -0.028822115
-0.3619359 -0.1297642 -0.13024455 -0.20108274 -0.2237812 0.0033577494 -0.04750476 -0.124483146
-0.38690785 -0.07876882 -0.07693424 -0.49566394 -0.4741431 -0.067251995 0.35077983 -0.023608113
-0.04493108 0.03286227 -0.0102859065 -0.15076447 -0.019159256 -9.0388945e-05 -0.10628848 0.05258037
0.3540293 -0.024947716 -0.21411355 -0.14932625 -0.20468156 -0.013787223 -0.12469945 -0.38300186
-0.02262127 0.1320684 -0.10334116 -0.17321204 -0.28542843 -0.20152242 0.024584915 -0.016669895
-0.033211857 -0.35476688 0.03432478 -0.08314166 -0.2767987 -0.12387933 -0.1979854 0.15295593
-0.19479786 -0.15257242 -0.10894654 -0.31420144 -0.31000066 -0.09136035 -0.03295006 -0.10725757

module.fc.0.weight f4 [5, 67]
00000000: a98f 02be 5680 50be 1602 14bc c906 40be
00000010: 96e6 3dbc 95b3 3ebe 3ed3 db3a 2d2f a1bc
00000020: 6c35 bfbd fb50 88bd 374f 23be c8ce 0dbd
00000030: 6f2e d5bd 7e96 ce3d b091 8cbb 2a26 a13d
00000040: be7f a1be 8e7a 253d 268d 29bd f23a 19be
00000050: cc16 f5bd 174f 72bd de5b 90bd 371d aebc
00000060: 1dbe 533e 7e32 e5bd 1071 e6bd fb88 8abe
00000070: d8ea 733d b469 8e3d 87bc c13d bb6f bb3c
00000080: 89d3 14be eefe 8dbd 724f 44bd c0b9 28bd
00000090: d0bf 1e3e 3c79 e4bd edde 4bbe 16cd 6a3e
000000a0: ba77 eabd 2257 1a3e 05a2 e3bd 3109 143e
000000b0: 4fb1 1fbe 09b7 b7bc 5c2e 99bd cb78 b63d
000000c0: 7625 9e3b c008 4fbd 1d02 9dbd dc1e 5bbe
000000d0: 220f b33d 504d b7bc 77d7 d6bd 3ed4 edbd
000000e0: 2938 22bc a010 cdbd 8ee9 2cbd 300d 94bd
000000f0: 1ab4 ff3d 7fc9 e3bd 7ef3 94bd d836 8cbd
00000100: 91d2 8cbe fde8 63bf 89e0 3e3f 4745 2f3e
00000110: 93b8 903c 44e8 043e c437 0cbe bc2c 97bc
00000120: 8128 3abc 62fe e93d f6ae af3c 1f63 4cbe
00000130: 8947 4fbe 0bf7 3dbe 7233 ce3b 5b9f 9e3c
00000140: 0f1e ba3c 8183 263c 8ec1 923d d3c8 92bd
00000150: 99e8 b5bd 050d 87bd 0ad7 cfbd d8d4 afbc
00000160: aa24 65bd eaf1 023e 4409 2b3c 1f03 10bd
00000170: 6d30 1cbe a721 90bd 0970 1bbe 8fe0 c0bd
00000180: da88 b63b e61e 003e d493 31be 824e f13d
00000190: dded bc3c 84f4 45bd 340f 3abe 68e9 97bd
000001a0: 5fc5 dfbd adcb 38bc d6ba fa3d 9eb5 91bd
000001b0: 0db8 d23d afe6 ffbd 63af e1bd 2f1b c6bd
000001c0: 73ef 6bbc 9586 1d3d f290 8c3d 7f3e 753c
000001d0: 73fa 83bd d59b a6bd f929 3a3b 431d 01be
000001e0: 8f5c bdbd 5cb4 3bbe baea 00be 8411 25be
000001f0: 979e 453c 731f cd3c 1525 0fbc 95c9 c1bc
00000200: 9657 54be 8437 adbc 6fe5 193d 450a cc3d
00000210: 8a86 91bf 6d53 143f 32fb 84bc fda4 e93c
00000220: 0f06 ca3d 3912 853d 5775 8f3b 85fb 353e
00000230: db76 2ebd 9131 373c 3e61 cb3c 49a0 b7bd
00000240: 91bd 133e 4103 21bd eb5e c5bd 60bd 24bd
00000250: df03 9bbb 7ec5 7c3d eb40 41bc cbaf 8e3d
00000260: 3e70 2cbd e54b 6dbe cd92 dc3c 3d82 a43d
00000270: 1d7e 693e c20c 263d 2ade bfbd 709c 903d
00000280: 9d6a 0cbe 3a70 4b3d 6420 09be 6366 debc
00000290: 4f62 80bd 575c 57bc 7485 823d 843b 1cbd
000002a0: f114 a73d 5d61 1d3e 4b98 e5bd 7dd1 9f3d
000002b0: 50a4 e13d 1977 a53d c5ea b3bc 7d48 c93d
000002c0: f357 173d 93bd 43be 9869 c6bd f265 73bd
000002d0: f705 113e 5807 8e3d 6d48 df3d c63e 8fbd
000002e0: 2218 363d 1fda e13c 275f 00be a99e 0cbd
000002f0: 4cff 043d dc16 35be c085 963b 4eeb 013d
00000300: 32ad a8bd d79b 483d 7a01 babd bdc8 70ba
00000310: 462d 90bd 2c35 17bd 6dc8 a33e b223 e5be
00000320: 201f 00bf c4f6 01bd b730 9fbd a875 26be
00000330: f0c2 663d 93ec ad3d 3aea 5c3d fd6c 4b3c
00000340: de36 123d 967a 37be ebaf 483e ac3e 56bd
00000350: 4529 07be 516f 5b3e e218 813c fcbf 9e3c
00000360: 8aeb 8e3d d80e c4bd 20df 17bc 8621 a83d
00000370: 22d6 98be 55a8 313e 5294 3dbd a3c5 f93d
00000380: ee92 e2bc 064a eabd e660 08bd 3dc3 433e
00000390: fd39 0fbc 13f5 44be 5be4 8cbd 6298 52be
000003a0: fab9 24be 55ec 893d 1557 3ebd 00bb eb3c
000003b0: b829 a7bd d952 0bbe eacc 973c 50fb 1cbe
000003c0: ee2b 9ebd 703a 95bd 9653 37be d5bc 383e
000003d0: 6a63 49bd 0de3 243d ae27 7cbd 2731 563d
000003e0: 13c9 513d 21a2 41be c6ae 2f3d 2290 0e3e
000003f0: c844 243e a22f e3bd ac63 843d f121 1c3e
-0.12750115 -0.20361456 -0.0090337 -0.18752588 -0.0115906205 -0.18623193 0.0016771329 -0.019675815
-0.09336361 -0.06656071 -0.15948187 -0.03462103 -0.10409247 0.10087298 -0.0042898282 0.07868607
-0.31542772 0.04040008 -0.041394375 -0.14963892 -0.11967239 -0.059157457 -0.07048772 -0.021254165
0.20677991 -0.11191271 -0.11252034 -0.27057633 0.059550136 0.06953755 0.09459787 0.022880426
-0.1453382 -0.069333896 -0.047927327 -0.04119277 0.15502858 -0.11155936 -0.19909258 0.22929797
-0.11448617 0.15072301 -0.11114887 0.14456631 -0.15594982 -0.022426145 -0.074795455 0.08909758
0.004826243 -0.050545454 -0.07666419 -0.2139849 0.08743121 -0.022375733 -0.104903154 -0.116127476
-0.009901085 -0.100129366 -0.042214923 -0.07229078 0.124855235 -0.11122417 -0.07273005 -0.06846398
-0.275044 -0.89027387 0.74561363 0.17116271 0.017666137 0.12979227 -0.13693148 -0.018453948
-0.011362196 0.11425473 0.021445733 -0.19959687 -0.20242132 -0.1855127 0.006292754 0.019363096
0.022719411 0.010163189 0.07165824 -0.071672104 -0.08882255 -0.0659428 -0.10148437 -0.021463796
-0.05594317 0.12787595 0.010439221 -0.035159227 -0.15252848 -0.07037669 -0.15179457 -0.09417831
0.005570513 0.12511787 -0.17341548 0.11782552 0.02306264 -0.04832889 -0.18169862 -0.074175656
-0.109263174 -0.011279029 0.122426674 -0.07114719 0.10289011 -0.12495171 -0.110197805 -0.096731536
-0.014400351 0.038458426 0.068635836 0.0149685135 -0.06444254 -0.08135191 0.0028406365 -0.12608819
-0.0924617 -0.1833052 -0.12589541 -0.16119963 0.012061737 0.02503941 -0.008736868 -0.023655692
-0.20736536 -0.021144636 0.03757232 0.09962896 -1.1369183 0.579398 -0.01623306 0.028521055
0.09864437 0.06497616 0.0043780017 0.17771728 -0.04259382 0.011181251 0.024826642 -0.08966119
0.14427783 -0.039309744 -0.09637245 -0.040219665 -0.004730686 0.06171178 -0.011795263 0.069671236
-0.04209923 -0.23173483 0.026925469 0.080326535 0.22802015 0.04053951 -0.09368546 0.07061088
-0.13712545 0.049667574 -0.13391262 -0.027148431 -0.06268751 -0.013144574 0.063731104 -0.038142696
0.08158291 0.15369172 -0.11210688 0.078036286 0.11017668 0.08079357 -0.021962533 0.09828279
0.03694911 -0.19115286 -0.09688109 -0.059423395 0.14162432 0.069349945 0.10902486 -0.06994395
0.04445661 0.027569829 -0.12536298 -0.034330998 0.032470033 -0.17684501 0.004593581 0.031718545
-0.082361594 0.048976745 -0.09082313 -0.0009185186 -0.07039885 -0.036915943 0.3198885 -0.44753796
-0.50047493 -0.031729475 -0.077729635 -0.1625582 0.05633825 0.084923886 0.053934313 0.012416122
0.035696857 -0.17917857 0.19598357 -0.052305862 -0.13199337 0.21429183 0.015758935 0.019378655
0.06978519 -0.09573144 -0.009269506 0.08209519 -0.2985087 0.1734937 -0.046284027 0.12195899
-0.027657952 -0.114399 -0.033295535 0.19117446 -0.008741853 -0.19234113 -0.06879493 -0.20565942
-0.1608657 0.0673453 -0.046469767 0.028775692 -0.08162254 -0.13605823 0.018530328 -0.15330243
-0.07723223 -0.07286537 -0.17902979 0.18040784 -0.049167074 0.040255595 -0.06156128 0.05229297
0.05121715 -0.18909504 0.042891286 0.1392217 0.16041863 -0.110930696 0.064643234 0.15247323

module.fc.0.bias f4 [5]
00000000: b4ab 3a3e 5f07 c93c c42e 953c 6438 dfbd
00000010: 6882 df3c
0.18229562 0.024539648 0.018210776 -0.108994275 0.027283862
