Sem 2/Intelligent Robots/Assignments/Lab 2/BehaviourCloning/Checkpoints/adam_2_extra_conv_e7.pt (torch, 378083 bytes, 10 tensors)

module.cnn.0.weight f4 [32, 3, 3, 3]
0	0x3e83bfb8	0.25732207
1	0x3ea5b707	0.323662
2	0x3e4e21e7	0.2013012
3	0x3ef1163c	0.47087276
4	0x3f102358	0.5630393
5	0x3ed0e018	0.4079597
6	0x3ec15495	0.37759843
7	0x3f04279f	0.51622957
8	0x3eb6a6e2	0.35674196
9	0x3d0c1236	0.034197055
10	0x3dd1473b	0.10218664
11	0x3e3b9475	0.1831835
12	0x3d9fe625	0.078075685
13	0x3d131e5c	0.035917625
14	0x3db72708	0.089429915
15	0xbcc73b48	-0.02432026
16	0xbd9955ca	-0.07487066
17	0xbe1e2cd4	-0.15446788
18	0xbe97236f	-0.2951922
19	0xbea189e3	-0.31550512
20	0xbe8df87f	-0.2772865
21	0xbe99ac89	-0.30014446
22	0xbea368de	-0.31915945
23	0xbe84f961	-0.2597151
24	0xbe9a1244	-0.3009206
25	0xbebc4ce3	-0.3677741
26	0xbeddad3a	-0.43296224
27	0x3dc7da09	0.09758384
28	0xbdfc8fdd	-0.12332127
29	0xbe5482b4	-0.20752984
30	0x3e0b866b	0.13625495
31	0xbec8a565	-0.39188686
32	0xbbb73045	-0.005590471
33	0xbdb909b0	-0.09035051
34	0xbec90bac	-0.39266717
35	0x3e31661d	0.1732411
36	0x3e70c798	0.23513639
37	0x3decb035	0.11557046
38	0x3e58f58d	0.2118742
39	0x3e99cb85	0.30038086
40	0x3db68cb3	0.08913555
41	0x3e98932a	0.29799777
42	0x3ea61fa4	0.32446015
43	0x3ddec8fb	0.10878178
44	0x3ef9bf27	0.4877865
45	0xbda26b12	-0.07930578
46	0xbe375e17	-0.17906986
47	0xbd8653bf	-0.06558942
48	0x3dc2aa94	0.095051914
49	0xbeae9774	-0.34099925
50	0xbde05010	-0.10952771
51	0xbdcc00bb	-0.09961077
52	0xbee4a38c	-0.44656026
53	0x3e0681ae	0.13135406
54	0xbcb522d9	-0.022111343
55	0x3e56518e	0.20929548
56	0x3e437c37	0.19090353
57	0xba871c34	-0.0010308088
58	0x3e04fc75	0.1298693
59	0x3df5b2a7	0.11996966
60	0x3dbc6252	0.091984406
61	0x3d8ec996	0.06972043
62	0x3e1f13df	0.15534924
63	0xbe141a16	-0.14463076
64	0x3d15c0ea	0.03656093
65	0xbd6eaa32	-0.05826778
66	0x3e8ee60e	0.27909893
67	0x3cc2d40e	0.023782756
68	0x3d20176c	0.039084837
69	0x3e4c0124	0.1992231
70	0x3e8c3d63	0.27390584
71	0x3e01fab1	0.12693287
72	0xbe49f3a0	-0.19721842
73	0xbeb26977	-0.34846088
74	0xbeecd3c8	-0.46255326
75	0xbbedcb66	-0.007256913
76	0xbe0fc19f	-0.14038704
77	0xbda205fa	-0.07911296
78	0x3e80efd6	0.2518298
79	0x3e4ccbd6	0.19999632
80	0xbe1d48cd	-0.15359803
81	0xbdf514ad	-0.11966834
82	0xbdb1fd8b	-0.086909376
83	0xbe847f4c	-0.2587837
84	0x3dee9b00	0.11650658
85	0x3e2acae3	0.16678958
86	0x3e209480	0.15681648
87	0xbc7ecf13	-0.0155523
88	0x3d7c8f8c	0.061660334
89	0x3e0f585f	0.13998555
90	0x3e6c70e9	0.23089947
91	0x3e313a0c	0.173073
92	0x3e2fa0d0	0.17151189
93	0x3e2877a6	0.16451892
94	0x3e664176	0.22485909
95	0x3e1329a2	0.1437135
96	0x3e01de1e	0.12682387
97	0x3dc38d2a	0.09548409
98	0x3dd64edb	0.10464259
99	0xbdc666ab	-0.09687551
100	0xbce47006	-0.027885448
101	0x3ba8122f	0.005129121
102	0xbe80d859	-0.2516506
103	0xbd7e599e	-0.062097184
104	0xbda4d753	-0.08048882
105	0xbed9dadc	-0.4254979
106	0xbe91e4f0	-0.28494978
107	0xbe82ca44	-0.2554494
108	0x3dd31ee4	0.10308626
109	0x3de6d125	0.1127036
110	0x3e6644e6	0.2248722
111	0x3e3b2fec	0.1828
112	0x3e192eb8	0.14959228
113	0x3dbe261c	0.092846125
114	0x3e1b5fe6	0.15173301
115	0x3e1451e0	0.14484358
116	0x3e5c2587	0.2149869
117	0xbee84f37	-0.45372936
118	0xbed460cb	-0.41480097
119	0xbf05cbda	-0.5226418
120	0xbec117ee	-0.3771357
121	0xbee78e57	-0.45225784
122	0xbec28e59	-0.37999228
123	0xbeb89e06	-0.36058062
124	0xbed86b09	-0.4226916
125	0xbece61ce	-0.40308994
126	0x3e615d23	0.22008185
127	0x3e73d7a4	0.23812729
128	0x3e912247	0.28346464
129	0x3e714063	0.23559718
130	0x3ebfac02	0.3743592
131	0x3eae4665	0.34038082
132	0x3e5694b2	0.2095516
133	0x3ec274b0	0.3797965
134	0x3e97d389	0.29653576
135	0xbd7b8f84	-0.061416164
136	0xbd9c3a12	-0.076282635
137	0xbca69c4a	-0.020338196
138	0x3ea863fe	0.32888788
139	0x3cb3117e	0.021858927
140	0xbe565eeb	-0.20934646
141	0xbdfaf691	-0.1225406
142	0xbda8b029	-0.08236725
143	0xbe390844	-0.1806956
144	0xbe2e4ef6	-0.17022309
145	0x3d6b98cd	0.05751877
146	0x3e417daa	0.18895593
147	0x3e8d1688	0.27556252
148	0x3e8fde27	0.28099176
149	0xbe4ca146	-0.19983396
150	0x3c9772f9	0.01848744
151	0xbd972193	-0.07379451
152	0xbc5587a1	-0.013032825
153	0xbea316aa	-0.3185323
154	0x3d1a8a0b	0.037729304
155	0xbe05c96e	-0.1306512
156	0x3e443b5d	0.1916327
157	0x3e0374c3	0.1283751
158	0xbe279ad2	-0.16367653
159	0xbdc2c4c6	-0.09510188
160	0xbc96dbfc	-0.018415444
161	0xbd2a898a	-0.041635074
162	0xbcbcd366	-0.023050021
163	0xbe1401bb	-0.14453785
164	0x3cec1568	0.028818801
165	0xbda1c018	-0.07897967
166	0x3d22ec8b	0.039776366
167	0x3e196b3d	0.14982314
168	0x3db2d329	0.08731682
169	0x3db006d9	0.08595056
170	0xbd6115ab	-0.054952305
171	0x3d28bf2f	0.041197952
172	0x3e177ace	0.1479294
173	0x3d006c6e	0.031353407
174	0xbde7b4f6	-0.113138124
175	0x3d678fd1	0.05653364
176	0xbd6a6d5a	-0.057233192
177	0x3e2c5c24	0.16832024
178	0x3e849b17	0.25899574
179	0xbd5688ed	-0.052376676
180	0xbdd8924b	-0.10574778
181	0xbd6ef966	-0.058343314
182	0xbe062b79	-0.13102521
183	0xbe83896c	-0.25690782
184	0xbd23f0d3	-0.04002459
185	0xbd910cb2	-0.070824996
186	0x3d88e380	0.06684017
187	0x3abef86e	0.0014569887
188	0xbdac3413	-0.0840837
189	0xbd3ec699	-0.046576116
190	0xbdc22869	-0.09480364
191	0xbdd9e916	-0.10640161
192	0x3d80cafb	0.062887155
193	0x3d601316	0.0547057
194	0xbd871e4a	-0.06597574
195	0x3dddd59c	0.108317584
196	0x3df101cc	0.11767921
197	0x3dd4a4a6	0.10382967
198	0x3d99839b	0.07495805
199	0x3dabff6f	0.083983295
200	0xbd058d33	-0.03260536
201	0xbdb74c43	-0.08950093
202	0x3c43fec7	0.011962599
203	0xbc3cd61f	-0.01152566
204	0xbbdcf30d	-0.006742841
205	0xbda26e62	-0.0793121
206	0xbd241092	-0.040054865
207	0xbd36d7ec	-0.044639513
208	0xbc09b5f3	-0.0084051965
209	0x3d951030	0.07278478
210	0x3d8af6b2	0.06785335
211	0xb9d66db9	-0.0004089901
212	0xbe190728	-0.14944136
213	0xbd0a57b7	-0.033775058
214	0xbca4164b	-0.020030161
215	0x3e099708	0.1343652
216	0x3db548ed	0.088518
217	0x3e206a5c	0.15665573
218	0x3e393a41	0.18088628
219	0xbe113fdf	-0.14184521
220	0xbe187e8f	-0.14892028
221	0x3dc2cd7b	0.095118485
222	0xbeadc030	-0.3393569
223	0xbe2dec17	-0.16984592
224	0xbe746472	-0.23866442
225	0x3e74939d	0.23884435
226	0x3e9e1ce9	0.30881432
227	0x3e152eba	0.14568606
228	0xbdcd052e	-0.100107536
229	0xbdf49221	-0.119419344
230	0xbcff3030	-0.031150907
231	0x3dd18859	0.102310844
232	0x3e2ed333	0.17072754
233	0x3e690133	0.22754364
234	0x3e64d85f	0.22348164
235	0x3e69007e	0.22754094
236	0x3c28fa50	0.010313585
237	0xbeae3508	-0.34024835
238	0xbecdfc6a	-0.4023164
239	0xbeacfb64	-0.33785546
240	0xbe02aff0	-0.12762427
241	0xbe2d9462	-0.16951135
242	0xbde7423f	-0.11291932
243	0xbe8ebc03	-0.27877817
244	0xbde14010	-0.10998547
245	0xbdd8d5dd	-0.10587666
246	0xbe26f339	-0.1630372
247	0xbdc93f28	-0.09826499
248	0xbcc9815f	-0.024597822
249	0xbdcf17e0	-0.10111976
250	0xbe40a3b8	-0.18812454
251	0xbd3f7440	-0.046741724
252	0x3e2c5b19	0.16831626
253	0x3d0b828a	0.03406004
254	0x3de9cf6b	0.11416515
255	0x3d9a25f9	0.07526774

module.cnn.0.bias f4 [32]
0	0xbe357fd9	-0.17724551
1	0xbe1b5255	-0.15168126
2	0xbf80083b	-1.0002512
3	0xbf72ef43	-0.94896334
4	0xbe6cc430	-0.23121715
5	0xbf7767d0	-0.9664278
6	0xbf7f4c78	-0.9972606
7	0xbf6a6502	-0.91560376
8	0xbf7bdbd2	-0.98382294
9	0xbfc90162	-1.5703547
10	0xbe9639f6	-0.29341096
11	0xbf773fac	-0.9658153
12	0xbf431fd8	-0.76220465
13	0xbfa37c02	-1.2772219
14	0xbea76db1	-0.32700875
15	0xbf57412b	-0.84083813
16	0xbf0ffa49	-0.5624128
17	0x3e57867c	0.21047395
18	0xbf2bd3fe	-0.6712035
19	0xbf2a6491	-0.665597
20	0xbf507c09	-0.8143926
21	0xbf5f515a	-0.8723351
22	0xbf0a521d	-0.54031545
23	0xbf28e854	-0.65979505
24	0xbfa07e49	-1.2538539
25	0xbef85fa4	-0.48510468
26	0xbf9a689d	-1.2063175
27	0xbf9ddabe	-1.233238
28	0xbf6c024c	-0.92191005
29	0xbf465816	-0.7747816
30	0xbf7da1cb	-0.99075
31	0xbfa18982	-1.2620089

module.cnn.2.weight f4 [64, 32, 3, 3]
0	0x3d4ca2cf	0.049959954
1	0xbd4635f9	-0.048391316
2	0xbe7adfcb	-0.24499433
3	0xbd333ad4	-0.043757275
4	0xbe06682e	-0.13125679
5	0xbdcda4b6	-0.10041182
6	0x3cf51989	0.029919403
7	0xbd9bf2b0	-0.07614648
8	0xbd5efe7b	-0.05444191
9	0xbdac5b39	-0.08415837
10	0xbe19ab18	-0.15006673
11	0xbdd98fb2	-0.10623111
12	0xbe026d6c	-0.12737054
13	0xbe40ccb6	-0.18828091
14	0xbe3b8b04	-0.18314749
15	0x3c8f39f2	0.017483685
16	0xbd4e2ef8	-0.05033776
17	0xbe221004	-0.15826422
18	0xbd1b35f2	-0.037893243
19	0xbe276e5a	-0.1635069
20	0xbe676f1f	-0.22600983
21	0xbe0c7580	-0.13716698
22	0xbde0d150	-0.10977423
23	0xbe03250e	-0.12807104
24	0xbe6dc7a8	-0.23220694
25	0xbdbbb388	-0.09165102
26	0xbde7cb16	-0.113180324
27	0xbdf621ce	-0.120181665
28	0x3b08edde	0.0020893733
29	0xbe6820d7	-0.22668777
30	0xbd909079	-0.07058806
31	0xbe605d5a	-0.21910611
32	0xbe2b7248	-0.16742814
33	0xbdc1c403	-0.094612144
34	0xbe1ee91d	-0.15518613
35	0xbd5798eb	-0.05263607
36	0xbdaaee71	-0.0834626
37	0xbdcf65ef	-0.10126864
38	0xbd782075	-0.06057783
39	0xbd8f7212	-0.07004179
40	0xbd3c069c	-0.04590474
41	0xbd7c36db	-0.06157575
42	0xbce90696	-0.028445523
43	0xbd9848d3	-0.07435765
44	0xbded18dc	-0.11577007
45	0xbe49435b	-0.196546
46	0xbe295031	-0.16534497
47	0xbe5df611	-0.21675898
48	0xbdd92bd9	-0.106040664
49	0xbdee2227	-0.11627608
50	0xbe507f07	-0.20360957
51	0xbcf90849	-0.030399458
52	0xbe1f8e7a	-0.15581694
53	0xbcb59bdb	-0.022169044
54	0x39973984	0.00028843817
55	0xbc534d10	-0.012896791
56	0x3c2339d7	0.009962521
57	0x3ca1561a	0.019694377
58	0x3b9f572c	0.0048626866
59	0xbbe908fd	-0.007111667
60	0x3c9cd602	0.019145016
61	0x3dc1a23d	0.094547726
62	0x3d878c47	0.06618553
63	0xbe1dfbe0	-0.15428114
64	0xbda4a93a	-0.0804009
65	0xbdb05b91	-0.08611215
66	0xbd1fb0b0	-0.03898686
67	0xbd077658	-0.033071846
68	0xbd89682c	-0.06709322
69	0xbc6cad1b	-0.014445568
70	0xbd8350ee	-0.064119205
71	0xbd363638	-0.0444853
72	0xbe37cd09	-0.17949308
73	0xbe13c61d	-0.14431043
74	0xbde72eec	-0.112882465
75	0xbc677b09	-0.014128455
76	0xbe0091cc	-0.12555617
77	0xbe2535dd	-0.16133828
78	0xbe2f301c	-0.17108196
79	0xbe21e2be	-0.15809152
80	0xbe110c87	-0.14164935
81	0xbe546cbe	-0.20744607
82	0x3c927437	0.017877681
83	0xbdcb70a6	-0.09933595
84	0xbe114a3a	-0.14188471
85	0xbd47a3aa	-0.048740067
86	0xbd94092c	-0.07228312
87	0xbcdf000e	-0.027221706
88	0xbe04d4c1	-0.12971784
89	0xbd63e2a0	-0.05563605
90	0xbd41181d	-0.047142137
91	0xbe2ae210	-0.16687799
92	0xbe2be601	-0.16786958
93	0x3cea9560	0.02863568
94	0xbe1f88f1	-0.15579583
95	0xbe724fd8	-0.2366327
96	0xbcae9060	-0.021309078
97	0xbe2e007c	-0.16992372
98	0xbdb5adc6	-0.08871035
99	0xbdde6ac0	-0.10860205
100	0xbd9caea2	-0.07650496
101	0x3ca3076a	0.019900996
102	0xbdf4a10c	-0.1194478
103	0xbd382984	-0.044961467
104	0xbd359b0d	-0.04433732
105	0xbd4bd6a9	-0.049765263
106	0xbc2c3808	-0.010511406
107	0xbdc97f80	-0.09838772
108	0xbdc538b8	-0.09629959
109	0xbdf0ac31	-0.11751593
110	0xbe8f4c89	-0.2798808
111	0xbd18b84d	-0.037285138
112	0xbcd07823	-0.02544791
113	0xbe34069b	-0.17580645
114	0x3dbbc2e2	0.0916803
115	0xbd11f793	-0.035636496
116	0xbcdde213	-0.02708534
117	0xbdd6d329	-0.10489494
118	0xbe215da1	-0.15758373
119	0xbe062712	-0.13100842
120	0xbd8939ad	-0.06700454
121	0xbd855858	-0.06510991
122	0xbd880166	-0.06640892
123	0xbbdaa430	-0.0066724047
124	0xbd14472a	-0.03620068
125	0xbd84bb59	-0.06481046
126	0xbe1e1f04	-0.15441519
127	0xbe3cf174	-0.18451482
128	0xbcea6531	-0.028612705
129	0xbdab9751	-0.08378471
130	0xbd55404b	-0.052063268
131	0xbca5c72c	-0.020236574
132	0xbd684489	-0.056705985
133	0xbd978223	-0.073978685
134	0xbe256e72	-0.16155413
135	0xbdd1da24	-0.10246685
136	0xbc1603c1	-0.009156168
137	0xbe4cb16f	-0.1998956
138	0xbdcd2295	-0.100163616
139	0x3dd71d80	0.105036736
140	0xbdb3e7fb	-0.08784481
141	0x3c8d58ef	0.01725432
142	0xbd2d7f41	-0.042357687
143	0x3d0002de	0.031252734
144	0xbdb3ab94	-0.0877296
145	0xbe19bfa0	-0.15014505
146	0xbe72b1e0	-0.23700666
147	0xbd6dfecd	-0.058104325
148	0xbde06ef1	-0.109586604
149	0xbe1c7b90	-0.1528151
150	0xbd6b3809	-0.057426486
151	0xbdcaec9a	-0.099084094
152	0xbe12e835	-0.14346392
153	0xbe6b7601	-0.22994234
154	0xbe092878	-0.13394344
155	0xbe377617	-0.17916141
156	0xbd895f06	-0.067075774
157	0xbda91cc0	-0.08257437
158	0xbd43cd6e	-0.047803335
159	0xbdba74ac	-0.09104285
160	0xbe813646	-0.2523672
161	0xbe4545ad	-0.1926486
162	0xbe08e972	-0.13370302
163	0xbdb6bc0a	-0.08922584
164	0xbe586a43	-0.21134286
165	0xbdc6996c	-0.09697232
166	0xbe1b4dae	-0.15166351
167	0xbe3928e4	-0.18082005
168	0xbd9789f3	-0.073993586
169	0xbd88c622	-0.06678416
170	0xbdef9fad	-0.117003776
171	0xbe2bc03a	-0.16772547
172	0xbe1c53b9	-0.15266313
173	0xbd92abc8	-0.07161671
174	0xbe0e6b92	-0.13908222
175	0xbe22c590	-0.15895677
176	0xbd5631ee	-0.05229371
177	0xbdecc44c	-0.11560878
178	0xbe1c0476	-0.15236077
179	0xbdb7d9f2	-0.08977117
180	0xbd971b04	-0.073782
181	0xbda952bb	-0.08267733
182	0xbe0baf47	-0.13641082
183	0xbddfcfb3	-0.10928287
184	0xbe27a582	-0.1637173
185	0xbd94665f	-0.07246088
186	0xbe02fb91	-0.12791277
187	0xbd289f66	-0.04116764
188	0x3ca26d45	0.019827494
189	0xbd7453f2	-0.05965037
190	0xbe19979b	-0.14999239
191	0xbe45856c	-0.19289178
192	0xbe1e9c87	-0.15489398
193	0xbe19a082	-0.15002635
194	0xbe28fe83	-0.16503339
195	0x3b2cb895	0.0026355137
196	0xbda1491f	-0.07875275
197	0xbd14ab79	-0.03629634
198	0xbe83ab9f	-0.25716874
199	0xbe21d192	-0.15802601
200	0xbe4eddf8	-0.20201862
201	0xbe838c68	-0.2569306
202	0xbdb29f47	-0.08721786
203	0xbde5a6b4	-0.11213437
204	0xbdf57874	-0.11985865
205	0xbd710d4f	-0.058850583
206	0xbdb92ab9	-0.09041352
207	0xbd968a4b	-0.07350596
208	0xbe149513	-0.14509992
209	0xbd1734fa	-0.036915757
210	0x3e74284d	0.23843499
211	0x3e36054d	0.1777546
212	0xbe0d5056	-0.13800177
213	0x3dac67df	0.08418249
214	0xbe0754f2	-0.13215998
215	0xbe5d7ffd	-0.21630855
216	0xbddf1c3f	-0.108940594
217	0xbce2b18c	-0.027672552
218	0xbe22eefa	-0.15911475
219	0xbdd0c67e	-0.101941094
220	0xbd9dcfb6	-0.07705633
221	0xbd9353a7	-0.0719369
222	0xbdfdbc71	-0.12389458
223	0xbd18e2d1	-0.037325684
224	0xbdf8beed	-0.12145791
225	0xbe25612a	-0.16150346
226	0xbdc7b6eb	-0.09751686
227	0xbe5762e4	-0.21033818
228	0xbdb4c995	-0.08827511
229	0xbe24381f	-0.16037033
230	0xbe043df5	-0.1291426
231	0x3cb58f2a	0.022162993
232	0xbde57f97	-0.112059765
233	0xbdd8362a	-0.10557206
234	0xbe15cab1	-0.14628102
235	0xbd56ee36	-0.05247327
236	0x3d6bb3fc	0.057544693
237	0xbb88c10f	-0.004173405
238	0x3c929d31	0.01789722
239	0xbd8eea95	-0.06978337
240	0xbd506a47	-0.050882604
241	0xbe834cc5	-0.25644508
242	0xbd857b81	-0.06517697
243	0xbde66fe0	-0.11251807
244	0xbdcde105	-0.10052685
245	0x3c51f9e7	0.012815929
246	0xbdde600f	-0.108581655
247	0xbd648e97	-0.055800047
248	0x3da05ab0	0.07829797
249	0x3d103ada	0.035212375
250	0x3d27bcea	0.040951647
251	0xbe01a8ea	-0.12662092
252	0xbe1389fb	-0.14408104
253	0xbe05ff98	-0.13085783
254	0xbe1d65ba	-0.15370837
255	0xbd9048c5	-0.0704513

module.cnn.2.bias f4 [64]
0	0xbe600893	-0.21878271
1	0xbd9e4a0c	-0.07728967
2	0xbdb4418d	-0.08801565
3	0xbe7372a3	-0.23774199
4	0x3e4d516a	0.20050588
5	0xbe312b37	-0.17301641
6	0xbdca1a03	-0.098682426
7	0xbe70683f	-0.23477267
8	0x3f9a8998	1.207324
9	0xbef4c046	-0.47802943
10	0xbe175941	-0.14780141
11	0x3d869097	0.06570547
12	0x3e8ea202	0.27857977
13	0xbe0cea3f	-0.13761233
14	0xbdb3b82f	-0.087753646
15	0xbdf55dd5	-0.11980788
16	0xbe1af7f1	-0.15133645
17	0x3d959a44	0.073048145
18	0xbf14c328	-0.58110285
19	0xbcce88db	-0.025211742
20	0xbebd1327	-0.36928675
21	0xbe44fe67	-0.19237672
22	0xbd30f706	-0.04320433
23	0xbdbede21	-0.093197115
24	0xbe19eb74	-0.15031224
25	0xbd036db3	-0.03208704
26	0xbe83b7e8	-0.25726247
27	0xbdf8387f	-0.12120151
28	0xbde8e337	-0.11371463
29	0xbcf499ef	-0.029858558
30	0xbf3bdadd	-0.73380834
31	0xbe07668f	-0.13222717
32	0xbd9dec3f	-0.07711076
33	0xbd5c13bf	-0.05372977
34	0xbe62d3ba	-0.2215108
35	0xbddc027d	-0.10742662
36	0xbe8d0edc	-0.275504
37	0xbe146010	-0.1448977
38	0xbe2c7e71	-0.16845109
39	0xbe3f9a53	-0.18711214
40	0xbd84b14a	-0.06479128
41	0xbdddd8a4	-0.108323365
42	0xbd4ed8f9	-0.05049989
43	0xbe80a386	-0.25124758
44	0xbd87492b	-0.066057526
45	0xbeb12b9a	-0.34603578
46	0xbea43b34	-0.32076418
47	0xbdc9e374	-0.09857836
48	0xbeab5f5e	-0.33471197
49	0xbe0a76c4	-0.13521868
50	0xbe1bf13e	-0.15228745
51	0xbe1d0b46	-0.15336332
52	0xbe0709c2	-0.13187316
53	0xbe22723d	-0.15863891
54	0xbd009ad5	-0.03139766
55	0xbee9b900	-0.45648956
56	0x3ee0b242	0.43886
57	0xbe72675a	-0.23672238
58	0xbe0d9c40	-0.13829136
59	0xbedfb7a1	-0.43694785
60	0xbe0e3f1b	-0.1389126
61	0x3f308c5b	0.68964165
62	0xbe9a3f89	-0.30126598
63	0xbf073412	-0.5281383

module.cnn.4.weight f4 [64, 64, 3, 3]
0	0xbd10e470	-0.035374105
1	0x3aa4f333	0.0012584686
2	0xbccd746b	-0.025079926
3	0xbdaa28d1	-0.08308566
4	0x3db806b0	0.089856505
5	0xbdc527e9	-0.09626753
6	0xbd11e8f6	-0.03562256
7	0x3d1b21bd	0.037873972
8	0x39b944a7	0.000353371
9	0xbd1167d4	-0.03549941
10	0xbd20c651	-0.03925163
11	0xbc344bdc	-0.011004414
12	0xbd011441	-0.031513456
13	0xbd27ba51	-0.04094917
14	0xbafbbfee	-0.001920698
15	0xbcbecee9	-0.023292022
16	0xbc4c28cb	-0.012460898
17	0xbc6c757b	-0.014432306
18	0xbd03f9ba	-0.03222058
19	0xbcedc056	-0.029022377
20	0xbc128636	-0.008943131
21	0xbd1d5e56	-0.038420044
22	0xbca87020	-0.020561278
23	0xbc9ec1f8	-0.0193796
24	0xbcfa4631	-0.030551048
25	0x3bd1f1da	0.006407005
26	0xbd1db2fe	-0.03850078
27	0xbd6478f4	-0.055779412
28	0xbe512249	-0.20423235
29	0x3d476438	0.04867956
30	0xba081468	-0.0005191029
31	0x3e38e2b4	0.1805523
32	0x3e615802	0.22006229
33	0x3ddc2f4d	0.107512094
34	0x3e476dd6	0.19475493
35	0xbdd0416a	-0.10168727
36	0xbeb619f2	-0.3556667
37	0xbe2731e0	-0.1632762
38	0xbd3adc6f	-0.045620378
39	0x3e08eb01	0.13370897
40	0xbddccaf6	-0.10780899
41	0x3df3ce3a	0.11904569
42	0x3e8b2d74	0.27183115
43	0xbf4ac251	-0.79202753
44	0xbec92260	-0.3928404
45	0xbf071621	-0.5276814
46	0xbea132f5	-0.3148419
47	0xbeff48ac	-0.49860132
48	0xbda88f8d	-0.08230505
49	0x3f099af2	0.5375205
50	0x3e0d60ca	0.13806453
51	0xbddacc3b	-0.10683485
52	0xbf20fd2f	-0.6288633
53	0x3e51c8a4	0.20486695
54	0xbcb4e980	-0.022083998
55	0xbbd911fd	-0.006624459
56	0xbcb45bd9	-0.022016453
57	0x3cde90b1	0.027168604
58	0xbccba69a	-0.024859715
59	0xbcf91073	-0.030403351
60	0xbd04a8b9	-0.03238747
61	0xbd283521	-0.041066293
62	0xbcc86cae	-0.024465885
63	0x3bceee28	0.0063150115
64	0x3ce1028e	0.027467038
65	0xbc8a08ac	-0.016849838
66	0xbdeda6ff	-0.116041176
67	0xbdddb086	-0.10824685
68	0x3c5ce6f4	0.013482798
69	0xbd6b46a1	-0.057440404
70	0xbe083e1e	-0.13304946
71	0xbda37c4d	-0.07982693
72	0xbea08e66	-0.3135864
73	0xbdf82b8f	-0.12117683
74	0xbf4ce276	-0.8003305
75	0xbe1eba10	-0.15500665
76	0xbd4ff5a1	-0.05077136
77	0xbeea2d2f	-0.45737597
78	0xbe01cd78	-0.12676036
79	0xbf6d7367	-0.92754215
80	0x3d88c8b9	0.0667891
81	0x3dd255a3	0.1027024
82	0x3d7815e6	0.06056776
83	0xbb01fc19	-0.00198341
84	0xbf483e81	-0.78220373
85	0x3ea70dd7	0.32627746
86	0xbeafadb8	-0.34312224
87	0xbecd1acb	-0.40059504
88	0xbdfb5bf9	-0.12273402
89	0xbe179e1d	-0.14806409
90	0x3c6b18c3	0.014349165
91	0x3b7200a1	0.0036926644
92	0xbd170b62	-0.03687609
93	0x3c969673	0.018382287
94	0xbcfce849	-0.030872481
95	0x3b9c53ec	0.0047707465
96	0x3b6f27f4	0.003649232
97	0xb918544d	-0.00014527254
98	0xbd11508f	-0.035477217
99	0xbdb32d59	-0.08748884
100	0x3e66f211	0.22553279
101	0x3ee1b505	0.4408342
102	0xbf01fb65	-0.5077422
103	0x3e82d71c	0.2555474
104	0xbe74370e	-0.23849127
105	0x3dac80a2	0.08422972
106	0x3e883c0a	0.26608306
107	0xbe92d4ae	-0.28677887
108	0xbf0254de	-0.5091075
109	0xbe0b1451	-0.13581969
110	0x3dc9730e	0.09836398
111	0x3ef546a4	0.47905457
112	0x3c83514f	0.016029982
113	0xbef8c506	-0.48587817
114	0xbe6cdabf	-0.2313032
115	0xbe31268d	-0.17299862
116	0x3e5cbbb4	0.21555978
117	0xbd015c67	-0.031582262
118	0x3d7ef862	0.062248595
119	0xbcc23859	-0.02370851
120	0xbccc6f78	-0.024955496
121	0x3d3b4d0f	0.045727786
122	0xbdaa2d8d	-0.08309469
123	0xbd838959	-0.06422681
124	0xbd5b9af0	-0.053614557
125	0xbd407a2a	-0.046991505
126	0xbcd2ff41	-0.02575648
127	0xbc9fc915	-0.019505063
128	0x3a89f1be	0.0010524315
129	0xbc906639	-0.017626869
130	0xbc495f4e	-0.012290789
131	0xbb2f88a4	-0.0026784325
132	0xbc7bd8bb	-0.015371497
133	0xbcff1acb	-0.031140706
134	0xbc6f2192	-0.014595406
135	0xbc994666	-0.018710326
136	0xbca9eab0	-0.02074179
137	0x3d067406	0.032825492
138	0x3b4f4b8e	0.0031630727
139	0xbc6bdf17	-0.0143964505
140	0xbcd4e0b6	-0.025986057
141	0xbca376c8	-0.0199541
142	0xbb37dde2	-0.0028055836
143	0xbcb8819e	-0.022522744
144	0xbcaba50c	-0.020952724
145	0xbcc05910	-0.023479968
146	0xbd03e08f	-0.032196578
147	0xbd1b0932	-0.037850566
148	0xbd14bcd7	-0.036312904
149	0x3bebbd9f	0.0071942355
150	0x3d044a09	0.032297168
151	0xbc986fd6	-0.018608015
152	0x3d071a60	0.032984138
153	0x3d844362	0.06458165
154	0x3ea01afc	0.31270587
155	0xbe3933c8	-0.18086159
156	0xbf327525	-0.6971
157	0x3c95c8ab	0.018284163
158	0x3d3fbbb5	0.04680987
159	0xbf769446	-0.9632
160	0x3c9bf582	0.019037966
161	0x3f36445e	0.7119807
162	0x3dbac4cc	0.09119567
163	0x3d894809	0.06703193
164	0xbe8cdd74	-0.27512705
165	0xbec9ab56	-0.3938853
166	0xbed94cb9	-0.42441347
167	0x3e0073d5	0.12544186
168	0x3d85bb87	0.065299086
169	0xbe8625a9	-0.26200607
170	0x3f06d883	0.5267412
171	0xbc6bc877	-0.014391056
172	0xbd18606c	-0.03720133
173	0xbc8c76b0	-0.017146438
174	0xbd156cec	-0.03648083
175	0xbcbe6da6	-0.023245644
176	0xba4de534	-0.00078542833
177	0xbc9d7c11	-0.019224199
178	0xbbeb3e19	-0.0071790335
179	0xbc15a32b	-0.009133141
180	0x3ae551a5	0.0017495645
181	0xbbe0370d	-0.0068425
182	0x3d90d922	0.07072665
183	0xbcb11ff5	-0.021621684
184	0xbc45c179	-0.012070053
185	0xbcde4fb8	-0.027137622
186	0x3d961765	0.07328681
187	0xbd025954	-0.03182347
188	0xbbc3a7cf	-0.005970932
189	0x3c611b67	0.013739443
190	0x3e0ef6e6	0.13961372
191	0xbdc54300	-0.0963192
192	0x3b41c15d	0.0029564716
193	0x3ce1593f	0.027508376
194	0xbdd46009	-0.1036988
195	0xbe01eaa4	-0.12687165
196	0xbbc3c255	-0.005974094
197	0xbdf6482d	-0.12025485
198	0xbc158349	-0.009125539
199	0xbca07751	-0.019588144
200	0x3cbc2fd5	0.022972027
201	0xbd161012	-0.03663642
202	0xbd0026c1	-0.03128696
203	0x3ca46c4a	0.020071167
204	0xbd06c26d	-0.032900263
205	0x3d08820d	0.03332715
206	0x3bf7d36b	0.007563045
207	0xbc2281bd	-0.009918627
208	0x3b5aa889	0.0033364615
209	0xbbfc0461	-0.0076909517
210	0xbd01211b	-0.031525712
211	0xbbfbdf43	-0.007686527
212	0xbc8f3729	-0.017482357
213	0xbcb5f89a	-0.022213269
214	0xbd275343	-0.04085089
215	0xbd0761b0	-0.033052146
216	0xbe96d8cb	-0.29462275
217	0xbecabdda	-0.3959797
218	0xbf2b5909	-0.6693273
219	0xbe064369	-0.13111652
220	0xbf1c8906	-0.6114658
221	0xbe9df458	-0.30850482
222	0xbd526a24	-0.051370755
223	0xbf4a066c	-0.7891605
224	0x3c6a607d	0.014305231
225	0xbd2345fb	-0.03986166
226	0xbc4d2e98	-0.012523316
227	0xbca2ed43	-0.019888526
228	0x3b949cd8	0.004535299
229	0xbcd68d72	-0.026190493
230	0xbd216720	-0.03940499
231	0xbcfff826	-0.031246256
232	0xbc9781b5	-0.018494466
233	0xbcdc1e1a	-0.026869822
234	0xbd3de1b2	-0.046357818
235	0x3d836de7	0.064174466
236	0x3dd5cc77	0.10439389
237	0xbe0b7791	-0.1361983
238	0xbdf93925	-0.121691026
239	0x3d7f98a8	0.062401444
240	0xbe0e654b	-0.13905828
241	0x3d439f0c	0.0477591
242	0x3c9a1f6c	0.018813811
243	0x3c0c8001	0.00857544
244	0xbcb23b8f	-0.021756915
245	0xbcd41db0	-0.025893062
246	0xbcc018bb	-0.023449292
247	0xbcf6cbf8	-0.030126557
248	0x3b0968bb	0.0020966965
249	0xbbdfe72f	-0.006832979
250	0xbcaa997e	-0.020825144
251	0x3acc9332	0.0015607832
252	0x3d955275	0.07291118
253	0x3e68812c	0.22705525
254	0x3e6b3b89	0.2297193
255	0xbc566828	-0.013086356

module.cnn.4.bias f4 [64]
0	0x3f0ed52b	0.5579402
1	0xbeea3b6d	-0.45748463
2	0xbee0fe8c	-0.43944204
3	0xbe91ff4d	-0.28515092
4	0x3d44db44	0.04806067
5	0xbeb5dafc	-0.35518634
6	0x3f35b72f	0.7098264
7	0xbe1da259	-0.15393962
8	0xbdfb8265	-0.1228073
9	0x3e4de90f	0.20108436
10	0xbf32e3c9	-0.6987882
11	0x3e95e3c6	0.2927534
12	0xbe1ed7c1	-0.15511991
13	0xbe45c2a2	-0.19312528
14	0xbf0a0b8a	-0.5392386
15	0x3f3bef49	0.73411995
16	0xbded4816	-0.11586015
17	0xbe00ab53	-0.12565355
18	0xbdc607a0	-0.09669423
19	0x3cd616ba	0.026133884
20	0x3ef901d7	0.48634216
21	0x3f685c5c	0.9076593
22	0xbdd46186	-0.103701636
23	0xbe545d99	-0.2073883
24	0xbe1df630	-0.15425944
25	0x3e2fee7e	0.17180821
26	0x3e9bccee	0.30429786
27	0xbdfa48be	-0.12220906
28	0xbe0d9d58	-0.13829553
29	0x3eb03e00	0.34422302
30	0xbe2c52ed	-0.16828509
31	0x3e78c951	0.24295546
32	0xbdbf2fae	-0.09335266
33	0x3d9e5ced	0.07732568
34	0x3ec7665e	0.38945287
35	0xbf0e13bd	-0.5549887
36	0xbee0f803	-0.43939218
37	0xbef97974	-0.48725474
38	0x3f3be992	0.73403275
39	0xbe2a1ffd	-0.16613765
40	0xbe3bc2e7	-0.18336068
41	0xbcd3d62a	-0.025858957
42	0x3f04f991	0.5194331
43	0xbd0c450a	-0.03424553
44	0xbe1656d4	-0.1468156
45	0xbd8d0a26	-0.06886701
46	0x3f3c5f55	0.73582965
47	0x3d161457	0.03664049
48	0xbb44bcc5	-0.0030019742
49	0xbe341f86	-0.1759015
50	0x3f89c27b	1.0762476
51	0xbe4e4dbf	-0.20146845
52	0x3de326af	0.11091363
53	0x3e4dc57d	0.20094867
54	0xbecd7fd7	-0.40136597
55	0xbddc70bb	-0.10763689
56	0x3eb0fa63	0.3456603
57	0xbe873302	-0.26406103
58	0x3ec08e71	0.37608674
59	0xbc9bc801	-0.019016268
60	0xbeb062bd	-0.3445033
61	0xbdc73bb1	-0.09728182
62	0xbe9b849b	-0.30374607
63	0xbd9fe619	-0.078075595

module.cnn.6.weight f4 [64, 64, 3, 3]
0	0x3e4f514b	0.20245855
1	0x3f00faaf	0.5038251
2	0x3efabc13	0.48971614
3	0x3ec9c148	0.39405274
4	0xbe41fba3	-0.18943648
5	0x3da737ad	0.08164916
6	0xbe962dbc	-0.29331768
7	0xbf16d8a0	-0.58924294
8	0xbfae99a7	-1.3640641
9	0x3c6d354a	0.014478037
10	0x3eb24ed7	0.34825775
11	0x3f07d164	0.5305388
12	0x3ee296d6	0.44255704
13	0xbf063ded	-0.5243824
14	0xbe2a0948	-0.16605103
15	0x3e0c2b39	0.13688363
16	0xbea812a0	-0.3282671
17	0xbd449f15	-0.048003275
18	0xbdcc1e6e	-0.099667415
19	0x3bd627f2	0.0065355236
20	0xbf10cd22	-0.5656301
21	0xbf0a9d84	-0.541466
22	0xbe5608d0	-0.20901799
23	0x3e6ee4e0	0.23329496
24	0x3d073d3c	0.033017382
25	0xbded7a75	-0.115956225
26	0x3dcf8c3e	0.10134171
27	0x3ca39beb	0.019971808
28	0x3d2fd830	0.04293078
29	0xbd09b078	-0.03361556
30	0xbd0e984e	-0.034813218
31	0xbce2cad5	-0.027684608
32	0x3da80b96	0.08205335
33	0xbc9169bc	-0.017750613
34	0x3da1901d	0.078888156
35	0x3c132207	0.008980281
36	0xbe53a52b	-0.20668475
37	0xbdf6e4d8	-0.12055367
38	0x3eb09e34	0.344957
39	0x3e17d439	0.1482705
40	0x3e068e71	0.13140275
41	0x3e8a7de3	0.2704917
42	0x3e4b9b62	0.19883493
43	0x3de58ab3	0.112080954
44	0x3e7d9a2b	0.24765842
45	0x3e5481b8	0.20752609
46	0xbdd60767	-0.10450631
47	0xbd1ff99a	-0.039056398
48	0x3e1556ce	0.14583895
49	0xbe419990	-0.18906236
50	0xbea34c2f	-0.3189406
51	0x3ddbf38b	0.107398115
52	0xbe17aab8	-0.14811218
53	0xbddd2bab	-0.10799345
54	0x3f0d8b16	0.55290353
55	0xbd948381	-0.07251645
56	0xbb9071e3	-0.0044081076
57	0x3f0e5f01	0.55613714
58	0xbf4f66e4	-0.81016374
59	0x3c590737	0.013246349
60	0x3d62435d	0.055240024
61	0xbe26d50b	-0.16292207
62	0xbe26b02b	-0.1627814
63	0xbda39f2c	-0.07989344
64	0x3e62e797	0.22158657
65	0xbebfcfaf	-0.37463138
66	0x3ee12a13	0.43977413
67	0x3f52cca3	0.823435
68	0x3f1ef18e	0.62087333
69	0xbeb6f23d	-0.35731688
70	0xbebc0804	-0.36724865
71	0xbf211d7c	-0.62935615
72	0xbda4c3fe	-0.08045195
73	0x3bd88b28	0.0066083856
74	0x3dc551d6	0.096347496
75	0xba112b76	-0.0005537787
76	0x3de8cfee	0.113677844
77	0x39b95c01	0.00035354498
78	0xbd4d816f	-0.050172266
79	0x3dbb4736	0.09144442
80	0x3af38ae1	0.0018580818
81	0x3eca8995	0.39558092
82	0xbebee834	-0.37286532
83	0x3ddc8240	0.10767031
84	0xbebee927	-0.37287256
85	0xbf04994b	-0.51796407
86	0x3f12bbb8	0.57317686
87	0x3f0c99dd	0.54922277
88	0x3e653e19	0.2238697
89	0xbf3c6b68	-0.7360139
90	0xbe94d185	-0.290661
91	0x3e35a480	0.17738533
92	0xbf14e1a2	-0.5815679
93	0xbf011d71	-0.5043555
94	0x3d8e4b58	0.069479644
95	0xbe3af8fe	-0.18259045
96	0x3f226193	0.63430136
97	0x3e829cc1	0.2551022
98	0xbdb5d3a9	-0.088782616
99	0x3f217276	0.6306528
100	0x3d3a83ec	0.045535967
101	0x3d1da631	0.03848857
102	0x3ed529b3	0.41633376
103	0xbddf2370	-0.10895431
104	0xbf295044	-0.661381
105	0x3dfb824f	0.12280714
106	0xbb8baf07	-0.0042628082
107	0x3f0735b2	0.5281631
108	0xbd998726	-0.07496481
109	0xbca37182	-0.019951586
110	0x3ceb67fd	0.028736109
111	0xbcf206c5	-0.029544244
112	0xbdaa5b8c	-0.083182424
113	0x3c02632d	0.007958216
114	0x3d01db59	0.031703327
115	0x3c882d37	0.016623123
116	0xbd9714bf	-0.07377004
117	0xbcfc4d9c	-0.030798726
118	0xbbf6cb5c	-0.0075315665
119	0x3cb20458	0.021730587
120	0x3c49fce9	0.012328365
121	0xbc7593ab	-0.01498882
122	0x3bcb022b	0.006195327
123	0x3d317b64	0.043330565
124	0xbc3eb464	-0.011639688
125	0x3c9ff7a9	0.019527273
126	0xbebffe41	-0.37498668
127	0xbf208096	-0.62696207
128	0xbe3b816a	-0.18311086
129	0x3e88cafe	0.2671737
130	0x3e50767f	0.20357703
131	0xbe7f987e	-0.24960515
132	0xbeaf6fda	-0.34265023
133	0x3e13fb22	0.14451268
134	0xbe9dd67f	-0.3082771
135	0x3e9ce3ff	0.30642697
136	0x3e4cf53a	0.20015422
137	0xbea78319	-0.32717207
138	0xbe6494b2	-0.22322348
139	0xbeb71695	-0.35759416
140	0xbf0ad408	-0.54229784
141	0xbe7a6118	-0.24451101
142	0xbcd7eb99	-0.026357459
143	0x3eb01a00	0.34394836
144	0xbe4076fb	-0.18795387
145	0x3d0dc402	0.034610756
146	0x3d829811	0.063766606
147	0x3d2cf4d5	0.042225678
148	0xbc747109	-0.014919528
149	0xbd2044c9	-0.0391281
150	0x3d0bce62	0.03413237
151	0xbd79ce73	-0.0609879
152	0xbe198194	-0.14990836
153	0xbd8b2d25	-0.0679572
154	0xbdce255f	-0.10065722
155	0x3cfaab5e	0.030599292
156	0xbcf7763e	-0.03020775
157	0xbcd28960	-0.025700271
158	0xbdd18b3e	-0.102316365
159	0x3d0d1f04	0.034453407
160	0x3d20809a	0.039185144
161	0xbd08f702	-0.03343869
162	0x3c1b6d38	0.009486489
163	0xbc8ab1d2	-0.016930494
164	0xbcd88d29	-0.026434498
165	0xbe054ad7	-0.1301683
166	0xbd0947af	-0.03351563
167	0xbc9e9391	-0.019357475
168	0x3d2a837d	0.041629303
169	0x3d9fa295	0.07794682
170	0x3cfdfa3d	0.031003112
171	0xbe98e4ce	-0.29862064
172	0xbd6a14a1	-0.05714858
173	0xbf6ba9fe	-0.9205626
174	0xbea4d07e	-0.32190317
175	0x3e44b3c0	0.19209194
176	0x3e199566	0.14998397
177	0x3f05a97f	0.52211756
178	0x3eeaa520	0.45829105
179	0x3e01053b	0.12599652
180	0x3de854eb	0.11344322
181	0x3df65544	0.12027982
182	0x3f17ce58	0.5929923
183	0xbe204cc9	-0.15654291
184	0x3dcae64d	0.09907208
185	0xbde00922	-0.10939242
186	0xbd00fd46	-0.03149154
187	0xbdd8521c	-0.10562536
188	0xbef06f6e	-0.46960014
189	0x3e391a5d	0.18076463
190	0xbf10edfb	-0.5661313
191	0xbd6d49ff	-0.057931896
192	0x3ea8bc45	0.32956138
193	0xbd9244d8	-0.07142037
194	0x3e51f492	0.20503452
195	0xbe6eda94	-0.23325568
196	0x3e5bc3a6	0.21461353
197	0xbee31096	-0.44348592
198	0xbdccda38	-0.100025594
199	0xbdd6bb97	-0.10484999
200	0xbd822715	-0.063551106
201	0xbda4065e	-0.08009027
202	0xbe1208e5	-0.14261205
203	0xbdc9e65a	-0.09858389
204	0xbd590b82	-0.05298949
205	0x3df4b988	0.1194945
206	0xbd44c99d	-0.048043836
207	0xbdc9cfad	-0.09854064
208	0x3daaca1b	0.0833933
209	0x3bb5fde9	0.00555395
210	0xbd92c5bf	-0.07166623
211	0x3d12e7f6	0.035865746
212	0x3ce7a343	0.028276091
213	0xbdad7e5c	-0.08471367
214	0x3d08ea97	0.033426847
215	0xbd95a6f9	-0.07307238
216	0xbecfcbfd	-0.40585318
217	0x3e454f1b	0.19268458
218	0x3efac0b9	0.4897516
219	0x3cb33b65	0.021878907
220	0xbe8bbca3	-0.27292356
221	0x3e9f40cc	0.31104124
222	0xbdf70e0a	-0.120632246
223	0xbe9c163c	-0.30485713
224	0xbd6c5af9	-0.057703946
225	0xbe2be988	-0.16788304
226	0x3f1e7149	0.6189161
227	0x3d46f73a	0.048575617
228	0x3da04d72	0.078272715
229	0xbe6f56b9	-0.23372926
230	0xbf5512aa	-0.83231604
231	0xbe65915d	-0.22418733
232	0x3e8d7424	0.2762767
233	0xbd6d85c2	-0.05798889
234	0x3f2ab853	0.66687506
235	0x3e52018a	0.205084
236	0xbde2019b	-0.110354625
237	0x3f00d47d	0.5032423
238	0x3ea65f55	0.32494608
239	0x3f49aafd	0.7877653
240	0x3d96f92b	0.07371744
241	0x3f238628	0.6387658
242	0x3e06e2aa	0.13172403
243	0xbe71b861	-0.23605491
244	0xbf693ed9	-0.9111152
245	0x3c5e4c20	0.013567954
246	0xbf054f6e	-0.52074325
247	0xbed25e1f	-0.41087434
248	0x3cb4347f	0.021997688
249	0xbf327831	-0.6971465
250	0xbf5a29ca	-0.85220015
251	0xbda29ddf	-0.07940268
252	0xbbb6420e	-0.0055620736
253	0xbca0c12e	-0.019623365
254	0xbc4511e4	-0.012028191
255	0xb9d7deff	-0.0004117414

module.cnn.6.bias f4 [64]
0	0xbd54205b	-0.05178867
1	0xbd5caf21	-0.053877953
2	0x3ead9458	0.3390224
3	0x3d88e360	0.06683993
4	0xbe410e63	-0.18853144
5	0x3e03ece5	0.12883337
6	0xbeee8c25	-0.46591297
7	0xbf0a1b35	-0.53947765
8	0xbf03a13d	-0.51417905
9	0xbe8455a5	-0.25846592
10	0xbdccce2d	-0.100002624
11	0xbe6ba688	-0.23012745
12	0xbe6a546c	-0.22883767
13	0x3da55310	0.080724835
14	0xbd7937bb	-0.060844164
15	0xbdd2614b	-0.102724634
16	0xbf0cc2b9	-0.54984623
17	0xbd57df19	-0.052702997
18	0xbd52d807	-0.05147555
19	0xbf7b92bf	-0.9827079
20	0xbeaa99c8	-0.3332045
21	0xbe76807d	-0.24072452
22	0x3eb29b88	0.34884286
23	0xbc816642	-0.01579583
24	0x3decae23	0.115566514
25	0xbdb7dced	-0.08977685
26	0x3dfb3952	0.12266792
27	0xbdce9717	-0.10087412
28	0x3e88a0b4	0.26685107
29	0xb87da9cf	-6.0478047e-05
30	0xbe289155	-0.1646169
31	0x3d89e7b4	0.06733647
32	0x3daa77b2	0.08323611
33	0xbc88bdef	-0.01669213
34	0xbef3e36b	-0.47634444
35	0xbdcc9e88	-0.09991175
36	0xbf14deb8	-0.5815234
37	0xbe54944c	-0.20759696
38	0xbe6e8caf	-0.23295854
39	0xbe90fb80	-0.2831688
40	0xbcf8e2c7	-0.030381573
41	0x3eb43dd4	0.3520342
42	0x3db4c95b	0.08827468
43	0xbec70b1b	-0.3887566
44	0xbf04575c	-0.516958
45	0xbeb2952a	-0.34879428
46	0x3eb6e747	0.35723326
47	0xbca57cbd	-0.020201081
48	0xbdb331b7	-0.08749717
49	0xbf3e0860	-0.7423153
50	0x3ddd8d81	0.10818005
51	0xbd9da467	-0.07697373
52	0xbf02b7db	-0.5106179
53	0xbe804579	-0.25053003
54	0xbd936859	-0.07197637
55	0x3edc6a40	0.43049812
56	0xbf28b431	-0.6589995
57	0xbe8fdc5a	-0.28097802
58	0xbd9549d9	-0.07289476
59	0xbe8e1e50	-0.27757502
60	0xb9c3ec66	-0.0003736943
61	0xbd7a6127	-0.061127808
62	0xbcb49aa0	-0.022046387
63	0xbf78bbf6	-0.97161806

module.fc.0.weight f4 [5, 67]
0	0xbe1845af	-0.14870332
1	0xbe0b8179	-0.13623609
2	0xbd31f1b1	-0.043443386
3	0xbe42e72e	-0.190335
4	0xbc8722be	-0.016496059
5	0xbe822793	-0.25420818
6	0x3e9dc842	0.30816847
7	0x3e67c08a	0.22632042
8	0xbd84b18b	-0.06479176
9	0xbe0ed8f8	-0.13949955
10	0xbe185a33	-0.14878158
11	0xbd9f9bc8	-0.07793385
12	0xbe953564	-0.29142296
13	0x3e29a3d3	0.165664
14	0x3d9216b3	0.07133236
15	0x3d382c13	0.044963907
16	0xbeb19b2d	-0.34688702
17	0x3cdd7059	0.02703111
18	0xbce2e39a	-0.02769642
19	0x3e8056cf	0.2506623
20	0xbd7590f8	-0.059952706
21	0xbd318482	-0.04333926
22	0xba18455d	-0.0005808676
23	0xbc68fe9c	-0.01422086
24	0x3e3541e2	0.17700914
25	0xbd27e7cc	-0.040992543
26	0xbe8eead8	-0.27913547
27	0xbe396212	-0.18103817
28	0x3df56a16	0.11983125
29	0x3d3e9283	0.046526443
30	0x3dd79c23	0.105278276
31	0xbd7439e5	-0.059625525
32	0xbe05bd09	-0.13060392
33	0xbd3e03d5	-0.046390373
34	0x3d972e3c	0.073818654
35	0xbce1c89f	-0.027561484
36	0x3e1ffd87	0.15624057
37	0xbe291f93	-0.16515951
38	0xbe8fffe4	-0.28124917
39	0x3e164dc2	0.146781
40	0xbad7ce78	-0.0016464731
41	0x3e4719ff	0.1944351
42	0xbe3f5d89	-0.18688025
43	0x3e787f12	0.24267223
44	0xbe99ff34	-0.30077517
45	0x3da3a817	0.07991045
46	0xbe163bba	-0.14671221
47	0x3d6cbd72	0.057797857
48	0xbd4d8daf	-0.050183948
49	0xbd7eca1d	-0.06220447
50	0xbd5002e2	-0.050784
51	0xbe6b178c	-0.22958201
52	0x3cb6141f	0.022226391
53	0xbc3c5a2f	-0.011496111
54	0xbe13e39e	-0.14442298
55	0xbe0060eb	-0.12536971
56	0xbe1ca824	-0.15298516
57	0xbccbdb75	-0.024884919
58	0xbce762da	-0.028245378
59	0xbd4bb7f6	-0.049735986
60	0x3e2d0aba	0.16898623
61	0xbd9868f1	-0.07441891
62	0xbd47527b	-0.048662644
63	0x3d1f5f2a	0.038909115
64	0xbe1104d9	-0.14162005
65	0xbf4dd0c6	-0.8039669
66	0x3f74682f	0.9547147
67	0x3e4b1da9	0.19835533
68	0x3c41a93a	0.011820132
69	0x3e08c168	0.13355029
70	0xbe1b0087	-0.1513692
71	0xbc726c7f	-0.014796375
72	0x3dc915ea	0.09818633
73	0x3d9d1ed9	0.07671899
74	0x3e44947c	0.19197267
75	0xbe98ea97	-0.29866478
76	0xbe3956a7	-0.18099461
77	0xbd8f8a73	-0.07008829
78	0xbaaf9c5a	-0.0013398037
79	0xbdaccfaf	-0.0843805
80	0x3cb9360e	0.022608783
81	0xbdace9a3	-0.08443
82	0x3d22fd0e	0.039792113
83	0x3dc15e85	0.09441856
84	0xbd736ca3	-0.059429776
85	0xbd34b89e	-0.044121377
86	0xbdff88e7	-0.12477284
87	0xbd9daa69	-0.07698519
88	0x3e64b884	0.22336012
89	0x3e03b821	0.12863208
90	0x3be4e03a	0.0069847377
91	0xbce2a9b1	-0.027668806
92	0xbe17077b	-0.14748947
93	0xbe1048ae	-0.14090225
94	0xbdd0009e	-0.10156368
95	0xbe0a4f60	-0.13506842
96	0x3b74430f	0.0037271415
97	0x3def9ffa	0.11700435
98	0xbe1e007b	-0.15429871
99	0x3e042e58	0.12908304
100	0x3c7cd203	0.01543093
101	0xbe1ac69c	-0.15114826
102	0xbdf8fabd	-0.121571995
103	0xbc714aeb	-0.0147273345
104	0xbd7bb6da	-0.061453678
105	0xbe1e59b6	-0.1546391
106	0x3db2bff2	0.08728017
107	0xbe0b202e	-0.13586494
108	0x3db18d07	0.08669477
109	0xbdbcab7e	-0.09212397
110	0xbcbcc593	-0.02304343
111	0xbd458b5c	-0.048228607
112	0xbdb7cb88	-0.089743674
113	0x3e073c4a	0.13206592
114	0x3d21b623	0.03948034
115	0xbb296ee0	-0.002585344
116	0xbe0fa753	-0.14028673
117	0xbe26f23c	-0.16303343
118	0xbb422548	-0.0029624272
119	0xbe2c1a1e	-0.16806838
120	0xbd5f1f0c	-0.054472968
121	0xbe8ebeea	-0.2788003
122	0xbe37817f	-0.17920493
123	0xbeb22c87	-0.34799597
124	0xbe1a170f	-0.15047859
125	0x3c893eb3	0.01675353
126	0xbc921282	-0.01783109
127	0xbd137a6b	-0.03600542
128	0xbe0e1335	-0.13874514
129	0xbc67cb45	-0.014147584
130	0xbe941ca4	-0.289281
131	0x3e02cef5	0.1277426
132	0xbf9a8371	-1.2071363
133	0x3f02a1dd	0.51028234
134	0xbbdb01b7	-0.006683554
135	0x3c9c5422	0.019083086
136	0x3e1e1e98	0.15441358
137	0x3daf5ccc	0.085626215
138	0x3bfaa1d4	0.007648686
139	0x3e0e9671	0.13924576
140	0xbd3e0a07	-0.04639628
141	0xbe0005e5	-0.12502249
142	0x3d29153c	0.041280016
143	0xbdfc25d5	-0.123119034
144	0x3dc29528	0.095011055
145	0xbcf29989	-0.029614227
146	0xbc97712a	-0.018486578
147	0xbd8a5a24	-0.06755474
148	0xbb8f71aa	-0.0043775635
149	0x3c087205	0.008327966
150	0x3cf3d47c	0.029764406
151	0x3d3ef07b	0.04661606
152	0xbce6c08f	-0.028167991
153	0xbeae84e9	-0.34085777
154	0xbe8e1107	-0.27747366
155	0xbc6759c0	-0.014120519
156	0x3dfcff0a	0.12353332
157	0x3cde33f7	0.027124388
158	0xbd860020	-0.065429926
159	0x3d880f70	0.066435695
160	0xbc35c13f	-0.011093437
161	0x3d081e22	0.033231862
162	0xbe26dd23	-0.16295294
163	0xbc94cdd0	-0.018164545
164	0xbd7399c2	-0.059472807
165	0xbdb7837c	-0.089606255
166	0x3d32f9b8	0.04369518
167	0xbcd110e7	-0.025520755
168	0x3d656495	0.056004126
169	0x3dd29a01	0.1028328
170	0xbe05b8c8	-0.1305877
171	0x3daa541d	0.083168246
172	0xbd4a33e0	-0.049365878
173	0x3d5c5e3b	0.053800803
174	0xbcfb47e0	-0.030673921
175	0x3bd5947b	0.0065179444
176	0x3d261a70	0.040552557
177	0xbe2c1ce8	-0.16807902
178	0x3b9a86fd	0.004715799
179	0xbcab64a1	-0.020922007
180	0x3da87275	0.08224956
181	0x3d09d403	0.033649456
182	0x3e160691	0.14650942
183	0xbe59f5e8	-0.21285212
184	0x3adedc8b	0.0017002983
185	0x3caedd77	0.021345837
186	0xbe00c5c0	-0.12575436
187	0xbd8605d3	-0.0654408
188	0xbc564802	-0.013078691
189	0xbe13b3d5	-0.14424069
190	0xbcf5bd87	-0.0299976
191	0x3e83439f	0.25637528
192	0xbd61b7d0	-0.055106938
193	0x3c628d05	0.013827567
194	0xbdbfc1ae	-0.09363113
195	0xba211ad5	-0.0006145661
196	0xbd40eef7	-0.047102895
197	0xbdc486a2	-0.09595992
198	0x3e864599	0.26224974
199	0xbefc51b6	-0.4928109
200	0xbf20bb7a	-0.62786067
201	0xbc9e1615	-0.019297639
202	0xbd55062e	-0.052007847
203	0xbe5749c5	-0.21024235
204	0x3d8741b5	0.066043295
205	0x3ccda2e1	0.02510208
206	0x3c0dfa24	0.008665595
207	0xbe93ed6a	-0.2889207
208	0xbea1654e	-0.31522602
209	0xbe49d013	-0.1970828
210	0x3e3dae84	0.18523604
211	0xbd154ac7	-0.036448266
212	0xbdc9cc08	-0.09853369
213	0x3e90e71b	0.2830132
214	0xbd2ce6e1	-0.04221237
215	0x3c248693	0.010041851
216	0x3d7a8ab2	0.061167426
217	0xbeae4102	-0.34033972
218	0xbbcb3aff	-0.0062021012
219	0x3d60fce3	0.05492867
220	0xbf141a29	-0.5785242
221	0x3e7347aa	0.23757806
222	0xbc90311c	-0.017601542
223	0x3d1c8b12	0.038218565
224	0xbc9798fc	-0.018505566
225	0xbe0ef27a	-0.13959685
226	0xbdf38d97	-0.118922405
227	0x3e279377	0.16364847
228	0xbbbfa945	-0.005849036
229	0xbe46026f	-0.19336866
230	0xbd3c8986	-0.04602959
231	0xbe5bbc4e	-0.21458551
232	0xbddd64fe	-0.10810278
233	0x3c0182f9	0.0079047615
234	0xbcfeb544	-0.031092294
235	0xbdad1347	-0.084509425
236	0xbd5fb14e	-0.05461245
237	0xbe26b4f0	-0.1627996
238	0xbb8be1e3	-0.004268871
239	0x3d3fd7e7	0.04683676
240	0xbd433618	-0.04765901
241	0xbd57e275	-0.0527062
242	0xbe0555cd	-0.13021012
243	0x3e5f2dc1	0.21794797
244	0xbe36545e	-0.17805621
245	0xbe10ae49	-0.14128985
246	0xbdfc4443	-0.123177074
247	0x3d97f924	0.07420567
248	0x3de6dc2a	0.11272462
249	0xbddb482f	-0.10707127
250	0x3d4aca1c	0.049509153
251	0x3e2c99da	0.16855565
252	0x3e3deef7	0.18548189
253	0xbdfff27b	-0.12497421
254	0x3c923a18	0.017849967
255	0x3e3fd48a	0.18733421

module.fc.0.bias f4 [5]
0	0x3eaa233d	0.3323001
1	0x3c82015c	0.015869789
2	0xbdd8059f	-0.10547947
3	0xbe171f02	-0.14757922
4	0x3caa5506	0.020792495
