Sem 2/Intelligent Robots/Assignments/Lab 2/BehaviourCloning/Checkpoints/adam_3_extra_conv_e1.pt (torch, 674763 bytes, 14 tensors)

module.cnn.0.weight f4 [32, 3, 3, 3]
0	0xbe17d3ef	-0.1482694
1	0xbe646369	-0.22303547
2	0xbeb69969	-0.35663918
3	0xbd9a7fcb	-0.07543906
4	0xbe95ed16	-0.29282445
5	0xbe10bbed	-0.14134188
6	0xbeb5c219	-0.35499647
7	0x3c91dbab	0.017804941
8	0x3e2d136b	0.16901939
9	0x3ceb2e9f	0.028708754
10	0x3e0ccba5	0.13749559
11	0x3de204d3	0.110360764
12	0x3ea7c8f6	0.3277051
13	0xbcc4e04f	-0.02403274
14	0x3d9b33f6	0.0757827
15	0xbc273a1b	-0.0102067245
16	0x3e5578dc	0.20846885
17	0x3d7b8006	0.06140139
18	0xbe3bc117	-0.18335377
19	0xbe708be5	-0.23490866
20	0xbe84375e	-0.25823492
21	0xbd2d1b94	-0.04226263
22	0xbe94b8e0	-0.29047298
23	0xbd035402	-0.032062538
24	0xbe6a1864	-0.22860867
25	0xbd09abd8	-0.03361115
26	0x3cb458de	0.022015031
27	0xbea0a01e	-0.3137216
28	0xbdf896c3	-0.121381305
29	0xbe836f12	-0.25670677
30	0x3da7dcbf	0.08196401
31	0xbeae4765	-0.34038845
32	0x3d9f20c6	0.07769923
33	0xbdf24577	-0.118296556
34	0xbdd759e3	-0.105151914
35	0x3d6f036f	0.058352884
36	0x3e2846c5	0.16433246
37	0x3ea3fb5e	0.32027715
38	0xbd7c93f3	-0.061664533
39	0x3e4c8831	0.19973828
40	0x3d9b51ea	0.07583983
41	0xbe09b1e3	-0.13446765
42	0x3db136c0	0.08653021
43	0x3e2e287c	0.17007631
44	0xbddbab70	-0.107260585
45	0xbe1f6875	-0.15567191
46	0x3d9924c1	0.074777134
47	0xbe765d36	-0.24058995
48	0x3df1281f	0.117752306
49	0xbe81503b	-0.25256523
50	0xbee0718d	-0.43836632
51	0xbe5fefac	-0.21868771
52	0xbe28ca9c	-0.1648354
53	0xbdd66d2d	-0.104700424
54	0x3dfcd4ab	0.12345251
55	0x3e3b4b8c	0.18290538
56	0x3e6afb5f	0.22947453
57	0x3e479294	0.19489509
58	0x3ece6d01	0.40317538
59	0x3e6fd825	0.23422296
60	0x3e53ddb8	0.20690048
61	0x3dca2e80	0.098721504
62	0x3e919441	0.2843342
63	0x3ca28f84	0.019843824
64	0x3ec9cfd5	0.39416376
65	0x3e5619ea	0.20908323
66	0x3e3764be	0.17909524
67	0x3e54c607	0.20778666
68	0x3e4a2d8f	0.19743942
69	0xbdfc1b58	-0.12309903
70	0x3e6f2f54	0.23357898
71	0x3da4366e	0.08018194
72	0xbe56cf71	-0.2097757
73	0xbe905661	-0.28190902
74	0xbf03d6f8	-0.5149989
75	0xbf100838	-0.5626254
76	0xbeb56311	-0.35427144
77	0xbe9b7880	-0.30365372
78	0xbedd889a	-0.4326828
79	0xbe989553	-0.29801425
80	0xbf21081b	-0.6290299
81	0xbec18dc5	-0.37803474
82	0x3cbad01e	0.022804316
83	0x3cfe9741	0.031077983
84	0x3e7f0444	0.24903971
85	0xbdf836df	-0.12119841
86	0xbdf97f92	-0.12182535
87	0xbe3bdc90	-0.18345857
88	0xbe84c220	-0.25929356
89	0xbe34bda2	-0.17650464
90	0x38260428	3.9581355e-05
91	0x3e05e258	0.13074625
92	0x3ed5f4b4	0.41788256
93	0x3f0989a1	0.5372563
94	0xbc409950	-0.011755303
95	0xbe05bab6	-0.13059506
96	0x3e53e1e0	0.20691633
97	0xbe5d3bf0	-0.21604896
98	0xbe8eb4d3	-0.27872333
99	0xbed695eb	-0.41911253
100	0xbe55188d	-0.20810147
101	0xbb493ab4	-0.0030705156
102	0x3e5c32b3	0.21503715
103	0xbe47062e	-0.19435951
104	0xbe96135f	-0.29311654
105	0xbe238236	-0.1596764
106	0xbec16af0	-0.377769
107	0xbed56aa6	-0.4168293
108	0xbc16eb6e	-0.009211404
109	0xbd7ce42d	-0.061741043
110	0x3e8bbf21	0.27294257
111	0x3de3091f	0.11085724
112	0x3dbb40a2	0.09143187
113	0xbe6634e4	-0.22481114
114	0x3dfb22cf	0.122624986
115	0x3db929af	0.09041154
116	0x3e658405	0.22413643
117	0xbd5128cc	-0.051064298
118	0xbcae09ad	-0.021244848
119	0xbd2bd760	-0.041953444
120	0x3cca9db2	0.024733398
121	0xbdab1a1f	-0.083545916
122	0xbe429cd6	-0.1900514
123	0xbd039f59	-0.032134388
124	0xbe19949f	-0.149981
125	0xbdf39d49	-0.11895234
126	0xbdf01fc5	-0.117248096
127	0xbe13c57b	-0.14430802
128	0x3d930da0	0.07180333
129	0xbddee1d5	-0.10882918
130	0x3e1897d9	0.14901675
131	0xbe276930	-0.1634872
132	0xbe210a30	-0.15726542
133	0x3ce09f34	0.027419664
134	0xbd89c687	-0.06727319
135	0x3e1dc1af	0.15405916
136	0xbddeb9f2	-0.1087531
137	0xbd6b07c8	-0.057380468
138	0x3caf27db	0.02138131
139	0xbe32b149	-0.17450441
140	0x3dd49b49	0.10381181
141	0xbdad78e6	-0.08470325
142	0x3dbd5132	0.092440024
143	0xbe0dbdda	-0.13841954
144	0x3e1fc1d1	0.15601279
145	0xbd1633d1	-0.03667051
146	0x3e0ff464	0.14058071
147	0x3bef2d3f	0.007299095
148	0x3d89094b	0.066912256
149	0xbe1c0e64	-0.15239865
150	0x3d265a74	0.040613607
151	0x3ca960ad	0.020675981
152	0x3d26d24d	0.040727902
153	0xbe15cde1	-0.14629318
154	0xbc8d95d5	-0.01728336
155	0xbe2a9838	-0.1665963
156	0xbddf6998	-0.10908812
157	0xbd91b7cb	-0.07115134
158	0x3c24f090	0.01006712
159	0xbdc69fec	-0.096984714
160	0x3e2e0060	0.1699233
161	0x3d327b59	0.043574665
162	0x3dafb779	0.085799165
163	0xbd915536	-0.07096331
164	0x3e4f2a52	0.20230988
165	0xbca39b92	-0.019971643
166	0xbc97f51e	-0.018549498
167	0x3e10fd74	0.14159185
168	0xbd51f88f	-0.051262435
169	0xbdc8405c	-0.097779006
170	0xbd730530	-0.05933112
171	0xbdf3dec1	-0.11907721
172	0xbdc12613	-0.0943109
173	0xbe688bd3	-0.22709589
174	0xbe80185b	-0.25018582
175	0xbe6fc61a	-0.23415413
176	0xbeb1f9e9	-0.3476098
177	0xbe2ad785	-0.16683777
178	0xbdab5f3e	-0.083677754
179	0xbeacee96	-0.33775777
180	0x3e86f956	0.26362103
181	0x3e5a23cf	0.21302722
182	0x3e1b73ff	0.15180968
183	0x3dad5b72	0.084647074
184	0x3e49ea48	0.19718277
185	0x3e0b3180	0.13593102
186	0x3e147c3d	0.14500518
187	0x3d6b092f	0.057381805
188	0x3d93b29f	0.07211804
189	0x3e11641f	0.1419835
190	0xbdca2ab0	-0.09871423
191	0xbd27df87	-0.040984657
192	0x3de736c7	0.11289745
193	0x3e3e0113	0.18555097
194	0x3e08b1ba	0.13349047
195	0xbb171695	-0.0023054231
196	0xbd940cb7	-0.07228988
197	0xbd7ec024	-0.06219496
198	0x3e994d08	0.29941583
199	0x3e0e2608	0.13881695
200	0xbd8df4ec	-0.06931481
201	0x3d5fbcb6	0.05462333
202	0x3e90033e	0.28127474
203	0x3e82263c	0.25419796
204	0x3ddb89e3	0.10719659
205	0xbdefd166	-0.117098615
206	0xbdcec767	-0.10096627
207	0xbeb62b02	-0.35579687
208	0xbeb3045e	-0.3496427
209	0xbe77aba6	-0.24186572
210	0xbe27ca0b	-0.16385667
211	0xbdd2f822	-0.10301234
212	0xbe9cec44	-0.30649006
213	0xbea7c664	-0.32768548
214	0xbe9d0a87	-0.30672094
215	0xbddce9ea	-0.10786803
216	0x3d3ded6b	0.046368998
217	0x3e95cb62	0.2925673
218	0x3eab661c	0.3347634
219	0xbe8bccdd	-0.27304736
220	0xbe6af8c8	-0.22946465
221	0xbd60087a	-0.054695584
222	0xbee58350	-0.44826746
223	0xbee295fc	-0.44255054
224	0xbed7b6ce	-0.42131656
225	0x3f0322d6	0.5122503
226	0x3f51130d	0.81669694
227	0x3f174e0b	0.5910346
228	0x3c209760	0.009801716
229	0x3c0410c8	0.008060642
230	0xbdc2bac7	-0.09508281
231	0xbdde1ace	-0.10844956
232	0xbea3eebc	-0.32018077
233	0xbe06fd3a	-0.13182536
234	0x3e8743f2	0.26419026
235	0x3f0295c2	0.5100976
236	0x3e867a54	0.26265204
237	0xbdd6920c	-0.10477075
238	0xbdfebc57	-0.12438267
239	0xbe98730e	-0.2977528
240	0xbe79c793	-0.24392538
241	0xbf1c7d46	-0.6112865
242	0xbed16574	-0.40897715
243	0xbeaa7a19	-0.33296278
244	0xbe276257	-0.16346107
245	0x3d6563a8	0.056003243
246	0xbec509b0	-0.38483953
247	0xbe0206a1	-0.12697841
248	0xbd5b3aa0	-0.053522706
249	0xbd235ee7	-0.039885428
250	0xbea3b64b	-0.31975016
251	0xbe7e46ce	-0.24831697
252	0x3d008da7	0.03138509
253	0x3d841c17	0.0645067
254	0x3e9e4cc1	0.30917934
255	0xbde833be	-0.11337994

module.cnn.0.bias f4 [32]
0	0xbf4b4c9c	-0.7941377
1	0xbf3e7e27	-0.74411243
2	0xbec56a4f	-0.3855767
3	0xbf1f8eab	-0.6232707
4	0xbf5e5a94	-0.8685696
5	0xbf465104	-0.7746737
6	0xbe49950f	-0.19685768
7	0xbe1f0db7	-0.15532576
8	0xbeed5827	-0.46356317
9	0xbf4cc432	-0.7998687
10	0xbf4bd452	-0.7962085
11	0xbf417327	-0.75566334
12	0xbf09e6af	-0.5386762
13	0x3ee4a394	0.4465605
14	0xbf326bb0	-0.6969557
15	0xbf555c6c	-0.8334415
16	0xbf0de4fe	-0.5542754
17	0xbeb42b88	-0.35189462
18	0x3df77638	0.12083095
19	0xbf15c967	-0.5851044
20	0xbf08e5da	-0.53475726
21	0xbea91512	-0.33023888
22	0xbed52964	-0.4163314
23	0xbf500163	-0.81252116
24	0xbf6985b6	-0.9121965
25	0xbef587c3	-0.4795514
26	0xbf36294a	-0.7115675
27	0xbf658810	-0.8966074
28	0xbf436582	-0.76326764
29	0xbf562a59	-0.8365837
30	0x3e18a7b6	0.14907727
31	0xbf3eef17	-0.7458357

module.cnn.2.weight f4 [64, 32, 3, 3]
0	0xbea1665a	-0.315234
1	0xbde5da6f	-0.112233035
2	0xbdfba3c5	-0.12287096
3	0xbe82fed9	-0.25585058
4	0xbdf420bf	-0.11920308
5	0xbe28dbfa	-0.16490164
6	0xbd96b1f4	-0.073581606
7	0xbe1a3126	-0.15057811
8	0xbd1ff777	-0.03905436
9	0xbe547bc4	-0.20750338
10	0xbe3129ed	-0.1730115
11	0xbe19aeeb	-0.15008132
12	0xbe4aa71b	-0.19790308
13	0xbe2c18a2	-0.16806272
14	0xbe56ec45	-0.20988567
15	0xbdf9939a	-0.12186356
16	0xbda0e9fa	-0.078571275
17	0xbceb6cbe	-0.028738376
18	0xbe323567	-0.17403184
19	0xbe6c7320	-0.23090792
20	0xbe3bba5c	-0.18332809
21	0xbde03a1f	-0.10948586
22	0xbe6060a5	-0.21911867
23	0xbdbd81c1	-0.09253264
24	0xbea3f9d1	-0.32026532
25	0xbe658d38	-0.22417152
26	0xbe943620	-0.28947544
27	0xbe83942d	-0.25698987
28	0xbe17e7ef	-0.1483457
29	0xbe073b1b	-0.1320614
30	0xbe3f97d4	-0.18710262
31	0xbcb21092	-0.021736417
32	0xbe41989d	-0.18905874
33	0xbe2e60eb	-0.17029159
34	0xbd395ea0	-0.045256257
35	0xbe044104	-0.12915426
36	0x3daadd8c	0.08343038
37	0x3e0695c4	0.13143069
38	0x3da0f068	0.07858354
39	0xbde646a6	-0.11243944
40	0xbe642ea7	-0.22283421
41	0x3e03eae8	0.12882578
42	0xbe5c58af	-0.21518205
43	0xbe85cb83	-0.2613183
44	0xbe43fe72	-0.19140032
45	0xbd52be13	-0.0514508
46	0xbd81b9a5	-0.06334237
47	0xbd14ed0c	-0.036358878
48	0xbd96da3e	-0.07365845
49	0xbcd4d973	-0.025982594
50	0xbe643b44	-0.22288233
51	0x3dddc93b	0.10829397
52	0xbde97982	-0.11400129
53	0xbc82779d	-0.015926177
54	0xbe39212d	-0.18079062
55	0xbe0c8a2a	-0.1372458
56	0xbda4e2bf	-0.08051061
57	0xbd26afaf	-0.04069489
58	0xbd04aa6b	-0.032389086
59	0xbd7592a3	-0.059954297
60	0xbe89a015	-0.26879945
61	0xbdfb6047	-0.12274223
62	0xbd634301	-0.05548382
63	0xbe569602	-0.20955661
64	0xbe55c940	-0.20877552
65	0xbe229198	-0.15875852
66	0xbe3721ff	-0.17884062
67	0xbe0cc74e	-0.13747904
68	0xbdbcc6f8	-0.09217638
69	0xbe4353f5	-0.19074996
70	0xbe458b7c	-0.1929149
71	0xbe48db5d	-0.1961493
72	0xbed0c29a	-0.4077347
73	0xbe5542f1	-0.20826317
74	0x3df2a4e4	0.11847857
75	0x3d808765	0.062758245
76	0xbe2292bb	-0.15876286
77	0xbe318083	-0.1733418
78	0xbd272947	-0.04081085
79	0xbbb3eaf2	-0.005490654
80	0x3dbbf0cf	0.0917679
81	0xbd236a28	-0.03989616
82	0xbe52e75d	-0.2059607
83	0xbdf68e74	-0.120388895
84	0xbd3925f6	-0.045202218
85	0xbe8c4904	-0.27399457
86	0xbe3d427b	-0.18482392
87	0xbe31c19b	-0.17359011
88	0xbe97810c	-0.29590642
89	0xbee32c75	-0.44369856
90	0xbe7e68c0	-0.24844646
91	0xbddb96f3	-0.10722151
92	0xbe478ab9	-0.19486512
93	0xbe2dd19c	-0.16974491
94	0xbe032dd0	-0.12810445
95	0xbde71198	-0.112826526
96	0xbe3fab9b	-0.18717806
97	0x3d0e4920	0.034737706
98	0xbdf8eac3	-0.12154152
99	0xbe964772	-0.29351383
100	0xbe35052c	-0.17677754
101	0x3d284d84	0.04108955
102	0xbea72297	-0.32643577
103	0xbde20c65	-0.1103752
104	0xbdaa33fd	-0.08310697
105	0xbd870bc0	-0.06594038
106	0x3e14072d	0.14455862
107	0x3dae5bc8	0.085136
108	0xbe6b2c74	-0.22966176
109	0xbea5cbf8	-0.32382178
110	0xbe1657d6	-0.14681944
111	0xbe564c13	-0.20927458
112	0xbe1b9b11	-0.15195872
113	0xbebc794e	-0.36811298
114	0xbd301925	-0.04299273
115	0xbd89f773	-0.0673665
116	0xbd59a24e	-0.0531333
117	0xbc898a1e	-0.016789492
118	0xbd73353d	-0.059376944
119	0xbe1e9a82	-0.15488628
120	0x3e65ec48	0.22453415
121	0xbc508f0a	-0.012729416
122	0xbe244462	-0.16041711
123	0x3e97823f	0.29591557
124	0xbed0b238	-0.4076097
125	0xbe3c2f67	-0.18377458
126	0xbe9cd11c	-0.30628288
127	0xbd2c4a58	-0.042063087
128	0x3ce3a0bd	0.027786607
129	0x3d5fabec	0.054607317
130	0xbdc22e2f	-0.09481465
131	0xbe1138ec	-0.1418187
132	0xbe07fdb9	-0.13280381
133	0x3de565e8	0.11201078
134	0x3d8f438e	0.06995307
135	0x3ddcd01b	0.107818805
136	0xbe2752fc	-0.1634025
137	0xbe76189f	-0.2403283
138	0xbe273b74	-0.16331273
139	0xbe7314ee	-0.23738453
140	0xbda3cf90	-0.07998574
141	0xbd05f665	-0.032705683
142	0xbd549664	-0.051901236
143	0xbdf9f5bb	-0.122050725
144	0xbe22ed97	-0.15910946
145	0xbdfd2d33	-0.12362137
146	0xbe1e56d1	-0.15462805
147	0xbe47793b	-0.1947984
148	0xbd8e8a06	-0.0695992
149	0xbd8f0146	-0.06982665
150	0xbdebdb92	-0.11516489
151	0xbd93a41a	-0.07209034
152	0xbdeebbf3	-0.11656942
153	0xbec16770	-0.3777423
154	0xbd98f0a2	-0.07467772
155	0x3d9ecda3	0.07754066
156	0xbd34c8c9	-0.044136796
157	0xbd3790ab	-0.0448157
158	0xbe310ca0	-0.17289972
159	0x3c8632ef	0.016381709
160	0xbdd03522	-0.10166384
161	0xbe50fdb1	-0.20409276
162	0xbe58134f	-0.21101116
163	0xbe4dcc5a	-0.20097485
164	0xbe4afe45	-0.19823559
165	0x3e0d399e	0.1379151
166	0xbd3ca5a5	-0.04605641
167	0xbdc01b11	-0.093801625
168	0xbe7e3067	-0.24823152
169	0xbe3271d5	-0.17426236
170	0xbea536e4	-0.3226844
171	0xbdead9d4	-0.11467329
172	0xbe99acff	-0.30014798
173	0x3c4de382	0.012566449
174	0xbeabf716	-0.3358695
175	0xbe555043	-0.20831399
176	0xbe8c3e5b	-0.27391323
177	0xbd6ab32b	-0.057299774
178	0xbd99594f	-0.074877374
179	0xbca93ccb	-0.020658871
180	0xbe905907	-0.28192922
181	0xbe2213c7	-0.15827857
182	0xbdaa3494	-0.0831081
183	0xbd898399	-0.067145534
184	0xbe0777ea	-0.13229337
185	0xbdd1cb3b	-0.10243841
186	0xbe7e859f	-0.2485566
187	0xbe24e536	-0.16103062
188	0xbdaa10de	-0.083039984
189	0x3c04cf90	0.008106127
190	0x3aaf6fcc	0.0013384758
191	0x3ca2ba21	0.019864144
192	0x3a27c456	0.0006399801
193	0xbdb1fc3c	-0.08690688
194	0xbdbbaea8	-0.091641724
195	0xbdc06562	-0.09394337
196	0xbd4ffd59	-0.05077872
197	0xbd12c21e	-0.035829656
198	0x3d13d256	0.036089264
199	0xbe7b31f3	-0.24530773
200	0x3c21fde6	0.009887194
201	0x3de5fa66	0.112294
202	0x3e746ab6	0.23868832
203	0x3e1a6b8c	0.15080088
204	0xbe121d16	-0.14268908
205	0x3ca7801c	0.02044683
206	0x3cd2d7b9	0.02573763
207	0xbe3f2546	-0.18666562
208	0xbe5ea196	-0.21741328
209	0xbdc74d95	-0.097315945
210	0xbe6e2226	-0.23255214
211	0xbdd1a5a3	-0.10236671
212	0xbe28c890	-0.16482759
213	0xbe309e76	-0.17247948
214	0xbe3c4f73	-0.18389682
215	0xbe466db9	-0.19377793
216	0x3e10363c	0.14083189
217	0xbe511e59	-0.20421733
218	0xbdd5b352	-0.10434593
219	0xbe336d30	-0.1752212
220	0x3cf4a525	0.029863903
221	0xbe16fdff	-0.1474533
222	0xbdc478a9	-0.095933266
223	0x3e2c8e93	0.16851263
224	0xbed7e9a4	-0.4217044
225	0xbea6f27f	-0.32606885
226	0xbd607ca3	-0.054806363
227	0xbeb8707b	-0.36023316
228	0xb97c55f7	-0.00024064617
229	0xbed9d487	-0.42544958
230	0xbce95c4d	-0.028486395
231	0x3e53fd18	0.20702016
232	0xbe07419a	-0.13208619
233	0xbcb1dea7	-0.021712614
234	0xbe22f0f5	-0.1591223
235	0x3ca4c3ab	0.020112833
236	0x3d5351e6	0.051591776
237	0xbddc2912	-0.10750021
238	0xbbacfb05	-0.0052789473
239	0xbe3ec3dd	-0.18629403
240	0xbdb7b5cf	-0.08970224
241	0x3e1fec81	0.15617563
242	0x3d4f6bd9	0.05063996
243	0xbe0e862b	-0.13918369
244	0xbe22efef	-0.1591184
245	0xbdba8174	-0.091067225
246	0xbddcbd14	-0.10778251
247	0xbe8a715e	-0.27039617
248	0xbe3a3326	-0.18183574
249	0xbe77bf9d	-0.24194188
250	0xbe95638e	-0.29177517
251	0xbe968ea2	-0.29405695
252	0xbdcf0c27	-0.1010974
253	0xbdc2ffaa	-0.0952142
254	0xbe553aa5	-0.20823152
255	0xbd6b1557	-0.057393398

module.cnn.2.bias f4 [64]
0	0xbe6394e2	-0.22224763
1	0xbe18c821	-0.14920093
2	0xbe440ee1	-0.19146301
3	0xbd4df976	-0.050286733
4	0xbe2a55dc	-0.16634315
5	0xbde9107c	-0.11380097
6	0xbd8754c8	-0.066079676
7	0xbd8caafc	-0.0686855
8	0xbd194903	-0.037423145
9	0x3f5aaa11	0.8541575
10	0xbe785b33	-0.2425354
11	0xbd0925e7	-0.033483412
12	0xbcd9a5e6	-0.026568364
13	0xbd99ad62	-0.07503773
14	0xbd87f944	-0.066393405
15	0xbdddc9ad	-0.10829482
16	0xbe8f4ed0	-0.27989817
17	0xbf0c0a7d	-0.54703504
18	0xbd532433	-0.051548194
19	0xbe290e07	-0.16509257
20	0xbe4b73cd	-0.19868393
21	0xbeb103a6	-0.34573096
22	0xbc8a899c	-0.01691132
23	0xbd992fcd	-0.074798204
24	0xbe1e40d8	-0.15454423
25	0xbd62bdaa	-0.05535666
26	0xbd86dcdd	-0.06585095
27	0xbd8b3c05	-0.06798557
28	0xbd29c9d0	-0.04145223
29	0xbd0f1c6e	-0.034939222
30	0xbd85a3f7	-0.065254144
31	0xbdd3274f	-0.10310232
32	0xbd8de769	-0.069289036
33	0xbd60ab26	-0.05485072
34	0xbd8cbd2a	-0.06872018
35	0xbdc92250	-0.09820998
36	0xbe02cfc6	-0.12774572
37	0xbd839912	-0.0642568
38	0xbb8aff85	-0.004241886
39	0xbd9cafba	-0.07650705
40	0xbddcdfbc	-0.107848614
41	0xbe102479	-0.14076413
42	0xbe51394c	-0.20432013
43	0xbe88ce6a	-0.2671998
44	0xbe6aaeb0	-0.229182
45	0xbcbdc7c5	-0.023166547
46	0xbd82142e	-0.06351505
47	0xbc8b07ce	-0.016971495
48	0xbe6e62b7	-0.23279844
49	0xbe1090b2	-0.14117697
50	0xbcf6c07c	-0.03012108
51	0xbd81d848	-0.063400805
52	0xbe26eaed	-0.16300555
53	0xbdb1cab4	-0.08681241
54	0xbe3c190a	-0.18368927
55	0xbdb32465	-0.08747176
56	0xbe98bde6	-0.2983238
57	0xbde549dd	-0.11195729
58	0xbeaf22c3	-0.3420621
59	0xbcd3d22a	-0.02585705
60	0xbd4cc9e7	-0.049997237
61	0xbda3ef95	-0.08004681
62	0xbd3c553c	-0.045979723
63	0xbd793ea1	-0.060850743

module.cnn.4.weight f4 [64, 64, 3, 3]
0	0xbd2843d2	-0.041080303
1	0x3e29d76e	0.16586086
2	0xbe3a9b48	-0.18223298
3	0xbe340700	-0.17580795
4	0xbdf42dd8	-0.119228065
5	0x3bf5878f	0.0074929665
6	0x39a3f97f	0.00031275672
7	0x3cbf8f5d	0.02338379
8	0x3e3b21fe	0.18274686
9	0xbdea5d64	-0.11443594
10	0xbe6a8de3	-0.22905688
11	0xbc393543	-0.0113042025
12	0xbe8eb82f	-0.27874896
13	0xbe5809b2	-0.21097448
14	0x3e425d28	0.18980849
15	0xbe2c3909	-0.16818632
16	0x3d6f4738	0.05841753
17	0x3daab38a	0.083350256
18	0x3dccb919	0.09996242
19	0xbe86960d	-0.26286355
20	0xbe4ac446	-0.19801435
21	0x3df25571	0.11832703
22	0x3da03561	0.07822681
23	0xbd175a45	-0.036951322
24	0x3c4386c0	0.011933982
25	0xbd8933d3	-0.06699338
26	0xbdc9c533	-0.09852066
27	0xbca74ea5	-0.020423243
28	0xbce24a36	-0.027623277
29	0x3d203cdf	0.03912055
30	0xbc1b8637	-0.0094924485
31	0x3d1a780a	0.037712134
32	0xbc19617a	-0.009361619
33	0x3d5e7d86	0.054318927
34	0x3ca1d643	0.019755488
35	0x3d2f6c91	0.042828146
36	0xbd6461d0	-0.055757344
37	0xbc4cbb76	-0.012495866
38	0x3d5d0b89	0.05396608
39	0xbd16c525	-0.036809105
40	0xbd53d63c	-0.05171798
41	0x3d1220b5	0.035675723
42	0x3c2b37fc	0.010450359
43	0x3924fa47	0.00015733494
44	0xbc03fb8d	-0.00805558
45	0xbd6ea04e	-0.058258347
46	0x3bedeca1	0.0072608744
47	0xbd676f4a	-0.056502618
48	0xbd6aa8ea	-0.057289995
49	0x3c1efa04	0.009703163
50	0xbd03ca59	-0.032175396
51	0x3bae96de	0.0053280434
52	0x3b0c6a9f	0.0021425856
53	0xbcbd3d33	-0.023100471
54	0xbd045488	-0.032307178
55	0x3d2748d6	0.040840946
56	0x3ccf16d2	0.025279436
57	0xbc4719cf	-0.012152149
58	0x3c68ee1d	0.014216927
59	0x3b9f4bbb	0.0048613227
60	0xbbf6b491	-0.0075288494
61	0xbc201208	-0.009769924
62	0xbc8431a8	-0.01613696
63	0xbd50ef2a	-0.051009335
64	0xbb9b77a0	-0.004744485
65	0xbcbcb418	-0.023035094
66	0xbd161081	-0.036636833
67	0xbd1f8c3a	-0.03895209
68	0xbccd7e30	-0.025084585
69	0x3be3a3e4	0.0069470275
70	0xbb914482	-0.0044332156
71	0xbbcc9fe6	-0.0062446473
72	0xbe69a816	-0.22818026
73	0xbccb503d	-0.024818534
74	0x3e0f6cd3	0.14006357
75	0x3dde6292	0.108586445
76	0x3c15bc1f	0.00913909
77	0x3cce634a	0.02519383
78	0xbd286439	-0.041111205
79	0x3e6e39e0	0.23264265
80	0x3e089079	0.13336362
81	0xbf0cc96a	-0.54994833
82	0xbdecb167	-0.11557274
83	0xbf2e0644	-0.6797831
84	0xbef8f064	-0.48620903
85	0xbed85ea1	-0.42259696
86	0xbed03a48	-0.40669465
87	0xbed90995	-0.42390123
88	0x3cc2e5e4	0.023791261
89	0xbdc643be	-0.096808895
90	0xbcecdaff	-0.02891302
91	0xbd338e27	-0.04383674
92	0xbd3ac059	-0.045593593
93	0xbd8d748f	-0.069069974
94	0xbd315e93	-0.043303084
95	0x3ce54b07	0.027989877
96	0x3c80c678	0.015719637
97	0x3bd0852b	0.006363531
98	0xbd161a90	-0.036646426
99	0xbd24a3a7	-0.040195134
100	0xbc0394e7	-0.008031107
101	0xbcdd86af	-0.027041761
102	0xbc48cc81	-0.012255789
103	0xbcbebb4f	-0.023282675
104	0xbd32e7b4	-0.043678
105	0xbccd3502	-0.02504969
106	0x3a273798	0.00063788285
107	0xbd006141	-0.03134275
108	0xbcba665c	-0.022753887
109	0x3c818625	0.015811035
110	0xbc13b2ef	-0.009014829
111	0xbc7ec0d7	-0.015548906
112	0x3c6cb72c	0.014447968
113	0xbc5abcea	-0.013350705
114	0x3d2ca6aa	0.04215113
115	0xbc9f8647	-0.019473208
116	0xbcb26949	-0.02177872
117	0xbd486d07	-0.0489321
118	0xbcb84a19	-0.02249627
119	0xbcc36917	-0.023853822
120	0xbd279f1a	-0.040923215
121	0xbd993c9c	-0.074822634
122	0x3c2e5434	0.010640193
123	0x3c5d16ba	0.013494188
124	0xbcb76a79	-0.022389637
125	0x3c2c3066	0.010509586
126	0xbd38d119	-0.045121286
127	0xbbed6ad8	-0.007245403
128	0x3c48c3ee	0.0122537445
129	0x3c8e43fb	0.0173664
130	0xbdd95d4b	-0.10613497
131	0x3bb3654f	0.0054747234
132	0xbc6dd2d7	-0.0145156
133	0xbd278480	-0.040897846
134	0xbbff71b6	-0.007795538
135	0xbc8e507f	-0.017372368
136	0x3a40e451	0.00073582405
137	0x3ca03ff4	0.019561745
138	0x3d80fcc8	0.06298214
139	0xbd2d0422	-0.04224027
140	0xbc552972	-0.01301037
141	0xbc9a8398	-0.018861577
142	0x3bd85bc5	0.0066027367
143	0xbcb61b22	-0.022229735
144	0x3e287f4c	0.1645481
145	0x3ec1e91c	0.3787316
146	0x3e7e7d07	0.24852382
147	0xbe6a5a77	-0.22886072
148	0xbe9a629e	-0.30153364
149	0xbd77d4b6	-0.06050559
150	0xbe55b35b	-0.208692
151	0xbd9c7eda	-0.076413825
152	0x3ca489fc	0.020085327
153	0xbe32fccb	-0.17479245
154	0xbe3138cb	-0.17306821
155	0xbe484bfb	-0.19560234
156	0xbcdabb74	-0.026700713
157	0xbe2d1179	-0.16901197
158	0x3d4c47ce	0.049873166
159	0xbe2a831d	-0.16651578
160	0x3e1428e2	0.1446872
161	0xbe6135ed	-0.21993227
162	0xbe6016f7	-0.2188376
163	0x3e347752	0.17623642
164	0xbe061fa4	-0.13098007
165	0xbb0b191e	-0.0021224688
166	0x3e3466ac	0.17617291
167	0x3d675255	0.056475002
168	0xbceed292	-0.029153142
169	0x3e9075d1	0.28214887
170	0xbcb6f62b	-0.022334179
171	0x3deaba65	0.11461333
172	0xbcf4e9ed	-0.0298967
173	0x3dd2b9a0	0.102893114
174	0x3df04569	0.11731989
175	0x3c264927	0.010149277
176	0x3dd0362b	0.10166582
177	0x3df6f68e	0.12058745
178	0x3e00db8c	0.1258375
179	0x3e618934	0.22024995
180	0x3b23f46e	0.0025017518
181	0xbb41c6bc	-0.0029567918
182	0xbd3ddb35	-0.04635163
183	0xbcfa4e90	-0.03055504
184	0xbc47238f	-0.012154474
185	0xbcf72c76	-0.030172568
186	0xbd2eb26d	-0.04265063
187	0xbd1a8fc5	-0.037734766
188	0x3d2b122e	0.041765384
189	0xbe6ce4d0	-0.2313416
190	0x3defd9f5	0.11711494
191	0xbe04f239	-0.12983026
192	0xbec64ec0	-0.38731956
193	0x3eb71395	0.35757127
194	0x3e060a15	0.13089783
195	0x3ee13991	0.43989232
196	0x3e4e23c5	0.20130832
197	0x3dac2af3	0.084066294
198	0xbc6d3571	-0.014478073
199	0xbd13108e	-0.03590446
200	0x39c38841	0.00037294815
201	0xbd2f8e6f	-0.042860445
202	0xbd2ae861	-0.04172552
203	0xbaa18bbe	-0.0012324972
204	0xbd162fea	-0.03666679
205	0x3a92e14a	0.0011206057
206	0xbd386ac6	-0.045023702
207	0xbc3ffa5e	-0.011717407
208	0x3c7733ad	0.015088004
209	0xba5f57d5	-0.0008519863
210	0xbd1c7dc5	-0.03820588
211	0xbc1faff0	-0.009746537
212	0xbc83cf2e	-0.016090002
213	0xbcc1825c	-0.02362173
214	0xbd4fdf11	-0.050749842
215	0xbd1d4d24	-0.038403645
216	0xbd346a11	-0.044046465
217	0xba7ab0bb	-0.0009563078
218	0xbcd5ff40	-0.02612269
219	0xbd941fad	-0.07232604
220	0xbd5c9159	-0.05384955
221	0x39b9124d	0.00035299585
222	0xbd246827	-0.04013839
223	0xbd6ced39	-0.05784342
224	0xbc69338a	-0.014233479
225	0xbd6867d2	-0.056739636
226	0xbc7d7062	-0.015468689
227	0xbc4e3174	-0.012585033
228	0xbbbe1fc0	-0.0058021247
229	0xbcf6adf0	-0.030112237
230	0xbd2494d8	-0.04018101
231	0xbd69b0c5	-0.057053346
232	0xbcbe6097	-0.023239417
233	0xbcd218cc	-0.02564659
234	0x3c60450a	0.013688335
235	0xbd2e58df	-0.042565223
236	0xbd6fc216	-0.058534704
237	0xb8a8df08	-8.052407e-05
238	0xbcbee15d	-0.023300821
239	0xbad9eca9	-0.0016626316
240	0xbc262c3b	-0.010142381
241	0xbb155cc0	-0.002279088
242	0x3c3204b5	0.01086538
243	0xbcf9faf6	-0.030515175
244	0xbcf9d159	-0.030495333
245	0xbcdbcfdf	-0.02683252
246	0xbd28b6fc	-0.041190132
247	0xbd3ef2ec	-0.046618387
248	0x3c7813be	0.015141426
249	0xbb711ad8	-0.0036789682
250	0xbce4640c	-0.027879737
251	0x3c17b7f5	0.009260167
252	0xbad2cb69	-0.001608235
253	0xb9c9d944	-0.00038499583
254	0x3ba3ece6	0.0050026057
255	0x3d1a8031	0.03771991

module.cnn.4.bias f4 [64]
0	0xbee4e9ae	-0.44709533
1	0xbeeb3367	-0.45937654
2	0xbedfe354	-0.43728125
3	0x3e6e17ae	0.2325122
4	0xbe1bfe28	-0.15233672
5	0x3f121070	0.5705633
6	0xbd145782	-0.036216266
7	0xbe2b719c	-0.16742557
8	0xbd8750f0	-0.066072345
9	0xbe2f1149	-0.17096438
10	0xbbc31223	-0.00595309
11	0xbde6f0f3	-0.11276426
12	0xbe44b967	-0.1921135
13	0xbf299794	-0.66246915
14	0xbdb7d6e2	-0.089765325
15	0xbdfa47b8	-0.122207105
16	0xbec8847b	-0.39163575
17	0xbf3226d8	-0.6959052
18	0xbe57af2d	-0.21062918
19	0x3e0822c8	0.13294518
20	0xbed7a559	-0.42118338
21	0xbbdface7	-0.0068260315
22	0xbe81e90a	-0.25373107
23	0xbe2b1898	-0.167086
24	0xbdc82e53	-0.09774461
25	0xbef9b609	-0.48771694
26	0xbe5c479b	-0.2151169
27	0xbd9c675d	-0.076369025
28	0xbf236c1f	-0.63836855
29	0xbe64d3d8	-0.22346437
30	0xbd35dabe	-0.044398062
31	0xbea696f0	-0.3253703
32	0xbea023c0	-0.31277275
33	0xbee9595e	-0.45575994
34	0xbe7e4f83	-0.24835019
35	0x3cfe922d	0.031075561
36	0xbe0a9a07	-0.1353532
37	0xbe0ce3bb	-0.13758747
38	0xbe835196	-0.25648183
39	0xbf232a94	-0.63736844
40	0xbf032490	-0.51227665
41	0xbdad2fc4	-0.08456376
42	0xbe918396	-0.28420705
43	0xbe940a04	-0.2891389
44	0xbe8c2a78	-0.2737615
45	0xbec3baf0	-0.3822856
46	0xbecee523	-0.40409192
47	0xbf2adf7e	-0.6674727
48	0xbec637ba	-0.3871439
49	0xbb99c488	-0.004692618
50	0xbe7b11a4	-0.24518448
51	0xbee9f9ce	-0.45698398
52	0xbebdf783	-0.371029
53	0xbe9be9e1	-0.30451873
54	0xbe2a64aa	-0.16639963
55	0xbec68a18	-0.38777232
56	0xbeab6025	-0.3347179
57	0x3ecc2ae0	0.3987646
58	0x3e09dfc4	0.13464266
59	0xbe101dd8	-0.14073884
60	0xbc9c0016	-0.01904301
61	0xbeb1620c	-0.34645116
62	0xbf012e6f	-0.5046148
63	0xbf0f6006	-0.56005895

module.cnn.6.weight f4 [64, 64, 3, 3]
0	0x3ccf5985	0.02531124
1	0xbc862c64	-0.016378589
2	0x3a148f39	0.0005667094
3	0x3c3b5dad	0.011435908
4	0xbc8c0314	-0.017091312
5	0x3c7a5dad	0.015281123
6	0x3c9c5447	0.019083155
7	0x3c5841c9	0.013199278
8	0xbaf7c177	-0.0018902262
9	0x3ae786d1	0.001766408
10	0x3ccaa616	0.0247374
11	0xbd11bcaa	-0.035580315
12	0x3ce03e76	0.027373534
13	0xbd51885a	-0.051155426
14	0xbcd52f20	-0.026023448
15	0xbcb378c9	-0.02190818
16	0xbc144a41	-0.009050907
17	0x3c30c30d	0.010788691
18	0x3cbe79e7	0.023251487
19	0x3cc08f8d	0.02350595
20	0x3b46b49e	0.0030320059
21	0x3c89da85	0.016827831
22	0xbb74ac65	-0.00373342
23	0xbd69facc	-0.057123944
24	0xbd11030c	-0.035403296
25	0xbd3868bc	-0.045021757
26	0xbd01e429	-0.03171173
27	0x3afc1725	0.0019232972
28	0xbcc87fae	-0.024474945
29	0xbd008ab8	-0.031382293
30	0xbddb290b	-0.10701188
31	0x3c07709f	0.008266597
32	0xbdd6639e	-0.10468219
33	0xbc3510d5	-0.011051376
34	0x3cbcfb1b	0.023068955
35	0xbe10d464	-0.1414352
36	0xbd05177e	-0.032493107
37	0xbd779d80	-0.060452938
38	0x3ae4b21b	0.0017448099
39	0x3c05e3c7	0.008171982
40	0xbb3083ca	-0.002693402
41	0x3be763b4	0.007061446
42	0xbc8f242d	-0.017473305
43	0xbc8c9d83	-0.017164951
44	0xbd41f14d	-0.047349263
45	0xbcad488e	-0.02115276
46	0x3c6d4728	0.014482297
47	0xbcc2b379	-0.02376722
48	0xbc59f2bb	-0.0133025
49	0x3cb45df6	0.02201746
50	0xbe0473a1	-0.12934734
51	0x3c48f6b4	0.01226585
52	0x3a3d85cc	0.0007229715
53	0xbe0547aa	-0.13015619
54	0x3c1d306a	0.009594062
55	0xbca293b4	-0.019845821
56	0xbcb5a7c9	-0.022174733
57	0x3cbadcf7	0.022810442
58	0xbcb90a50	-0.022587925
59	0xbca5b0f7	-0.020225985
60	0x3c15252a	0.009103099
61	0xbd50800a	-0.050903358
62	0xbc7fe499	-0.015618467
63	0x3ca6ed1e	0.020376738
64	0x3d095415	0.033527452
65	0xbd0080f6	-0.031372987
66	0x3c26d95b	0.0101836575
67	0xbe00d86e	-0.12582561
68	0xbd8571f2	-0.06515874
69	0x3d0f1de4	0.034940615
70	0xbbe2e737	-0.0069245356
71	0xbe0b1af3	-0.13584499
72	0xbca58a83	-0.02020765
73	0xbc9fc127	-0.019501282
74	0x3b5edad6	0.0034004948
75	0xbbd3dc3b	-0.0064654625
76	0xbaa8d907	-0.0012882062
77	0x3c3f536a	0.011677602
78	0xbcc4413c	-0.023956887
79	0xbd39772c	-0.045279667
80	0xbb06dfe7	-0.0020580234
81	0x3caaf003	0.0208664
82	0xbcb7cf15	-0.022437612
83	0xbb719f47	-0.0036868618
84	0x3cae9e64	0.02131576
85	0xbc5b70dc	-0.013393607
86	0xbcdc02b0	-0.02685675
87	0x3bb68c42	0.0055709193
88	0xbba6f217	-0.0050947773
89	0xbccf6618	-0.025317237
90	0xbd077bde	-0.033077113
91	0xbd5b311e	-0.05351364
92	0xbd11a0fd	-0.03555392
93	0xbc916655	-0.017748991
94	0xbab966b8	-0.0014144992
95	0x3c24d0f4	0.010059584
96	0x3c208513	0.009797352
97	0xbd15be6a	-0.036558546
98	0xbd15d65f	-0.036581393
99	0xbcb58ad3	-0.022160923
100	0x3a76c3f9	0.00094133575
101	0x3b1c5067	0.0023851634
102	0xbd9e3c78	-0.07726377
103	0xbe0d6acf	-0.13810275
104	0xbda09824	-0.078415185
105	0xbad35c1a	-0.0016125471
106	0xbcedf506	-0.0290475
107	0xbdbba867	-0.091629796
108	0x3c20e323	0.009819779
109	0x3c122a30	0.008921191
110	0x3d015f71	0.03158516
111	0xbcf1a903	-0.029499536
112	0x3c7f62b5	0.015587498
113	0x3c928fc4	0.017890818
114	0x3d021704	0.03176023
115	0xbce1f716	-0.02758364
116	0xbd3a2911	-0.04544932
117	0xbcf5b63e	-0.029994126
118	0xbd6924c5	-0.05691983
119	0xbc820fe9	-0.015876727
120	0xbcfe2c30	-0.03102693
121	0xbcd87c68	-0.026426509
122	0x3accbb7d	0.0015619841
123	0xbcd95399	-0.02652912
124	0xbd60a3ad	-0.054843593
125	0xbd23ab72	-0.039958425
126	0xbb7cf58d	-0.0038598508
127	0xbd213cfc	-0.0393648
128	0x3b16b496	0.0022995821
129	0x3c86e5d9	0.016467022
130	0xbbd504c3	-0.006500812
131	0xbde8baba	-0.1136374
132	0x3c43a2bc	0.011940654
133	0xbcca4211	-0.024689706
134	0xbe01f7e2	-0.12692216
135	0xbcb3aa1d	-0.021931702
136	0x3c4c1a48	0.012457438
137	0xbd224dd6	-0.03962501
138	0xbcd243c3	-0.025667077
139	0x3ca9333a	0.02065431
140	0x3c5090ab	0.012729804
141	0xbc9cb544	-0.019129403
142	0xbc19c91c	-0.009386327
143	0x3c5b0132	0.013366984
144	0xbd090794	-0.033454493
145	0x3c6f5d47	0.014609641
146	0x3b8185b8	0.003952708
147	0xbc838e82	-0.016059164
148	0xbca46052	-0.02006546
149	0xbceed1b6	-0.029152732
150	0xbd01dac0	-0.031702757
151	0xbc43890a	-0.011934528
152	0x3bac96c4	0.005266996
153	0xbaf9bb24	-0.0019052965
154	0xb979d88f	-0.00023827165
155	0xbcf9cab8	-0.030492172
156	0x3cee3e5e	0.029082473
157	0xba6805af	-0.00088509446
158	0xbc88b963	-0.016689962
159	0x3c9ba682	0.019000296
160	0x3a05d6f2	0.0005105577
161	0x3c54b8ea	0.01298354
162	0x3d0efda4	0.03490986
163	0x3c242e81	0.010020853
164	0x3bac17c7	0.005251858
165	0xbd0d4d76	-0.0344977
166	0x3abc319b	0.0014358045
167	0xbc87973c	-0.016551606
168	0xbc93b5c8	-0.018031016
169	0xbbb883a2	-0.005630926
170	0xbd21815d	-0.03943001
171	0xbc90f36b	-0.017694196
172	0xbc8c808c	-0.01715114
173	0x3d0f122c	0.03492944
174	0xbc8905a6	-0.016726326
175	0xbc5cea0b	-0.013483535
176	0xbd499caa	-0.049221672
177	0xbe042743	-0.12905602
178	0xbdffdf76	-0.12493794
179	0x3c816982	0.01579738
180	0x3d0475ba	0.032338835
181	0xbcab5838	-0.02091609
182	0xbc939181	-0.018013718
183	0x3c2f2224	0.010689292
184	0x3ce9fdaf	0.028563349
185	0xbcc68965	-0.024235437
186	0xbcacfa10	-0.021115333
187	0xbac60c00	-0.0015109777
188	0x3d0e9f38	0.03481981
189	0xbcd7134b	-0.026254317
190	0xbc323b6d	-0.010878426
191	0xbd385d9c	-0.045011148
192	0xbda7b630	-0.081890464
193	0xbe0f6de9	-0.14006771
194	0x3bc0580d	0.0058698715
195	0xbdb463f6	-0.088081285
196	0xbe007107	-0.12543117
197	0x3b20208a	0.0024433457
198	0x3c11591c	0.008871343
199	0xbc9d0e39	-0.019171821
200	0xbbe2f35f	-0.0069259848
201	0x3cee21b1	0.0290688
202	0xbd125911	-0.03572947
203	0xbbe74a15	-0.007058392
204	0x3c9bf100	0.019035816
205	0x3d048b99	0.032359693
206	0x3b3697d6	0.0027861497
207	0x399f5fe8	0.000303983
208	0x3c9c4be0	0.019079149
209	0xbd085200	-0.033281326
210	0xba8a5eaa	-0.0010556777
211	0x3c88fcb2	0.016722057
212	0xbb7ec2d0	-0.0038873442
213	0xbc9182e1	-0.017762603
214	0x3b936b7c	0.004498897
215	0xbc34511d	-0.011005667
216	0xbc7797b2	-0.015111851
217	0x3bacf316	0.0052780015
218	0xbd3eb821	-0.046562318
219	0xbd969847	-0.07353263
220	0xbe11ec0d	-0.14250202
221	0xbd3b1152	-0.045670815
222	0xbe0ce8fe	-0.13760754
223	0xbd0494ed	-0.03236859
224	0xbcec6008	-0.028854385
225	0x3c98801f	0.01861578
226	0x3bf55874	0.007487351
227	0xbb0af222	-0.0021201451
228	0x3caf6319	0.021409558
229	0xbb7535c8	-0.003741609
230	0xbd46a4f3	-0.04849715
231	0x3cd6b00a	0.026206989
232	0xbbd77aaf	-0.0065759043
233	0x3adf33f0	0.0017029028
234	0xbb9f4541	-0.0048605506
235	0x3c02ff49	0.007995435
236	0xbd43a479	-0.047764275
237	0x3cbcc314	0.02304224
238	0xbd47e163	-0.04879893
239	0xbc592bd5	-0.013255079
240	0xbc54c973	-0.012987482
241	0xbd684ffe	-0.05671691
242	0xbb6cf3d1	-0.0036156068
243	0x3cc1a328	0.02363737
244	0xbcdd4fae	-0.027015533
245	0xbd1c53dc	-0.038165912
246	0x3d0c3e23	0.034238946
247	0xbced4662	-0.028964225
248	0xbcf4ae63	-0.02986831
249	0xbc780b99	-0.015139484
250	0xbcce7963	-0.025204366
251	0xbd75329e	-0.059862725
252	0xbc083306	-0.008312946
253	0xbcf042a8	-0.02932866
254	0xbc93448a	-0.017977018
255	0x3c0496fc	0.008092638

module.cnn.6.bias f4 [64]
0	0xbe1bc2be	-0.15211007
1	0xbd2dba3d	-0.04241394
2	0xbdf22da6	-0.11825113
3	0xbf3331f4	-0.699981
4	0xbb99030a	-0.0046695517
5	0xbc225980	-0.009909034
6	0xbe4ac46a	-0.19801489
7	0xbc021281	-0.007938982
8	0xbea12729	-0.3147519
9	0xbd84c4da	-0.06482859
10	0xbe9529ee	-0.29133552
11	0xbe6f8ae3	-0.23392825
12	0x3bbea663	0.0058181747
13	0xbd17e7fa	-0.037086464
14	0xbe3d0523	-0.18458991
15	0xbeb30e0a	-0.34971648
16	0xbcecc308	-0.028901592
17	0xbdcfde3a	-0.10149808
18	0xbe66eec2	-0.22552016
19	0xbe42afb0	-0.19012332
20	0xbd12c8a4	-0.035835877
21	0xbd821eeb	-0.063535534
22	0xbe76bf90	-0.24096513
23	0xbcf6bafa	-0.030118454
24	0xbc1acaaf	-0.009447738
25	0xbeab90ee	-0.3350901
26	0xbcd52ee6	-0.02602334
27	0xbe9cd46e	-0.3063082
28	0x3e35046b	0.17677467
29	0xbe923694	-0.28557265
30	0xbc860509	-0.016359823
31	0xbed1cf80	-0.40978622
32	0xbe0bef03	-0.13665394
33	0xbe3cdc17	-0.18443333
34	0xbe4f7a7c	-0.20261568
35	0xbdf49eab	-0.11944326
36	0xbdf2b407	-0.11850744
37	0xbdfb18f4	-0.12260619
38	0xbddd58b0	-0.108079314
39	0xbda3bda4	-0.079951555
40	0xbc981ce1	-0.018568458
41	0xbec4a64e	-0.3840813
42	0xbe08a351	-0.1334355
43	0xbd2924ec	-0.041294977
44	0xbd91c7da	-0.07118197
45	0xbdee0c6c	-0.11623463
46	0xbd22b3a2	-0.039722092
47	0xbdb55782	-0.088545814
48	0xbc7871d9	-0.015163862
49	0xbe57b658	-0.21065652
50	0xbdfecc71	-0.12441338
51	0xbd096f0e	-0.033553176
52	0xbded592c	-0.11589274
53	0xbe2b7d44	-0.16747004
54	0xbe420a74	-0.189493
55	0xbe03c261	-0.12867118
56	0xbe23bb67	-0.15989457
57	0xbe0ed9e5	-0.13950308
58	0xbe76e870	-0.24112105
59	0x3e1ac9dd	0.15116067
60	0xbe5167b7	-0.2044972
61	0xbcdc5c01	-0.02689934
62	0xbe5a3565	-0.21309431
63	0xbd4651ff	-0.04841804

module.cnn.8.weight f4 [64, 64, 3, 3]
0	0xbc040936	-0.008058837
1	0xbca8d6eb	-0.020610293
2	0x3c3c6ae4	0.011500094
3	0xbcef4cfc	-0.029211514
4	0x3ce90aad	0.028447473
5	0xbcb7fe54	-0.02246014
6	0xbbd7dd5a	-0.0065876665
7	0x3d4ddfe1	0.050262336
8	0x399b72e7	0.00029649513
9	0xbca0459b	-0.01956444
10	0xbb1f98e7	-0.0024352612
11	0xbccf337b	-0.025293102
12	0x3c04d0bc	0.008106407
13	0xbcb9c251	-0.022675665
14	0x3d2a1816	0.041526876
15	0x3ce86569	0.028368669
16	0x3d4fc454	0.050724342
17	0x3c709859	0.01468476
18	0x3b817d2c	0.003951689
19	0xbcc95bc8	-0.024579898
20	0x3bc0ec74	0.0058875624
21	0xbb9684f2	-0.004593485
22	0xbcc224ba	-0.023699153
23	0x3cab855d	0.020937616
24	0x3cadaae3	0.02119965
25	0xbb88ddce	-0.004176832
26	0x3d0a7fc3	0.03381325
27	0xbc8d6ab3	-0.017262792
28	0xbc91a6f8	-0.017779812
29	0x3d029ff3	0.03189082
30	0x3c788806	0.015169149
31	0x3ebe558a	0.37174636
32	0x3f2d52f8	0.67704725
33	0xbc4d4f77	-0.012531153
34	0x3b108636	0.0022052652
35	0x3e5ce232	0.21570662
36	0x3cd96ce1	0.026541175
37	0xbca982fe	-0.020692345
38	0xbc5be44f	-0.013421132
39	0x3d00bb5c	0.03142868
40	0x3c66f6ab	0.014096896
41	0xbd00c28f	-0.031435546
42	0xbc0ff4ad	-0.008786363
43	0xbd12fef5	-0.035887677
44	0xbc885ada	-0.016644884
45	0x3b920083	0.0044556274
46	0xbc0de9f5	-0.008661737
47	0x3c29e706	0.010370022
48	0xbd068eaa	-0.0328509
49	0x3ca72153	0.020401632
50	0xbc89a9b2	-0.01680455
51	0xbc2070ef	-0.0097925505
52	0xbc455c9d	-0.0120460065
53	0xbb793dee	-0.0038031298
54	0xbcdab6af	-0.026698438
55	0xbd07198e	-0.032983355
56	0x3b425853	0.0029654696
57	0xbc8b6093	-0.017013824
58	0x3da179a6	0.07884531
59	0x3ea82c35	0.32846227
60	0x3cdd1785	0.026988754
61	0x3e62c38d	0.22144909
62	0xbe0577ba	-0.13033953
63	0x3c2b8f40	0.010471165
64	0xbc8d4add	-0.017247612
65	0x3c03b8c5	0.008039658
66	0xbd08bbd9	-0.03338227
67	0x3e711069	0.23541416
68	0x3dcb3fa3	0.09924247
69	0x3c43fd76	0.011962285
70	0x3e3481ba	0.17627612
71	0x3d57a1da	0.052644588
72	0xbd007198	-0.03135833
73	0x3c94838e	0.018129136
74	0xbc96f351	-0.01842657
75	0x3d0a2ab7	0.033732142
76	0x3dc78146	0.09741454
77	0x3d797bce	0.060909085
78	0xbc2a2a0d	-0.010386002
79	0xbdc6defb	-0.09710499
80	0x3e4d65f5	0.20058425
81	0xbcd2df40	-0.02574122
82	0x3d0b2e09	0.03397945
83	0xbc3c4a14	-0.011492271
84	0xbc81406b	-0.015777787
85	0xbcc01066	-0.02344532
86	0xbca9b8ec	-0.02071806
87	0x3ce5ca03	0.028050428
88	0xbcd84ffd	-0.026405329
89	0xbca50985	-0.02014614
90	0x3cb14e93	0.021643912
91	0x3c9db41e	0.019250926
92	0xbcf1861e	-0.029482897
93	0x3c0c45cb	0.008561562
94	0xbe174f82	-0.14776424
95	0x3d9d0b6d	0.07668195
96	0x3c28b5dd	0.010297266
97	0x3e8961ff	0.26832578
98	0xbf4a5f75	-0.79051906
99	0x3caf13ef	0.02137181
100	0x3bdc7eb1	0.00672897
101	0xbd086b24	-0.033305302
102	0x3c976a71	0.018483372
103	0x3e25e5fc	0.16201013
104	0x3e9aa622	0.30204874
105	0x3c7ab2dc	0.015301432
106	0xbc7e05f9	-0.015504354
107	0x3cf280c2	0.029602412
108	0x3c8c90ee	0.017158952
109	0x3a82c079	0.0009975574
110	0x3a867fe6	0.0010261505
111	0x3c8d5630	0.017253011
112	0xbe92d489	-0.28677776
113	0xbf25534d	-0.6458023
114	0x3cc43d01	0.02395487
115	0x3e5fa827	0.21841489
116	0x3e17e50d	0.1483347
117	0x3bf6aebc	0.007528154
118	0xbd0a8a76	-0.033823453
119	0xbce36fa9	-0.027763205
120	0xbc2f517f	-0.0107005825
121	0xbc92320d	-0.017846132
122	0xbd3e10e2	-0.04640282
123	0x3c8f0e12	0.017462764
124	0xbcc5a07f	-0.024124382
125	0x3c9698e9	0.01838346
126	0x3c85b63c	0.016322248
127	0xbcc745a7	-0.024325205
128	0xbc775257	-0.015095315
129	0x3b401ff1	0.0029315914
130	0x3d76ea24	0.060281888
131	0x3d015bee	0.03158181
132	0xbc7b880a	-0.015352258
133	0xbc8111d7	-0.015755577
134	0x3dcacf38	0.09902805
135	0xbcb433d1	-0.021997364
136	0xbba12c20	-0.00491859
137	0x3bf17880	0.007369101
138	0xbc911a9b	-0.017712882
139	0xbea95fea	-0.3308099
140	0x3df3017f	0.1186552
141	0x3d0dcb12	0.03461749
142	0x3ec4955a	0.38395196
143	0xbe08ba29	-0.13352264
144	0xbceaa9a7	-0.02864535
145	0xbcb8009f	-0.022461234
146	0xbc8afb4b	-0.016965529
147	0xbc7846e1	-0.015153618
148	0xbca8d478	-0.020609125
149	0xbcb572dd	-0.022149498
150	0xbc2b5f14	-0.01045968
151	0x3c9eaa14	0.019368209
152	0xbbce122b	-0.006288787
153	0x3c9b30f0	0.018944234
154	0xbc17704c	-0.009243082
155	0x3d0b2569	0.033971224
156	0x3cfe1820	0.031017363
157	0x3d48fab5	0.049067218
158	0x3d609f0c	0.05483918
159	0x3ba03668	0.004889298
160	0x3eeb80fa	0.4599684
161	0xbdc41667	-0.095745854
162	0x3a93b089	0.0011267822
163	0xbc9cf937	-0.019161804
164	0xbcdca631	-0.026934715
165	0xbcc8cdf7	-0.024512274
166	0xbd0043a9	-0.031314526
167	0x3dc1176b	0.09428295
168	0x3cc1601b	0.023605397
169	0xbd0f5dcc	-0.03500156
170	0xbcdf0abc	-0.027226798
171	0x3ce0b4e7	0.027430011
172	0xbc0d1c13	-0.00861265
173	0x3c87c7dc	0.016574793
174	0xbcd602d8	-0.026124403
175	0x3e13e63d	0.14443298
176	0xbc644c8a	-0.013934264
177	0xb99c7609	-0.00029842582
178	0xbe1af0b1	-0.15130879
179	0x3caffddc	0.021483354
180	0x3cdab0db	0.02669566
181	0x3cff3882	0.031154875
182	0x3ce4c2ea	0.027924974
183	0x3afaaa8d	0.0019124314
184	0x3d231b03	0.039820682
185	0x3d508f34	0.05091782
186	0xbc253359	-0.010083043
187	0x3beeb9ed	0.0072853477
188	0xbd27de68	-0.040983588
189	0xbd105246	-0.035234712
190	0xbd118d03	-0.03553487
191	0xbaf1df9b	-0.001845348
192	0xbcd5b7d8	-0.02608864
193	0x3d67a085	0.056549568
194	0x3c60bad9	0.013716423
195	0x3d12388b	0.035698455
196	0xbd5c84ba	-0.053837515
197	0xbb9e1c03	-0.0048251166
198	0x39659cdb	0.00021897575
199	0xbc50ff2f	-0.012756153
200	0xbc948ed6	-0.018134516
201	0xbca7297b	-0.020405522
202	0x3e40a21b	0.18811838
203	0x3d2b9028	0.041885525
204	0xbba8e836	-0.005154635
205	0xbe14ac7c	-0.14518923
206	0xbe147ed8	-0.14501512
207	0x3c9be6e7	0.019031001
208	0x3a0f2416	0.00054603943
209	0xbc775f18	-0.015098356
210	0x39d9ed3b	0.00041566216
211	0x3c6c7c3c	0.014433917
212	0xbd3207f8	-0.04346463
213	0xbca091b4	-0.019600727
214	0x3b435555	0.00298055
215	0xbcadc9c4	-0.021214373
216	0x3c9d9ef9	0.019240843
217	0xbcad21ce	-0.021134283
218	0xbc079125	-0.008274351
219	0xbc1d1bb9	-0.009589129
220	0xbd057bd5	-0.0325888
221	0xbbcd0f6d	-0.0062579424
222	0xbce719ce	-0.028210547
223	0x3bc4a09c	0.0060005914
224	0xbd069e02	-0.03286553
225	0xbcd94b8c	-0.026525281
226	0x3b3b5c1d	0.002858884
227	0x3c5485b8	0.012971334
228	0xbc03d378	-0.008046024
229	0xbcee99fa	-0.029126156
230	0x3d929915	0.07158104
231	0xbba351d5	-0.0049841204
232	0x3e762e88	0.24041188
233	0x3e670d78	0.22563732
234	0xbcce0a16	-0.025151294
235	0xbce476be	-0.027888652
236	0xbcc86c55	-0.02446572
237	0xbcadaeaf	-0.02120146
238	0xbd35edaf	-0.044416126
239	0xbd331e06	-0.043729804
240	0x3cf94c6e	0.030431952
241	0xbd817db1	-0.06322802
242	0xbd85e26a	-0.06537326
243	0x3ce5bc19	0.028043794
244	0xbcb94125	-0.022614071
245	0xbc949422	-0.018137041
246	0xbcba5f11	-0.02275041
247	0xbe2c577a	-0.16830245
248	0xbd30381b	-0.043022256
249	0xbc1bf367	-0.009518481
250	0xbe20157a	-0.15633193
251	0xbe80a45a	-0.2512539
252	0x3cde2ff7	0.02712248
253	0x3b309e03	0.002694965
254	0x3c1f5456	0.009724697
255	0xbb307f7d	-0.0026931458

module.cnn.8.bias f4 [64]
0	0x3ed2ee89	0.41197613
1	0xbd6c18c7	-0.057640817
2	0xbe7c5bae	-0.24644348
3	0xbe3ec0a1	-0.1862817
4	0xbd24094a	-0.04004792
5	0x3ed80cdb	0.42197308
6	0xbe2c1f65	-0.16808851
7	0xbe48baff	-0.19602583
8	0xbe2ce40f	-0.16883872
9	0xbe27254d	-0.16322823
10	0xbe27b607	-0.16378032
11	0xbdf407c9	-0.119155474
12	0xbc814f4f	-0.015784888
13	0xbd632aee	-0.055460863
14	0xbd0c1208	-0.034196883
15	0xbe4d6119	-0.20056571
16	0xbe4a7987	-0.19772922
17	0xbe31a43b	-0.17347805
18	0xbde28170	-0.110598445
19	0xbdb5050c	-0.08838853
20	0xbd11c7f3	-0.035591077
21	0xbe3a44b7	-0.18190275
22	0xbe2378b7	-0.15964018
23	0xbe0091e1	-0.12555648
24	0xbecf8c4c	-0.40536726
25	0xbda08513	-0.07837882
26	0xbeef6e96	-0.46764058
27	0xbdae9bb3	-0.08525791
28	0xbd9ae81f	-0.07563805
29	0x3cb32ba9	0.021871405
30	0xbebffa41	-0.37495616
31	0x3ecb121e	0.3966226
32	0xbea153a0	-0.31509113
33	0xbe3819b9	-0.17978562
34	0xbca84723	-0.020541733
35	0xbca66e4a	-0.020316262
36	0xbd93478b	-0.0719138
37	0xbdf73c4d	-0.12072048
38	0xbe9ea563	-0.30985555
39	0xbe77c7a5	-0.24197252
40	0xbe6cce42	-0.23125556
41	0x3f143d06	0.57905614
42	0xbeb49b8f	-0.35274932
43	0xbdd56e91	-0.104214795
44	0xbda704f8	-0.081552446
45	0xbe8c68d1	-0.2742372
46	0xbd2c8665	-0.042120356
47	0xbd78a09e	-0.06070005
48	0xbd861c0d	-0.06548319
49	0xbda179cf	-0.07884561
50	0xbe84ccc3	-0.2593747
51	0xbe92e23a	-0.28688222
52	0x3e0200db	0.12695639
53	0xbdb1e99b	-0.08687135
54	0xbe25d589	-0.16194738
55	0xbdbb7beb	-0.09154495
56	0xbe084786	-0.13308534
57	0xbe12c04b	-0.14331166
58	0xbd460caf	-0.04835194
59	0xbdc5cfe4	-0.096587926
60	0xbd9cd15e	-0.07657121
61	0xbe374874	-0.17898732
62	0x3e387c1c	0.18016094
63	0xbc51e00c	-0.012809765

module.cnn.10.weight f4 [64, 64, 3, 3]
0	0xbc86eacb	-0.01646938
1	0xbc756bb8	-0.014979295
2	0xbbe0b3ea	-0.006857385
3	0x3b8f4864	0.0043726433
4	0xbd200a31	-0.03907222
5	0x3bd70b31	0.0065626134
6	0x3c328b4e	0.010897471
7	0x3bf5da82	0.007502855
8	0xbc91d225	-0.0178004
9	0x3d058247	0.032594945
10	0x3ccc2fcc	0.024925135
11	0xbcab36e7	-0.020900203
12	0x3cf9a90f	0.030476121
13	0x3d24e580	0.04025793
14	0x3c0f4f45	0.008746927
15	0xbd0a2137	-0.033723082
16	0x3cd69982	0.026196245
17	0xbce63372	-0.028100703
18	0xbd0d9d9c	-0.034574136
19	0x3c3bf08a	0.011470923
20	0x3c969c50	0.018385082
21	0xbcdfe106	-0.02732898
22	0xbe63da56	-0.22251257
23	0x3ccd9c03	0.025098806
24	0xb7d8bbc2	-2.5836638e-05
25	0x3c304045	0.010757511
26	0x3d0fb18f	0.035081442
27	0x3c59b6f3	0.013288247
28	0xbc83d8d8	-0.01609461
29	0xbc8078b5	-0.015682558
30	0x3d04ba69	0.032404337
31	0xbd84b5e6	-0.06480007
32	0xbcc26a8c	-0.023732446
33	0x3cd60dcb	0.026129624
34	0xbc600591	-0.013673202
35	0x3c8aee49	0.016959326
36	0x3c4f407d	0.012649653
37	0x3cd1eeea	0.025626618
38	0x3c0f7830	0.008756682
39	0xbc64ab13	-0.013956803
40	0x39add8b5	0.0003315859
41	0xbbb65536	-0.005564357
42	0xbc1e970e	-0.009679569
43	0xbcdbcf2c	-0.026832186
44	0xbce1b677	-0.027552826
45	0x3b25cb45	0.002529816
46	0x3ca692fe	0.020333763
47	0x3cff9ffd	0.031204218
48	0xbb8d2902	-0.004307867
49	0xbcf6734b	-0.030084273
50	0x3be3e5a4	0.0069548655
51	0x3a994f1e	0.0011696552
52	0xbd043926	-0.032281063
53	0x3c504f93	0.0127142845
54	0x3ce8bd19	0.028410481
55	0xbcfe6e75	-0.03105853
56	0x3cd3271e	0.025775488
57	0xbcfdf3d2	-0.031000052
58	0xbdc57249	-0.09640939
59	0x3ca2ceb9	0.019873964
60	0x3c05e204	0.008171562
61	0xbc9579cc	-0.018246554
62	0xbd00a9ae	-0.03141182
63	0xbc8ef4f4	-0.017450787
64	0xbcfefb91	-0.031125816
65	0xbcd79d8a	-0.026320238
66	0xbd0b794f	-0.034051236
67	0xbd0631f8	-0.032762498
68	0xbccdb816	-0.025112193
69	0xbd0b2c11	-0.033977572
70	0xbba9f5ba	-0.0051867636
71	0x3c96ec4c	0.018423222
72	0xbb8d0ee9	-0.004304756
73	0xbc4f6bbd	-0.012659964
74	0x3ccede6c	0.025252543
75	0x3d0a5665	0.0337738
76	0xbd4f33a5	-0.05058636
77	0xbbe2318c	-0.006902879
78	0x3c681462	0.014165016
79	0x3cef4205	0.029206285
80	0x3c774936	0.015093138
81	0xbc383867	-0.011243916
82	0x3c18cfd8	0.009326898
83	0x3bd219eb	0.006411781
84	0xbc15ac99	-0.009135389
85	0xbbfd69a8	-0.0077335425
86	0x3c6ea918	0.014566682
87	0xbacb9d71	-0.0015534592
88	0xbcc71782	-0.024303202
89	0xbca7b711	-0.020473035
90	0xbcfddf14	-0.030990161
91	0xbd0ff8c1	-0.03514934
92	0xbc8739bd	-0.016507024
93	0xbd0512da	-0.03248868
94	0xbcb5fbf4	-0.022214867
95	0xbd104c1c	-0.035228834
96	0xbc520d1f	-0.012820511
97	0x3c68ae56	0.014201721
98	0xbcf3c73b	-0.029758086
99	0x3cb44559	0.022005724
100	0x3c5ff60f	0.013669505
101	0x3c6ce9b9	0.014460021
102	0x3c9f11ba	0.019417632
103	0xbbf6ea1b	-0.0075352318
104	0x3cbc7d05	0.023008833
105	0x3ca67c66	0.02032299
106	0x3cb7d5d6	0.022440832
107	0x3d12712e	0.035752468
108	0xbc9b4682	-0.01895452
109	0xbce13c46	-0.02749456
110	0x3cfe9aa5	0.0310796
111	0x3c2088a1	0.0097982
112	0xbe98970f	-0.2980275
113	0x3cd42e4a	0.025900979
114	0xbd0c6c95	-0.03428324
115	0xbca8b410	-0.020593673
116	0x3bfbca3e	0.0076840213
117	0xbcd15d13	-0.025557077
118	0xbc8cbc41	-0.01717961
119	0x3c71534c	0.014729332
120	0xbc2a0132	-0.010376262
121	0xbe6282ab	-0.22120158
122	0x3b0ac655	0.0021175344
123	0x3c7ffaea	0.015623787
124	0x3caaf343	0.02086795
125	0x3c8bc77a	0.017062891
126	0x3c8afb4f	0.016965536
127	0x3d02f510	0.03197199
128	0x3cd06be0	0.025442064
129	0x3bf3994b	0.0074340454
130	0xbcd4390f	-0.025906114
131	0xbca8fc87	-0.020628227
132	0xbc77469d	-0.015092519
133	0xbc3c710e	-0.011501564
134	0x3b2e906f	0.0026636382
135	0xbca7469c	-0.020419411
136	0x3bf0b216	0.0073454482
137	0x3ceead7d	0.02913546
138	0x3ca0091d	0.019535596
139	0xbd0f754a	-0.035023965
140	0x3cd30fc9	0.025764363
141	0x3b45c714	0.0030178474
142	0x3cb9f71c	0.022700839
143	0x3cc9053c	0.024538629
144	0xbc17cb12	-0.009264724
145	0xbc320a6f	-0.010866745
146	0x3c2905f1	0.010316358
147	0x3be5a02a	0.0070076184
148	0x3c97fc37	0.018552883
149	0x3cc96646	0.0245849
150	0xbc709862	-0.014684768
151	0xbb1dadfd	-0.0024060004
152	0x3bb6b77f	0.0055760737
153	0x3cc4fb55	0.024045626
154	0x3c95cb98	0.018285558
155	0x3b85589d	0.0040694014
156	0xbc547c59	-0.0129691
157	0xbb942c72	-0.0045219
158	0xbc6d53ed	-0.0144853415
159	0x3ba7718a	0.0051099705
160	0xbb9df043	-0.004819901
161	0x3bd9b71a	0.006644142
162	0xbc1e61e3	-0.009666893
163	0xb981739b	-0.0002469093
164	0x3ccdd4a8	0.025125816
165	0x3c3d83e2	0.011567088
166	0xbca3fa8d	-0.020016933
167	0xbccbd472	-0.024881575
168	0x3b46bec0	0.0030326098
169	0x3c83c44f	0.016084818
170	0x3cb5d836	0.022197824
171	0xbb1c5de9	-0.0023859686
172	0x3d0e41af	0.03473061
173	0x3c13f873	0.009031403
174	0x3b749cc7	0.0037324892
175	0x3d21abb5	0.039470393
176	0x3c88771d	0.01665836
177	0x3b30108f	0.0026865338
178	0xbc46e5c4	-0.012139741
179	0x3cdde2e6	0.027085733
180	0x3d035887	0.032066848
181	0x3cf35c14	0.029706992
182	0xbc55a5f2	-0.013040053
183	0x3c80c744	0.015720017
184	0x3ca7873f	0.020450233
185	0x3c7675e3	0.015042755
186	0x3cd9c149	0.026581423
187	0x3baa7b10	0.0052026585
188	0xbbcb03d4	-0.0061955247
189	0xbca2b450	-0.01986137
190	0x3cab7385	0.020929107
191	0x3b519ce7	0.003198439
192	0xbc0a9131	-0.008457468
193	0xbadcc898	-0.001684445
194	0xba44ed2c	-0.0007512148
195	0x3af7466a	0.001886559
196	0x3d08d2b4	0.033404067
197	0xbb7f2ee1	-0.0038937854
198	0xbd0e206c	-0.03469889
199	0xbc9c57bc	-0.019084804
200	0x3d0874a0	0.033314347
201	0xbcaa4f9a	-0.02078991
202	0xbd3df39a	-0.046374895
203	0x3bf840cf	0.007576085
204	0xbc0a379f	-0.008436113
205	0x3c354e83	0.011066082
206	0xbc72cf2f	-0.014819904
207	0x3c78ec74	0.015193094
208	0xbceed699	-0.029155063
209	0x3be1d301	0.0068916087
210	0xbcec78ea	-0.02886625
211	0x3bab4dac	0.005227765
212	0xbce8d394	-0.0284212
213	0x3c949f29	0.0181423
214	0xbc82bd0f	-0.01595929
215	0x3cb39815	0.021923104
216	0xbb7c6e86	-0.0038518026
217	0xbd0ed6e8	-0.03487292
218	0xbc205421	-0.009785683
219	0xbbb5f461	-0.005552814
220	0x3ad44325	0.0016194327
221	0x3b70bdb1	0.0036734159
222	0xbc88ef40	-0.016715646
223	0x3cf5c485	0.030000934
224	0xbc8e6ac2	-0.01738489
225	0x3cd622b1	0.026139589
226	0xbc7fb5c7	-0.015607304
227	0xbceca33e	-0.028886434
228	0x3cf898bf	0.030346273
229	0xbecca05d	-0.39966097
230	0xbcddc5c5	-0.027071843
231	0x3ce3cecd	0.027808571
232	0xbc4b9155	-0.012424787
233	0xbc675258	-0.014118753
234	0xbbe9bbd5	-0.007132987
235	0x3c770388	0.0150765255
236	0x3cfcbe8a	0.030852575
237	0x3b41a603	0.0029548414
238	0x3f0eedf7	0.55831856
239	0xbbabf5a9	-0.005247791
240	0x3d0584d9	0.032597397
241	0x3cc8873c	0.024478547
242	0x3c820d4a	0.015875477
243	0xbcd305fa	-0.025759686
244	0x3ce2bd6b	0.027678212
245	0xbd0b7ca4	-0.034054413
246	0xbc430911	-0.011904017
247	0xbcca5a98	-0.024701402
248	0x3cb45670	0.022013873
249	0xbd00e0c9	-0.03146437
250	0x3ceb0f96	0.028693955
251	0x3d0e21fb	0.034700375
252	0x3d04c6ab	0.032416027
253	0x3c922fc3	0.01784504
254	0xbc31cd38	-0.010852151
255	0x3baff30c	0.0053695496
