Sem 2/Intelligent Robots/Assignments/Lab 2/BehaviourCloning/Checkpoints/adam_2_extra_conv_e5.pt (torch, 378083 bytes, 10 tensors)

module.cnn.0.weight f4 [32, 3, 3, 3]
000000 d3 df aa 3e 10 fa ce 3e c1 5e 78 3e 3e c1 00 3f
       0.3337389 0.40425158 0.24254896 0.50294864
000010 93 59 0a 3f 2e 22 ce 3e bf 77 b3 3e 4e 04 d8 3e
       0.5404293 0.40260452 0.35052297 0.42190784
000020 22 86 ad 3e 24 a9 0d bc 86 62 d5 3d ae 26 f9 3d
       0.33891398 -0.008646283 0.104191825 0.12165581
000030 c8 89 d1 3d dc b4 8d 3d 45 f1 d6 3d f8 42 12 bd
       0.10231358 0.06919262 0.10495237 -0.035708398
000040 dd 92 a9 bd 5a e7 10 be 5b 81 96 be 1b 9e 90 be
       -0.08279965 -0.14150754 -0.29395565 -0.28245625
000050 6d f7 a4 be 20 a6 98 be 0e b7 97 be 15 01 7d be
       -0.3222002 -0.29814243 -0.29631847 -0.24707444
000060 11 98 c2 be 78 2e e1 be 35 ca f1 be c2 4f 0b 3e
       -0.38006642 -0.43980765 -0.47224584 0.13604644
000070 c3 c1 31 be e4 93 5a be 0b c0 4f 3e 43 c3 e5 be
       -0.1735907 -0.21345478 0.20288102 -0.44875535
000080 b9 48 87 bb 6e 77 cc bd e6 7c d2 be f1 ad 16 3e
       -0.0041285423 -0.09983717 -0.41110915 0.14714791
000090 2b c6 88 3e 51 02 0f 3e ed 0a 7a 3e 2a 45 a0 3e
       0.2671369 0.13965727 0.2441823 0.31302768
0000a0 9d 57 a1 3d 52 e5 9f 3e 9b 92 91 3e 0b 15 cf 3d
       0.07878039 0.31229645 0.28432164 0.101114355
0000b0 89 23 f9 3e a2 a1 dd bd 36 76 3a be a4 29 1d bd
       0.48659924 -0.10821845 -0.18209156 -0.03836979
0000c0 f2 e4 97 3d 92 cf b8 be d1 e0 b4 bd fe ce 3b be
       0.07416715 -0.36095864 -0.08831943 -0.1834068
0000d0 d6 83 eb be 66 0c 2c 3e 3c 2c 06 bd 8f d0 3d 3e
       -0.4599902 0.16801605 -0.03275703 0.1853659
0000e0 a3 37 93 3d 69 d3 2c 3b 4f 8c b9 3d de a5 94 3d
       0.07188346 0.0026371127 0.09059965 0.07258199
0000f0 4a d4 03 3d d8 4d 1b 3e f2 09 4b 3e 06 7c 6d bd
       0.032184877 0.15166414 0.19828013 -0.057979606
000100 f2 b2 d2 3d fe 41 a2 bd b1 09 9b 3e a7 71 38 bd
       0.10288037 -0.07922743 0.3028083 -0.045030262
000110 8b 6a 5d bb ba db be 3d cd 2b 97 3e 5a 2f f1 3d
       -0.0033785428 0.09319253 0.29525605 0.1177661
000120 93 de ee bd be 12 9a be e1 77 f2 be 94 34 8c bd
       -0.116635464 -0.30092424 -0.47357085 -0.06845966
000130 ca fb 7e be ae 25 05 be db 50 9c 3d fb 9e 1a 3e
       -0.24900737 -0.13002655 0.076326095 0.15099709
000140 77 c1 6b be 29 83 14 bd 42 a6 27 bc dc f3 66 be
       -0.2302302 -0.036257897 -0.01023251 -0.22553962
000150 41 20 9a 3e 7b 80 8c 3e ba e6 8d 3e cc dc 33 39
       0.30102733 0.27441773 0.27715093 0.00017153024
000160 0f b8 ce 3d 75 63 72 3e 93 ce 9d 3e 6b df 70 3e
       0.100937 0.23670752 0.30821666 0.23522727
000170 15 0b 86 3e de 8a 8e 3e 07 fe 90 3e 1c 39 84 3e
       0.2618033 0.27840322 0.28318807 0.2582482
000180 d4 36 f2 3d 91 4b cc 3d 5f cf 43 3e 8e a3 b8 bd
       0.11826864 0.09975351 0.19122075 -0.090155706
000190 82 ac 36 bc 5a 24 87 3d f6 7a 60 be 8d e2 71 bd
       -0.0111495275 0.065987304 -0.21921906 -0.059053946
0001a0 44 45 cb 3c f6 12 f9 be f7 c1 a1 be 59 a2 36 be
       0.024813302 -0.4864728 -0.31593296 -0.17835368
0001b0 10 1a a9 3d 11 f0 cd 3d a8 ea 75 3e e7 f4 51 3e
       0.08256924 0.10055555 0.24015296 0.20503579
0001c0 94 6d 2d 3e 14 5c e4 3d 77 ba 14 3e 34 67 12 3e
       0.16936332 0.11150375 0.14524256 0.14297181
0001d0 75 53 58 3e 7a 2a e2 be 58 5c c7 be ec ad fa be
       0.21125586 -0.44173032 -0.3893764 -0.48960817
0001e0 3d 50 a8 be f5 ba d6 be 56 f2 ad be e8 a1 af be
       -0.32873717 -0.41939512 -0.3397395 -0.34303212
0001f0 60 66 ce be 27 03 c6 be 82 99 38 3e 72 38 3a 3e
       -0.4031248 -0.3867428 0.18027309 0.18185595
000200 1c f6 84 3e ce bc 68 3e de 8b ba 3e 4d 62 a7 3e
       0.25969017 0.22728273 0.36434835 0.32692185
000210 e6 90 3c 3e cb e2 b9 3e 8a 91 85 3e ff 68 99 bd
       0.1841465 0.36305842 0.260876 -0.074907295
000220 a8 04 b5 bd b9 b9 9d bd 6b 3f ab 3e 5c 33 85 3c
       -0.08838779 -0.077014394 0.33446822 0.016259842
000230 d7 ab c1 bd a0 49 1a be 3b e2 e4 bd c1 34 25 be
       -0.09456604 -0.15067148 -0.111759625 -0.16133405
000240 c5 c5 41 be a3 65 c6 3b 1f 32 16 3e 56 62 9e 3e
       -0.189231 0.0060545965 0.14667557 0.309344
000250 ac bb 8c 3e 4b 48 aa bd 5a 26 8b 3c 75 79 12 be
       0.27486932 -0.0831457 0.01698606 -0.14304145
000260 15 25 91 bc 07 7f 8f be b6 73 3b 3d 48 72 fa bd
       -0.017717877 -0.28026602 0.045764647 -0.12228829
000270 25 02 87 3e 34 6d 2a 3e a9 86 84 3c c2 27 95 bd
       0.26368824 0.1664322 0.016177492 -0.07282974
000280 2b a9 ae bc 2b 41 b1 3b fd 7c 11 3d 02 44 e7 bd
       -0.0213209 0.00540938 0.03551959 -0.11292268
000290 c2 df 4a 3d 5b 99 ca 3c 1c 89 05 bd 33 40 01 3e
       0.0495298 0.024731329 -0.03260146 0.12622146
0002a0 33 8b 21 3d f8 65 d9 ba 3b 0d 30 3c d3 70 e0 bc
       0.03943939 -0.0016586175 0.010745342 -0.027397549
0002b0 19 73 89 3d e8 cf ec bc 4f 8f 96 bd 89 67 d5 bc
       0.06711406 -0.028907731 -0.07351553 -0.026050346
0002c0 90 f7 b4 bd 26 57 46 3c b8 9b 1b 3e 22 22 67 bd
       -0.08836281 0.012105739 0.1519612 -0.056429036
0002d0 8a 97 0d bc e8 36 93 3c 8e bc db bc 86 9b 58 bd
       -0.008642087 0.017970517 -0.026823308 -0.052882694
0002e0 2d a8 29 3d dc 70 1a 3d 24 b3 c3 3c 85 a8 2e 3b
       0.04142015 0.037705287 0.023889132 0.0026650738
0002f0 eb 4f 9b 3b 7d 87 58 bd f3 80 ee bd e9 34 0f be
       0.0047397516 -0.052863587 -0.11645689 -0.13985027
000300 c6 51 b2 3d 83 d9 7f 3d 46 94 b7 bd 47 10 10 3e
       0.08707003 0.062463295 -0.08963828 0.1406871
000310 45 69 20 3e 67 82 10 3e c3 d5 8a 3d 2d ef 98 3d
       0.15665157 0.14112245 0.06779053 0.07467494
000320 2d 66 64 bd f6 f7 c2 bd 0e b5 c2 3a 31 4b 18 bd
       -0.055761505 -0.09519951 0.0014854984 -0.037181083
000330 64 b0 e6 b9 d5 69 a6 bd 14 84 27 bd db 92 79 bd
       -0.0004400044 -0.081256546 -0.040897444 -0.060931068
000340 5a f2 bf bc 01 a0 81 3d 80 07 a7 3d c4 b9 e4 bb
       -0.023430992 0.063293464 0.081557274 -0.006980153
000350 85 32 39 be 94 2f d4 bc ba d9 26 bc 3d 03 23 3e
       -0.18085678 -0.025901593 -0.010183746 0.15919204
000360 9e d7 eb 3c 8a 89 ee 3d d0 c7 61 3e 15 61 9f bd
       0.028789338 0.11647327 0.22048879 -0.07782189
000370 94 34 b5 bd d0 5c 09 3e 4b b3 bd be 6b d6 2f be
       -0.08847919 0.13414311 -0.37050852 -0.17171638
000380 e3 51 86 be f5 68 60 3e cd af 97 3e ae ce 2d 3e
       -0.2623435 0.21915038 0.29626313 0.16973373
000390 2e d4 5c bd 10 38 c8 bd ab 5a 87 bd 68 5f 5e 3d
       -0.053913288 -0.09776318 -0.066090904 0.054290205
0003a0 54 ab d5 3d 8c 44 19 3e 7c 5b 6c 3e b9 4f 84 3e
       0.10433069 0.14967555 0.23081774 0.25842074
0003b0 58 4f a9 3d eb 25 8a be 9f bd b6 be e0 7f b0 be
       0.08267087 -0.26982054 -0.35691544 -0.3447256
0003c0 f5 aa 3e be 05 8d 80 be 8e e6 3d be ad 2b 86 be
       -0.18619902 -0.2510759 -0.18544981 -0.26205197
0003d0 8e 19 cf bd ba 19 0d be ba 87 2b be e9 ea b8 bd
       -0.10112296 -0.13779345 -0.16750994 -0.090291806
0003e0 b6 4c a3 bd 9f 71 8f bc 64 38 07 be 0c 5e 1d bd
       -0.07973616 -0.017510233 -0.13205105 -0.03841977
0003f0 41 84 17 3e bd 6d a0 3c 8a 6c 02 3e 84 ba c8 bc
       0.14796545 0.019583577 0.12736717 -0.024503

module.cnn.0.bias f4 [32]
000000 73 1d 44 be 1f c3 aa bc 7a 0e 6d bf c1 d3 5b bf
       -0.19151859 -0.020844994 -0.92600214 -0.85869986
000010 b0 25 81 be 91 5e 68 bf 4d 2a 33 bf ab 78 7e bf
       -0.25224066 -0.90769297 -0.6998642 -0.99402875
000020 fe 60 53 bf 19 d1 c9 bf 40 56 a5 be 5c f2 71 bf
       -0.82569873 -1.5766937 -0.32292366 -0.94510436
000030 57 ab 55 bf 1b 01 a4 bf ca 9d cc be c4 13 62 bf
       -0.8346457 -1.2812837 -0.39964134 -0.8831141
000040 ce 97 01 bf 25 a6 31 3e 83 59 21 bf 0d 29 33 bf
       -0.5062226 0.17348535 -0.6302721 -0.69984514
000050 35 46 3b bf df 4b 70 bf bb de 0b bf c2 ef 38 bf
       -0.73154 -0.9386577 -0.54636735 -0.7224084
000060 db 95 92 bf d0 bf e3 be 93 7e 9c bf d7 27 98 bf
       -1.1451982 -0.4448228 -1.2226127 -1.1887158
000070 ae 47 64 bf 7e 74 48 bf 5d a7 76 bf 34 c5 98 bf
       -0.89171875 -0.7830275 -0.96349126 -1.1935182

module.cnn.2.weight f4 [64, 32, 3, 3]
000000 aa d6 61 3d 30 bf 5a bd dd 6e 8a be a4 cc 45 bd
       0.05513636 -0.053404987 -0.27037707 -0.048290864
000010 24 55 14 be 48 f3 e2 bd 49 3f 07 3d 3e 1b ac bd
       -0.14485604 -0.110815585 0.033019338 -0.084036335
000020 2b 19 76 bd b3 36 be bd fb 96 29 be 4b 1a f0 bd
       -0.060082596 -0.09287777 -0.165615 -0.11723765
000030 e2 f0 0f be 85 c6 54 be 77 f9 4e be cb 10 9e 3c
       -0.14056733 -0.20778854 -0.20212351 0.019295117
000040 ac 8b 63 bd b4 da 32 be af 4a 2b bd 2b c7 38 be
       -0.055553123 -0.17466241 -0.04181927 -0.18044727
000050 a8 69 7f be e1 02 1b be 4f 1c f8 bd 88 bb 10 be
       -0.24942648 -0.15137817 -0.121147744 -0.14134037
000060 36 35 83 be 1f 26 cf bd 08 cf ff bd 1f d1 07 be
       -0.25626534 -0.10114693 -0.1249066 -0.13263367
000070 ca 1d 17 3b f7 16 80 be ca 8a 9f bd 5d 9c 77 be
       0.0023058527 -0.2501752 -0.07790144 -0.24180742
000080 a6 35 3d be 79 d7 d5 bd 32 60 2f be 69 ef 6d bd
       -0.18477497 -0.10441489 -0.1712654 -0.058089647
000090 3b a4 bc bd f0 e2 e4 bd e5 ea 88 bd a1 4e 9e bd
       -0.09211012 -0.111760974 -0.066854276 -0.07729841
0000a0 b3 81 4f bd 4a 2c 8b bd ad 95 00 bd e7 0f a8 bd
       -0.0506608 -0.06795557 -0.031392742 -0.08206158
0000b0 d7 d4 02 be 94 1d 5e be e9 da 3a be 58 f5 74 be
       -0.12776504 -0.2169097 -0.1824757 -0.23921716
0000c0 08 ac ef bd 3e 67 03 be 30 19 66 be cd 6a 09 bd
       -0.11702734 -0.12832353 -0.22470546 -0.03354912
0000d0 6f 16 30 be db 6c c8 bc 7f e4 a6 39 8e 31 69 bc
       -0.17196058 -0.024465969 0.0003183223 -0.014233006
0000e0 2d 23 34 3c 2c 0d b2 3c 50 d9 af 3b 03 97 00 bc
       0.010994715 0.021734796 0.005366482 -0.007848504
0000f0 0a 16 ad 3c 3f b2 d5 3d 7b 97 95 3d 68 5a 2e be
       0.021128673 0.10434388 0.07304283 -0.17026675
000100 9f b8 b5 bd 3f a1 c2 bd 47 3c 30 bd 44 7f 15 bd
       -0.08873104 -0.095034115 -0.043026235 -0.036498323
000110 a8 a4 97 bd 53 99 82 bc f7 eb 90 bd 15 17 49 bd
       -0.074044526 -0.015942251 -0.07076257 -0.04909428
000120 22 d8 4a be d0 15 23 be e1 22 ff bd c9 76 7f bc
       -0.1980901 -0.1592629 -0.124578245 -0.015592285
000130 e8 e3 0d be df 53 36 be c9 56 41 be a8 a8 32 be
       -0.1385647 -0.17805432 -0.18880762 -0.1744715
000140 cd 13 20 be 10 6f 6a be 87 a0 a1 3c b4 84 e0 bd
       -0.15632553 -0.2289393 0.019729866 -0.10962811
000150 c0 57 20 be 0a 53 5c bd b6 5f a3 bd ec 1a f6 bc
       -0.15658474 -0.05379013 -0.0797724 -0.030042134
000160 ed 97 12 be f2 7e 7b bd 90 19 55 bd 8e 96 3c be
       -0.14315768 -0.06140036 -0.05202633 -0.18416807
000170 6f b5 3d be b7 71 01 3d 51 10 30 be 8a b5 85 be
       -0.18526243 0.031602588 -0.17193724 -0.26115066
000180 76 a6 c0 bc b1 07 40 be 9b 80 c8 bd 15 76 f5 bd
       -0.023516875 -0.18752934 -0.097901545 -0.11985413
000190 72 ea ac bd be eb b3 3c c2 fc 06 be 1f 3e 4b bd
       -0.084431544 0.021962997 -0.13182357 -0.04961979
0001a0 f4 6b 48 bd 49 f5 60 bd fb 0f 3e bc 17 60 de bd
       -0.048931077 -0.054921422 -0.01160049 -0.108581714
0001b0 b2 a7 d9 bd da cd 04 be 48 25 9e be 13 8b 28 bd
       -0.106276885 -0.12969151 -0.30887818 -0.041148257
0001c0 91 11 e6 bc 8e ad 46 be 12 37 cf 3d 49 17 21 bd
       -0.028084548 -0.19402143 0.10117926 -0.039328847
0001d0 3b df f4 bc 3a 15 ed bd 75 15 32 be 49 0d 14 be
       -0.0298916 -0.11576314 -0.17390998 -0.14458193
0001e0 5e 71 97 bd 25 29 93 bd ca 18 96 bd 6b 4b f1 bb
       -0.0739467 -0.07185582 -0.07328947 -0.007363727
0001f0 f4 a3 23 bd e8 7b 92 bd 0f 81 2e be e5 84 50 be
       -0.03995128 -0.071525395 -0.1704142 -0.20363195
000200 29 57 01 bd 88 5e bd bd 7d 58 6b bd 3f f4 b6 bc
       -0.031577263 -0.09246546 -0.057457436 -0.022333262
000210 a4 2a 80 bd 91 34 a7 bd 35 92 36 be 45 98 e7 bd
       -0.06258133 -0.08164323 -0.17829211 -0.1130834
000220 ce 8e 25 bc da e6 61 be 73 63 e2 bd 26 67 ed 3d
       -0.010104848 -0.22060719 -0.11054125 0.1159194
000230 bf 8b c6 bd e6 fd 9b 3c 04 79 3f bd 31 46 0d 3d
       -0.09694623 0.019041967 -0.04674627 0.034490768
000240 24 49 c6 bd b8 ad 29 be 82 eb 85 be ad 53 83 bd
       -0.09681919 -0.16570175 -0.2615624 -0.06412444
000250 cb af f7 bd ed b1 2c be 89 cb 81 bd e4 f2 df bd
       -0.12094077 -0.16864748 -0.063376494 -0.109349996
000260 e7 20 22 be b3 ed 81 be 68 5e 17 be 44 78 4a be
       -0.15832864 -0.25376663 -0.14782107 -0.1977244
000270 93 9a 97 bd 5f a2 ba bd e8 16 58 bd 4b c6 cd bd
       -0.074025296 -0.09113001 -0.05275622 -0.10047587
000280 7e 99 8e be 0b b6 59 be e6 18 17 be de aa c9 bd
       -0.2785148 -0.2126085 -0.14755592 -0.098470435
000290 6c d6 6e be 35 2d db bd cb 64 2b be ed 57 4c be
       -0.23323983 -0.10701982 -0.16737668 -0.19955416
0002a0 3b 3d a7 bd f9 f1 96 bd b2 39 04 be b9 8b 3d be
       -0.08165976 -0.07370371 -0.12912634 -0.18510331
0002b0 f4 85 2c be 1d de a1 bd f6 2c 1d be ed a2 33 be
       -0.16847974 -0.07903693 -0.15349182 -0.1754262
0002c0 28 63 6c bd 18 a6 02 be c5 2e 2c be 60 e6 ca bd
       -0.05771175 -0.12758672 -0.16814716 -0.09907222
0002d0 ef c2 a6 bd b5 dd ba bd 68 28 1a be fd ff f6 bd
       -0.081426494 -0.091243185 -0.15054476 -0.12060545
0002e0 1c 04 39 be 56 c6 a3 bd b3 8d 10 be e6 17 3a bd
       -0.18067974 -0.07996814 -0.14116554 -0.045432948
0002f0 4b 41 b3 3c 51 d2 86 bd 63 81 29 be 90 fc 59 be
       0.02188172 -0.065830834 -0.16553263 -0.21287751
000300 79 0b 2f be 3f 8b 29 be fb 80 3a be cb 9d 3e 3b
       -0.1709422 -0.16557024 -0.18213265 0.002908575
000310 ea fe b1 bd d1 12 24 bd 0c 50 91 be b2 95 32 be
       -0.08691199 -0.040057007 -0.28381383 -0.17439917
000320 e9 4c 64 be 96 2d 91 be 07 21 c5 bd e1 71 fd bd
       -0.22294964 -0.28355092 -0.0962544 -0.12375236
000330 b3 73 07 be 7e 03 85 bd f0 59 cc bd 10 23 a6 bd
       -0.1322773 -0.06494807 -0.09978092 -0.081121564
000340 f8 f9 23 be 86 df 26 bd 2e ba 86 3e 22 e1 48 3e
       -0.16013324 -0.040740512 0.2631392 0.19617131
000350 6f f4 1b be ac 44 be 3d 68 5a 15 be 08 73 74 be
       -0.15229963 0.09290442 -0.14585268 -0.23872006
000360 01 3a f6 bd 47 2e fa bc b4 d0 33 be 23 68 e6 bd
       -0.12022782 -0.030539645 -0.17560083 -0.11250331
000370 93 29 ae bd 31 97 a2 bd 37 03 0c be 30 ba 28 bd
       -0.085040234 -0.07938994 -0.13673101 -0.041193187
000380 45 42 09 be 88 83 36 be 38 68 dc bd c2 b3 6d be
       -0.13404186 -0.17823613 -0.10762066 -0.23213103
000390 c0 84 c7 bd d6 3b 35 be 82 f1 11 be d7 5e c8 3c
       -0.09742117 -0.17698607 -0.14252284 0.024459286
0003a0 c5 46 fd bd e0 9c ee bd ee 4f 25 be fc 32 6d bd
       -0.12367014 -0.11651015 -0.16143772 -0.05790995
0003b0 d9 0f 82 3d 60 ec 96 bb f5 cd a1 3c 5c b9 9d bd
       0.06350679 -0.004605815 0.019751528 -0.0770137
0003c0 41 02 66 bd 59 e7 90 be f5 4f 93 bd f7 4f fe bd
       -0.056154493 -0.28301504 -0.07192985 -0.12417596
0003d0 b8 35 e3 bd 30 bb 67 3c 4c 6a f5 bd c9 3c 7c bd
       -0.110942304 0.01414375 -0.11983165 -0.061581407
0003e0 b4 f7 b0 3d 52 2c 1f 3d f8 1d 39 3d ef 17 0f be
       0.086409956 0.038860627 0.045194596 -0.13973974
0003f0 29 d3 22 be bc e1 13 be 47 b4 2d be a3 3b 9f bd
       -0.15900864 -0.1444158 -0.16963302 -0.07775047

module.cnn.2.bias f4 [64]
000000 d6 3e 77 be 59 b0 ae bd a0 ee c6 bd 03 ec 8a be
       -0.24145064 -0.085297294 -0.09713483 -0.27133188
000010 0b 14 19 3e c1 0f 4e be 62 0a df bd bd ef 6e be
       0.14949052 -0.20123197 -0.10890652 -0.2333364
000020 1f df 94 3f 63 30 f3 be 9c 47 12 bd 52 1f 86 bd
       1.1630591 -0.47497854 -0.035712823 -0.065489426
000030 f6 dc b4 3e f0 83 1b be 0c 57 c6 bd 05 65 07 be
       0.3532483 -0.15187049 -0.096845716 -0.1322213
000040 7c 06 2b be 9b cf 0c 3e 84 91 1b bf 06 ef e3 bc
       -0.16701692 0.1375107 -0.60768914 -0.027823936
000050 27 8c a2 be 54 67 59 be d4 4c 43 bd a5 a4 d2 bd
       -0.31747553 -0.21230823 -0.04768069 -0.1028531
000060 cb be 23 be b2 0b 11 bd 8e 5d 91 be 2e f8 08 be
       -0.1599075 -0.035411544 -0.2839169 -0.13375923
000070 1c 82 00 be da f8 06 bd 18 fc 2c bf d8 6d 15 be
       -0.12549633 -0.032952167 -0.67572165 -0.14592683
000080 2c 49 ae bd 0b e1 72 bd 3b 9b 76 be 00 ce f2 bd
       -0.0851005 -0.05929665 -0.24082653 -0.11855698
000090 45 ac 9b be 64 bf 23 be 9a 5d 3e be 7f 74 53 be
       -0.3040487 -0.15990978 -0.18590394 -0.20649908
0000a0 8a 2c fc bd da d4 f4 bd 69 47 64 bd 73 f7 8d be
       -0.12313183 -0.11954661 -0.055732165 -0.2772785
0000b0 6c 4d 95 bd f2 ad b6 be 4c ba 93 be 4b ce de bd
       -0.07290158 -0.35679585 -0.2885307 -0.10879191
0000c0 fa 0e aa be 98 3e 1b be 17 84 03 bc d7 50 2d be
       -0.3321455 -0.15160596 -0.008027098 -0.16925369
0000d0 7b 07 15 be c6 46 33 be db ed 0d bd f7 90 fb be
       -0.14553635 -0.17507467 -0.034650665 -0.49134037
0000e0 51 10 c8 3e 77 c2 85 be 5b fb ef bd 74 e5 f6 be
       0.39074948 -0.26124927 -0.11717864 -0.48221934
0000f0 37 67 22 be 71 0d 13 3f 0f e1 a3 be 3e 31 0d bf
       -0.15859686 0.57442385 -0.32007644 -0.5515326

module.cnn.4.weight f4 [64, 64, 3, 3]
000000 ad e7 1f bd 63 0a b6 3a e8 bd e2 bc 33 ca bb bd
       -0.039039303 0.0013888594 -0.027678445 -0.09169426
000010 b0 17 cb 3d 17 95 d9 bd 30 07 21 bd 72 34 2b 3d
       0.099166274 -0.1062414 -0.039313495 0.041798063
000020 a5 76 cc 39 62 78 20 bd b9 6e 31 bd 14 fa 46 bc
       0.0003899831 -0.039177306 -0.043318484 -0.012144584
000030 eb 73 0e bd 1a 1b 39 bd 99 ea 0a bb e1 93 d2 bc
       -0.034778517 -0.04519186 -0.002119696 -0.02570528
000040 c5 4f 61 bc a8 7a 82 bc 38 a6 11 bd 2d 31 03 bd
       -0.013751929 -0.015927628 -0.03555891 -0.03202932
000050 78 b4 21 bc 29 ac 2d bd ab e3 b9 bc e1 34 af bc
       -0.009869687 -0.042400513 -0.022691568 -0.02138752
000060 41 1a 0a bd 56 b2 e7 3b c9 09 2e bd e9 24 7c bd
       -0.033716444 0.00707082 -0.0424898 -0.061558638
000070 3a cd 66 be e3 0c 5c 3d df 22 16 ba e6 87 4f 3e
       -0.22539225 0.053723227 -0.0005727242 0.20266685
000080 0f b1 78 3e 6e ff f2 3d 86 17 5c 3e 19 d5 e5 bd
       0.24286292 0.118651256 0.21493348 -0.11222286
000090 02 98 79 be 93 b2 a6 be 0c ff 56 bd 07 81 ab 3e
       -0.24374393 -0.32558116 -0.052489325 0.33496878
0000a0 2a ac 70 be 01 62 92 3e 01 0b a2 3e 6b e9 40 bf
       -0.23503175 0.28590396 0.3164902 -0.7535617
0000b0 a4 81 b5 be 97 ef 01 bf 60 f3 5d be 05 8a e1 be
       -0.3545047 -0.5075621 -0.21674871 -0.44050613
0000c0 d0 42 44 be 44 48 1b 3f 29 0a fb 3c f9 11 15 bd
       -0.19166112 0.60657144 0.030644493 -0.036394093
0000d0 d0 69 59 bf 47 45 35 be f9 a7 c7 bc 7e 8f ef bb
       -0.8492708 -0.17702208 -0.024372088 -0.007310807
0000e0 b6 0b c7 bc f9 9f f5 3c 55 c0 e0 bc 4d 6f 09 bd
       -0.024297576 0.029983507 -0.027435461 -0.03355341
0000f0 5a 67 12 bd a4 a2 39 bd be 30 dd bc b1 5e e4 3b
       -0.035743095 -0.04532112 -0.027000781 0.006969296
000100 bd 52 f8 3c dc 55 98 bc 36 23 03 be 94 a8 f4 bd
       0.03031289 -0.018595628 -0.128064 -0.11946216
000110 20 ca 73 3c 90 d3 81 bd c0 5b 16 be 72 6c b4 bd
       0.014879733 -0.063391805 -0.14683437 -0.08809747
000120 2d 4c 3a be 0f 90 a4 be 1d 32 91 bf 32 57 43 bd
       -0.18193121 -0.32141158 -1.1343418 -0.047690578
000130 3c 99 8f be 92 d6 f8 be 97 14 67 bd 8a 71 41 bf
       -0.28046596 -0.48601204 -0.05641612 -0.7556387
000140 2d ac c8 bd 6e 92 9f bd 42 1b 93 3d 21 d9 dc 3b
       -0.09798465 -0.07791601 0.071829334 0.006739751
000150 7c 82 12 bf 69 0b ae 3e 01 bf b2 be 46 fc d9 be
       -0.57230353 0.3399308 -0.3491135 -0.42575282
000160 92 aa a4 be 20 a2 66 be 45 ba 81 3c bc 89 85 3b
       -0.32161385 -0.22522783 0.01583589 0.004075257
000170 bc b1 26 bd 8e 30 a6 3c 07 8e 0b bd 2d 86 ac 3b
       -0.040696844 0.020286825 -0.034070995 0.0052650184
000180 b1 f7 83 3b 84 1c 28 b9 c0 5e 20 bd c2 2a 45 be
       0.00402733 -0.00016032351 -0.03915286 -0.19254592
000190 a0 a6 25 3d d2 57 5b 3e ee 46 c1 be da d9 6b 3e
       0.04044211 0.2142022 -0.37749428 0.23032323
0001a0 1c 6d 26 be 79 4f 38 3b 6a 52 30 3e 20 7e 12 be
       -0.1625256 0.0028123541 0.17218938 -0.14305925
0001b0 bf c9 0a bf d2 13 83 be 1c 27 18 3e c3 17 bd 3e
       -0.5421409 -0.2560106 0.14858669 0.3693219
0001c0 df 2b 14 be b4 ae ee be 1f 65 84 be 5a 70 96 be
       -0.1446986 -0.46617663 -0.258584 -0.29382592
0001d0 cd be 6b 3e 99 c3 0e bd 73 b1 8c 3d b2 57 d6 bc
       0.23022003 -0.034854505 0.06869783 -0.026164863
0001e0 e8 9d e1 bc fe b4 4e 3d 65 cf bb bd 38 2a 91 bd
       -0.027541116 0.050465576 -0.09170417 -0.07088131
0001f0 ba 5b 72 bd 8d 6b 54 bd a0 db e8 bc 47 57 b0 bc
       -0.05916951 -0.05186038 -0.028425038 -0.021525992
000200 98 3c 98 3a 15 5c 9f bc 78 3c 5e bc 78 b8 41 bb
       0.0011614738 -0.019453088 -0.013564222 -0.0029559415
000210 46 f8 8a bc 56 c4 0c bd 29 f4 83 bc b7 27 a9 bc
       -0.01696409 -0.034366928 -0.016107636 -0.02064882
000220 92 85 bb bc 33 62 14 3d c5 c5 64 3b 9b 27 82 bc
       -0.02289084 0.036226463 0.003490792 -0.015888026
000230 18 ef ea bc 55 66 b4 bc bd ea 4a bb 82 9f cb bc
       -0.028678462 -0.022021452 -0.0030962669 -0.024856333
000240 b8 6d bd bc e1 46 d4 bc 6f 8a 11 bd 76 19 2b bd
       -0.023123607 -0.025912704 -0.03553241 -0.04177233
000250 0e 26 24 bd 28 15 02 3c d8 fe 11 3d d3 3a a8 bc
       -0.040075354 0.007939614 0.03564343 -0.020535862
000260 cb 19 15 3d b9 ef 17 3e 46 9c 85 3e 54 56 40 be
       0.03640155 0.1483754 0.2609579 -0.18782932
000270 59 9f 29 bf 72 58 fd bd 14 a7 64 3d 43 c5 62 bf
       -0.6625877 -0.12370385 0.0558234 -0.8858225
000280 43 5c d3 bd a9 30 11 3f 82 d7 88 3c a6 54 b3 3b
       -0.10320332 0.56714875 0.016704325 0.0054727374
000290 b3 78 9f be 5e f2 b6 be 0e 92 04 bf 55 21 eb 3d
       -0.31146774 -0.35731786 -0.5178536 0.11480967
0002a0 7b ae e4 3d db 57 4c be 55 93 01 3f 1e 1b 82 bc
       0.11166092 -0.19955389 0.50615436 -0.015882071
0002b0 d9 29 28 bd 2f 04 9b bc 0b e8 24 bd ad 28 d2 bc
       -0.041055534 -0.018922893 -0.040260356 -0.025654161
0002c0 57 3a 63 ba fe cc ad bc df ce 01 bc 1d 24 25 bc
       -0.0008668056 -0.021215912 -0.007922857 -0.010079411
0002d0 16 14 fd 3a 1e 72 f7 bb 3b db 9f 3d fa 79 c3 bc
       0.0019308354 -0.0075514456 0.07805487 -0.023861874
0002e0 c6 3e 5a bc 4a 58 f5 bc 73 a4 a5 3d af da 0f bd
       -0.01332063 -0.029949326 0.08088007 -0.035120662
0002f0 75 ed d7 bb 29 6e 78 3c f2 c6 1d 3e 11 b3 d9 bd
       -0.0065895864 0.015162983 0.15407923 -0.10629857
000300 8c d4 55 3b 60 b2 f8 3c 03 61 ea bd 85 60 0f be
       0.0032627909 0.030358493 -0.11444285 -0.14001663
000310 ab 0a d8 bb 56 e6 07 be c8 00 25 bc 54 17 b1 bc
       -0.0065930686 -0.1327146 -0.010070987 -0.021617569
000320 22 af cf 3c 5d 9c 25 bd d1 6d 0d bd 47 75 b5 3c
       0.025352065 -0.040432323 -0.034528557 0.022150649
000330 ca b8 14 bd af a6 16 3d 50 c0 08 3c f0 57 33 bc
       -0.03630904 0.036780056 0.008346632 -0.010946259
000340 30 50 71 3b 6f 10 0b bc 1c 82 0e bd e0 fb 0a bc
       0.0036821477 -0.008487805 -0.03479205 -0.008482903
000350 bc 0d 9e bc 22 d3 c8 bc 3a a9 38 bd 79 68 15 bd
       -0.019293658 -0.024514738 -0.045083262 -0.036476586
000360 4b 5c b4 be aa 9e 85 be 80 6b 14 bf 7d 67 20 3c
       -0.35226664 -0.26097614 -0.5797653 0.0097902985
000370 55 aa fd be 9f 50 90 be db 45 a3 bd 0e dc 46 bf
       -0.49544016 -0.2818651 -0.07972308 -0.77679527
000380 50 2c ef bd 87 30 34 bd b5 70 62 bc d5 ce b3 bc
       -0.11678374 -0.04399159 -0.013820817 -0.021949211
000390 97 02 a4 3b 37 c8 ec bc fa 1f 32 bd af 3e 0d bd
       0.0050051915 -0.028904064 -0.043487526 -0.034483608
0003a0 16 34 a7 bc 70 ec f2 bc 0d 8e 51 bd e8 0b 91 3d
       -0.020410579 -0.029653758 -0.05116086 0.07082349
0003b0 4d f3 eb 3d a3 ea 19 be cb 85 09 be fc 09 8d 3d
       0.11521015 -0.15030913 -0.13429944 0.0688667
0003c0 0f 26 1d be cf e3 57 3d 60 17 aa 3c 72 0e 1b 3c
       -0.1534655 0.05270749 0.0207631 0.009463893
0003d0 f2 b2 c4 bc bf 17 ea bc b9 ff d3 bc ef 2e 08 bd
       -0.024011109 -0.028575776 -0.025878774 -0.033247884
0003e0 48 a5 17 3b e7 19 f7 bb 6c 46 bc bc 69 c5 e1 3a
       0.0023139287 -0.0075409296 -0.022982799 0.001722497
0003f0 ed ca a4 3d 09 4c 80 3e 79 cd 81 3e 0c 9f 6c bc
       0.080465175 0.2505801 0.25352076 -0.014442217

module.cnn.4.bias f4 [64]
000000 17 32 e9 3e 9f 00 c3 be 70 12 c7 be 00 28 3b be
       0.45546028 -0.3808641 -0.38881254 -0.18276978
000010 02 9c 1b be 7c b2 c8 be 59 39 15 3f 8a 98 4c be
       -0.15196231 -0.39198673 0.5829063 -0.19980064
000020 9b c8 0a be a8 c3 4a 3e ae 4f 17 bf 2c 8a b8 3e
       -0.13553087 0.198012 -0.59105957 0.36042917
000030 fc 4c 2f be 0f 40 5a be d1 36 fd be 42 9a 2d 3f
       -0.17119211 -0.21313499 -0.49455884 0.67813504
000040 ef ee 02 be 12 00 0e be 02 8c da bd 5a 96 dc bd
       -0.12786458 -0.13867214 -0.106712356 -0.10770865
000050 80 77 9d 3e 9c 68 66 3f af 62 ea bd 24 ad 27 be
       0.30755234 0.9000337 -0.11444604 -0.16374642
000060 ca 87 16 be c4 d7 89 bd 59 b1 85 3e a6 14 04 be
       -0.14700237 -0.06730607 0.26111868 -0.12898502
000070 85 49 1c be 35 38 db 3e 8d 2d 3e be e4 d6 04 3e
       -0.1526242 0.4281632 -0.18572064 0.129726
000080 87 fe d2 bd b1 2e 81 bd 33 29 8a 3e 13 1f dd be
       -0.103024535 -0.06307734 0.26984558 -0.4318777
000090 56 b0 e6 be 9f 01 f6 bd 07 56 3c 3f f3 a4 52 be
       -0.4505641 -0.12012028 0.7356877 -0.20570736
0000a0 18 37 4f be 04 06 31 be 41 cf 22 3f 23 4d bd bd
       -0.2023586 -0.17287451 0.63597494 -0.09243228
0000b0 13 08 40 be de fb 3c bd fa f1 27 3f 8b fd 69 bd
       -0.1875308 -0.046138637 0.656036 -0.057126563
0000c0 b1 06 17 3d d7 72 af be 01 af 84 3f 66 43 d6 be
       0.036871616 -0.34267303 1.0365907 -0.41848296
0000d0 e0 97 df 3d 56 40 74 3e ae bf c8 be a6 47 f3 bd
       0.1091764 0.23852667 -0.3920874 -0.118789
0000e0 da 97 4d 3d 91 63 91 be b4 df 96 3e 55 e2 a2 be
       0.050193645 -0.28396276 0.29467547 -0.31813303
0000f0 96 09 6e be 6a 4a f3 be 74 40 8d be 5c 77 b0 bd
       -0.23245844 -0.4751771 -0.27588236 -0.08616516

module.cnn.6.weight f4 [64, 64, 3, 3]
000000 2d 01 57 3e 14 2d 36 3f ec 61 0b 3f e1 fd e9 3e
       0.20996542 0.71162534 0.5444629 0.45701507
000010 14 97 34 be 3a 29 ad 3b 4d b5 8a be 5f 96 1d bf
       -0.17635757 0.0052844556 -0.27091447 -0.61557573
000020 33 f4 99 bf 68 52 0b 3e 0f 4c b4 3e ae 6c f2 3e
       -1.2027649 0.13605654 0.35214278 0.4734854
000030 1a 7e ec 3e ef d8 ea be a5 09 89 be c9 d0 d1 3d
       0.46189958 -0.45868632 -0.2676517 0.10244901
000040 cc b3 a0 be c6 28 ba bd e5 36 e2 bd c0 14 82 3c
       -0.31387174 -0.09089808 -0.110456266 0.015879035
000050 05 86 93 be 23 47 3c bf fa b4 82 be d0 c9 58 3e
       -0.28813186 -0.73546046 -0.255287 0.21170735
000060 7a 56 a2 3d 80 0f a5 bc d0 9e 1d 3e 6b 8f b4 3c
       0.0792665 -0.020148993 0.15392613 0.022041043
000070 48 10 42 3d a1 f4 17 bd 71 5e 1d bd 2f 4a fa bc
       0.04737881 -0.03709853 -0.038420144 -0.030552952
000080 e7 74 b9 3d 7c 7a a0 bc 49 4d b2 3d 8f 60 22 3c
       0.090555005 -0.019589655 0.08706147 0.009910717
000090 46 f0 37 be 71 0e 12 be ed 8a 86 3e cd aa f1 3d
       -0.17962751 -0.14263321 0.26277867 0.11800156
0000a0 4d 58 b2 3e 70 16 dd 3e 43 63 6e 3e 1b 70 03 3e
       0.34832993 0.4318118 0.23280053 0.12835734
0000b0 05 a9 8b 3e 3f 86 6a 3e 33 34 ec bd f1 8c 30 bd
       0.2727739 0.22902773 -0.11533394 -0.043103162
0000c0 b4 cf 24 3e b2 a8 55 be 5b 37 b4 be 7e bd f2 3d
       0.16094857 -0.20865133 -0.35198483 0.11852549
0000d0 88 61 27 be ff 15 f4 bd 3c 0f 09 3f 96 c7 26 3e
       -0.16345799 -0.11918258 0.5353887 0.16287073
0000e0 a5 29 8e bd a1 36 b3 3e 66 6e 1c bf 78 fc 16 3d
       -0.06941537 0.35002616 -0.61105955 0.036861867
0000f0 13 5c 0f 3e b7 b4 11 be 7d c0 25 be 5f 72 e6 bd
       0.13999967 -0.14229093 -0.1618671 -0.11252283
000100 8d 03 38 3d 7d 25 77 be 08 cd f8 3e fe 41 47 3f
       0.04492526 -0.24135394 0.48593926 0.7783507
000110 14 56 0d 3f 28 30 78 be 8e 90 b5 be 0d 58 12 bf
       0.5520947 -0.2423712 -0.3546185 -0.57165605
000120 3f d6 b5 bd ba fa ee 3b 7f c3 d9 3d e6 35 20 ba
       -0.08878755 0.0072930725 0.10632991 -0.0006111547
000130 7a 77 00 3e 88 90 cc 39 4d cc 62 bd 81 ae ce 3d
       0.12545577 0.00039017596 -0.055370618 0.10091878
000140 4b 63 06 3b aa 46 03 3f 01 3d 2b be ce 6a 4f 3e
       0.002050596 0.512797 -0.1672249 0.20255587
000150 4f 17 b1 be b4 69 36 bf d3 b7 ff 3e 2e 17 17 3f
       -0.34588096 -0.7125504 0.49944934 0.59019744
000160 7c 87 65 3e 8d 82 2a bf 31 97 0c bf ec 7f 15 3d
       0.22414964 -0.66605455 -0.549182 0.03649895
000170 7e 93 ea be fb 61 73 be 45 62 cb bd cb 76 73 be
       -0.45815653 -0.23767845 -0.09930853 -0.23775785
000180 f6 b9 f8 3e f1 35 15 3e 1a f1 82 3d b1 c4 37 3f
       0.48579377 0.14571358 0.06393643 0.717845
000190 d1 c6 86 bd d9 a5 c6 bc d0 0c a2 3e 18 1e a6 bd
       -0.0658089 -0.024249004 0.316504 -0.08111209
0001a0 84 c4 1d bf d5 b0 ef 3d 44 99 29 3e 95 62 12 3f
       -0.61627984 0.1170365 0.16562372 0.57181674
0001b0 29 6f a9 bd 8a 60 b4 bc f6 e5 01 3d 23 8d 05 bd
       -0.08273155 -0.02201869 0.03171345 -0.0326053
0001c0 ff 01 bc bd 91 e5 0f 3c 9e 4f 0f 3d 1d 49 96 3c
       -0.09180068 0.00878276 0.03498804 0.01834541
0001d0 07 bc a6 bd dc 38 0b bd 9a 2e 08 bc 02 76 c4 3c
       -0.08141332 -0.033989772 -0.008311892 0.023982052
0001e0 4b ea 5e 3c ac 82 87 bc 9d 0a e0 3b e4 de 43 3d
       0.0136056645 -0.016541801 0.0068372027 0.047819987
0001f0 ae 76 52 bc cb 8a b0 3c 30 0d b9 be 59 66 51 bf
       -0.012845678 0.021550557 -0.36142874 -0.81796795
000200 a7 42 ca be f7 8b b7 3e 3e be 33 3e a3 4c 2e be
       -0.39503977 0.35848972 0.1755304 -0.17021422
000210 99 ff 83 be c2 b0 3f 3e ce 61 ce be c6 43 0a 3f
       -0.25780943 0.18719772 -0.40308994 0.54009664
000220 53 59 37 3e 8d 1e 9e be 8d 87 a5 be dc 69 d6 be
       0.17905168 -0.30882683 -0.3232998 -0.4187764
000230 2b 66 b8 be 57 7b b7 be c6 b2 ec bc 97 ec c6 3e
       -0.36015448 -0.35836288 -0.02889384 0.3885238
000240 07 68 54 be 52 74 1c 3d e2 1f 90 3d 52 e0 3e 3d
       -0.20742808 0.03819687 0.07037331 0.046600647
000250 59 e2 86 bc a6 df 30 bd ac 4a 1a 3d 1c d8 89 bd
       -0.016465353 -0.043182038 0.03766887 -0.06730673
000260 02 69 29 be 9c 98 99 bd 0b 81 e3 bd 02 52 0a 3d
       -0.16543964 -0.07499811 -0.11108597 0.033769615
000270 f9 8c 08 bd a4 59 e8 bc 35 41 e7 bd 10 be 1b 3d
       -0.033337567 -0.028363056 -0.11291734 0.038023055
000280 9e 21 31 3d da 27 17 bd 83 87 2b 3c a4 10 99 bc
       0.04324495 -0.03690324 0.01046932 -0.018684693
000290 f6 fc ee bc 3f 1a 13 be d2 80 17 bd 88 01 af bc
       -0.029173356 -0.14365481 -0.036988087 -0.021363035
0002a0 1f 2e 3c 3d ab 2c b0 3d 54 25 0c 3d 1c d8 e5 be
       0.045942422 0.0860227 0.034215286 -0.4489144
0002b0 99 8b d7 be 35 ec 1e bf 4a a2 8b be e9 f1 2f 3e
       -0.42098692 -0.62079173 -0.27272254 0.17182125
0002c0 fd 1e 1e 3e 1b 22 be 3e 3b c6 e1 3e 35 73 b4 bd
       0.15441509 0.37135395 0.4409655 -0.088110365
0002d0 36 de 95 3e 60 41 d6 bb 24 40 5e 3f a0 75 80 3d
       0.29271096 -0.006538555 0.8681662 0.06272435
0002e0 8e 40 5a be 5b 22 28 be 38 37 f5 bd 8a 19 25 be
       -0.21313688 -0.16419356 -0.11973423 -0.16123024
0002f0 58 81 1d bf 0d 8d 76 3e 91 bb df be f8 0c 58 bd
       -0.6152549 0.24077244 -0.4369779 -0.052746743
000300 11 26 b6 3e a6 b1 86 be 2d 89 64 3e e6 4f 87 be
       0.35575917 -0.2630741 0.22317953 -0.26428145
000310 a3 81 34 3e 53 a5 ef be b6 13 e2 bd 2d fb ec bd
       0.17627577 -0.4680582 -0.11038916 -0.115713455
000320 3e a3 8f bd 16 05 b5 bd 5d 2a 21 be 7d d1 de bd
       -0.07013558 -0.08838861 -0.15738817 -0.108798005
000330 55 88 6f bd 3f 0a 07 3e 34 2d 59 bd 88 b8 de bd
       -0.058479626 0.13187502 -0.053021625 -0.1087504
000340 18 7c bc 3d 01 d9 c8 3b a5 76 ef bc a0 20 22 3d
       0.092033565 0.0061293845 -0.029231379 0.039581895
000350 27 a3 ff 3c 0a 78 bf bd 29 1a 17 3d 53 28 a5 bd
       0.031205727 -0.093490675 0.036890183 -0.08064332
000360 d9 a1 fc bd a2 48 2f 3e e6 b7 38 3f 8d 7b 1f be
       -0.123355575 0.17117551 0.72155607 -0.15574475
000370 d4 cd 9e be d6 ae 11 3e 79 05 fa bd b6 3a c9 3d
       -0.3101641 0.14226851 -0.12208075 0.09825651
000380 e8 f2 b3 bd cf b3 d0 be 99 e0 c2 3e f2 9d ff 3e
       -0.08786565 -0.40762183 0.3806198 0.4992519
000390 96 c4 bf 3b 1d 6f d9 bd 7d a8 11 bf 4a c7 e6 be
       0.0058522923 -0.10616896 -0.5689772 -0.4507392
0003a0 b8 f9 b5 3e fb 86 85 bc c8 89 1c 3f c0 7b 4a 3e
       0.35542083 -0.016299715 0.6114774 0.1977377
0003b0 ff ff 03 3e 0a 3d a4 3e 6d 9e c2 3e 55 d0 4d 3f
       0.12890624 0.3207782 0.38011494 0.80396014
0003c0 f4 53 18 3e 96 85 21 3f a3 16 97 3e 7b be cf bd
       0.14875776 0.6309446 0.29509458 -0.10143753
0003d0 6d 76 27 bf 0d 94 35 bd e6 85 d1 be 7a 5a 6d be
       -0.6541508 -0.044330645 -0.4092247 -0.23179045
0003e0 af bf a5 bd f6 d6 28 bf b3 4f 54 bf e2 bc 64 be
       -0.08093201 -0.65953004 -0.8293411 -0.22337678
0003f0 32 24 c9 bb 06 69 b1 bc ce 7c 59 bc cc 3c ee b9
       -0.006138348 -0.021656524 -0.013274385 -0.00045440195

module.cnn.6.bias f4 [64]
000000 58 e7 18 bd 85 8c 73 bd 16 1c a2 3e 34 79 6a 3d
       -0.03733 -0.05946018 0.31662053 0.057244495
000010 d9 0e 55 be 5c 3b 00 3e b8 88 d3 be 3b 34 12 bf
       -0.20806445 0.12522644 -0.41315246 -0.5711095
000020 27 c9 ca be 4c 06 86 be 7b 06 e2 bd 6e 08 82 be
       -0.39606592 -0.2617668 -0.11036392 -0.25397056
000030 55 0c 90 be b0 a5 8a 3d 02 85 89 bd 61 2d e8 bd
       -0.2813441 0.06769884 -0.06714822 -0.1133678
000040 79 8b 06 bf e8 3c 6e bd 78 b0 68 bd f3 1f 86 bf
       -0.5255657 -0.058163553 -0.05680892 -1.04785
000050 a9 0f cb be d2 13 c2 be 98 7d bc 3e 7c ce 8e bc
       -0.39660385 -0.37905747 0.3681457 -0.017432444
000060 ec e5 b0 3c 66 68 d4 bd d4 96 38 3e bf fe e3 bd
       0.02159401 -0.10371475 0.18026286 -0.11132573
000070 28 6c 29 3e e5 f8 8b b8 66 bf 05 be 0c 50 29 3d
       0.16545165 -6.674397e-05 -0.13061294 0.041336104
000080 5a 95 8b 3d ed e8 96 bc 4a f2 cb be f0 d1 e1 bd
       0.06815596 -0.018421615 -0.3983329 -0.110263705
000090 37 a6 16 bf df 8a 43 be fb 93 bc bd 0d 01 a0 be
       -0.58847374 -0.19095944 -0.092079125 -0.31250802
0000a0 18 56 09 bd 2c 6b 8c 3e be df 7b 3d 89 84 b3 be
       -0.03352937 0.27425516 0.061492674 -0.35062054
0000b0 35 82 e3 be e5 15 c5 be 91 e1 a0 3e fa a1 b6 bc
       -0.44435278 -0.38493267 0.31422094 -0.022294033
0000c0 11 7e c5 bd 2e 9e 47 bf 4f e1 c7 3d 9f 89 97 bd
       -0.09643186 -0.7797574 0.09759771 -0.07399296
0000d0 c4 34 d6 be ae fc 94 be 70 8e da bd 28 fc b9 3e
       -0.41837132 -0.2909903 -0.10671699 0.36325192
0000e0 be 98 0f bf 21 a9 a4 be 71 c1 a4 bd 4d 99 8c be
       -0.5609244 -0.32160285 -0.080447085 -0.2746071
0000f0 ef 88 8c bd 24 29 8a bd fa 50 c7 bc ea a9 73 bf
       -0.068620555 -0.06746128 -0.024330605 -0.95181143

module.fc.0.weight f4 [5, 67]
000000 62 6e d5 bd 8e f5 19 be 3c c2 c8 bc c5 e4 44 be
       -0.104214445 -0.15035078 -0.02450668 -0.19227894
000010 08 23 95 bc 78 13 3d be 48 05 54 3e 21 24 4f 3e
       -0.01820518 -0.18464458 0.2070514 0.20228626
000020 eb fb 42 bd 32 f5 24 be 02 23 28 be 24 25 b0 bd
       -0.04760353 -0.1610916 -0.16419604 -0.08600834
000030 f6 c7 7a be 06 3c 19 3e 8b 39 a1 3d f0 40 4b 3d
       -0.24490342 0.14964303 0.078723036 0.049622476
000040 78 1b cf be c2 61 f4 3c 7d 65 fa bc 17 69 4f 3e
       -0.40450644 0.02983177 -0.030565972 0.20254932
000050 5f ac a2 bd b5 21 f7 bc 50 6b 1c bc 44 91 80 bc
       -0.079430334 -0.03016744 -0.00954707 -0.015694268
000060 a6 29 1c 3e 68 38 94 bd 3d 07 6b be 41 97 4c be
       0.15250263 -0.07237321 -0.2295198 -0.19979574
000070 db 25 5e 3d 56 51 52 3d 87 af f9 3d d7 fa 86 bd
       0.05423532 0.0513471 0.12191682 -0.06590813
000080 5a 81 15 be a7 b3 51 bd 71 a5 0a bd 3a 2d f9 bc
       -0.14600125 -0.05119672 -0.033849183 -0.030417074
000090 1d f9 17 3e 7e 81 1b be 3e 8a 16 be 40 e0 25 3e
       0.14841123 -0.15186116 -0.14701173 0.16198826
0000a0 8c 2a ee ba 32 09 28 3e cd b2 34 be ab 97 54 3e
       -0.0018170639 0.16409758 -0.17646332 0.20760982
0000b0 ad a2 6c be e0 9c b4 3d 4a 77 db bd 51 a2 82 3d
       -0.23108931 0.08818984 -0.10716112 0.06378616
0000c0 bf 97 58 bd a3 39 6b bd b9 5a 99 bd b8 ee 32 be
       -0.05287909 -0.057428014 -0.07488007 -0.17473876
0000d0 66 86 99 bb 78 44 21 bd e5 50 17 be c2 0d ae bd
       -0.004685211 -0.039371938 -0.14776953 -0.08498718
0000e0 86 84 cd be b7 4f 21 be 23 5c ff bc 43 fb 5f bd
       -0.4014017 -0.15753065 -0.031171864 -0.05468298
0000f0 1f d3 09 3e 33 33 a8 bd 41 f9 5b bd 2e 68 40 bd
       0.13459443 -0.082128905 -0.053704504 -0.046974353
000100 64 98 3f be d4 ba 4f bf dc bf 66 3f 3d 2e 1c 3e
       -0.18710476 -0.8114445 0.90136504 0.15252014
000110 f1 b9 55 3c a1 05 cd 3d 07 b0 25 be 4a c5 85 bc
       0.01304482 0.10010839 -0.1618043 -0.016329426
000120 83 5b 04 3d 37 9b 1e 3e 34 af 94 3d 22 2a c4 bd
       0.032313835 0.15488897 0.0725998 -0.09578349
000130 6e c3 e6 bd 96 69 9e bd 38 ce c1 ba b1 d9 9b bd
       -0.11267744 -0.07734983 -0.001478619 -0.07609881
000140 ba 32 89 3d f5 d3 be bd 4a e0 33 3d b6 c0 72 3d
       0.066991284 -0.09317771 0.04391507 0.059265815
000150 a5 52 86 bd 09 72 47 bd c8 6e 10 be dc 63 af bd
       -0.06558732 -0.048692737 -0.1410476 -0.085639685
000160 96 87 81 3e 47 a5 da 3d cf 96 fc 3b 15 cc a2 bd
       0.25298756 0.106760554 0.0077084075 -0.07949082
000170 90 39 4e be e6 cd d5 bd 87 8d e5 bd b5 87 0e be
       -0.20139146 -0.10439663 -0.11208635 -0.13918956
000180 fc c8 86 3b a6 49 e7 3d e5 01 be bd 67 50 fd 3d
       0.0041133147 0.11293344 -0.09277705 0.12368851
000190 cb 81 8b 3c e1 12 52 be 4f 63 09 be 84 81 75 bd
       0.017029664 -0.20515014 -0.1341679 -0.05993797
0001a0 ae 82 b8 bd 63 74 08 bc 0e 45 c5 3d 53 8a 19 be
       -0.090093 -0.00832853 0.09632312 -0.14994173
0001b0 d9 ed 73 3d 57 e0 8e bd a6 12 96 bd 33 47 d4 bd
       0.059553 -0.06976383 -0.07327776 -0.10365143
0001c0 7a d6 ca bd 0e df b6 3d 5c 77 32 3d d5 d0 4d bc
       -0.099041894 0.08929263 0.04357086 -0.0125619965
0001d0 ee 11 19 be 07 4a 10 be ee 89 c4 bb 03 08 3a be
       -0.14948246 -0.14090739 -0.005997888 -0.18167119
0001e0 8b ed 0f bd 1a 19 42 be fa 88 23 be 77 76 87 be
       -0.035138648 -0.18954888 -0.15970221 -0.2645757
0001f0 14 d3 ff bc ea 76 97 3c 31 1f 95 bb 31 a7 b5 bc
       -0.03122858 0.01848932 -0.0045508374 -0.02217445
000200 9a cb 1c be 39 cf 7f bc e9 6e 0d be 3b 92 cd 3d
       -0.15312043 -0.015613371 -0.1381184 0.10037657
000210 f4 37 95 bf c5 1a f8 3e e7 97 1a 3d 69 86 ac 3c
       -1.16577 0.48457924 0.03774252 0.021060186
000220 90 42 15 3e 8e 1f aa 3d c1 4c 0a 3c 52 4d 0c 3e
       0.14576173 0.083068 0.008441151 0.1370137
000230 40 15 0b be d0 58 91 bd 5f 4b c2 bc 8c d3 ce bd
       -0.13582325 -0.07097018 -0.02371758 -0.10098943
000240 64 be d6 3d 1a de 05 bd 2b 11 84 bc 36 8b ed bd
       0.10485533 -0.032682516 -0.016121468 -0.11598818
000250 30 4e 9e bb 03 95 16 3c 79 50 40 3d db b8 52 3d
       -0.004831098 0.009190801 0.046951745 0.051445823
000260 eb a8 fe bc a3 8c ab be 46 8c 26 be 61 36 4d bd
       -0.031086406 -0.33505735 -0.16264448 -0.050100688
000270 c4 b0 3c 3e a6 39 f5 3c b7 bb 9e bd 2d b7 99 3d
       0.18426806 0.029934715 -0.077506475 0.07505641
000280 ea a5 40 bd 7d 38 16 3d 28 d6 96 bd da 38 a4 bc
       -0.047033228 0.036674965 -0.07365066 -0.02004664
000290 70 75 a4 bd 86 d1 a7 bd 51 a1 52 3d 02 ba e6 bc
       -0.08030212 -0.0819426 0.051423375 -0.028164867
0002a0 1c c0 0f 3d 07 6c e8 3d e5 c2 e7 bd 9b 1d b7 3d
       0.03509532 0.113487296 -0.1131647 0.08941194
0002b0 ae 9d a6 3d 3b 33 73 3d 2d a8 0a bd 55 59 4e 3d
       0.08135544 0.05937503 -0.03385179 0.050378162
0002c0 66 c5 60 3c 8f 0d 2e be e4 69 61 3d 8f 26 bd bc
       0.013718938 -0.1699736 0.055032626 -0.023089675
0002d0 4d 55 00 3e cb 1b 18 3d cd e3 20 3e be 02 5f be
       0.1253254 0.03713588 0.15711899 -0.2177839
0002e0 94 3d c8 3c 33 25 63 bc a1 84 c1 bd a1 8c b8 bd
       0.024443425 -0.013863849 -0.09449125 -0.09011198
0002f0 e5 48 ed 3b 49 2c 0e be 34 69 d3 bd a2 68 6e 3e
       0.0072413557 -0.13884081 -0.103228 0.23282102
000300 b1 1a 79 bd d9 b7 09 3d f4 f5 07 be 0c cc 31 ba
       -0.06081647 0.033622596 -0.13277417 -0.00067824195
000310 3e ec 54 bd 52 94 0d be 82 2a 92 3e e1 5a f1 be
       -0.05198311 -0.13826111 0.28548056 -0.47139648
000320 5e 29 1e bf 70 4a cc bb 47 18 6b bd e3 53 11 be
       -0.6178187 -0.0062344596 -0.0573962 -0.14192156
000330 16 a7 5a 3d 45 f1 e2 3c 4f b8 2f 3d 76 24 81 be
       0.053382 0.027702937 0.04290038 -0.2522313
000340 e2 1d 90 be 0e f7 43 be a5 00 0f 3e 7c c2 24 bd
       -0.281478 -0.19137213 0.1396509 -0.040224537
000350 88 b4 de bd ea 67 4a 3e f2 6c e9 bc 5f 92 35 3c
       -0.10874277 0.19766203 -0.028494332 0.011082261
000360 05 40 8a 3d af 5a b9 be 5f 49 e0 bb 75 4c 78 3d
       0.06750492 -0.36202 -0.006844684 0.06061979
000370 2c 0b fe be 87 4e 25 3e 43 aa 0f 3b 1a 56 2f 3d
       -0.49617898 0.16143237 0.0021921552 0.042806722
000380 e0 4d a7 bc f2 30 93 bd b5 9b bc bd 93 88 1f 3e
       -0.020422876 -0.0718707 -0.09209386 0.15579443
000390 f3 84 d3 bb 08 85 2f be 5a 12 50 bd f8 a8 3f be
       -0.0064550578 -0.17140591 -0.05079875 -0.187168
0003a0 15 1c ea bd 92 59 bc 3c 7a 8c 0c bd 77 6e 3a bd
       -0.114311375 0.02299193 -0.034313656 -0.045515504
0003b0 79 de 76 bd 2c 92 06 be 6f 61 f9 3a 55 d5 e7 bd
       -0.06027076 -0.13141698 0.001902623 -0.11319987
0003c0 c1 6f 57 bd 97 40 6e bd f8 d1 1c be 18 38 4a 3e
       -0.05259681 -0.058167066 -0.15314472 0.1974796
0003d0 22 f9 20 be f1 a7 1a be b3 33 0b be f8 cb cb 3c
       -0.15720037 -0.15103127 -0.1359394 0.024877533
0003e0 57 c7 fe 3d f2 88 e0 bd ae 7b be 3d 0b 5c 32 3e
       0.12440365 -0.1096362 0.09300934 0.17417924
0003f0 07 c2 35 3e 5b 0e b3 bd bb 1b 0b 3d d4 7e 34 3e
       0.17749797 -0.087429725 0.033961993 0.17626506

module.fc.0.bias f4 [5]
000000 f2 42 93 3e 4e b9 4b bc c7 75 92 bd d1 4a e7 bd
       0.28762013 -0.012434317 -0.071513705 -0.11293567
000010 c3 74 ee 3c
       0.02910841
