Sem 2/Intelligent Robots/Assignments/Lab 2/BehaviourCloning/Checkpoints/adam_3_extra_conv_e9.pt (torch, 674763 bytes, 14 tensors)

module.cnn.0.weight f4 [32, 3, 3, 3]
0	0x3d8e280f	0.06941234
1	0x3d28577d	0.04109906
2	0xbe288064	-0.16455227
3	0x3ba4b6c4	0.00502667
4	0xbd63de79	-0.05563209
5	0xbcabf03f	-0.020988582
6	0xbe55b686	-0.20870408
7	0x3df29e18	0.1184656
8	0x3c85d13f	0.016335128
9	0x3e9820eb	0.29712614
10	0x3ec8b332	0.39199215
11	0x3e06dbbf	0.13169764
12	0x3eb4e4ce	0.35330814
13	0x3dee4cdc	0.116357535
14	0x3dab94b7	0.083779745
15	0xbae0a1e4	-0.0017138091
16	0x3e406a51	0.18790556
17	0xbdc63c2f	-0.09679448
18	0x3d9c48d1	0.07631076
19	0x3c918e02	0.01776791
20	0xbe66f3e2	-0.22553971
21	0xbcfabf54	-0.03060881
22	0xbe269bae	-0.16270325
23	0xbd95b1cb	-0.07309302
24	0xbe9bd736	-0.3043763
25	0xbdb1cf56	-0.08682124
26	0xbe64d3d9	-0.22346438
27	0xbe56d76c	-0.20980614
28	0xbdf8619e	-0.12127994
29	0xbdb55058	-0.08853215
30	0xbd680bba	-0.05665181
31	0xbe87032b	-0.26369604
32	0x3dd4514b	0.10367068
33	0xbe84f8c1	-0.25971034
34	0xbe3db6ba	-0.18526736
35	0xbde18006	-0.11010747
36	0x3e76572c	0.24056691
37	0x3ea31aac	0.31856287
38	0xbc01742d	-0.007901234
39	0x3e30b89b	0.17257921
40	0x3e0d8e63	0.13823847
41	0xbd926fe2	-0.07150246
42	0xbcfc868a	-0.030825872
43	0x3d64fb4b	0.055903714
44	0xbe55efcd	-0.20892258
45	0xbdfc47a3	-0.12318351
46	0xbd56683b	-0.052345496
47	0xbe93aac2	-0.28841215
48	0xbd50e53c	-0.050999865
49	0xbe8af5e7	-0.27140734
50	0xbede8ef3	-0.43468437
51	0xbeca245f	-0.39480874
52	0xbebbaa1f	-0.3665323
53	0xbed02ec9	-0.40660694
54	0x3e51e877	0.20498835
55	0x3de2a2c9	0.11066205
56	0x3e566c2e	0.20939705
57	0x3ed16039	0.40893725
58	0x3eadb9c5	0.33930793
59	0x3e88f0a1	0.26746085
60	0x3ed22252	0.4104181
61	0x3e37ef09	0.17962278
62	0x3ec577b3	0.38567886
63	0x3d8f71f5	0.070041575
64	0x3e210344	0.15723902
65	0x3c74f364	0.014950607
66	0x3e32e0d8	0.17468584
67	0x3dc7c834	0.097549826
68	0x3cf30486	0.029665243
69	0x3c1aa9ff	0.009439944
70	0x3e826e2c	0.2547468
71	0x3e02d6d6	0.12777266
72	0xbe162e49	-0.14666094
73	0xbeb60b7a	-0.3555563
74	0xbf0487ba	-0.517696
75	0xbf0f3690	-0.5594263
76	0xbed700cb	-0.41992792
77	0xbed94a17	-0.4243934
78	0xbed64300	-0.41847992
79	0xbe8a1e38	-0.2697618
80	0xbef240b4	-0.4731499
81	0xbe7b652c	-0.24550313
82	0xbc70c235	-0.01469474
83	0x3cb857cb	0.0225028
84	0xbce476a0	-0.027888596
85	0xbc4c16f2	-0.012456642
86	0xbe5b8595	-0.21437676
87	0xbe724ab0	-0.23661304
88	0x3bae0721	0.0053109084
89	0x3d97adee	0.07406221
90	0x3e7957a8	0.24349844
91	0x3ea99e22	0.33128458
92	0x3ed49ff4	0.41528285
93	0x3ef27f62	0.4736281
94	0x3e90b6cc	0.28264463
95	0xbd86bf22	-0.065794244
96	0x3e5748d3	0.21023874
97	0x3db86aab	0.0900472
98	0x3d64a1ce	0.05581837
99	0xbe864922	-0.2622767
100	0xbdc717b8	-0.09721321
101	0xbd7fb46c	-0.062427923
102	0xbc016d22	-0.007899554
103	0xbd92b753	-0.071638726
104	0xbecbde7b	-0.39818177
105	0xbead99a6	-0.33906287
106	0xbe922c39	-0.28549364
107	0xbe7940bf	-0.24341105
108	0x3e006080	0.12536812
109	0xbd655944	-0.055993333
110	0x3e97ff8b	0.2968715
111	0x3e053676	0.13009056
112	0xbe1445ac	-0.14479703
113	0xbec4ca4a	-0.38435584
114	0xbdd150b2	-0.102204695
115	0xbd4c74bf	-0.049916025
116	0xbc9e1029	-0.019294815
117	0x3de7da27	0.11320906
118	0x3d51379b	0.05107842
119	0x3e19268a	0.14956108
120	0x3dfcfe78	0.123532236
121	0xbdbab871	-0.09117211
122	0xbe8ef53d	-0.27921477
123	0xbda7c644	-0.08192113
124	0xbd84a10b	-0.06476029
125	0xbdd58d34	-0.10427323
126	0x3d15149b	0.036396604
127	0x3cf0f680	0.029414415
128	0x3e938e58	0.28819537
129	0x3c5a03f8	0.01330661
130	0x3e26cbe0	0.1628871
131	0xbe416c21	-0.18888904
132	0xbe5cb85d	-0.21554704
133	0x3da1305e	0.078705534
134	0xbbd97de2	-0.006637321
135	0x3e2dfd53	0.16991167
136	0xbda5ace5	-0.08089618
137	0x3d5e8581	0.054326538
138	0x3cb73d04	0.022367962
139	0xbde59472	-0.11209954
140	0x3df6d147	0.12051635
141	0xbe1e99a3	-0.15488295
142	0xbd03e87a	-0.03220413
143	0xbe471db5	-0.19444926
144	0x3e072def	0.13201116
145	0x3cac1394	0.02100543
146	0x3e48be31	0.19603802
147	0x3d76830a	0.060183562
148	0x3de949bb	0.11391016
149	0x3a72e452	0.000926559
150	0x3c8f5430	0.017496198
151	0xbbd43405	-0.006475928
152	0x3bbc7514	0.0057512615
153	0xbe9e88bb	-0.30963692
154	0xbe04c2cb	-0.12964933
155	0xbe41af2f	-0.18914483
156	0xbe2a72b0	-0.16645312
157	0xbdc5c7ae	-0.096572265
158	0x3c2d0b69	0.010561802
159	0xbe188588	-0.14894688
160	0x3cfb28f5	0.030659178
161	0xbd83d017	-0.06436174
162	0xbb9eb454	-0.004843274
163	0xbd1f060e	-0.038824134
164	0x3e3b3c7c	0.18284792
165	0x3df86ee4	0.12130526
166	0xbd8b924e	-0.06815015
167	0x3e879bf4	0.2648617
168	0x3d23ce66	0.03999176
169	0xbda57d30	-0.08080518
170	0x3e896e45	0.2684194
171	0xbe1db4eb	-0.15401046
172	0xbe5d11c1	-0.21588804
173	0xbeb2a8a6	-0.34894294
174	0xbcfb084c	-0.030643605
175	0xbe740fe2	-0.23834184
176	0xbea30789	-0.31841686
177	0xbda870e6	-0.08224659
178	0xbe4e5623	-0.20150046
179	0xbe8c77c8	-0.27435136
180	0x3d8978a4	0.067124635
181	0x3d95ef82	0.07321073
182	0x3dbf4f79	0.0934133
183	0x3e0d1dfe	0.13780972
184	0x3df45ea8	0.11932117
185	0x3e2dfeba	0.16991702
186	0x3e0d49a8	0.13797629
187	0x3d0e0961	0.034676913
188	0x3e3752e2	0.17902711
189	0xbc48305b	-0.01221856
190	0xbd950ece	-0.072782144
191	0x3db03df1	0.086055644
192	0xbd11464c	-0.03546743
193	0x3d5baaf1	0.05362982
194	0xbdd26e2b	-0.10274919
195	0x3bb88783	0.0056313886
196	0x3deda68c	0.11604032
197	0x3e0a69fa	0.1351699
198	0x3ea0b714	0.31389678
199	0x3e4d85f0	0.20070624
200	0x3e094525	0.13405283
201	0x3dacc4ab	0.08435949
202	0x3e69b6ca	0.22823635
203	0x3dad5944	0.08464292
204	0x3d40598d	0.046960402
205	0x3c38f769	0.011289456
206	0x3dade722	0.08491351
207	0xbe45d4e2	-0.1931949
208	0xbe35bb34	-0.17747194
209	0xbd3f7c01	-0.04674912
210	0xbdd7cff2	-0.10537709
211	0xbd656c6d	-0.056011606
212	0xbec958ef	-0.39325663
213	0xbe8e2c39	-0.27768114
214	0xbe446e5e	-0.19182727
215	0xbd9f225f	-0.07770228
216	0x3ceade4f	0.028670458
217	0x3ee8f941	0.45502666
218	0x3ea63b17	0.32466957
219	0xbeecd3b7	-0.46255276
220	0xbeacfed0	-0.33788157
221	0xbdadd0d6	-0.08487098
222	0xbe4aebf0	-0.19816566
223	0xbe41aa98	-0.18912733
224	0x3e470fb6	0.19439587
225	0x3ee947ba	0.45562536
226	0x3f3782e9	0.7168413
227	0x3ebf0202	0.3730622
228	0xbdacb1e4	-0.084323674
229	0xbe8ea17a	-0.27857572
230	0xbeba90e3	-0.36438665
231	0x3d26d797	0.040732946
232	0xbeca5ed7	-0.39525482
233	0xbd4e2bf9	-0.050334904
234	0x3e568471	0.2094896
235	0x3efa8487	0.48929235
236	0x3e427343	0.18989281
237	0xbe245369	-0.16047443
238	0xbeb3ab7a	-0.35091764
239	0xbee341ac	-0.4438604
240	0x3c9cb1e1	0.019127788
241	0xbf0b1980	-0.54335785
242	0xbe2a1349	-0.16608919
243	0xbed89c87	-0.4230692
244	0x3cc8bbee	0.024503674
245	0x3e5560a0	0.20837641
246	0xbee49e5b	-0.44652066
247	0x3ccb5baa	0.024823982
248	0x3e08b1e2	0.13349107
249	0xbd4c88ee	-0.049935274
250	0xbe60e351	-0.21961714
251	0xbe256173	-0.16150455
252	0xbd93e429	-0.072212525
253	0x3dd689d4	0.104755074
254	0x3e9684e5	0.29398265
255	0xbe245a1a	-0.16049996

module.cnn.0.bias f4 [32]
0	0xbfa3f427	-1.2808884
1	0xbf9af1be	-1.2105024
2	0xbf57bf42	-0.8427621
3	0xbf89bc4c	-1.0760589
4	0xbfac5d45	-1.3465964
5	0xbf9deb05	-1.2337347
6	0xbf4351ce	-0.762967
7	0xbf585a8a	-0.8451315
8	0xbf10bda7	-0.56539387
9	0xbf9bc114	-1.2168298
10	0xbf92acde	-1.1459005
11	0xbf9a5512	-1.2057211
12	0xbf611c3a	-0.87933695
13	0x3f0f0e5f	0.55881304
14	0xbf87174e	-1.0553987
15	0xbf578c75	-0.84198695
16	0xbf88a050	-1.0673923
17	0xbe7b0245	-0.24512585
18	0xbde79a13	-0.11308684
19	0xbf50acf5	-0.8151391
20	0xbf6c8fda	-0.92407
21	0xbf526147	-0.82179683
22	0xbf82571d	-1.0182835
23	0xbfba18eb	-1.4538854
24	0xbfa09898	-1.2546568
25	0xbeeb6d00	-0.45981598
26	0xbf9183da	-1.1368363
27	0xbf95ff5b	-1.1718553
28	0xbf737f70	-0.9511633
29	0xbf36b6ed	-0.7137287
30	0xbe99a938	-0.30011916
31	0xbfa33a87	-1.2752236

module.cnn.2.weight f4 [64, 32, 3, 3]
0	0xbe60f188	-0.21967137
1	0xbda0507f	-0.078278534
2	0xbdaf685d	-0.085648276
3	0xbe35ac9e	-0.1774163
4	0xbdaa5048	-0.08316094
5	0xbdeaaf4e	-0.11459218
6	0xbd782f69	-0.06059209
7	0xbdd6f9a5	-0.10496835
8	0xbce04eb0	-0.027381271
9	0xbe1417db	-0.14462225
10	0xbdf6e652	-0.12055649
11	0xbdd61d50	-0.1045481
12	0xbe0d4b04	-0.13798147
13	0xbdeff50b	-0.1171666
14	0xbe15a6b3	-0.14614372
15	0xbdae01f0	-0.08496463
16	0xbd609ad4	-0.054835156
17	0xbca4fd7b	-0.0201404
18	0xbdf86f3a	-0.1213059
19	0xbe24bb64	-0.16087109
20	0xbe02177c	-0.12704271
21	0xbd90498b	-0.07045277
22	0xbe1c5d8e	-0.15270063
23	0xbd828e30	-0.06374776
24	0xbe6472f3	-0.22309475
25	0xbe1ee0a2	-0.15515378
26	0xbe4a731d	-0.19770475
27	0xbe3757fe	-0.1790466
28	0xbdd3bd49	-0.10338838
29	0xbdbfe518	-0.09369868
30	0xbe05887e	-0.13040349
31	0xbc83ebd5	-0.016103664
32	0xbe06d4cc	-0.13167113
33	0xbdf315a2	-0.118693605
34	0xbd062167	-0.0327467
35	0xbdb852a0	-0.090001345
36	0x3d6e5d42	0.058194406
37	0x3dbba70b	0.0916272
38	0x3d608ccc	0.054821774
39	0xbda07507	-0.07834821
40	0xbe1ef1a7	-0.1552187
41	0x3db7e75c	0.08979675
42	0xbe19903c	-0.14996427
43	0xbe3a6d1e	-0.18205687
44	0xbe088d9b	-0.13335268
45	0xbd12b114	-0.035813406
46	0xbd34be5b	-0.04412685
47	0xbccf51ba	-0.025307525
48	0xbd51fe90	-0.05126816
49	0xbc942516	-0.01808409
50	0xbe1efab1	-0.15525319
51	0x3d9aaa81	0.07552052
52	0xbda29e37	-0.07940333
53	0xbc359e69	-0.011085131
54	0xbe00f5bc	-0.1259374
55	0xbdc3bd2f	-0.09557568
56	0xbd655462	-0.055988677
57	0xbccc02bc	-0.024903648
58	0xbcbcbc58	-0.023039028
59	0xbd2c506b	-0.04206888
60	0xbe4015c1	-0.18758298
61	0xbdcba473	-0.099434756
62	0xbd3a4bdc	-0.0454825
63	0xbe1588f0	-0.14603019
64	0xbe14f14f	-0.14545177
65	0xbddd45d3	-0.108043335
66	0xbdfbb359	-0.12290067
67	0xbdc478e2	-0.09593369
68	0xbd7fcd8b	-0.06245188
69	0xbe0a7d63	-0.13524394
70	0xbe09bb5d	-0.1345038
71	0xbe0af466	-0.13569793
72	0xbe917148	-0.2840674
73	0xbe148b4e	-0.14506266
74	0x3d72203d	0.059112776
75	0x3d247022	0.040146
76	0xbde7d06d	-0.11319051
77	0xbdf76e2f	-0.12081563
78	0xbd189cb2	-0.03725881
79	0xbb79ec32	-0.0038135168
80	0x3d746dc5	0.059674997
81	0xbce3be9a	-0.027800847
82	0xbe13035f	-0.14356755
83	0xbdabbf55	-0.08386103
84	0xbd00f23c	-0.031481013
85	0xbe4383bc	-0.19093221
86	0xbe03e64c	-0.1288082
87	0xbe2dcdf6	-0.16973099
88	0xbe5781c9	-0.21045603
89	0xbe9b2184	-0.30299008
90	0xbe2f9004	-0.17144781
91	0xbd990c92	-0.07473101
92	0xbe0b1bb0	-0.1358478
93	0xbdf10c81	-0.11769963
94	0xbdb71e10	-0.08941281
95	0xbda12acb	-0.0786949
96	0xbe059f87	-0.13049136
97	0x3ca63509	0.020288961
98	0xbdad70c1	-0.08468772
99	0xbe515edc	-0.20446342
100	0xbdfc458c	-0.123179525
101	0x3d13a7a5	0.03604855
102	0xbe8e62f8	-0.27809882
103	0xbd8e0c4a	-0.06935938
104	0xbd69a788	-0.057044536
105	0xbe220637	-0.15822683
106	0x3dce4633	0.10071983
107	0x3d858b16	0.06520669
108	0xbe23e0e0	-0.16003752
109	0xbe6285b6	-0.22121319
110	0xbdb4716f	-0.08810698
111	0xbe1962b6	-0.14979061
112	0xbdd90b70	-0.10597885
113	0xbe7e0ad8	-0.24808824
114	0xbcf563cf	-0.029954819
115	0xbd409c8f	-0.047024306
116	0xbd0e5e78	-0.03475806
117	0xbd7c5f08	-0.061614066
118	0xbd69658f	-0.05698162
119	0xbe03e0a4	-0.12878662
120	0x3d33ab77	0.043864693
121	0xbd8567f2	-0.065139666
122	0xbe37a850	-0.179353
123	0x3d71e922	0.059060223
124	0xbe9ebc25	-0.31002918
125	0xbe496ed3	-0.19671182
126	0xbe5a774f	-0.21334575
127	0xbccf6495	-0.025316516
128	0x3ca1cba6	0.019750427
129	0x3d23c062	0.039978392
130	0xbd88214e	-0.06646977
131	0xbdca64ed	-0.09882531
132	0xbdbce115	-0.092226185
133	0x3d9fe439	0.07807202
134	0xbcb582bf	-0.022157071
135	0xbbfa6c78	-0.007642325
136	0xbde9216e	-0.11383329
137	0xbe2b69aa	-0.16739526
138	0xbe62c990	-0.22147202
139	0xbe27faf4	-0.16404325
140	0xbda3877c	-0.07984826
141	0xbd84db00	-0.064870834
142	0xbd2544e7	-0.040348914
143	0xbda2f6b7	-0.07957213
144	0xbde0401c	-0.10949728
145	0xbdab1064	-0.08352736
146	0xbddcbad2	-0.10777821
147	0xbe0a05bc	-0.1347875
148	0xbd379cf8	-0.04482743
149	0xbd56a0bb	-0.05239938
150	0xbda06057	-0.07830875
151	0xbd536d70	-0.05161804
152	0xbdac832c	-0.084234565
153	0xbe86b92a	-0.26313144
154	0xbd9787a1	-0.07398916
155	0x3d02dee8	0.03195086
156	0xbd24ba3d	-0.040216673
157	0xbd2a6c5c	-0.041607246
158	0xbdf33969	-0.118761845
159	0x3c0252df	0.007954328
160	0xbd9b68bf	-0.07588338
161	0xbe3abd31	-0.18236233
162	0xbe1151a3	-0.14191298
163	0xbe0f46d8	-0.13991868
164	0xbe0d469d	-0.13796468
165	0x3da7381c	0.08164999
166	0xbd0f7a83	-0.035028946
167	0xbd9d4604	-0.0767937
168	0xbe4f49e7	-0.20243035
169	0xbdfb1cf4	-0.12261382
170	0xbe7505af	-0.2392795
171	0xbddad737	-0.1068558
172	0xbe5ce7a9	-0.21572746
173	0xbcb25a35	-0.02177153
174	0xbe92c64d	-0.28666916
175	0xbe4d2432	-0.20033339
176	0xbe3a5c9e	-0.18199393
177	0xbdf5975c	-0.1199176
178	0xbdd20e05	-0.1025658
179	0xbc1716ee	-0.009221775
180	0xbe491aef	-0.1963918
181	0xbde1d7d4	-0.11027494
182	0xbda3860f	-0.07984554
183	0xbd354398	-0.044253916
184	0xbdbd4003	-0.09240725
185	0xbd91ef23	-0.0712569
186	0xbe31f793	-0.17379598
187	0xbde5c574	-0.11219302
188	0xbd75428a	-0.05987791
189	0x3bb98798	0.005661916
190	0x382f6b66	4.1823274e-05
191	0x3a795d21	0.00095124735
192	0xbc1f81d2	-0.009735541
193	0xbd86a0c4	-0.06573632
194	0xbd89de75	-0.067318834
195	0xbd99ea81	-0.07515431
196	0xbd13ac83	-0.036053192
197	0xbd16e3e5	-0.03683843
198	0x3c9e5d09	0.019331472
199	0xbe545a6e	-0.20737621
200	0xbd17431e	-0.036929242
201	0x3d8a416c	0.067507595
202	0x3dbc96c0	0.09208441
203	0x3db59b63	0.08867528
204	0xbdd261cb	-0.10272559
205	0xbd313d08	-0.043271095
206	0xbc8fb7f3	-0.017543769
207	0xbe052f66	-0.13006362
208	0xbe1b156d	-0.15144892
209	0xbd8afa2a	-0.06785996
210	0xbe24c618	-0.16091192
211	0xbd9243ee	-0.07141863
212	0xbdeb3e68	-0.114865124
213	0xbdf62cd0	-0.12020266
214	0xbe0336b9	-0.12813844
215	0xbe0a220a	-0.13489547
216	0x3dc90fb4	0.09817448
217	0xbe224430	-0.15846324
218	0xbd94d988	-0.07268053
219	0xbdfa3d9e	-0.12218784
220	0xbd0e6e51	-0.034773175
221	0xbdd26ea8	-0.10275012
222	0xbd88f0a7	-0.06686526
223	0x3cc750e2	0.02433056
224	0xbe954e77	-0.29161426
225	0xbe689142	-0.22711661
226	0xbd1c89a0	-0.038217187
227	0xbe807e27	-0.25096247
228	0xbda1b980	-0.078967094
229	0xbe976258	-0.29567218
230	0xbc8ab7b7	-0.016933305
231	0x3c3b0ba7	0.011416352
232	0xbdbc5fb5	-0.09197942
233	0xbcc349c7	-0.02383889
234	0xbde31d74	-0.11089602
235	0x3c649c7d	0.013953325
236	0x3d0eff7c	0.034911618
237	0xbda28abb	-0.07936617
238	0xbb7d1366	-0.0038616299
239	0xbe050000	-0.12988281
240	0xbd892008	-0.066955626
241	0x3ddeb0db	0.10873576
242	0x3d109f7c	0.035308346
243	0xbdc67e86	-0.09692101
244	0xbde300ce	-0.11084138
245	0xbd81de37	-0.06341212
246	0xbd99c92b	-0.07509073
247	0xbe40df5b	-0.18835203
248	0xbe01bb27	-0.12669049
249	0xbe2c97cb	-0.1685478
250	0xbe50266c	-0.20327157
251	0xbe51c236	-0.20484242
252	0xbd905896	-0.070481464
253	0xbd87e323	-0.0663512
254	0xbe14797e	-0.1449947
255	0xbd2cc562	-0.042180426

module.cnn.2.bias f4 [64]
0	0xbe4b3b62	-0.19846871
1	0xbe89e6ef	-0.26934
2	0xbe7b3d0a	-0.24535003
3	0xbe9640cc	-0.2934631
4	0xbded1e23	-0.11578014
5	0xbdae137f	-0.08499812
6	0xbd3c63d9	-0.04599366
7	0xbd43d112	-0.047806807
8	0xbdcbd5f4	-0.09952918
9	0x3fafcf7d	1.3735195
10	0xbe8aba31	-0.27095178
11	0xbd1e111f	-0.038590547
12	0xbdd96403	-0.10614779
13	0xbdbacbe6	-0.09120922
14	0xbdae939e	-0.085242495
15	0xbe9da9e0	-0.30793667
16	0xbea99fff	-0.3312988
17	0xbf00ed26	-0.5036186
18	0xbdd258d5	-0.102708496
19	0xbe6e22ee	-0.23255512
20	0xbdb9a4ca	-0.09064634
21	0xbe579fa2	-0.21056989
22	0x3d429857	0.047508564
23	0xbe5bcb2e	-0.21464226
24	0xbe7f3bb1	-0.24925114
25	0xbe9e06c3	-0.30864534
26	0xbdd42206	-0.10358052
27	0xbdcb310b	-0.099214636
28	0xbc7ec486	-0.0155497845
29	0xbe3f0d2d	-0.1865737
30	0xbda3e435	-0.080025114
31	0xbe1c1722	-0.152432
32	0xbe33560b	-0.17513292
33	0xbe5563d2	-0.2083886
34	0xbde9d3ac	-0.11417326
35	0xbda354e3	-0.07975175
36	0xbdf2e603	-0.118602775
37	0xbe3b243a	-0.18275538
38	0xbd927ff6	-0.07153313
39	0xbd5a1ea5	-0.05325188
40	0xbdfbe95a	-0.12300368
41	0xbdc8a91b	-0.09797879
42	0xbdbf47bd	-0.09339855
43	0xbeb56f47	-0.3543646
44	0xbe2a64c7	-0.16640006
45	0xbd8682a1	-0.06567884
46	0xbda795c6	-0.08182864
47	0xbdc9ecf3	-0.098596476
48	0xbdebd119	-0.115144916
49	0xbe548c53	-0.20756654
50	0xbd4f56e7	-0.050619986
51	0xbd615a1a	-0.05501757
52	0xbe1eb04a	-0.15496936
53	0xbe0a9ade	-0.1353564
54	0xbe86631b	-0.26247486
55	0xbd79610d	-0.06088357
56	0xbe54a02c	-0.20764226
57	0xbd9f98c6	-0.07792811
58	0xbe33bbba	-0.17552081
59	0xbec30df1	-0.38096574
60	0xbba3f580	-0.005003631
61	0xbd64361b	-0.05571566
62	0xbe0c61d1	-0.13709189
63	0xbd2d7d72	-0.042355962

module.cnn.4.weight f4 [64, 64, 3, 3]
0	0xbcea3cfd	-0.028593535
1	0x3decabeb	0.11556228
2	0xbe020e2f	-0.12700723
3	0xbdfaf140	-0.12253046
4	0xbdaa11b4	-0.08304158
5	0x3baae63e	0.0052154353
6	0x396443ea	0.00021769074
7	0x3c855703	0.016276842
8	0x3e028603	0.12746434
9	0xbda321c7	-0.07965427
10	0xbe234420	-0.15943956
11	0xbc0b1f17	-0.008491299
12	0xbe46acc8	-0.19401848
13	0xbe165fc5	-0.1468497
14	0x3e126f5b	0.14300291
15	0xbded5363	-0.115881704
16	0x3d275d57	0.0408605
17	0x3d7d0cae	0.06177967
18	0x3d8e7efa	0.069578126
19	0xbe3b5b89	-0.18296637
20	0xbe0d2109	-0.13782133
21	0x3da8aace	0.082357034
22	0x3d5f0505	0.054448146
23	0xbcd2b24f	-0.02571979
24	0x3c08199b	0.008306886
25	0xbd20e50f	-0.039280947
26	0xbd8c8230	-0.06860769
27	0xbc68e718	-0.014215253
28	0xbc9d81ff	-0.019227026
29	0x3cdf0f70	0.02722904
30	0xbbd87f8d	-0.006607002
31	0x3dfb9a2e	0.12285267
32	0xbbd5841e	-0.0065159937
33	0x3d1adb1a	0.037806608
34	0x3c614a08	0.013750561
35	0x3cf4347d	0.029810185
36	0xbd1ef4e1	-0.038807753
37	0xbc0e80a4	-0.0086976625
38	0x3d19dbc8	0.037563115
39	0xbcd1e0f6	-0.025619965
40	0xbd137254	-0.035997704
41	0x3ccb6bb5	0.024831632
42	0x3bee595b	0.0072738356
43	0x38e5a8de	0.00010951025
44	0xbbb7bbf3	-0.005607122
45	0xbd2617a2	-0.04054988
46	0x3ba598c2	0.0050536105
47	0xbd211632	-0.039327808
48	0xbd235715	-0.03987797
49	0x3bdd4edc	0.0067537855
50	0xbcb777a7	-0.022395922
51	0x3b730a4d	0.0037084997
52	0x3ac377ce	0.0014913024
53	0xbc83b5da	-0.016077925
54	0xbcb83753	-0.022487318
55	0x3ce8df0f	0.028426675
56	0x3c90244e	0.017595436
57	0xbc0a935c	-0.008457985
58	0x3c221eb5	0.009895016
59	0x3b5dc07f	0.003383666
60	0xbbabb67e	-0.0052402606
61	0xbbded402	-0.0068001756
62	0xbc3806e3	-0.011232111
63	0xbd116bbd	-0.035503138
64	0xbb586b53	-0.0033022955
65	0xbc8355af	-0.016032068
66	0xbcd0e62b	-0.025500378
67	0xbcde1a03	-0.027112013
68	0xbc8f0a16	-0.017460864
69	0x3b9e70b4	0.0048352126
70	0xbb4a38ac	-0.0030856533
71	0xbb8e6d3f	-0.0043465192
72	0xbe22a1c1	-0.15882017
73	0xbc8d8151	-0.017273577
74	0x3dc7a767	0.09748726
75	0x3d7b7cb8	0.061398238
76	0x3bd0712c	0.0063611474
77	0x3c8fa851	0.017536314
78	0xbcea6a09	-0.028615015
79	0x3e25cf23	0.16192298
80	0x3dbe1c72	0.09282769
81	0xbe2bb0ed	-0.1676671
82	0xbe61ba8f	-0.22043823
83	0xbf215f22	-0.63035786
84	0xbe535139	-0.20636453
85	0xbf0ba723	-0.54551905
86	0xbf130dbc	-0.5744283
87	0xbebf96dc	-0.37419784
88	0xbe62b252	-0.22138336
89	0xbf16ad4c	-0.5885818
90	0xbde23b02	-0.11046411
91	0xbe6ebb54	-0.23313648
92	0xbe069cc0	-0.13145733
93	0xbec344e4	-0.38138497
94	0xbf2a7755	-0.66588336
95	0x3d5e55d6	0.05428108
96	0xbe4e0c6a	-0.20121923
97	0xbe3624b7	-0.17787443
98	0x3e0fe8b7	0.14053617
99	0xbce53079	-0.027977215
100	0xbbb72c24	-0.005589979
101	0xbc9a30dc	-0.018822126
102	0xbc0bc5c9	-0.008531042
103	0xbc84c358	-0.016206428
104	0xbcf90c6c	-0.030401431
105	0xbc8ed631	-0.017436119
106	0x39e8c713	0.0004439881
107	0xbcb2b5d4	-0.021815218
108	0xbc81c041	-0.015838744
109	0x3c345007	0.011005408
110	0xbbcd9b35	-0.0062746056
111	0xbc315243	-0.010822835
112	0x3c24c285	0.010056143
113	0xbc183ec7	-0.009292311
114	0x3cf0577c	0.02933859
115	0xbc5e11b2	-0.013554024
116	0xbc785cbb	-0.015158827
117	0xbd0b82c2	-0.034060247
118	0xbc8043b7	-0.015657289
119	0xbc88049d	-0.016603762
120	0xbce9570e	-0.028483894
121	0xbd555030	-0.052078426
122	0x3bf2add2	0.007405975
123	0x3c19e383	0.009392622
124	0xbc7f4e22	-0.015582593
125	0x3befb2ff	0.007315039
126	0xbd00a2f3	-0.0314054
127	0xbba53eee	-0.005042902
128	0x3c0bbfda	0.008529628
129	0x3c460b6d	0.012087685
130	0xbde25bdf	-0.11052679
131	0x3b44d5ff	0.0030034778
132	0xbc2586af	-0.010102912
133	0xbce9321a	-0.028466273
134	0xbbb1cca6	-0.0054260073
135	0x3da89850	0.08232176
136	0x3e1df1a2	0.15424207
137	0x3eb76d37	0.35825512
138	0xbbb4e599	-0.0055205342
139	0x3daad9e9	0.08342344
140	0x3e3bd12d	0.18341513
141	0xbd12e72e	-0.035865
142	0xbe37cbad	-0.1794879
143	0x3d367cc9	0.0445526
144	0xbab2a61b	-0.0013629826
145	0x3e961364	0.2931167
146	0x3e302114	0.17200118
147	0xbd489db6	-0.04897853
148	0xbe7d4ffc	-0.24737543
149	0x3dd2d666	0.102947995
150	0xbd816858	-0.0631873
151	0x3dbf6e7c	0.09347245
152	0xbdb9d2b9	-0.09073395
153	0xbe8e4810	-0.27789354
154	0xbe002f88	-0.12518132
155	0xbe82420c	-0.25441015
156	0x3dedf283	0.11618521
157	0xbded6829	-0.115921326
158	0x3d3c5bc8	0.045985967
159	0xbe025851	-0.12729003
160	0x3e486aae	0.19571945
161	0xbe12d83f	-0.14340304
162	0xbea03237	-0.3128831
163	0x3e2a8673	0.16652851
164	0xbe4bb290	-0.19892335
165	0x3e000752	0.12502792
166	0x3ea69f43	0.32543382
167	0x3e5ab84f	0.2135937
168	0xbdd3be16	-0.103389904
169	0x3f129c4d	0.57269746
170	0xbb3bba9b	-0.002864516
171	0x3ded289e	0.11580013
172	0xbcaa793e	-0.020809766
173	0x3d92ae06	0.071620986
174	0x3da73ddc	0.081660956
175	0x3be77b89	0.007064287
176	0x3d90ea20	0.07075906
177	0x3dabe41e	0.08393119
178	0x3d97fb8d	0.074210264
179	0x3e1cfc7d	0.15330692
180	0xbd0fc712	-0.035101958
181	0x3d28f9ae	0.041253738
182	0xbd04254e	-0.03226214
183	0xbb9a9a52	-0.0047181034
184	0xbd390f08	-0.04518035
185	0xbcac0968	-0.021000579
186	0xbd44ca52	-0.04804451
187	0xbd936ff1	-0.071990855
188	0x3abca9fe	0.0014393923
189	0xbdc38db0	-0.09548509
190	0x3d62184a	0.055198945
191	0xbe139acf	-0.14414524
192	0xbdee6b83	-0.116416
193	0x3e57c3e2	0.21070817
194	0xbe17d3f3	-0.14826946
195	0xbd547e71	-0.051878396
196	0xbe9d3c5d	-0.30710116
197	0x3db12fba	0.08651681
198	0xbe98b55a	-0.2982586
199	0xbe0c8d02	-0.13725665
200	0xbbf9acd8	-0.0076194815
201	0xbe754ed6	-0.23955855
202	0x3e4c5ec9	0.19958033
203	0xbc3d3fab	-0.011550824
204	0x3d9fc5f3	0.07801428
205	0x3e896a12	0.26838738
206	0xbeb21e24	-0.3478862
207	0x3dba491d	0.090959765
208	0x3e2f7ab5	0.17136653
209	0xbda06953	-0.07832589
210	0xbcd9d94d	-0.026592875
211	0x3dc9dbb1	0.09856356
212	0xbe0d53df	-0.13801526
213	0x3d7d0064	0.06176795
214	0xbe666742	-0.22500327
215	0xbe186126	-0.14880809
216	0xbcfb2646	-0.030657899
217	0xba2e7d8a	-0.000665628
218	0xbc94f267	-0.018181993
219	0xbd4e321c	-0.050340757
220	0xbd19879a	-0.037482835
221	0x3980d0f7	0.00024569753
222	0xbce4ddae	-0.027937736
223	0xbe3515f5	-0.17684157
224	0xbc224fc1	-0.00990671
225	0xbe9eafa4	-0.30993378
226	0xbe1b7865	-0.15182646
227	0xbeb4128d	-0.35170403
228	0xbd87caf9	-0.06630511
229	0xbdde7d49	-0.1086374
230	0xbe62c2cf	-0.22144626
231	0xbd96e75d	-0.07368348
232	0xbd62e1fb	-0.055391293
233	0xbd224ce0	-0.039624095
234	0x3c1c1a03	0.009527686
235	0xbcf2b455	-0.029627005
236	0xbd26e2de	-0.0407437
237	0xb86b14da	-5.6047786e-05
238	0xbc84de31	-0.01621923
239	0xba97ad24	-0.0011571986
240	0xbbe75366	-0.0070595024
241	0xbacfeca4	-0.0015863371
242	0x3bf7d0d4	0.007562736
243	0xbcadffb1	-0.021240087
244	0xbcade2df	-0.021226345
245	0xbc9900bd	-0.01867711
246	0xbceadd0c	-0.028669856
247	0xbd04ea8f	-0.032450255
248	0x3c2caadc	0.010538783
249	0xbb27d13f	-0.0025606898
250	0xbc9ef676	-0.019404631
251	0x3bd3348f	0.0064454745
252	0x3d40c2a6	0.04706063
253	0xbdf7035a	-0.12061186
254	0x3d29d12a	0.04145924
255	0x3de0a220	0.10968423

module.cnn.4.bias f4 [64]
0	0xbf0b31a4	-0.5437262
1	0xbf05f3a6	-0.52324903
2	0xbf0903f1	-0.5352164
3	0x3e07d10e	0.13263342
4	0xbdebdfe7	-0.11517315
5	0x3f8efb42	1.1170428
6	0xbeb2043f	-0.34768865
7	0x3df3c0be	0.11901997
8	0xbea971e1	-0.33094695
9	0xbeb9ae46	-0.36265773
10	0xbcc9b633	-0.024623012
11	0xbdc94bbd	-0.09828899
12	0xbe291c4a	-0.16514698
13	0xbe66252a	-0.22475114
14	0x3dd42227	0.103580765
15	0xbf1dac80	-0.6159134
16	0xbe673dd0	-0.22582173
17	0xbf3884ef	-0.7207784
18	0xbe4dd0e0	-0.2009921
19	0x3e84192f	0.25800464
20	0x3d1a2dfa	0.037641503
21	0xbe6ec113	-0.2331584
22	0x3e0b84b0	0.13624835
23	0xbe70039e	-0.2343888
24	0xbdd334ee	-0.1031283
25	0xbf48c8db	-0.7843148
26	0xbf0ffa4d	-0.56241304
27	0xbedf6bae	-0.4363684
28	0xbf4749da	-0.77847064
29	0x3b072cdb	0.0020626101
30	0x3d25b28f	0.04045349
31	0xbedbe943	-0.42951402
32	0xbf024511	-0.50886637
33	0xbf12f9d6	-0.5741247
34	0xbe971fcc	-0.29516447
35	0x3c0ce748	0.008600064
36	0x3daed26d	0.08536229
37	0xbd8300fa	-0.06396671
38	0x3e5e1495	0.21687539
39	0xbf0efb99	-0.5585266
40	0xbf1135af	-0.5672254
41	0xbeb7cc55	-0.3589808
42	0xbf298084	-0.66211724
43	0xbf75a69d	-0.95957357
44	0xbf09187f	-0.53553003
45	0xbf1c2673	-0.6099617
46	0xbe858650	-0.26079035
47	0xbf131ddd	-0.5746744
48	0xbeb77d60	-0.3583784
49	0xbe6cc826	-0.23123226
50	0xbe41ad58	-0.18913782
51	0xbf1d4b0e	-0.6144265
52	0x3db23e4a	0.08703287
53	0xbf3aaa4d	-0.7291611
54	0xbe70d7c8	-0.23519814
55	0xbdbda0ad	-0.09259162
56	0xbf5a280f	-0.85217375
57	0x3f0e460d	0.5557564
58	0x3e87213c	0.26392543
59	0xbdb4392d	-0.08799968
60	0xbb66e2bb	-0.0035230357
61	0xbe964052	-0.29345948
62	0xbf0b2f83	-0.5436937
63	0xbf456275	-0.7710336

module.cnn.6.weight f4 [64, 64, 3, 3]
0	0x3c905231	0.017617317
1	0xbc3ac864	-0.011400316
2	0x39cece12	0.00039444916
3	0x3c026a46	0.007959908
4	0xbc42e829	-0.011896172
5	0x3c2e440b	0.01063634
6	0x3c599fb1	0.013282702
7	0x3c1686a3	0.009187373
8	0xbaac70d4	-0.0013156184
9	0x3aa1267a	0.0012294792
10	0x3c8d0c1e	0.017217692
11	0xbccadf49	-0.024764674
12	0x3c9c155c	0.019053154
13	0xbd11d7b3	-0.035606097
14	0xbc946024	-0.01811225
15	0xbc79d6d6	-0.015248975
16	0xbbce6d51	-0.0062996526
17	0x3bf61116	0.007509361
18	0x3c84956d	0.016184533
19	0x3c860720	0.01636082
20	0x3b0a4c23	0.002110251
21	0x3c3fe682	0.011712672
22	0xbb2a4eb0	-0.0025986843
23	0xbd22dbfd	-0.03976058
24	0xbcc9ddc5	-0.02464188
25	0xbd005950	-0.031335175
26	0xbcb4d20f	-0.02207282
27	0x3aaf7591	0.0013386478
28	0xbc8b8fdd	-0.017036373
29	0xbcb2ef17	-0.021842523
30	0xbd988b1d	-0.07448409
31	0x3bbc8a59	0.005753797
32	0xbd95392d	-0.07286296
33	0xbbfc0eb6	-0.0076921834
34	0x3c838749	0.01605572
35	0xbdc99d36	-0.09844439
36	0xbcb9457d	-0.022616142
37	0xbd2c5797	-0.04207572
38	0x3a9f2da3	0.0012144338
39	0x3bba6221	0.0056879674
40	0xbaf5b8e6	-0.0018747121
41	0x3ba10e29	0.004915018
42	0xbc47427a	-0.012161845
43	0xbc43be63	-0.011947247
44	0xbd06fb70	-0.032954633
45	0xbc713925	-0.014723097
46	0x3c25264a	0.01007993
47	0xbc8784ae	-0.016542759
48	0xbc17b151	-0.009258584
49	0x3c7b1558	0.015324913
50	0xbdb8627c	-0.090031594
51	0x3c0be2d5	0.008537968
52	0x3a03e8f6	0.00050319673
53	0xbdb98823	-0.09059169
54	0x3bdad187	0.0066778096
55	0xbc625153	-0.0138133345
56	0xbc7cdf8c	-0.015434157
57	0x3c8211c5	0.015877614
58	0xbc80cb55	-0.015721956
59	0xbc66a7db	-0.014078106
60	0x3bcf9f95	0.0063361623
61	0xbd111d7e	-0.035428517
62	0xbc321c29	-0.010870972
63	0x3c685f9a	0.014182949
64	0x3cbf2c3c	0.023336522
65	0xbcb2e18e	-0.021836068
66	0x3be8441f	0.007088199
67	0xbdb35b9e	-0.08757709
68	0xbd39c297	-0.04535159
69	0x3cc739c3	0.024319535
70	0xbb9dee26	-0.0048196493
71	0xbdc1a646	-0.09455542
72	0xbc6671a5	-0.014065181
73	0xbc5e63b1	-0.013573573
74	0x3b1b1b9b	0.0023667577
75	0xbb93766b	-0.0045002005
76	0xba6b0c7e	-0.00089664
77	0x3c052dbe	0.008128582
78	0xbc889bc6	-0.016675841
79	0xbd011825	-0.031517167
80	0xbabbc1b6	-0.0014324698
81	0x3c6df54a	0.0145238135
82	0xbc7fda6b	-0.01561604
83	0xbb282cfd	-0.002566158
84	0x3c7314d2	0.014836507
85	0xbc18bdc8	-0.009322591
86	0xbc992497	-0.018694205
87	0x3b7e1998	0.003877258
88	0xbb68667d	-0.0035461478
89	0xbc905ad7	-0.01762144
90	0xbcbc99f1	-0.023022624
91	0xbd1890cc	-0.037247464
92	0xbccab8ff	-0.024746416
93	0xbc4a67ac	-0.012353819
94	0xba810c87	-0.0009845652
95	0x3be56f7f	0.0070018168
96	0x3bdf73fb	0.006819246
97	0xbcd07460	-0.025446117
98	0xbcd09588	-0.025461927
99	0xbc7cb7c0	-0.015424669
100	0x3a2bc11f	0.00065519096
101	0x3ad99a43	0.001660176
102	0xbd5c465d	-0.05377804
103	0xbdc4ddb5	-0.096126
104	0xbd5f8e85	-0.054579277
105	0xba931e2f	-0.0011224205
106	0xbca59eae	-0.020217266
107	0xbd829dad	-0.063777305
108	0x3bdff7e5	0.0068349713
109	0x3bcb791b	0.0062095053
110	0x3cb41a01	0.021985056
111	0xbca833bc	-0.020532481
112	0x3c31c243	0.010849538
113	0x3c4c06eb	0.012452821
114	0x3cb51889	0.022106426
115	0xbc9d4883	-0.019199615
116	0xbd0195a0	-0.031636834
117	0xbcab0697	-0.020877166
118	0xbd22454f	-0.03961688
119	0xbc350eac	-0.011050861
120	0xbcb0eb3d	-0.021596545
121	0xbc96af0f	-0.018394021
122	0x3a8e80ab	0.0010872086
123	0xbc97438b	-0.018464824
124	0xbd1c5ce4	-0.038174525
125	0xbce3d753	-0.027812636
126	0xbb3010bd	-0.0026865446
127	0xbce07505	-0.02739955
128	0x3ad1ca05	0.0016005641
129	0x3c3bc9f3	0.011461723
130	0xbb9442e8	-0.0045245774
131	0xbda1fb18	-0.079092205
132	0x3c082d5b	0.008311595
133	0xbc8cc706	-0.017184746
134	0xbdb4ed4d	-0.08834324
135	0xbc7a1b5b	-0.015265311
136	0x3c0e0ef9	0.008670562
137	0xbce1f012	-0.027580295
138	0xbc925c16	-0.017866176
139	0x3c6b89f4	0.014376152
140	0x3c112934	0.008859921
141	0xbc5a265d	-0.013314811
142	0xbbd61555	-0.0065333047
143	0x3c186efb	0.009303804
144	0xbcbec217	-0.023285909
145	0x3c269cdb	0.010169233
146	0x3b344f71	0.002751317
147	0xbc372314	-0.011177797
148	0xbc64d2c4	-0.013966266
149	0xbca63a88	-0.020291582
150	0xbcb4c510	-0.022066623
151	0xbc081b35	-0.008307268
152	0x3b70415a	0.0036660046
153	0xbaadd399	-0.0013261914
154	0xb92de7e0	-0.00016584946
155	0xbcadde4e	-0.021224167
156	0x3ca5d253	0.020241892
157	0xba217e2f	-0.00061604654
158	0xbc3e55ce	-0.011617137
159	0x3c58ac76	0.013224712
160	0x39ba500d	0.00035536327
161	0x3c140eae	0.009036703
162	0x3cc70cfb	0.024298182
163	0x3be48da3	0.006974892
164	0x3b6f90bd	0.0036554777
165	0xbcc4b455	-0.02401177
166	0x3a82fbe6	0.0009993284
167	0xbc3cbfcf	-0.01152034
168	0xbc4d9f22	-0.012550147
169	0xbb806c4b	-0.0039191595
170	0xbce0d3f3	-0.027444815
171	0xbc49c819	-0.012315773
172	0xbc43963b	-0.011937673
173	0x3cc72970	0.024311751
174	0xbc3ebf6a	-0.011642316
175	0xbc19c4c1	-0.009385289
176	0xbd0c5580	-0.034261227
177	0xbdb7f86b	-0.08982929
178	0xbdb21896	-0.08696096
179	0x3c34283d	0.010995922
180	0x3cb86560	0.022509277
181	0xbc6e863d	-0.014558372
182	0xbc4d6ce1	-0.012538166
183	0x3bf3cc5a	0.007440132
184	0x3ca2de06	0.01988126
185	0xbc8a2ded	-0.016867602
186	0xbc70cc12	-0.014697092
187	0xba89d760	-0.0010516457
188	0x3cc68a23	0.02423579
189	0xbc95b50d	-0.018274808
190	0xbbf81cfc	-0.0075718146
191	0xbd00517f	-0.03132772
192	0xbd697735	-0.05699845
193	0xbdc7a8df	-0.097490065
194	0x3b85e0e2	0.004085646
195	0xbd7b1dc2	-0.061307676
196	0xbdb2cb8f	-0.08730232
197	0x3adee825	0.001700644
198	0x3bca554a	0.006174718
199	0xbc5aa201	-0.013344289
200	0xbb9df68e	-0.0048206514
201	0x3ca5be1c	0.020232253
202	0xbccbbb1d	-0.024869496
203	0xbba0fc67	-0.004912901
204	0x3c591538	0.013249688
205	0x3cb8839d	0.022523696
206	0x3afe2982	0.0019391032
207	0x395ddc73	0.00021158326
208	0x3c5993f5	0.013279905
209	0xbcbdc42a	-0.023164827
210	0xba409dc8	-0.000734773
211	0x3c3eb302	0.0116393585
212	0xbb31539b	-0.002705789
213	0xbc4a8f52	-0.012363272
214	0x3b4d3800	0.0031313896
215	0xbbfb0375	-0.007660324
216	0xbc2c5396	-0.010517975
217	0x3b70c24e	0.0036736908
218	0xbd04c11a	-0.03241072
219	0xbd51a2bf	-0.051180597
220	0xbdcb2146	-0.09918456
221	0xbd0235c5	-0.03178956
222	0xbdc42701	-0.09577752
223	0xbcb8908c	-0.022529863
224	0xbca4866b	-0.020083627
225	0x3c544a71	0.012957201
226	0x3baac5a3	0.0052115484
227	0xbac16cc8	-0.0014757151
228	0x3c742741	0.014901937
229	0xbb2aadaa	-0.0026043453
230	0xbd0a4106	-0.033753417
231	0x3c956f0e	0.018241432
232	0xbb95fd49	-0.004577313
233	0x3a9b5970	0.0011852216
234	0xbb5db781	-0.00338313
235	0x3bb65a64	0.0055649746
236	0xbd082e95	-0.03324755
237	0x3c835fff	0.016036985
238	0xbd0b2033	-0.033966254
239	0xbc172813	-0.009225863
240	0xbc141a16	-0.0090394225
241	0xbd21b162	-0.039475806
242	0xbb24ec73	-0.0025165349
243	0x3c86c4a0	0.01645118
244	0xbc9a0ad9	-0.018804
245	0xbcd99f10	-0.026565105
246	0x3cc33a14	0.023831405
247	0xbca525bf	-0.0201596
248	0xbcaa5015	-0.02079014
249	0xbc2ca521	-0.010537417
250	0xbc8fb781	-0.017543556
251	0xbd2aab79	-0.041667435
252	0xbbbd9878	-0.005785998
253	0xbca73bf1	-0.020414324
254	0xbc4d01db	-0.012512649
255	0x3bb89361	0.0056328033

module.cnn.6.bias f4 [64]
0	0xbdd8d406	-0.10587315
1	0xbd902aae	-0.070393905
2	0xbda88f54	-0.08230463
3	0xbf2194d9	-0.6311775
4	0xbda85833	-0.08219948
5	0x3dc27b88	0.09496218
6	0xbf08aa8f	-0.5338525
7	0x3e4c4407	0.19947825
8	0xbe605696	-0.2190803
9	0xbd38d2c1	-0.045122866
10	0xbf257792	-0.64635575
11	0xbeadc9ee	-0.33943123
12	0x3d6d21b9	0.05789349
13	0xbddc4232	-0.10754813
14	0xbe038e59	-0.1284727
15	0xbe1c6b88	-0.15275395
16	0xbe9d2362	-0.30691057
17	0x3e2a7966	0.16647872
18	0xbe20bd4e	-0.15697214
19	0xbedbdf78	-0.4294393
20	0xbccc560d	-0.024943376
21	0xbd352389	-0.044223342
22	0xbe19b72b	-0.1501128
23	0xbd8759e2	-0.06608941
24	0xbeaa0b52	-0.33211762
25	0xbe9886f6	-0.29790467
26	0xbc945ff9	-0.01811217
27	0x3c456fc8	0.0120505765
28	0x3e807946	0.25092524
29	0xbf7ec9a1	-0.9952641
30	0xbde1f102	-0.11032297
31	0xbf1074bc	-0.5642812
32	0xbdc7fb2c	-0.09764704
33	0xbe8dd3d5	-0.27700678
34	0xbe3ef587	-0.18648349
35	0xbe2ccfa3	-0.16876082
36	0xbe8b5f06	-0.27220935
37	0xbe4169f4	-0.18888074
38	0xbeab2c89	-0.33432415
39	0xbd63f08e	-0.055649333
40	0xbd961de7	-0.07329922
41	0xbe71fa3a	-0.2363061
42	0xbdbe36fd	-0.09287832
43	0xbceb760e	-0.028742816
44	0xbd59ccfd	-0.053174008
45	0xbdb96773	-0.090529345
46	0xbe072dd6	-0.13201079
47	0xbcf7b070	-0.0302355
48	0x3dc70450	0.097176194
49	0xbe078d05	-0.13237388
50	0xbe13dbe8	-0.14439356
51	0xbd4049a7	-0.04694524
52	0xbeb08d3f	-0.34482762
53	0xbdf8eceb	-0.121545635
54	0xbe0f5845	-0.13998516
55	0xbdd2bbb0	-0.10289705
56	0xbd38831c	-0.04504691
57	0xbdc6db63	-0.097098134
58	0xbd835e77	-0.06414502
59	0x3f01cfba	0.5070759
60	0xbe9cf689	-0.3065684
61	0xbe16dcc2	-0.1473265
62	0xbf3ae65b	-0.73007745
63	0xbd0a07b2	-0.033698745

module.cnn.8.weight f4 [64, 64, 3, 3]
0	0xbbb7ced2	-0.0056093717
1	0xbc6b098d	-0.014345539
2	0x3c03234f	0.008004024
3	0xbca6915d	-0.020332986
4	0x3ca232d5	0.01979963
5	0xbc800e40	-0.015631795
6	0xbb96415c	-0.004585428
7	0x3d0f4df4	0.03498645
8	0x395864c2	0.000206369
9	0xbc5f1ba1	-0.013617427
10	0xbade2b9e	-0.0016950255
11	0xbc903805	-0.017604837
12	0x3bb8e334	0.005642319
13	0xbc814d20	-0.015783846
14	0x3cecc849	0.028904097
15	0x3ca1c016	0.019744914
16	0x3d109ba3	0.035304677
17	0x3c277723	0.0102212755
18	0x3b344392	0.0027506095
19	0xbc8c28bb	-0.017109266
20	0x3b86472d	0.0040978403
21	0xbb5187ed	-0.0031971887
22	0xbc871fd5	-0.01649467
23	0x3c6ec513	0.014573353
24	0x3c71c223	0.014755758
25	0xbb3e8847	-0.0029072927
26	0x3cc0cba3	0.023534602
27	0xbc44dd8c	-0.0120157115
28	0xbc4ac14d	-0.012375188
29	0x3cb5d619	0.022196816
30	0x3c2cfcda	0.010558331
31	0x3e00920e	0.12555715
32	0x3f47f300	0.78105164
33	0xbc0ee8f5	-0.0087225335
34	0x3dc8c376	0.09802906
35	0x3e3ed576	0.18636116
36	0x3c9754f9	0.018473135
37	0xbc6bf8d8	-0.014402591
38	0xbc190f27	-0.0093419915
39	0x3cb33288	0.021874681
40	0x3c20c2c1	0.009812058
41	0xbcb33cb2	-0.021879528
42	0xbbc866bb	-0.006115762
43	0xbe2afcf7	-0.16698061
44	0xbc3dd0a2	-0.0115853865
45	0x3b4b3e3d	0.0031012439
46	0xbbc58eae	-0.0060289716
47	0x3bec83fd	0.0072178827
48	0xbcbb5146	-0.022865903
49	0x3e7b08b4	0.24515039
50	0xbea2035a	-0.31643182
51	0xbbdf57ef	-0.0068159024
52	0x3c4ad788	0.012380488
53	0x3d16cce0	0.036816478
54	0xbc983a60	-0.018582523
55	0xbcbc11ba	-0.022957671
56	0x3b07444a	0.0020640069
57	0xbc4206d3	-0.011842447
58	0x3df42493	0.119210385
59	0x3ede5db7	0.43430874
60	0x3c99e40f	0.018785505
61	0x3f0337f6	0.51257265
62	0x3e808d38	0.2510774
63	0x3beed2d6	0.007288317
64	0xbc44b0a7	-0.012005008
65	0x3bb75ee2	0.0055960277
66	0xbcbe592e	-0.023235884
67	0xbed3973a	-0.41326314
68	0xbf574c07	-0.84100384
69	0x3c086d46	0.008326834
70	0x3e06aab9	0.13151063
71	0x3d7ad287	0.06123593
72	0xbcb2cc5a	-0.021825958
73	0x3c4ebdad	0.012618464
74	0xbc52220d	-0.012825501
75	0x3cc055ca	0.023478407
76	0x3d8adc2e	0.06780277
77	0x3d2da7ca	0.042396344
78	0xbbece137	-0.007228996
79	0xbd8a6a05	-0.06758503
80	0x3e0ef8eb	0.13962142
81	0xbc92c7e9	-0.01791759
82	0x3cc1c0c1	0.023651483
83	0xbc030cbd	-0.0079986425
84	0xbc33ee29	-0.010982075
85	0xbc85afbd	-0.01631915
86	0xbc6c43de	-0.014420478
87	0x3c9ff2fd	0.019525046
88	0xbc96906a	-0.018379409
89	0xbc65be0b	-0.014022361
90	0x3c76d2ea	0.015064934
91	0x3c5b8881	0.013399244
92	0xbca81b9a	-0.020520974
93	0x3bc344af	0.0059591155
94	0xbe419e93	-0.18908148
95	0x3dcdfba5	0.10057763
96	0x3beadb84	0.0071672816
97	0x3e8dad53	0.27671298
98	0xbf2bf154	-0.6716511
99	0x3c73b890	0.014875546
100	0x3b997ab8	0.0046838187
101	0xbcbde792	-0.02318171
102	0x3c52c8c8	0.012865253
103	0x3d597570	0.053090513
104	0xbe0b9d44	-0.13634211
105	0x3c2e7f0a	0.010650406
106	0x3e4a3dc9	0.19750132
107	0x3d103f18	0.03521642
108	0x3c43acf0	0.011943087
109	0x3a360335	0.0006943227
110	0x3a3b3ce4	0.00071425573
111	0x3c44c0a8	0.012008823
112	0x3d3df7d1	0.046378914
113	0xbf381e26	-0.71921
114	0x3c8898e8	0.016674474
115	0x3eec4f35	0.4615418
116	0x3ea91c18	0.33029246
117	0x3babb274	0.005239779
118	0xbcc0da78	-0.023541674
119	0xbc9e4c8f	-0.019323615
120	0xbbf40e66	-0.0074480055
121	0xbc4b8428	-0.012421645
122	0xbd044b3d	-0.032298315
123	0x3c4723c3	0.012154522
124	0xbc898d9c	-0.016791157
125	0x3c51a3a4	0.012795363
126	0x3c3a21d2	0.011360602
127	0xbc8ab229	-0.016930657
128	0xbc2c2398	-0.010506533
129	0x3b05ba60	0.0020405278
130	0x3d2bdb87	0.041957404
131	0x3cb4150b	0.02198269
132	0xbc2f1276	-0.010685554
133	0xbc33ac97	-0.010966442
134	0x3d8d2891	0.06892503
135	0xbc7adace	-0.015310956
136	0xbb605d82	-0.0034235422
137	0x3ba8123b	0.0051291264
138	0xbc49fe6e	-0.012328727
139	0xbebf1ee9	-0.3732827
140	0x3d906106	0.07049756
141	0x3cc563cf	0.024095444
142	0x3f0ca07a	0.5493237
143	0x3d401817	0.046897974
144	0xbca35795	-0.019939223
145	0xbc800fde	-0.015632566
146	0xbc4179b8	-0.011808805
147	0xbc2ccef9	-0.010547393
148	0xbf2cbef0	-0.6747885
149	0x3ee3112d	0.44349042
150	0xbbee8fcb	-0.007280325
151	0x3ee47e9b	0.44627842
152	0xbd27b84d	-0.040947247
153	0x3c580917	0.013185761
154	0xbbd2d0e7	-0.0064335945
155	0x3cc1b4c6	0.02364577
156	0x3cb0dd64	0.021589942
157	0xbe24407e	-0.16040227
158	0x3d6300d8	0.055420727
159	0x3b5f0672	0.0034030941
160	0x3e42789b	0.1899132
161	0x3cbd9fe9	0.02314754
162	0x3a4d97e3	0.0007842762
163	0xbc5a84d7	-0.013337336
164	0xbc999602	-0.018748287
165	0xbc8bc6c5	-0.017062554
166	0xbcb28cfb	-0.02179574
167	0x3d8664be	0.06562184
168	0x3c8696c2	0.016429309
169	0xbcc7927f	-0.024361847
170	0xbc9b3cb2	-0.01894984
171	0x3c9c6913	0.019093072
172	0xbbc46e9e	-0.005994632
173	0x3c3d033a	0.011536414
174	0xbc94f4ea	-0.01818319
175	0x3ea4230d	0.32057992
176	0xbec2d282	-0.3805123
177	0xb959ce8f	-0.00020771682
178	0xbf4dcafe	-0.80387866
179	0xbeaa8c57	-0.33310196
180	0x3c983643	0.018580562
181	0x3cb1a52e	0.02168521
182	0x3c9f398f	0.019436626
183	0x3aae7940	0.0013311282
184	0x3ce30d8d	0.027716422
185	0x3d112824	0.03543867
186	0xbbe5f81b	-0.007018102
187	0x3ba629c4	0.005070897
188	0xbce9af0a	-0.028525848
189	0xbcc8e866	-0.024524879
190	0xbcca9d59	-0.024733232
191	0xbaa8596d	-0.0012844034
192	0xbc94bfe9	-0.018157916
193	0x3d21384a	0.039360322
194	0x3c1c6d48	0.009547539
195	0x3ccb8d5f	0.024847684
196	0xbd197ee0	-0.037474513
197	0xbb5c18c4	-0.0033584097
198	0x391fd318	0.0001524206
199	0xbc117709	-0.008878478
200	0xbc4ecd96	-0.012622258
201	0xbc68b36d	-0.014202935
202	0xbe460b6c	-0.19340295
203	0x3e6bd691	0.2303107
204	0xbb6b21a4	-0.0035878206
205	0xbeebf9e7	-0.46089098
206	0xbea7bc27	-0.32760736
207	0x3c5906f7	0.013246289
208	0x39c74259	0.0003800567
209	0xbc2c2c6e	-0.01050864
210	0x3997ad85	0.00028930246
211	0x3c2499e4	0.010046456
212	0xbcf7d565	-0.030253122
213	0xbc5f858f	-0.013642683
214	0x3b07f69d	0.0020746358
215	0xbc130d68	-0.008975364
216	0x3c5b6b1f	0.013392239
217	0xbc71033e	-0.014710246
218	0xbbbcb764	-0.0057591666
219	0xbbdab4cb	-0.006674384
220	0x3f2139ab	0.6297862
221	0xbdd912c5	-0.10599283
222	0xbca0daf4	-0.019635655
223	0x3d1fe9f6	0.039041482
224	0x3e456809	0.19277968
225	0xbc973df8	-0.018462166
226	0x3b026931	0.0019899125
227	0x3c13eb63	0.009028289
228	0xbbb78477	-0.005600508
229	0xbca6132a	-0.02027281
230	0x3d4c13e6	0.049823664
231	0xbb635ad3	-0.0034691587
232	0x3e27463a	0.16335383
233	0x3cf1e561	0.029528322
234	0xbc8f6af8	-0.017507061
235	0xbc9f03b1	-0.01941094
236	0xbc8b8244	-0.017029889
237	0xbc71c76b	-0.014757018
238	0xbcfd3f81	-0.03091407
239	0xbcf95826	-0.03043754
240	0x3cad8702	0.02118254
241	0xbd34444b	-0.04401044
242	0xbd3a6039	-0.04550192
243	0x3c9fe927	0.019520355
244	0xbc80f205	-0.015740404
245	0xbc4ed503	-0.012624028
246	0xbc81bb40	-0.015836358
247	0xbf1a7422	-0.60333455
248	0x3d977cb4	0.07396832
249	0xbbd9189d	-0.0066252486
250	0xbe3d4535	-0.18483432
251	0xbcf96348	-0.030442849
252	0x3c9aa5d0	0.018877894
253	0x3af5dd60	0.0018757991
254	0x3bddcc6e	0.0067687547
255	0xbaf5b2e6	-0.0018745332

module.cnn.8.bias f4 [64]
0	0x3eac37fc	0.33636463
1	0xbe5eb691	-0.21749331
2	0xbe9190b1	-0.28430703
3	0xbe428624	-0.18996483
4	0x3e59ba96	0.21262583
5	0x3f66b774	0.9012368
6	0xbde3e0f7	-0.11126893
7	0xbe0bb98d	-0.13645001
8	0xbe8ef12e	-0.2791838
9	0xbde8ada1	-0.11361242
10	0xbde976f6	-0.11399643
11	0xbefe9ed7	-0.4973056
12	0x3e1b6f43	0.15179162
13	0x3e053fba	0.13012591
14	0xbec2bcad	-0.38034573
15	0x3c1c1a0e	0.009527696
16	0x3d9d392c	0.0767692
17	0xbdf74a26	-0.120746896
18	0xbf13e221	-0.5776692
19	0xbd7bfe59	-0.06152186
20	0xbccaeee6	-0.024772119
21	0xbf2289b7	-0.63491386
22	0xbdb7f882	-0.08982946
23	0xbe0ddc28	-0.13853514
24	0xbedd8e75	-0.4327275
25	0xbe1dc836	-0.15408406
26	0xbeccdd6b	-0.40012679
27	0xbe73322b	-0.23749606
28	0x3d5baf16	0.05363377
29	0x3f0dc301	0.5537568
30	0xbf34badd	-0.7059763
31	0x3f51a5b1	0.8189345
32	0xbf18ca09	-0.5968328
33	0xbe194d58	-0.1497091
34	0x3dc5d35e	0.09659456
35	0xbd1a57cb	-0.037681382
36	0xbdfe38c6	-0.124131724
37	0x3e31d64e	0.17366907
38	0xbf6df9b9	-0.9295917
39	0xbea62ad5	-0.32454553
40	0xbe3ab2f5	-0.18232329
41	0x3f88525a	1.0650132
42	0xbef07edf	-0.46971795
43	0xbeb0e8ba	-0.34552556
44	0xbeaceb61	-0.3377333
45	0xbeef9672	-0.46794468
46	0xbe28f86d	-0.16501017
47	0x3e9ea860	0.30987835
48	0xbd6c8a2d	-0.057748962
49	0xbd60c96d	-0.054879595
50	0xbeb0c443	-0.34524736
51	0xbecf0cfc	-0.40439594
52	0x3f8078e4	1.0036893
53	0x3dfc69ba	0.12324853
54	0xbebdef7d	-0.37096778
55	0xbe11b27a	-0.1422824
56	0xbcf4ba6d	-0.029874051
57	0xbe2867e1	-0.16445877
58	0xbde58e9c	-0.11208841
59	0xbe33542e	-0.17512581
60	0xbe011fb5	-0.12609752
61	0xbeaf119f	-0.3419313
62	0x3f2efe5a	0.6835686
63	0xbc1215d6	-0.008916339

module.cnn.10.weight f4 [64, 64, 3, 3]
0	0xbc3bd0ce	-0.011463357
1	0xbc2ad2f8	-0.010426275
2	0xbb9c6864	-0.0047731865
3	0x3b4774cb	0.0030434604
4	0xbb8466cb	-0.004040574
5	0x3b95af58	0.0045680217
6	0x3bf88bfd	0.0075850473
7	0x3bab1faa	0.0052222805
8	0xbc4afd16	-0.012389442
9	0x3cb9d934	0.022686578
10	0x3c8e1e3d	0.017348403
11	0xbc6e57da	-0.014547313
12	0x3cadc722	0.021213118
13	0x3ce58c0a	0.028020877
14	0x3bc77e56	0.0060880585
15	0xbcc04896	-0.023472112
16	0x3c955f28	0.01823385
17	0xbca03c14	-0.019559897
18	0xbcc524b1	-0.024065347
19	0x3c02cf26	0.007983958
20	0x3c51a856	0.012796482
21	0xbc9bd35d	-0.019021684
22	0xbe1e9632	-0.15486982
23	0x3c8f1f34	0.017470933
24	0xb796dac0	-1.7983257e-05
25	0x3bf55aba	0.007487622
26	0x3cc80805	0.024417887
27	0x3c178816	0.009248754
28	0xbc378bf4	-0.011202801
29	0xbc32d629	-0.010915318
30	0x3cb8c44e	0.022554543
31	0xbd38be12	-0.04510314
32	0xbc87512b	-0.016518196
33	0x3c94fca0	0.018186867
34	0xbc1bed29	-0.009516993
35	0x3c41675e	0.01180443
36	0x3c1040f5	0.008804549
37	0x3c92204f	0.017837672
38	0x3bc7b73f	0.0060948427
39	0xbc1f28af	-0.00971429
40	0xb9dc9dc0	-0.00042079203
41	0xbb7dcdff	-0.003872752
42	0xbbdcc56a	-0.006737401
43	0xbc99003a	-0.018676866
44	0xbc9d1bc6	-0.019178282
45	0x3ae6cc74	0.0017608539
46	0x3c67e226	0.014153039
47	0x3cb1ec96	0.021719258
48	0xbb4480dd	-0.0029984035
49	0xbdeb05f3	-0.11475744
50	0x3b9e9df6	0.0048406078
51	0x3a556a38	0.0008141133
52	0xbcb81149	-0.02246918
53	0x3c10fbb8	0.008849077
54	0x3ca1fcb8	0.019773826
55	0xbcb1192a	-0.021618444
56	0x3c92f9a8	0.017941311
57	0xbcb0c437	-0.021577938
58	0xbd896dec	-0.06710419
59	0x3c62a363	0.0138329
60	0x3bba5fa7	0.005687672
61	0xbc501500	-0.012700319
62	0xbcb31a05	-0.021862993
63	0xbc4700e9	-0.012146213
64	0xbcb17afd	-0.02166509
65	0xbc96155a	-0.018320728
66	0xbcc22922	-0.023701254
67	0xbcbad043	-0.022804385
68	0xbc8f32a0	-0.017480195
69	0xbcc1be07	-0.023650182
70	0xbb6c9871	-0.0036101604
71	0x3c52182b	0.012823145
72	0xbb445c07	-0.002996208
73	0xbc105eb7	-0.008811644
74	0x3c8ffd4b	0.017576834
75	0x3cc0924b	0.023507258
76	0xbda7589c	-0.08171198
77	0xbb9d70ee	-0.004804722
78	0x3c21884f	0.009859159
79	0x3ca689aa	0.020329315
80	0x3c2c1d51	0.010505036
81	0xbc00373f	-0.007825672
82	0x3bd4b917	0.006491791
83	0x3b923e99	0.0044630286
84	0xbbd05ba9	-0.006358583
85	0xbbb062c0	-0.0053828657
86	0x3c261de4	0.010138962
87	0xba8db6b6	-0.0010811898
88	0xbc8a91ba	-0.016915191
89	0xbc697860	-0.014249891
90	0xbcb0b59c	-0.021570973
91	0xbcc86c6c	-0.024465762
92	0xbc3c3e60	-0.011489481
93	0xbcb93f10	-0.022613078
94	0xbc7d5312	-0.0154617
95	0xbcc8dfed	-0.024520839
96	0xbc123596	-0.008923909
97	0x3c21f27f	0.009884476
98	0xbca9ae3a	-0.02071296
99	0x3c7af326	0.01531676
100	0x3c1be236	0.009514382
101	0x3c24e579	0.010064476
102	0x3c5d6fe7	0.013515449
103	0xbbabdb80	-0.0052446723
104	0x3c832fca	0.016013999
105	0x3c67c2be	0.014145551
106	0x3c7fe3d5	0.015618284
107	0x3ccbdc80	0.024885416
108	0xbc582706	-0.013192898
109	0xbc9cc75b	-0.019138029
110	0x3cb137ce	0.021633055
111	0x3bdf78e6	0.006819832
112	0xbe019923	-0.12656073
113	0x3c93aef7	0.018027766
114	0xbcc37a83	-0.02386213
115	0xbc6ad908	-0.014333971
116	0x3baf4050	0.005348243
117	0xbc91b929	-0.017788487
118	0xbc43e8ea	-0.0119573865
119	0x3c27f86c	0.0102520995
120	0xbbeca86a	-0.007222225
121	0xbe1da8d8	-0.1539644
122	0x3ac12ef7	0.0014738728
123	0x3c322ba0	0.010874659
124	0x3c6df9c6	0.014524883
125	0x3c429590	0.011876479
126	0x3c4179bd	0.01180881
127	0x3cb64c32	0.02225313
128	0x3c910f52	0.0177075
129	0x3ba98dd1	0.0051743765
130	0xbc93b663	-0.018031305
131	0xbc6b3ddb	-0.014358009
132	0xbc2c1b80	-0.010504603
133	0xbc032792	-0.00800504
134	0x3af30154	0.0018539825
135	0xbc68dbf3	-0.014212596
136	0x3ba788e9	0.0051127565
137	0x3ca620f6	0.020279389
138	0x3c5ec7ae	0.013597412
139	0xbde2da05	-0.1107674
140	0x3c92e97d	0.017933602
141	0x3b09a80b	0.0021004702
142	0x3c81726b	0.015801629
143	0x3c8bece8	0.01708074
144	0xbbd34f10	-0.006448634
145	0xbbf7d8d2	-0.007563689
146	0x3beb4aee	0.007180563
147	0x3b9fd56b	0.0048777363
148	0x3c53933e	0.012913523
149	0x3c8c2ff6	0.017112713
150	0xbc277729	-0.010221281
151	0xbadb8001	-0.0016746522
152	0x3b7e551a	0.0038808049
153	0x3c891bd9	0.016736912
154	0x3c5086a8	0.012727417
155	0x3b399f8f	0.0028323864
156	0xbc13e4dc	-0.009026732
157	0xbb4e43e2	-0.0031473567
158	0xbc252f26	-0.010082042
159	0x3b6917b4	0.0035567107
160	0xbb5bdc04	-0.0033547888
161	0x3b97882e	0.004624388
162	0xbbdc7b2f	-0.006728552
163	0xb9343646	-0.00017186356
164	0x3c8f4646	0.017489564
165	0x3c03e7a4	0.008050833
166	0xbb4c43b0	-0.0031168275
167	0xbc8ddd85	-0.017317543
168	0x3b0a5350	0.0021106787
169	0x3c376f20	0.011195928
170	0x3c7d21fd	0.015449998
171	0xbad9ad10	-0.0016607363
172	0x3cc60837	0.024173839
173	0x3bcdfb89	0.006286089
174	0x3b2a43e5	0.002598041
175	0x3ce10eb0	0.027472824
176	0x3c3df882	0.011594893
177	0x3af5183f	0.0018699243
178	0xbc0a6ec9	-0.008449265
179	0x3c9a7095	0.018852511
180	0x3cb6d6cd	0.022319222
181	0x3ca962af	0.020676939
182	0xbc14b349	-0.009075948
183	0x3c33435d	0.010941354
184	0x3c6935f1	0.014234052
185	0x3c2b8b1f	0.010470181
186	0x3c978f3a	0.018500913
187	0x3b6d5246	0.003621237
188	0xbb8d4cda	-0.00431214
189	0xbc627ebe	-0.013824163
190	0x3c6eac3e	0.014567433
191	0x3b11e64b	0.002226251
192	0xbbc0e3f7	-0.0058865505
193	0x3aaf14fd	0.0013357695
194	0xba091218	-0.00052288314
195	0x3aac1b5d	0.0013130713
196	0x3cbe78dd	0.023250991
197	0xbb319e89	-0.002710255
198	0xbcc5da2a	-0.02415188
199	0xbc59a473	-0.013283837
200	0x3cbdf4fd	0.023188109
201	0xbc6d1572	-0.014470445
202	0xbd3eadbd	-0.04655241
203	0x3baccab4	0.0052731875
204	0xbbc067a6	-0.005871731
205	0x3bfc6475	0.007702405
206	0xbc28ff4e	-0.010314776
207	0x3c2d43c3	0.010575238
208	0xbca63dfc	-0.020293228
209	0x3b9d2f86	0.004796925
210	0xbca49798	-0.020091817
211	0x3b6e778c	0.0036387173
212	0xbca20c4a	-0.01978125
213	0x3c4ee48c	0.012627732
214	0xbc35fe74	-0.01110803
215	0x3c7a024e	0.015259339
216	0xbb2fb217	-0.002680903
217	0xbcc6d747	-0.024272574
218	0xbbdf2fda	-0.0068111243
219	0xbb7d48ab	-0.003864805
220	0x3a93bd4e	0.0011271627
221	0x3b2790ec	0.0025568558
222	0xbc3ea069	-0.011634924
223	0x3cab1076	0.020881873
224	0xbc46414b	-0.012100528
225	0x3c950b62	0.018193904
226	0xbc31fbb6	-0.010863235
227	0xbca4b4ca	-0.020105738
228	0x3cad08ad	0.021122301
229	0xbe8e6d9a	-0.27817994
230	0xbc9a5c74	-0.018842913
231	0x3c9e8e44	0.019354947
232	0xbc0dae2e	-0.008647485
233	0xbc21021d	-0.009827164
234	0xbba2afab	-0.004964789
235	0x3c2bed1c	0.010493543
236	0x3cafe9de	0.021473821
237	0x3b06c695	0.0020565141
238	0x3e30258d	0.17201824
239	0xbb6f6149	-0.0036526492
240	0x3cb9dcbf	0.022688268
241	0x3c8b9530	0.017038912
242	0x3c350b04	0.01104999
243	0xbc92e2b2	-0.017930362
244	0x3c9dd13d	0.019264812
245	0xbcc22dc3	-0.023703462
246	0xbc07c0cb	-0.0082857115
247	0xbc8cd7eb	-0.017192801
248	0x3c7b0ade	0.015322415
249	0xbcb36772	-0.021899913
250	0x3ca39ddf	0.01997274
251	0x3cc5dc53	0.02415291
252	0x3cb8d540	0.022562623
253	0x3c4b80f7	0.012420884
254	0xbbf7836b	-0.007553508
255	0x3b74ef30	0.0037374012
