Sem 2/Intelligent Robots/Assignments/Lab 2/BehaviourCloning/Checkpoints/ckpt_e1.pth (torch, 80983 bytes, 6 tensors)

module.cnn.0.weight f4 [32, 3, 3, 3]
00000000: 115d 343e 325f 133e a3cc 3dbc 043d 52bc
00000010: 6f16 273e de3d b0ba bbd5 1dbe f01b 0b3e
00000020: ed85 2abd 78f9 c73c 5ce3 0b3e 4869 e03d
00000030: 8e14 78bd d988 0bbd c5af 0b3e e994 9d3d
00000040: dde8 5cbd d9ea 353e c1c4 12bd 06fd 31be
00000050: f050 15bd fabe 4c3d 56b4 ee3c aa6e 683d
00000060: 7500 f8bd 234f 23be c4b4 163e ac83 173e
00000070: e7c5 343e 9060 49bc 2a7f abbc 5334 a73d
00000080: 9958 2a3d ac34 2c3e d9f9 01be 904d e93d
00000090: d7bf 2dbd fc2b 313e ed44 fb3d 8731 583d
000000a0: 3bb1 053e 862f 7d3d 605b 7e3c dc9b 0fbe
000000b0: dc65 2fbe faf8 513c 4d8a 163d 4a45 3abd
000000c0: 0d2f a8bc 907d 1d3e dec6 55bd 0a20 16be
000000d0: 3ca2 9ebd 109c 3cbe c6fb 173e 1026 bbbd
000000e0: fc73 ad3c d79d db3d 06d2 febd d673 a9bb
000000f0: 6bf4 ec3d 6f74 193e ab2b 2bbe 0eb3 bfbc
00000100: 7001 be39 4a74 0f3c 9e7e 203c 4adf 7abd
00000110: 400e 24be f3d6 22be 5096 053d ddd6 213e
00000120: 48b8 dd3d bec2 8d3b 1755 8d3d be2d b33c
00000130: 9410 ba3d fafd d6bd ba29 323a c223 823d
00000140: 317a dbbd 81b2 4f3d d28f 0d3c fe2c 333e
00000150: de57 1fbd 2e2e 2d3e b23d f5bd 9e77 14be
00000160: 9bc5 753d 04a7 173e 9590 76bd e0cb 2ebe
00000170: fb57 033e 3665 1b3e 6ff8 0abe b160 08bd
00000180: a88a 1f3e 94b5 48bd 1d82 d3bc 43a9 00be
00000190: 1300 24be a00d 38b8 04e8 c1bd 1ae7 aabd
000001a0: d5a5 313c 512d 34be 69c6 69bd 7dce 2bbd
000001b0: 108d 16be 930b 0b3e ffdf d23d b807 0c3e
000001c0: 203b 953d 0ea2 4abd 7558 aebd f78c 243e
000001d0: ffaf 143e 99dc dabd d76b 9e3d 5f6e bdbd
000001e0: c63d 2bbe dea7 f8bd fb00 fd3d e81b 39be
000001f0: 3542 e1bd a7d3 14be 29d3 bb3d a575 13be
00000200: 97cf 173e 2b09 21be ce13 723d e52c 26be
00000210: 66d5 2d3e 850b c1bc 1e97 b03d d050 793d
00000220: 1c2f 13be 8139 193e a767 e2bc 7899 9fbd
00000230: 1c24 15be c1e1 08be 6f42 fa3d dc6a b7bd
00000240: 784d 6bbd e866 b8bd 33ad 6cba d14d cfbd
00000250: 145f c8bd eb79 1b3c 299d 54bd 57ee 22bd
00000260: ade4 3dbd 80b7 3abe de41 843d e64c 88bd
00000270: fdcd 16bd 40c9 30be 3b76 12be 3d90 52bb
00000280: 2905 a43d 255f 2abe e793 bdbd f04a b23d
00000290: 537c ac3d 262f 94bd 24ce c23d 86e7 0f3e
000002a0: ed3e dcbd d5f4 24be 3790 223e 8092 d23d
000002b0: 0a6a a4bd 4ab5 02bd 399d 2bbe e7b6 4d3d
000002c0: acbe bd3d 04c6 8fbd 6e6d 043e a14a e2bd
000002d0: a3ce 113e 99b7 0b3b 3687 3ebd 8d78 1ebd
000002e0: e054 cb3b fa26 043e b565 08be 7188 2dbe
000002f0: 850d 33be 3e3e 6dbc a498 b43d 1d0f ffbd
00000300: ee5e 0cbe f88f a23c 2df0 b83c f7f2 1a3d
00000310: 5bf5 353e ecfd a63d 9157 2cbd 8373 bb3d
00000320: 5004 a4bd 5558 f93d 77b8 e8bd f9ce dd3d
00000330: 41f6 103e 7f3d 923d c795 ef3d 9284 26be
00000340: f9c0 1fbc bbfc 9c3d 6427 293d da00 f53d
00000350: 5fed 133e 5c17 82bd 2f43 a63d fbe7 36bd
00000360: 89dc 03be ecb2 363e 4cc5 1ebe 2151 b2bd
00000370: dd80 623b 9510 9c3c 823a 163e daaf 23be
00000380: c9a1 71bb b584 37be ad61 b53d 917b ca3d
00000390: 9a93 91bc 29b9 d9bd cabe eebd 45d8 9f3d
000003a0: 0875 23bd 8ebe 8ebc 8ca6 2d3e 954a 43bd
000003b0: e288 a33d 162d 273e 80d6 143e 7ca3 a3bd
000003c0: 7187 9abd 9e3d 88bb 77f6 3b3e a813 e33d
000003d0: 1806 38be cf51 36be e778 bb3c ca09 0d3e
000003e0: a3fb 133e 4a39 3a3e a412 a7bd 816a a63d
000003f0: 731b 353e 1177 a93c 08b6 ddbd 3d99 d23d
0.17613627 0.14391783 -0.011584434 -0.01283193 0.16317151 -0.0013446172 -0.15413563 0.13584876
-0.041631628 0.024410948 0.1366095 0.10957581 -0.060566477 -0.034066055 0.1364127 0.07694418
-0.053933013 0.17765369 -0.03583217 -0.17381677 -0.03645414 0.049986817 0.029138725 0.056746162
-0.12109462 -0.15948157 0.14717394 0.14796323 0.17653619 -0.012291089 -0.02093466 0.08164277
0.0415884 0.16816968 -0.12692966 0.11391747 -0.04241928 0.17301935 0.12269006 0.052781608
0.1305589 0.0618129 0.015524715 -0.140243 -0.171287 0.012815708 0.036752988 -0.045476235
-0.020530248 0.1537993 -0.052191608 -0.1466066 -0.077457875 -0.18418908 0.14842138 -0.09138119
0.02117347 0.10723465 -0.124424025 -0.0051712794 0.115700565 0.14985822 -0.16715877 -0.02340081
0.00036240695 0.008755753 0.009795813 -0.0612481 -0.16021061 -0.15902309 0.032614052 0.1580462
0.108261645 0.0043261936 0.06900995 0.021872398 0.09085193 -0.10497661 0.0006796379 0.063544765
-0.107166655 0.050707344 0.0086402465 0.17497632 -0.038902156 0.16912147 -0.11974658 -0.14498755
0.060002904 0.14809805 -0.060196478 -0.1706996 0.1282653 0.15175328 -0.13571332 -0.033295337
0.15580237 -0.04900129 -0.025818879 -0.12564568 -0.16015653 -4.3881708e-05 -0.094680816 -0.083448604
0.01084276 -0.17595412 -0.057073984 -0.04194497 -0.14702249 0.13578634 0.1029663 0.1367482
0.07286668 -0.049470954 -0.085129656 0.16069399 0.14520262 -0.10686607 0.077354126 -0.09249567
-0.16722783 -0.12141393 0.12353703 -0.18077052 -0.10998956 -0.14533864 0.09171135 -0.14400347
0.14825283 -0.15726154 0.05910092 -0.16228063 0.16975936 -0.023565063 0.08622573 0.060868084
-0.1437344 0.14963342 -0.027637316 -0.07792944 -0.14564556 -0.13367368 0.122197025 -0.08955929
-0.057446927 -0.09004003 -0.0009028494 -0.10122264 -0.0978376 0.009489517 -0.051907692 -0.03977808
-0.04636066 -0.18234062 0.06457876 -0.06655292 -0.03681754 -0.17264271 -0.14302914 -0.003212943
0.08008797 -0.16637857 -0.09256726 0.087056994 0.084221505 -0.07235555 0.095119745 0.14053163
-0.1075419 -0.16109021 0.15875326 0.10281849 -0.08028038 -0.031911172 -0.16759194 0.050223257
0.092648834 -0.0702019 0.12932369 -0.110493906 0.14238982 0.002131915 -0.046515666 -0.038689185
0.0062051862 0.12905493 -0.13320048 -0.1694658 -0.17485626 -0.014480172 0.088181764 -0.124540545
-0.13708088 0.01984404 0.022575462 0.037829366 0.17769377 0.081539005 -0.042075697 0.091528915
-0.08008635 0.12175051 -0.11363309 0.108304925 0.14156438 0.07140636 0.1169849 -0.16261509
-0.009750598 0.07665392 0.04129733 0.11963053 0.14446019 -0.06352112 0.08118283 -0.044654828
-0.12877096 0.17841691 -0.1550495 -0.0870688 0.0034561672 0.019050876 0.14670756 -0.15985051
-0.0036870113 -0.17921717 0.08856521 0.0988685 -0.017770577 -0.106310196 -0.11657484 0.07804922
-0.03990653 -0.017424848 0.16958064 -0.04767855 0.07985093 0.16325793 0.1453495 -0.079901665
-0.07545365 -0.004157736 0.18355738 0.110877335 -0.17971075 -0.17804645 0.0228848 0.13773265
0.1445146 0.18185917 -0.08157852 0.08125783 0.17686252 0.020686658 -0.10825735 0.10283134

module.cnn.0.bias f4 [32]
00000000: e62d a83d 43ea 523d 9428 933d 4f2f 863d
00000010: 72a8 c43b 8893 9fbb 9d01 5abd 57ed 313e
00000020: 5a10 c43d 1bdf 033d bc47 cebd 0634 3a3e
00000030: 962e 37bd 2484 2b3e c534 193e 5c14 07be
00000040: 1873 333e 968a d53d c22d 2a3e 8dd1 373e
00000050: ebac 753c 8197 c6bd 87bf ccbd cb9d 3cbc
00000060: e0d7 cabd 6bab 0d3d 34b1 953c 6b8b 9ebd
00000070: dd99 2fbe 4fe9 f3bc 8491 8bbb 6e2f cc3c
0.082118794 0.05149294 0.07185474 0.06551992 0.0060015256 -0.004869882 -0.053224195 0.17375694
0.09573431 0.03219519 -0.10072276 0.18183908 -0.044722162 0.16749626 0.14961536 -0.1319136
0.17524374 0.10426824 0.16619018 0.17951031 0.01499484 -0.09696866 -0.099974684 -0.01151223
-0.09904456 0.034587305 0.018272974 -0.077414356 -0.17148538 -0.029774336 -0.00425929 0.02492496

module.cnn.2.weight f4 [64, 32, 3, 3]
00000000: 8853 8ebc e445 593c bb10 063d 9d80 3e3d
00000010: abd6 393c f0ca 323d 4201 c7bb c9a3 2bbd
00000020: f5c9 20bd 905f 48bc 27ad cebb 7bcd e8bc
00000030: bc5d 51bd 5a68 923a ba40 283d 8af5 83bb
00000040: 3368 eabc 6823 313d 76bf 303b 61fd 82bb
00000050: a85b cbbb a18a b6bc b8cf 64bc dc73 18bc
00000060: b770 85bc 7bb9 07bd 18ce 0e3c fa02 2bbd
00000070: 381c 3abd 6da8 4bbc 996d c3bb 9f21 bebc
00000080: e998 c1bc a7e6 9cbc 0ec0 02bd 1ff8 c4bc
00000090: 2d58 d33c ba79 69bc e760 e6bc c8bf bfbc
000000a0: e8dd 1dbc c7f1 bfbc ca05 3f3d c424 33bd
000000b0: 8ad3 8bbc 68dd 2abd 8f4a 083c 0054 5d3d
000000c0: 5433 3ebd de6a 51bd f1da 343d 31d2 adbc
000000d0: 7037 5bbd 7c06 f6bc 6ec2 c4bc 4f61 e0bb
000000e0: 4c94 35bc d308 d6bc bb4d 31bd ff50 d8bc
000000f0: 6cd8 12bd eedd 13bd 93f5 173d 0359 2abc
00000100: b6b7 863c 5b27 2bbc cbd7 da3c 642f 62bd
00000110: 9c31 87bc 9c91 153d 74bb 57bd 4d68 293d
00000120: 2306 22bd e21a 56bc 5442 67bd e7d1 e23c
00000130: 0319 67bd 5a61 5bbd df8d aabc a001 553d
00000140: 4642 5cbd 3d92 573b e1cd 573d 2961 34bd
00000150: a6d5 02bd 502e 0d3d 4a0d 5bbc 8564 f23c
00000160: ea4b 39bc 52b8 c7bc 1e4b 8b3c 8e41 723c
00000170: 7540 b2bc faef 2a3d ba9e 8bbb 596c d1bc
00000180: 6285 37bd 614f 09bd 4e9d 88bc 74c4 de3c
00000190: 09c1 5bbd af2c d23c 28a5 35bd 6da3 2b3d
000001a0: 29fa 17bd 7644 0bbd 1532 73bc 93ee 19bd
000001b0: 42bd 3f3d 1dac f0bc 3067 82bc d0e6 d23c
000001c0: 3c0f 0fbb 2c3c 963c de8d 1bbb 5c37 0bbd
000001d0: e9fd 933c 2c90 f4bc d44c 8dbc 6895 d4bc
000001e0: 2027 4f3d 86af 813c d5cd 573d 804f c03c
000001f0: 146d a43a a76d 56bc a5be 473d e98c 4d3a
00000200: 8449 1e3d e5f5 1a3d d455 c6bc 123e 6cbd
00000210: 9c68 6abc 16c1 bc3c a9c0 3cbd 44a3 cdbc
00000220: ba1d de3c 3e83 b23c 5f8b fbbb 12c3 133d
00000230: afc0 37bd bd3d b83c cacd 56bd a0d9 273d
00000240: 26e9 fdbc ec84 ac3c faf2 a1bb 485f fdbc
00000250: 415b da3c a5b2 36bd 2834 babc effc 1ebd
00000260: 2c2a a6bc 850c f53c 42f7 0dbd 356c 853d
00000270: 203c 7d3c 0486 933c 4aae b83a 5858 fcbc
00000280: b467 cbbc 5081 f13b e347 f5bb 98b5 e63c
00000290: cf59 c0bc 12b1 dfbb 9527 283b 899d 143d
000002a0: e15d 31bd 14c9 283d 75e6 f8bc 4e44 9bbb
000002b0: 48d4 2bbd 1b27 323d e3aa dcbc 4b3d 053d
000002c0: 3163 cf3c bfa1 1a3d 0c48 40bd e260 d63c
000002d0: c628 1bbc 91c7 243d 9a8e 223d c9de 2a3c
000002e0: 43b9 033d 9e56 433d c082 263d 7977 eebc
000002f0: 7c57 38bd 5bb1 2abd 5735 493d ec5a 49bc
00000300: f46b 38bd 23df 403d 260c 973c 4721 0dbd
00000310: 238a 0a3d 1a96 e83c c705 383c c304 4cbc
00000320: 6948 563d 78a7 ec3b 1b88 2bbc fa5c d1bc
00000330: 3176 fe3b 0f48 f1bc 9a02 993c 74b6 593d
00000340: ed00 2dbd f22b e13c 26ca 003d 1a2c 3a3d
00000350: c1cd ad3c 30ba 3f3d 1f18 513d 3f20 5d3c
00000360: 3b9e ddbc 8dc4 3f3d c664 29bc 2a45 d1bc
00000370: aca7 96bc 9d2f 49bd 7828 f63c 863c 91bb
00000380: 3373 2a3b 00ed c9bc 3326 0a3d 6511 b3bc
00000390: f2c4 07bd a334 15bd 3a25 403d b1aa 5abd
000003a0: 9ae1 083d 3c6a c7ba 57f9 82bc fe38 cabc
000003b0: fb4d 27bd 0995 843b e55f 17bd f563 ec3c
000003c0: bc57 063c 860e 413c 5de5 b83b 0886 96bc
000003d0: 0947 98ba d70f 453d 8b5e 5f3c 84af 4bbd
000003e0: 53ed 463d a204 173d 0361 813c 1fd1 22bd
000003f0: fea9 32bd b757 0b3d ca3a 3ebc 7abc 97bc
-0.017373815 0.013261292 0.0327308 0.046509374 0.011342685 0.043650568 -0.006073148 -0.041904245
-0.0392551 -0.012229815 -0.0063072625 -0.028418293 -0.051114783 0.0011170015 0.041077353 -0.0040270733
-0.02861414 0.043246657 0.0026969588 -0.0039974903 -0.0062059946 -0.0222829 -0.01396554 -0.009304967
-0.016289098 -0.033135872 0.008716129 -0.041750886 -0.045437068 -0.012430293 -0.005963993 -0.023209391
-0.023632484 -0.019152952 -0.03192144 -0.024044095 0.025798881 -0.014250213 -0.028122379 -0.023406878
-0.009635426 -0.023430718 0.04663638 -0.043736234 -0.017068643 -0.041715056 0.008318557 0.054035187
-0.04643567 -0.051127307 0.04415411 -0.021218391 -0.053519666 -0.030032389 -0.024018493 -0.0068475376
-0.01108272 -0.026127255 -0.04328702 -0.02640581 -0.035850927 -0.03610032 0.037099432 -0.010397199
0.016445022 -0.010446395 0.026714226 -0.055220976 -0.016503148 0.036515817 -0.052669004 0.041359235
-0.039556634 -0.013067933 -0.05645974 0.02768798 -0.056420337 -0.05355964 -0.020819603 0.052003503
-0.05377414 0.0032893561 0.052686576 -0.04403797 -0.031942032 0.034467995 -0.013369868 0.029588947
-0.011309603 -0.024379883 0.017003592 0.014786137 -0.021759251 0.041732766 -0.004260865 -0.02556436
-0.04480494 -0.033522967 -0.016676571 0.027193286 -0.05365089 0.025656072 -0.04434696 0.0419039
-0.037103806 -0.034000836 -0.014843483 -0.037581038 0.04681135 -0.029378945 -0.015918344 0.025744826
-0.0021829149 0.018339239 -0.0023735682 -0.03398834 0.01806541 -0.029853903 -0.017248549 -0.025950149
0.050574422 0.015830766 0.05268653 0.023475409 0.0012544715 -0.013087667 0.048765797 0.00078411266
0.03864433 0.03783216 -0.024210848 -0.057676382 -0.014307167 0.02304129 -0.046082173 -0.025102265
0.027113784 0.021791097 -0.0076765264 0.036074705 -0.04486149 0.022490377 -0.05244235 0.040979028
-0.030994963 0.021059476 -0.004942295 -0.030929223 0.026654841 -0.044603962 -0.022729948 -0.038815435
-0.020283781 0.029913196 -0.03465963 0.065147795 0.015456229 0.01800824 0.0014090028 -0.030803844
-0.024829723 0.0073701516 -0.007485376 0.028162763 -0.023480324 -0.0068265283 0.0025658358 0.03628305
-0.04330242 0.041207388 -0.030383328 -0.004738367 -0.041950494 0.043494325 -0.026936954 0.032529157
0.025315853 0.03775191 -0.04694371 0.026169244 -0.00947017 0.040229384 0.039686777 0.010429093
0.0321591 0.047690026 0.040652037 -0.029109703 -0.045005307 -0.041673046 0.049123134 -0.012289744
-0.045024827 0.0470878 0.01843841 -0.034455564 0.033823144 0.028391887 0.011231846 -0.012452307
0.05231515 0.0072221123 -0.010469462 -0.02555703 0.0077655544 -0.029453306 0.018677998 0.053152516
-0.04223721 0.027486775 0.031442784 0.045452215 0.021216275 0.04680842 0.051048394 0.013496458
-0.02705299 0.046818305 -0.010338968 -0.025545675 -0.018390499 -0.049117673 0.030048594 -0.004432264
0.0026008605 -0.024649143 0.033727836 -0.02185888 -0.033146806 -0.03642715 0.046910502 -0.05338544
0.033418275 -0.0015214155 -0.015988035 -0.02468538 -0.040845852 0.0040460867 -0.036956687 0.028856257
0.008199628 0.011783248 0.0056425766 -0.018374458 -0.001161785 0.04811081 0.013633381 -0.04972793
0.048566174 0.036869653 0.01579333 -0.039750215 -0.04361915 0.0340192 -0.011610696 -0.01852249

module.cnn.2.bias f4 [64]
00000000: 04ae da3c 4c97 fc3c 73c9 e4b9 b571 0fbd
00000010: 3cb7 00bd 3dc1 db3b 8580 2d3d 2859 8cbc
00000020: 61f7 b23c 04d8 39bd 0a60 74bc 0194 f73c
00000030: ad4b 61bc d6c9 0cbd e298 20bd 3da8 9bbb
00000040: 94c5 07bc 4986 453d 4e85 423d 3b4a febb
00000050: bfdc 44bd 1970 1d3d b3b5 e13c f4cd e03c
00000060: 702d c33c c6ea 3e3c 3407 09bd 4efa 02bd
00000070: e10c 55bd 9049 1bbd 4e30 65bc cee4 1bbd
00000080: 91d3 16bd ac84 653d 18f7 a13c d29e 73bc
00000090: 828c 86bc 88bd 6dbc db35 2abd 000c d93c
000000a0: 3cb4 39bd 4c76 223d dc15 133d 6c29 d7bc
000000b0: 7ec2 4d3d fcf5 d63c ebda 46bc 004e 3fbc
000000c0: aa8e 5cbc f783 67bd eb28 4b3d 218c 90bc
000000d0: 7a4a ea3b 39e8 493c 1b62 8e3c 4466 693c
000000e0: 35a7 fcbc b997 3bbd 1bf7 0f3c d695 7bba
000000f0: fb82 4b3c 9617 bd3c d3cb 2a3d c883 aebc
0.026694305 0.030833863 -0.0004363764 -0.03502055 -0.031424746 0.0067063854 0.042358894 -0.017132357
0.021846475 -0.045372024 -0.014915476 0.030221941 -0.013750953 -0.034372173 -0.0392083 -0.00475028
-0.008286852 0.048223767 0.04749041 -0.007760314 -0.048062082 0.038436983 0.027552461 0.027441956
0.023825377 0.011652654 -0.033454135 -0.03197699 -0.052014235 -0.03791195 -0.0139885675 -0.038060002
-0.03682286 0.05603473 0.019771144 -0.014869409 -0.016424421 -0.01451052 -0.041555267 0.02649498
-0.0453379 0.039663598 0.03590952 -0.026264869 0.05023431 0.026240341 -0.012137155 -0.0116763115
-0.013461748 -0.056522336 0.04959957 -0.017644944 0.0071499916 0.012323433 0.017380765 0.014245573
-0.03084145 -0.04579899 0.008786942 -0.00095972174 0.012421365 0.023082536 0.04169829 -0.021303073

module.fc.0.weight f4 [5, 67]
00000000: 1c7d c0bd 9945 47bc 28d4 893d a2e8 463d
00000010: 1ca4 123d 954f 503c 3312 403d 78d6 b0bd
00000020: fdcc 32bd babc d83d 4b2e f03d 9b1b cd3b
00000030: 1aa5 993d 173e 993c a34c c33d 1ecd 6d3c
00000040: f791 5f3d a431 9abd b89e 563d e486 ee3c
00000050: 6d0b f93a 979a 033d a0bf 0fbe e801 b93d
00000060: 9238 be3d 29e7 6d3d 69bc f23d 5c0a 9abd
00000070: b2cb 25bc 58f5 993c 562f 833d a79b ce3d
00000080: f2b7 543d 5013 dcbd d16d cabd b3f2 fabc
00000090: c0f7 bfbd 0721 ccbc 1cd5 313d 5087 febc
000000a0: ab3f 32bd 369f 9ebd 35da 82bd 2c67 173d
000000b0: 41bc 85bd a90e d23c e6e9 15bd d34b f3ba
000000c0: 804d 50bc 4916 893d 4710 02be 8831 793d
000000d0: 510e 6a3d 623b 96bd 4ff1 89bc 3548 1f3b
000000e0: 506c 88bd 24e8 873d 0324 c93d 3e60 84bd
000000f0: 8a04 5bbc e964 96bc afd0 dfbd c18f 793d
00000100: b44c dbbd 5456 4dbe 215d 6c3e 7c86 493c
00000110: 300d 943d ce5a 213d 9f10 e1bd e909 c03d
00000120: 4e57 553d 7b8d 6ebd 0da3 943d f710 4dbd
00000130: b55c 37bd e1d5 abbd c9d4 d33d dcd0 cf3d
00000140: 0231 813d 688b cbbc 424d 673d fc14 ccbd
00000150: f5a8 f0bd 36bd 56bc 6ad4 13bd 1ab3 943d
00000160: c692 20bd 57c3 c8bd ce9f 9cbc cab0 1ebc
00000170: 2d9f e73d 4b15 62b8 3136 eb3b 3d85 87bd
00000180: 617f a0bd 4a10 8d3d 5794 62bd 2a06 d73a
00000190: 6a5d 65bd eb32 b13d 574f 47bd a32f e8bd
000001a0: 0640 95bc d495 00bd b6bc d13d 2f03 a03d
000001b0: 6742 71bd 3fc8 743d 7d00 ebbc 1458 b6bc
000001c0: 0837 2b3d afbf cb3d 9cf9 0c3d 00ea 6d3d
000001d0: 5805 bc3d 31f6 ae3d aecc 5cbd aa45 edbc
000001e0: fdf4 9dbc 48df a8bd e87c 323d 64c3 813c
000001f0: ee05 5c3d 492d 51bd 02d2 d4bc 76a9 813d
00000200: 7b4b e8bd e069 4cbd 844c dfbb 778e 153e
00000210: 8021 b4bd 7485 483e 6466 21bd 354d 6e3d
00000220: bebf 1dbd 8bea b9bd 347c 6abd 969b a6bd
00000230: beae dbbd 611e 4a3b 8df1 8d3d 134d a0bd
00000240: 2296 9abd 2666 2f3d 227e b23d 7bf3 373d
00000250: f989 82bd 013c e73d cb65 a9bd 78b2 3fbd
00000260: 4666 96bd 7959 b4bd d1a6 9bbc 2b8b f3bc
00000270: a01d c13d f9dd 35bd 9771 f53d 1b75 71bd
00000280: e54d b03d 0d4f c43d 4bfe 47bd e9d4 7ebc
00000290: 711d 87bd 5f7d 9bbd a5ae ec3d 927e 9fbd
000002a0: 0a98 ccbd d0b7 25bd c04f 353c 3714 8dbd
000002b0: 3ffc 3f3d 8df8 e93d d292 86bb fd0f aa3d
000002c0: 6085 3c3c 255b cebb 7dfe 98bd f130 f53d
000002d0: f051 1fbd 3bef a33d 8e74 2cbd e46b c5bd
000002e0: c8a0 adbd 833d de3d a688 613d 653d 81bd
000002f0: d431 12bd 55d7 113c 8f45 4c3d 052e e83a
00000300: c58f 02bd 304a f33d d297 c43d 628a 0b3c
00000310: a6dc 1f3d 587f 93bd 709b 363e 8ee8 febd
00000320: a53f 92bd 55ae 013e 68e1 a93d 9512 a73d
00000330: 3403 bb3d 399c d0bd 83d6 aebd 3eef cb3d
00000340: 08cb d7bd 1f3c b1bd 2f45 853d c85e 893d
00000350: 9b52 78bc 5fb7 153d c03d 653d 95aa ea3d
00000360: 9315 ff3b 8b7a a0bd 5b66 74bd 1350 10bd
00000370: 2c70 d23d ccf3 393d 9eb8 7ebd 4601 99bd
00000380: ea80 5abd 4df2 c43c 7a5b b6bd 2e0a dabd
00000390: 0c65 94bd 3c48 cf3c 8d50 c7bd 46a1 ebbd
000003a0: 16e2 d43d 960e aabc cbde 07bd c011 a43d
000003b0: 5e8d 053d 7d2a 72bd 9b8d a9bd 66f9 adbd
000003c0: 2d9c 633d d988 f03d 1bbe d7bc ccf1 abbd
000003d0: 1c19 6b3d c01a dbbc b230 e33d b1b7 053d
000003e0: 1663 ce3d 3018 04bd 8ebb 793c 0efd 073d
000003f0: 9e74 f83d 095c 303d 577f 98bd dff0 a5ba
-0.09398863 -0.0121625895 0.06729919 0.0485617 0.03580104 0.012714286 0.046892356 -0.08634657
-0.043652523 0.10582872 0.1172758 0.0062593943 0.07502194 0.018706365 0.09536102 0.014514236
0.054582562 -0.075289994 0.05239746 0.029117055 0.0019000598 0.03212985 -0.14037943 0.09033567
0.09288134 0.05808178 0.11852343 -0.07521507 -0.0101193655 0.018793747 0.06405513 0.10088282
0.051933236 -0.10745871 -0.09884227 -0.030633306 -0.093734264 -0.024918092 0.043416128 -0.031070381
-0.04351775 -0.07745211 -0.06389276 0.036963627 -0.06530047 0.025641756 -0.036600016 -0.0018562026
-0.01271379 0.06693704 -0.12701522 0.060838252 0.05714256 -0.07335545 -0.016838698 0.0024304513
-0.06661284 0.06636074 0.09821322 -0.06463669 -0.013367781 -0.018358665 -0.10928475 0.06092811
-0.10707989 -0.20052463 0.23082401 0.01230013 0.07229078 0.03939324 -0.10989498 0.0937689
0.052085213 -0.058240395 0.07257662 -0.050065007 -0.044766147 -0.083904035 0.1034332 0.10147259
0.063081756 -0.024846748 0.056470163 -0.0996494 -0.11750976 -0.013106635 -0.036091246 0.072607234
-0.039202474 -0.09802883 -0.01911917 -0.0096857045 0.11309657 -5.390243e-05 0.007178091 -0.0661721
-0.078367956 0.068878725 -0.05531725 0.0016405035 -0.05599729 0.0865229 -0.04865965 -0.11337211
-0.018219005 -0.031392887 0.10241072 0.07813107 -0.058901217 0.059761282 -0.028686756 -0.022258796
0.04180053 0.0994867 0.034417734 0.058084488 0.09180707 0.08543051 -0.053906135 -0.028963882
-0.019281859 -0.082457125 0.04357615 0.01584024 0.053716592 -0.051068578 -0.025979046 0.0633115
-0.11342522 -0.049905658 -0.0068145413 0.14605127 -0.08795452 0.19582158 -0.039404288 0.0581791
-0.038512938 -0.09077939 -0.057247356 -0.081351444 -0.10726689 0.003084086 0.06930838 -0.07827201
-0.07548167 0.042822026 0.08715464 0.044909935 -0.063739724 0.11290742 -0.082713686 -0.04680106
-0.07343726 -0.08806128 -0.019000443 -0.029729446 0.09429479 -0.044401143 0.11984556 -0.05894957
0.08608607 0.0958539 -0.048826497 -0.015553691 -0.065974124 -0.07592272 0.11556748 -0.07787813
-0.09989937 -0.0404585 0.011066377 -0.06888621 0.04687142 0.114243604 -0.004106858 0.08303831
0.011506408 -0.0062974864 -0.07470415 0.119722255 -0.0388965 0.08004614 -0.042103343 -0.09639719
-0.08477932 0.10851576 0.05506196 -0.06310538 -0.03569205 0.008901437 0.049871024 0.001771391
-0.03187539 0.118793845 0.0959927 0.00851688 0.039028786 -0.07202023 0.17832732 -0.124467
-0.071410455 0.12664159 0.08294946 0.08157841 0.0913147 -0.10186047 -0.085370086 0.09957741
-0.10536772 -0.08654045 0.06507336 0.06707531 -0.015156413 0.03655183 0.055967093 0.11458317
0.0077845543 -0.07835873 -0.059667926 -0.035232615 0.10275301 0.04539852 -0.062187783 -0.07470946
-0.0533456 0.02404132 -0.089041665 -0.10646473 -0.07245836 0.025302999 -0.09732161 -0.1150537
0.10394685 -0.020758908 -0.033171456 0.08011198 0.03260552 -0.05912255 -0.08278962 -0.084948346
0.055568863 0.117448516 -0.026335767 -0.083957285 0.057396993 -0.026746154 0.11093272 0.032645885
0.10077493 -0.03224963 0.01524247 0.033200316 0.12131618 0.04305652 -0.07446163 -0.0012660286

module.fc.0.bias f4 [5]
00000000: bc3f e5bd fdb9 1f3d 7d72 9ebc 7f54 a2bd
00000010: 47cf 19bb
-0.11193797 0.03899573 -0.019341702 -0.079262726 -0.0023469494
