Sem 2/Intelligent Robots/Assignments/Lab 2/BehaviourCloning/Checkpoints/ckpt_e7.pth (torch, 80983 bytes, 6 tensors)

module.cnn.0.weight f4 [32, 3, 3, 3]
0	0x3e17da28	0.14829314
1	0x3dfd2931	0.12361372
2	0xbb49c8b2	-0.003078979
3	0xbc1a6837	-0.009424261
4	0x3e1026db	0.14077322
5	0x3c0db626	0.008649385
6	0xbe0379cb	-0.12839429
7	0x3dee8536	0.11646502
8	0xbcd760e1	-0.026291313
9	0x3cab2ec1	0.020896317
10	0x3df1564d	0.11784039
11	0x3dc98eae	0.09841667
12	0xbd48d73c	-0.04903339
13	0xbcb745bd	-0.022372121
14	0x3dffd755	0.12492243
15	0x3d836c1e	0.06417106
16	0xbd278490	-0.040897906
17	0x3e214f1b	0.15752833
18	0xbcc80c1e	-0.02441984
19	0xbe0b89a4	-0.13626724
20	0xbc9998e8	-0.01874967
21	0x3d470c71	0.04859585
22	0x3d1150bf	0.035477396
23	0x3d81e0be	0.06341694
24	0xbdc31dd7	-0.09527176
25	0xbdfd0599	-0.12354583
26	0x3e0c7299	0.1371559
27	0x3e106020	0.14099169
28	0x3e28e0e7	0.16492043
29	0x3ad18df7	0.0015987743
30	0xbbf2ccda	-0.007409674
31	0x3da56f61	0.080778845
32	0x3d355089	0.044266257
33	0x3e1296bb	0.14315312
34	0xbdcca2e5	-0.09992007
35	0x3dcb7385	0.09934143
36	0xbcd09d43	-0.025465613
37	0x3e1d9de8	0.15392268
38	0x3dd998ac	0.10624823
39	0x3d39e4c9	0.045384202
40	0x3de67781	0.11253262
41	0x3d56b8bf	0.05242228
42	0x3bbbed8a	0.005735104
43	0xbdf948b1	-0.12172068
44	0xbe1854e2	-0.1487613
45	0x3cc63e6e	0.02419969
46	0x3d36f169	0.04466382
47	0xbcf0814c	-0.029358529
48	0xbc3b1eab	-0.011420886
49	0x3e0c177c	0.13680834
50	0xbd1a5147	-0.03767517
51	0xbdff7b11	-0.12474645
52	0xbd833c8f	-0.06408035
53	0xbe1dea4d	-0.1542141
54	0x3e00828e	0.12549803
55	0xbd9dab3a	-0.076986745
56	0x3c7048a0	0.014665753
57	0x3db7157b	0.08939644
58	0xbdd86329	-0.10565788
59	0xbc176d5b	-0.009242381
60	0x3dc48e26	0.09597425
61	0x3dfb10bc	0.12259051
62	0xbe15f2c0	-0.14643383
63	0xbcac681d	-0.021045739
64	0xbc10a9de	-0.008829562
65	0xbb65d2d9	-0.0035068302
66	0x3ba81411	0.005129345
67	0xbd7abcd4	-0.061215237
68	0xbe160692	-0.14650944
69	0xbe0b162e	-0.1358268
70	0x3c88ead4	0.016713537
71	0x3dee8dd5	0.11648146
72	0x3dbf857c	0.09351632
73	0x3af2d5bc	0.0018526833
74	0x3d5af802	0.053459175
75	0x3ca6030c	0.020265125
76	0x3d95e3e4	0.07318857
77	0xbdbf827b	-0.09351059
78	0x3b0e64f7	0.002172766
79	0x3d4c9eb3	0.049956035
80	0xbdc815f7	-0.097698145
81	0x3d1a4738	0.037665576
82	0x3c43a3f9	0.01194095
83	0x3e20a65a	0.15688458
84	0xbd172b8a	-0.036906756
85	0x3e147989	0.14499487
86	0xbdb7b1fe	-0.08969496
87	0xbe009e30	-0.12560344
88	0x3d56be7f	0.052427765
89	0x3e05e320	0.13074923
90	0xbd954c6f	-0.07289969
91	0xbe214cc0	-0.15751934
92	0x3dcaed41	0.09908534
93	0x3dd53f0e	0.10412417
94	0xbe04741f	-0.12934922
95	0xbd184cf2	-0.037182756
96	0x3ddc6716	0.107618496
97	0xbd6ff989	-0.058587585
98	0xbd0bb195	-0.034104902
99	0xbdf62101	-0.12018014
100	0xbe106520	-0.14101076
101	0xba9d3a4d	-0.0011995524
102	0xbdc0821d	-0.09399817
103	0xbd9fef02	-0.07809259
104	0x3bc8c015	0.0061264136
105	0xbe25198b	-0.16123025
106	0xbd6a7ee0	-0.057249904
107	0xbd26bd1c	-0.040707693
108	0xbdf9b632	-0.12192954
109	0x3defb94b	0.11705264
110	0x3dbde220	0.092716455
111	0x3deae0fd	0.11468694
112	0x3d84013f	0.0644555
113	0xbd0c260c	-0.03421597
114	0xbd92045b	-0.07129737
115	0x3e0c593c	0.13705915
116	0x3e02f0df	0.12787198
117	0xbde061ba	-0.1095614
118	0x3d440e0b	0.047864955
119	0xbdb6886b	-0.089127384
120	0xbe243ddf	-0.16039227
121	0xbdf3390c	-0.11876115
122	0x3db8a26d	0.09015355
123	0xbe307c6e	-0.17234966
124	0xbde0c634	-0.10975304
125	0xbe099fd5	-0.13439877
126	0x3d8847d3	0.066543244
127	0xbe01dc5d	-0.12681718
128	0x3df770f1	0.12082089
129	0xbe109ff5	-0.14123519
130	0x3d2aa7a3	0.041663777
131	0xbe0e5669	-0.1390015
132	0x3e06320b	0.13105027
133	0xbce23a90	-0.027615815
134	0x3d8ad448	0.06778771
135	0x3d3cefa1	0.046126965
136	0xbdfe13a5	-0.12406091
137	0x3dfa02fa	0.12207599
138	0xbcd32176	-0.025772791
139	0xbd8d57e8	-0.069015324
140	0xbdff92e9	-0.12479193
141	0xbde773a8	-0.113013566
142	0x3dc6fc4d	0.09716091
143	0xbda3fabd	-0.08006809
144	0xbda5db02	-0.08098413
145	0xbde3ede9	-0.11129362
146	0xbd0e15fc	-0.034688935
147	0xbded6842	-0.11592151
148	0xbdf2bb48	-0.11852127
149	0xbce7b78c	-0.028285764
150	0xbd95d2bc	-0.07315585
151	0xbd90f621	-0.07078195
152	0xbd9eeabb	-0.07759615
153	0xbe2ffcd8	-0.17186296
154	0x3d083cb2	0.03326101
155	0xbd964c83	-0.07338812
156	0xbd45c784	-0.048285976
157	0xbe2891b0	-0.16461825
158	0xbe0e41b3	-0.1389225
159	0xbc923cf1	-0.017851325
160	0x3d3cc4bd	0.04608606
161	0xbe248551	-0.16066481
162	0xbda89eef	-0.08233439
163	0x3da204ab	0.079110466
164	0x3da92b1e	0.08260177
165	0xbd88d4d1	-0.066812165
166	0x3dad2173	0.084536456
167	0x3e042017	0.12902866
168	0xbdc8b8c3	-0.098008655
169	0xbe067453	-0.13130312
170	0x3e115d41	0.1419573
171	0x3d999df0	0.07500827
172	0xbd83c509	-0.06434066
173	0xbc8ebc4e	-0.017423775
174	0xbe1c066c	-0.15236825
175	0x3d2deaa8	0.042460114
176	0x3daebd67	0.085322194
177	0xbd96c464	-0.07361677
178	0x3dd7e250	0.105412126
179	0xbdb28696	-0.087170765
180	0x3de5da31	0.11223257
181	0x3c034162	0.008011194
182	0xbcda39c5	-0.026638875
183	0xbd26f7b7	-0.040763583
184	0x3c1706bb	0.009217913
185	0x3df25201	0.11832047
186	0xbdfa5721	-0.1222365
187	0xbe0fe4b3	-0.14052086
188	0xbe0dbfef	-0.13842748
189	0xbbce8ccd	-0.006303406
190	0x3da5601b	0.08074971
191	0xbdc47f73	-0.095946215
192	0xbddb9342	-0.107214466
193	0x3cd91dd7	0.026503487
194	0x3cf14890	0.029453546
195	0x3d265694	0.04060991
196	0x3e22db63	0.15904002
197	0x3da09dad	0.07842574
198	0xbce4bdfe	-0.027922627
199	0x3dae7d14	0.085199505
200	0xbd6f487e	-0.058418743
201	0x3de21e7e	0.11040972
202	0xbda91c6a	-0.08257373
203	0x3dd099e6	0.10185604
204	0x3e040acc	0.12894744
205	0x3d94b42e	0.07260929
206	0x3ddef927	0.10887366
207	0xbe0144b0	-0.12623858
208	0x3b62c6b2	0.0034603295
209	0x3d9ae4f7	0.07563203
210	0x3d3af3fd	0.04564284
211	0x3deaceac	0.11465201
212	0x3e0ab1ac	0.13544339
213	0xbd21ebb7	-0.039531436
214	0x3dab7c5d	0.0837333
215	0xbcb5a6ed	-0.022174323
216	0xbde697ce	-0.11259423
217	0x3e1b23c0	0.15150356
218	0xbe01d239	-0.1267785
219	0xbda6333d	-0.08115242
220	0x3bac533c	0.0052589457
221	0x3cac640f	0.021043805
222	0x3de018d1	0.10942233
223	0xbe087950	-0.13327527
224	0x3b4222e4	0.0029622847
225	0xbe1d6c00	-0.1537323
226	0x3da0b8eb	0.0784777
227	0x3db287db	0.087173186
228	0xbcbfea8a	-0.023427267
229	0xbdae98a5	-0.085252084
230	0xbdb91319	-0.09036846
231	0x3d52d935	0.051476676
232	0xbd06d0f8	-0.032914132
233	0xbbe929ed	-0.0071155936
234	0x3e0f2829	0.13980164
235	0xbd081ac8	-0.033228666
236	0x3d952aed	0.07283578
237	0x3e05dd63	0.13072734
238	0x3e01c308	0.12672055
239	0xbd6ecc60	-0.058300376
240	0xbd9523dd	-0.07282231
241	0xba2ad6a5	-0.000651697
242	0x3e25cbe5	0.16191061
243	0x3dccbe5f	0.09997248
244	0xbe18a233	-0.14905624
245	0xbe1d3dc4	-0.15355593
246	0x3cdfd421	0.02732283
247	0x3deec289	0.116581984
248	0x3df01403	0.11722567
249	0x3e20d994	0.15708
250	0xbd8b42a1	-0.06799818
251	0x3d830ae0	0.063985586
252	0x3e1f3286	0.15546617
253	0x3c88f051	0.016716154
254	0xbdc81cdf	-0.09771132
255	0x3dc0e652	0.0941893

module.cnn.0.bias f4 [32]
0	0x3da8026e	0.082035884
1	0x3d5efd04	0.054440513
2	0x3d87d0c8	0.06631619
3	0x3d840a95	0.06447331
4	0x3c31d28b	0.01085342
5	0x3bf59dcf	0.007495619
6	0xbd03de87	-0.03219464
7	0x3e1ddeb5	0.15416987
8	0x3dbad522	0.09122683
9	0x3d00e79b	0.031470876
10	0xbd95099f	-0.07277226
11	0x3e268c55	0.1626447
12	0xbccfb298	-0.025353715
13	0x3e214948	0.15750611
14	0x3e0d6ec4	0.13811785
15	0xbdcacabb	-0.09901949
16	0x3e2279e2	0.15866807
17	0x3dc3e346	0.09564833
18	0x3e339ac1	0.17539503
19	0x3e2bc525	0.16774423
20	0x3cc42ee2	0.023948137
21	0xbd971b82	-0.073782936
22	0xbd976e44	-0.073940784
23	0x3c2dd5c7	0.0106100505
24	0xbd964862	-0.07338025
25	0x3c847485	0.016168842
26	0x3cd41f0e	0.025893714
27	0xbd7f0c4d	-0.06226759
28	0xbe108d8f	-0.141165
29	0xbb13089e	-0.0022435556
30	0x39bc8640	0.00035958178
31	0x3d0d2089	0.034454856

module.cnn.2.weight f4 [64, 32, 3, 3]
0	0xbc868c78	-0.016424403
1	0x3c1cfaf8	0.00958132
2	0x3cd47cf6	0.025938492
3	0x3d283571	0.04106659
4	0x3c0619d0	0.008184865
5	0x3d0f99e0	0.035058856
6	0x3b58a97c	0.0033060005
7	0xbd0b3b9e	-0.033992402
8	0xbd0ae2f3	-0.033907842
9	0xbbf70a81	-0.007539094
10	0xbc27d72f	-0.010244175
11	0xbcc55a36	-0.024090867
12	0xbd1f97b9	-0.038963053
13	0xbb3e4d1a	-0.0029037655
14	0x3d0991c0	0.033586264
15	0x3bac63ef	0.0052609365
16	0xbcc610b9	-0.024177896
17	0x3d113459	0.035450313
18	0x3c105b54	0.008810837
19	0xba7b6809	-0.00095903926
20	0xbbe63ec9	-0.0070265275
21	0xbc848eb8	-0.016181335
22	0xbbebd2f8	-0.0071967803
23	0xbc006378	-0.007836215
24	0xbc6809d3	-0.0141624985
25	0xbcc30317	-0.023805184
26	0x3c2c7f79	0.010528439
27	0xbd16a445	-0.036777753
28	0xbd02895f	-0.03186929
29	0xbba27d77	-0.004958804
30	0xbbf10c82	-0.0073562274
31	0xbc95a8ea	-0.018269021
32	0xbc940123	-0.018066948
33	0xbc9a8932	-0.018864248
34	0xbcdf31f3	-0.027245497
35	0xbcbc099a	-0.022953797
36	0x3ca5bf46	0.020232808
37	0xbc4327d8	-0.011911355
38	0xbc837b96	-0.016050141
39	0xbca999a1	-0.020703139
40	0xbc2a7c25	-0.010405575
41	0xbc825487	-0.015909446
42	0x3d1a02f4	0.037600473
43	0xbd21d81e	-0.039512746
44	0xbc5c2a07	-0.0134377545
45	0xbd22fa2c	-0.039789364
46	0x3cdb8cf4	0.02680061
47	0x3d8688df	0.06569075
48	0xbd4e4541	-0.050359014
49	0xbd272199	-0.040803526
50	0x3d56f887	0.052483108
51	0xbcfc67e4	-0.030811258
52	0xbd66a3fd	-0.056308735
53	0xbcab3165	-0.020897577
54	0xbca75899	-0.020427989
55	0xbbbd9ee6	-0.0057867644
56	0xbbe73a68	-0.007056523
57	0xbcb3268e	-0.02186897
58	0xbd15b2b9	-0.036547396
59	0xbcba0513	-0.022707498
60	0xbcec573a	-0.028850187
61	0xbcfa71be	-0.030571815
62	0x3cf1909a	0.029487897
63	0xbbf5b082	-0.007497848
64	0x3c092cf4	0.008372534
65	0xbc376726	-0.011194026
66	0x3cffc0b8	0.031219825
67	0xbd4289e0	-0.04749477
68	0xbc834abc	-0.016026847
69	0x3d25d9ea	0.040491022
70	0xbd25cd24	-0.04047884
71	0x3d02976c	0.03188269
72	0xbd0c5907	-0.03426459
73	0xbc5ee6a5	-0.013604795
74	0xbd419d92	-0.04726941
75	0x3cb8e968	0.022572234
76	0xbd491642	-0.049093492
77	0xbd369737	-0.044577803
78	0xbc8d17a0	-0.01722318
79	0x3d2ddb71	0.042445604
80	0xbd36c0ab	-0.044617336
81	0x3c092b23	0.008372101
82	0x3d2676d7	0.04064068
83	0xbd1b251f	-0.0378772
84	0xbc9348ac	-0.017978989
85	0x3ce244bb	0.027620664
86	0xbc482a95	-0.012217184
87	0x3d0b1bc0	0.03396201
88	0xbb8eaaaf	-0.004353843
89	0xbcaaa8df	-0.020832477
90	0x3c9c69fe	0.01909351
91	0x3cb2946e	0.021799292
92	0xbca5144d	-0.020151282
93	0x3d1aebe1	0.037822608
94	0x3be1c6ba	0.006890145
95	0xbcb20704	-0.021731861
96	0xbd172724	-0.03690256
97	0xbca9e3a3	-0.020738428
98	0xbc2fcc8f	-0.010729923
99	0x3cafb36d	0.021447862
100	0xbd3d58b8	-0.046227187
101	0x3cbce7ed	0.02305981
102	0xbd216626	-0.039404057
103	0x3d00fbb2	0.031490035
104	0xbd006ec8	-0.03135565
105	0xbd014610	-0.031560957
106	0xbc89c6de	-0.01681846
107	0xbd09d16a	-0.03364698
108	0x3d31ef0d	0.043440867
109	0xbc90ccb0	-0.017675728
110	0xbc5bef45	-0.0134237455
111	0x3ca88064	0.020569034
112	0x3b663094	0.003512417
113	0x3c86a906	0.016438019
114	0xbbcbedb6	-0.0062234057
115	0xbcd01318	-0.02539973
116	0x3c94479c	0.018100552
117	0xbcf89224	-0.030343123
118	0xbc881963	-0.016613668
119	0xbcbe8804	-0.023258217
120	0x3d220b1d	0.03956138
121	0x3c33527a	0.010944957
122	0x3d29488c	0.04132895
123	0x3ca9626c	0.020676814
124	0x385ebd06	5.3104966e-05
125	0xbc599d2f	-0.013282104
126	0x3d1f0688	0.038824588
127	0xbb911429	-0.004427452
128	0x3cf899d7	0.030346794
129	0x3d066a99	0.032816503
130	0xbcc446df	-0.023959575
131	0xbd5026f2	-0.05081839
132	0xbc0a54b8	-0.00844305
133	0x3ca91c6a	0.020643432
134	0xbd2335cf	-0.039846238
135	0xbcba23d1	-0.022722157
136	0x3cc75a24	0.024334975
137	0x3cbb098f	0.022831706
138	0xbc04286a	-0.008066276
139	0x3cef2e36	0.02919684
140	0xbd1af332	-0.037829585
141	0x3c93f3ff	0.018060682
142	0xbd36acfa	-0.044598557
143	0x3d031aec	0.032008097
144	0xbcbb06c0	-0.022830367
145	0x3cf5e5f3	0.030016875
146	0xbb6994fd	-0.0035641782
147	0xbcd52173	-0.026016926
148	0x3d0e0052	0.034668274
149	0xbd03f4af	-0.03221577
150	0xbccc0d1a	-0.024908591
151	0xbcf6ee6d	-0.030142987
152	0xbc439550	-0.011937454
153	0x3c90d763	0.01768083
154	0xbc4f51db	-0.012653793
155	0x3d916392	0.0709907
156	0x3a2a37a8	0.0006493279
157	0x3c8642d8	0.016389295
158	0x3c594a35	0.013262321
159	0xbd1a4745	-0.037665624
160	0xbceab20c	-0.028649352
161	0x3c1c9aca	0.009558389
162	0x3c7545b8	0.0149702355
163	0x3ca1e69f	0.019763289
164	0xbcba0542	-0.022707585
165	0x3c48fa8d	0.012266767
166	0x3c09c08e	0.008407725
167	0x3ce0346a	0.027368743
168	0xbcb8e264	-0.022568889
169	0x3d4ea4d4	0.05045016
170	0xbcc37ea6	-0.023864102
171	0xbc3b7d99	-0.011443519
172	0xbd0fa9ef	-0.03507417
173	0x3d16ca72	0.03681416
174	0xbce18bb4	-0.027532436
175	0x3cd08ef5	0.025458792
176	0x3ca92975	0.020649651
177	0x3cfcd80d	0.03086474
178	0xbd2612bf	-0.04054522
179	0x3c9f2bcf	0.01943007
180	0xbc5d556c	-0.013509136
181	0x3d468b5a	0.04847274
182	0x3d49bd1f	0.049252626
183	0xbb3ee378	-0.002912728
184	0x3cd8f4fd	0.026484007
185	0x3d53cf2b	0.051711243
186	0x3cabb317	0.02095942
187	0xbd0f9d0c	-0.03506188
188	0xbd0c3cc6	-0.034237646
189	0xbcd45c1d	-0.02592283
190	0x3d32953a	0.043599345
191	0xbc2f9730	-0.010717198
192	0xbd08248c	-0.03323798
193	0x3d3e9ba3	0.046535145
194	0x3c9504d9	0.018190788
195	0xbce9372b	-0.028468689
196	0x3d0c42b8	0.034243315
197	0x3ce8331d	0.028344685
198	0x3bfa50a4	0.0076390076
199	0xbc2ca638	-0.0105376765
200	0x3d31fad4	0.0434521
201	0x3b9e9d61	0.0048405384
202	0xbc126b09	-0.008936652
203	0xbcb19d38	-0.021681413
204	0x3bfbf308	0.0076888837
205	0xbcca2932	-0.024677847
206	0x3c786275	0.015160193
207	0x3d7731d3	0.06035025
208	0xbd0d2036	-0.034454547
209	0x3ca89e70	0.020583361
210	0x3d1b3fd1	0.037902657
211	0x3d3744ae	0.044743232
212	0x3c83c659	0.01608579
213	0x3d3f1f83	0.04666091
214	0x3d5a4170	0.053285062
215	0x3c63ae62	0.013896557
216	0xbcad3e81	-0.021147968
217	0x3d11f66f	0.035635408
218	0xbc278c24	-0.010226283
219	0xbc5e46df	-0.013566702
220	0xbc85d491	-0.016336711
221	0xbd2da7d8	-0.042396396
222	0x3d0a3a1d	0.033746827
223	0xbad94512	-0.0016576371
224	0x3a099743	0.0005248675
225	0xbca4a411	-0.020097764
226	0x3d06a71d	0.032874215
227	0xbc9c5120	-0.019081652
228	0xbcd5e50d	-0.026110196
229	0xbcc4a185	-0.0240028
230	0x3d234dae	0.039869003
231	0xbd355c28	-0.04427734
232	0x3cffe4f1	0.031237097
233	0x39db6c8d	0.00041851812
234	0x3ac85668	0.001528454
235	0xbc8fb820	-0.017543852
236	0xbd1a0046	-0.037597917
237	0x3c68af4c	0.01420195
238	0xbcad3be0	-0.021146715
239	0x3cb1d9e9	0.021710353
240	0x3c3c7a21	0.011503727
241	0x3cb5e96e	0.022206035
242	0x3beb46cb	0.00718007
243	0xbc8184e5	-0.01581044
244	0x3bda1cdb	0.006656272
245	0x3d3dafdd	0.046310294
246	0x3c14be58	0.009078585
247	0xbd1c5427	-0.03816619
248	0x3d35b6db	0.044363838
249	0x3cdeb18b	0.027184268
250	0x3c621dbf	0.013801037
251	0xbd048a4e	-0.03235846
252	0xbd1d9c65	-0.038479228
253	0x3d2522b7	0.04031631
254	0x3a598faf	0.00082993036
255	0xbca8acb3	-0.020590162

module.cnn.2.bias f4 [64]
0	0x3caf37b3	0.021388864
1	0x3cd449c6	0.025914084
2	0x3b006b53	0.001959522
3	0xbcf0c8ac	-0.029392563
4	0xbcbf34a0	-0.023340523
5	0x3bbede2d	0.0058248253
6	0x3d136128	0.035981327
7	0xbc2a514e	-0.010395361
8	0x3c84d0cb	0.016212841
9	0xbd137150	-0.035996735
10	0xbc3bf4b1	-0.011471913
11	0x3cd3cb25	0.025853703
12	0xbc2ea1ff	-0.01065874
13	0xbce65a3b	-0.028119197
14	0xbd086529	-0.0332996
15	0xbb9f6dde	-0.004865392
16	0xbbd4aa06	-0.006489995
17	0x3d1a2ae9	0.03763858
18	0x3d2a422a	0.041567005
19	0xbbc2923f	-0.005937844
20	0xbd1ced85	-0.038312454
21	0x3d01e2bd	0.031710375
22	0x3caed6ff	0.021342753
23	0x3cc8efab	0.024528345
24	0x3c975808	0.018474594
25	0x3c46da19	0.0121369595
26	0xbce988d8	-0.028507635
27	0xbce1c510	-0.027559787
28	0xbd30ad31	-0.04313392
29	0xbd0423bc	-0.03226064
30	0xbc237d32	-0.009978579
31	0xbd13a027	-0.036041405
32	0xbd047674	-0.03233953
33	0x3d44e250	0.04806739
34	0x3c8f846e	0.017519202
35	0xbc5406b0	-0.012941048
36	0xbc85cd51	-0.016333254
37	0xbc41a22d	-0.011818451
38	0xbd152901	-0.036416057
39	0x3cad91ba	0.021187652
40	0xbd19e5dd	-0.03757273
41	0x3cf66741	0.030078532
42	0x3cf69246	0.030099045
43	0xbcb77809	-0.022396104
44	0x3d28e704	0.04123594
45	0x3cae8046	0.0213014
46	0xbc16e324	-0.009209428
47	0xbc2b2842	-0.01044661
48	0xbc1818c2	-0.0092832465
49	0xbd57dc5f	-0.052700397
50	0x3d2c291d	0.042031396
51	0xbc808075	-0.015686253
52	0x3bbfe2dc	0.005855901
53	0x3c1bcb3c	0.009508904
54	0x3c6a8338	0.014313512
55	0x3c53737f	0.012905954
56	0xbce9d4e3	-0.028543895
57	0xbd1802ca	-0.037112035
58	0x3c108925	0.00882176
59	0xbb8db777	-0.004324849
60	0x3c19f1e8	0.009396054
61	0x3c869f29	0.016433315
62	0x3d021761	0.031760577
63	0xbc814a63	-0.01578254

module.fc.0.weight f4 [5, 67]
0	0xbe156b9f	-0.14591835
1	0xbd859d6c	-0.065241665
2	0x3d86c5fa	0.0658073
3	0x3a4accc3	0.00077362004
4	0x3d42f0b4	0.047592834
5	0x3c525edf	0.012840002
6	0x3d118b95	0.035533506
7	0xbdb2c941	-0.087297924
8	0xbd1e6f5b	-0.038680416
9	0x3dd46511	0.103708394
10	0x3e05a8bf	0.13052653
11	0x3bcfd223	0.006342189
12	0x3d898ed5	0.06716696
13	0xbcec1369	-0.02881785
14	0x3dba0e57	0.09084766
15	0xbc54b9e3	-0.012983772
16	0x3db78b3a	0.08962102
17	0xbdd87eec	-0.105710834
18	0x3d9fa936	0.07795946
19	0x3caef352	0.021356259
20	0xbb380773	-0.0028080612
21	0x3d051642	0.03249193
22	0xbe433363	-0.19062571
23	0x3dbd08e0	0.092302084
24	0x3d95728f	0.07297241
25	0x3d792c55	0.060833294
26	0x3e15cde2	0.1462932
27	0xbdcfe5ff	-0.1015129
28	0xbbfbe29e	-0.007686927
29	0x3d1a65d4	0.037694767
30	0x3dbff1ce	0.093722925
31	0x3db443b2	0.08801974
32	0x3d112a0c	0.03544049
33	0xbdf8ab22	-0.12142016
34	0xbe043cf2	-0.12913874
35	0xbd4d3e84	-0.050108448
36	0xbdac4cb0	-0.084130645
37	0xbbe4b2d8	-0.0069793276
38	0x3d8cc7c1	0.068740375
39	0xbde569b4	-0.11201802
40	0xbd839c9e	-0.06426357
41	0xbd8d0c0b	-0.06887063
42	0xbd8c799a	-0.06859131
43	0x3d52c246	0.051454805
44	0xbd8bffbb	-0.06835886
45	0x3c983709	0.01858093
46	0xbce05113	-0.02738241
47	0xbd16abc4	-0.036784902
48	0xbc6a4520	-0.014298707
49	0x3d57b044	0.052658334
50	0xbdfa684a	-0.12226923
51	0x3d29b248	0.041429788
52	0x3d17381c	0.036918744
53	0xbda7dc9e	-0.08196376
54	0xbcc019ab	-0.02344974
55	0xbd11bd07	-0.03558066
56	0xbddef839	-0.108871885
57	0x3d9c330b	0.07626923
58	0x3df3daac	0.11906943
59	0xbe61e1e5	-0.22058828
60	0xbd0bbf21	-0.03411782
61	0xbda52a1a	-0.08064671
62	0xbe5de393	-0.21668844
63	0x3d986ae6	0.07442264
64	0xbe4c09e9	-0.19925655
65	0xbed013b7	-0.4064004
66	0x3f0d5dae	0.5522107
67	0x3c3e6291	0.01162018
68	0x3da568de	0.080766425
69	0x3d329a12	0.043603964
70	0xbdf1fb98	-0.11815566
71	0x3dca5cfe	0.09881018
72	0x3d324f2e	0.043532543
73	0xbd94a35a	-0.07257719
74	0x3d3c2a47	0.045938756
75	0xbd3df6db	-0.046377998
76	0xbd0b594e	-0.034020714
77	0xbdb4a793	-0.08821025
78	0x3dc2e37a	0.09516044
79	0x3dd393d9	0.10330934
80	0x3d8320f3	0.06402769
81	0xbc99d4d7	-0.018778248
82	0x3d826035	0.06366006
83	0xbdc42930	-0.095781684
84	0xbdfafb44	-0.12254956
85	0xbbb47824	-0.005507486
86	0xbd092c79	-0.033489678
87	0x3d91f6cc	0.07127151
88	0xbd04bee0	-0.032408595
89	0xbd626823	-0.055275094
90	0xbc8dee79	-0.017325627
91	0xbbddc476	-0.0067678047
92	0x3dca366d	0.09873662
93	0xbbc6ab4c	-0.0060629006
94	0x3c2af9f1	0.010435567
95	0xbd1dd228	-0.0385305
96	0xbd8bfbac	-0.06835112
97	0x3d474164	0.048646346
98	0xbd63defe	-0.055632584
99	0x3c25e95d	0.010126439
100	0xbd88aa17	-0.06673067
101	0x3d9706e1	0.07374359
102	0xbd52690c	-0.05136971
103	0xbdf674ae	-0.12033974
104	0xbc0c3336	-0.0085571315
105	0xbd7f9c16	-0.062404715
106	0x3e0a7962	0.13522866
107	0x3d8f106e	0.069855556
108	0xbd66badd	-0.05633055
109	0x3d772142	0.06033445
110	0xbd07a40b	-0.033115428
111	0xbd607b8b	-0.05480532
112	0x3d63421f	0.05548298
113	0x3db6c5bf	0.08924436
114	0x3d63c270	0.055605352
115	0x3d725b0b	0.059168857
116	0x3d751aaa	0.059839882
117	0x3d98baf4	0.074575335
118	0xbd1ffb7d	-0.039058197
119	0xbbf6c21c	-0.007530464
120	0xbc809a40	-0.015698552
121	0xbd837c89	-0.064202376
122	0x3d5db4ad	0.054127384
123	0xbca2a56b	-0.019854268
124	0x3d2c033f	0.041995283
125	0xbd42d970	-0.047570646
126	0x3d259b5c	0.040431365
127	0x3d8c0a5c	0.068379134
128	0xbdd3441b	-0.103157245
129	0xbc5bf8ff	-0.0134260645
130	0xbc6c9018	-0.0144386515
131	0x3e1d8b09	0.15385069
132	0xbeb9cff7	-0.36291477
133	0x3edd5196	0.43226308
134	0xbce23a48	-0.027615681
135	0x3d89b3a3	0.06723716
136	0xbd322c5c	-0.043499336
137	0xbd851207	-0.06497579
138	0xbd5dc341	-0.054141287
139	0xbd993ebe	-0.0748267
140	0xbdcb4d45	-0.09926847
141	0x3ba8b6e5	0.005148756
142	0x3d867331	0.0656494
143	0xbd91bbdb	-0.07115909
144	0xbdc710f2	-0.09720029
145	0x3ce09e4b	0.02741923
146	0x3d88ee18	0.06686038
147	0x3d695ca2	0.056973107
148	0xbd705ab7	-0.058680262
149	0x3ddaa907	0.10676771
150	0xbda1c808	-0.07899481
151	0xbcfa2b8d	-0.030538345
152	0xbd97c81b	-0.07411214
153	0xbdb6492e	-0.08900677
154	0xbc9c9d05	-0.019117841
155	0xbd094ac6	-0.033518575
156	0x3df628ad	0.12019477
157	0xbd85489a	-0.06507988
158	0x3dc13cbc	0.09435412
159	0xbd6e55cc	-0.05818729
160	0x3d80a406	0.06281285
161	0x3dcd4b0a	0.10024078
162	0xbd4243d9	-0.047427986
163	0xbca1d4a7	-0.01975472
164	0xbd80cba0	-0.062888384
165	0xbdc0a2a2	-0.0940602
166	0x3dc9c951	0.09852851
167	0xbd4d4514	-0.050114706
168	0xbda7135e	-0.08157991
169	0xbd11f4a6	-0.035633706
170	0x3c144ebc	0.009051975
171	0xbd88bcba	-0.06676622
172	0x3cf721cf	0.030167488
173	0x3e303b22	0.17210057
174	0xbb7f51ee	-0.0038958746
175	0x3d84f84d	0.06492672
176	0x3c91e20b	0.017807981
177	0xbc6fcd25	-0.014636313
178	0xbd9f64d2	-0.07782902
179	0x3dc01a20	0.09379983
180	0xbd51108f	-0.051041182
181	0x3db52bda	0.08846255
182	0xbd32bd45	-0.043637533
183	0xbdb45374	-0.0880498
184	0xbd8f713d	-0.0700402
185	0x3dd378ac	0.10325751
186	0x3d7d61cc	0.061860844
187	0xbd4d7f08	-0.050169975
188	0xbc882e94	-0.016623773
189	0x3d0e19fa	0.034692742
190	0x3d86fb0c	0.06590852
191	0xbbd7d1cb	-0.0065862886
192	0xbd0c7786	-0.034293674
193	0x3e6f9769	0.23397602
194	0x3d9c7ffb	0.07641598
195	0x3cd2f1b8	0.025750026
196	0x3de1f969	0.11033899
197	0xbdebfb85	-0.11522583
198	0x3ec74c97	0.3892562
199	0xbe6821a7	-0.22669087
200	0xbe4840f1	-0.19556023
201	0x3e11b2c8	0.14228356
202	0x3df92abe	0.121663556
203	0x3da4a8dd	0.080400206
204	0x3dd3a6d1	0.10334552
205	0xbdb1fbdf	-0.08690619
206	0xbd9461ef	-0.07245242
207	0x3dc0c317	0.094122104
208	0xbda15e67	-0.07879334
209	0xbd934cf9	-0.07192416
210	0x3d367277	0.044542756
211	0x3d5b4df1	0.053541128
212	0xbc0cd9ff	-0.008596896
213	0x3d034107	0.032044437
214	0x3dae7d64	0.0852001
215	0x3dc2cad8	0.095113456
216	0x3d055462	0.032551177
217	0xbdbfa8e9	-0.09358389
218	0xbd09f702	-0.03368283
219	0xbd4e1a93	-0.050318312
220	0x3dc673ae	0.09690033
221	0x3d20e5db	0.039281707
222	0xbd5ad9d1	-0.053430382
223	0xbc80836e	-0.01568767
224	0xbd2b14b2	-0.041767783
225	0x3cd9edb8	0.026602611
226	0xbd9c25d1	-0.076244004
227	0xbdf85a63	-0.12126615
228	0xbd3f82c9	-0.046755586
229	0x3c8ab860	0.01693362
230	0xbdc6983d	-0.09697006
231	0xbdfbd43e	-0.12296341
232	0x3dc80b1e	0.097677454
233	0xbc4540f3	-0.012039411
234	0xbc365512	-0.011128681
235	0x3db8b732	0.09019317
236	0x3d241309	0.040057216
237	0xbd3c6a53	-0.045999836
238	0xbda07b62	-0.078360334
239	0xbdbbfc1a	-0.09178944
240	0x3daf8e1a	0.085720256
241	0x3e03c537	0.128682
242	0xbc3b8205	-0.011444573
243	0xbd5c8db4	-0.053846076
244	0x3d2792eb	0.040911596
245	0x3b5660af	0.0032711437
246	0x3db5f6f6	0.08884995
247	0x3cf48c3e	0.029852029
248	0x3dcc68f1	0.099809535
249	0xbbf764a7	-0.0075498405
250	0x3ca26d31	0.019827457
251	0x3d168f1e	0.03675758
252	0x3deb1a9d	0.114796855
253	0x3d25b59f	0.04045641
254	0xbd5b3e03	-0.053525936
255	0x3beebaaf	0.007285438

module.fc.0.bias f4 [5]
0	0xbda97b5c	-0.08275482
1	0x3d3454f0	0.044026315
2	0xbd0d429d	-0.034487356
3	0xbd82bc93	-0.06383624
4	0xbc01b949	-0.007917711
