Sem 2/Intelligent Robots/Assignments/Lab 2/BehaviourCloning/Checkpoints/ckpt_e9.pth (torch, 80983 bytes, 6 tensors)

module.cnn.0.weight f4 [32, 3, 3, 3]
0.13956311 0.118273295 0.001142457 -0.008863637 0.13476759 0.013262944 -0.12129909 0.1111687
-0.020297635 0.01843081 0.11202675 0.0960212 -0.047080133 -0.019371025 0.12229497 0.058830746
-0.037757494 0.15208198 -0.022664484 -0.12564269 -0.012885438 0.046500683 0.036685824 0.065845765
-0.08939721 -0.113790885 0.13447532 0.14094262 0.16430369 0.007873617 -0.0017595282 0.082908034
0.0466548 0.13609833 -0.09088969 0.095477596 -0.018806657 0.15091573 0.103609696 0.044648513
0.10958636 0.0514402 0.0028628036 -0.115318276 -0.14160599 0.029135847 0.049665455 -0.022282397
-0.0072992155 0.13431647 -0.031350356 -0.11814064 -0.058886915 -0.14446288 0.12150296 -0.07061561
0.013877796 0.08676217 -0.09818616 -0.009735301 0.092399344 0.11631882 -0.13995996 -0.018344657
-0.010167845 -0.0070322817 0.005639435 -0.060023166 -0.14279988 -0.12740186 0.013121294 0.1035924
0.091573276 0.0029491666 0.04954711 0.022066005 0.069635354 -0.08982053 0.0045844135 0.047522623
-0.09487006 0.031802796 0.012717528 0.1531708 -0.038175475 0.1378146 -0.07890341 -0.12161638
0.050197467 0.12765357 -0.078442395 -0.15390314 0.09251777 0.0885375 -0.12752755 -0.035896298
0.0920333 -0.061360817 -0.033992704 -0.120263115 -0.1351661 0.00081290625 -0.09519885 -0.07605592
0.007502679 -0.15813997 -0.056779668 -0.037508648 -0.115176946 0.113862 0.093170166 0.107921414
0.06424006 -0.02663881 -0.06710911 0.13209009 0.1252334 -0.11321541 0.03971688 -0.08592625
-0.16088147 -0.11763504 0.08192894 -0.17193197 -0.109609455 -0.1302388 0.057803463 -0.11979766
0.11617303 -0.13748477 0.038277764 -0.1292632 0.11902135 -0.027374279 0.06449188 0.04142056
-0.11944174 0.111998804 -0.025901947 -0.06812199 -0.121327564 -0.10726562 0.088341475 -0.079811186
-0.08754233 -0.1179885 -0.045640107 -0.12022844 -0.12565391 -0.04119816 -0.079172686 -0.0807878
-0.08857208 -0.1679053 0.024156133 -0.07583743 -0.051216934 -0.16276695 -0.13895816 -0.021596627
0.035614703 -0.16029273 -0.08050333 0.07645589 0.08263831 -0.06666996 0.08065642 0.12571505
-0.09712586 -0.12386239 0.13650495 0.06408383 -0.061140124 -0.013414542 -0.15074182 0.038361438
0.08259217 -0.07790016 0.09594352 -0.08149321 0.10128152 0.008862268 -0.020559568 -0.04349303
0.008994505 0.115150616 -0.12144761 -0.13362692 -0.1282443 -0.004222097 0.0784007 -0.08864027
-0.097615264 0.029502971 0.03137142 0.042441458 0.15477414 0.07774169 -0.023419656 0.08375199
-0.052755527 0.10853071 -0.07182664 0.1002265 0.12686837 0.07470604 0.10705076 -0.11509632
0.007979368 0.07493799 0.04832693 0.11483451 0.13326114 -0.030826379 0.08635607 -0.014714569
-0.10771063 0.14330412 -0.118600264 -0.078433074 0.0062591853 0.021792686 0.10001717 -0.12473192
0.004901409 -0.14660224 0.07464054 0.08296494 -0.024552336 -0.07911398 -0.08305151 0.044822082
-0.03066971 -0.0046834513 0.13057803 -0.02990157 0.06995173 0.12167051 0.12113529 -0.052301716
-0.070825495 0.00062267605 0.15503606 0.09733263 -0.13891347 -0.14519584 0.028850729 0.11147136
0.1105526 0.14989938 -0.06298158 0.060247254 0.14953496 0.016112242 -0.09406025 0.091742046
00000000: a2e9 0e3e 4539 f23d 7fbe 953a ca38 11bc
00000010: 8400 0a3e d24c 593c a86b f8bd 6aac e33d
00000020: 3a47 a6bc 36fc 963c 486e e53d c3a6 c43d
00000030: 19d7 40bd fcaf 9ebc c975 fa3d 82f8 703d
00000040: 9aa7 1abd 61bb 1b3e deaa b9bc 7aa8 00be
00000050: 721d 53bc 8077 3e3d e043 163d 25da 863d
00000060: e215 b7bd 320b e9bd e6b3 093e 4353 103e
00000070: 3a3f 283e 5800 013c f89f e6ba b0cb a93d
00000080: 1b19 3f3d 5c5d 0b3e 6024 babd c289 c33d
00000090: 6b10 9abc a789 1a3e 5231 d43d 5ce1 363d
000000a0: d06e e03d f6b2 523d e09d 3b3b fd2b ecbd
000000b0: 2901 11be 4dae ee3c 016e 4b3d 9389 b6bc
000000c0: 422e efbb 428a 093e 3b69 00bd b8f3 f1bd
000000d0: 6833 71bd 14ee 13be 8bd6 f83d eb9e 90bd
000000e0: b25f 633c 5db0 b13d d315 c9bd d080 1fbc
000000f0: de3b bd3d 9038 ee3d aa51 0fbe 8947 96bc
00000100: 0897 26bc 0e6f e6bb 02cb b83b dada 75bd
00000110: 223a 12be a275 02be b2fa 563c 4128 d43d
00000120: c58a bb3d ce46 413b e9f1 4a3d c4c3 b43c
00000130: fb9c 8e3d d3f3 b7bd d938 963b 15a7 423d
00000140: 3c4b c2bd a643 023d 2e5d 503c ced8 1c3e
00000150: e35d 1cbd 451f 0d3e 1c98 a1bd 0212 f9bd
00000160: dc9b 4d3d 9eb7 023e 68a6 a0bd c998 1dbe
00000170: f579 bd3d 2653 b53d 9596 02be ff07 13bd
00000180: f47b bc3d 7b55 7bbd ef3b 0bbd 824c f6bd
00000190: fb68 0abe 3719 553a 9df7 c2bd 35c3 9bbd
000001a0: 08d9 f53b 72ef 21be cc91 68bd aba2 19bd
000001b0: e4e1 ebbd 7b30 e93d 00d0 be3d e705 dd3d
000001c0: 4b90 833d a239 dabc 8070 89bd a042 073e
000001d0: 2f3d 003e 7bdd e7bd 2bae 223d 1afa afbd
000001e0: 1dbe 24be a4ea f0bd 5cca a73d ef0e 30be
000001f0: ec7a e0bd 525d 05be 53c3 6c3d 7a58 f5bd
00000200: 20ec ed3d cfc8 0cbe 25c9 1c3d 935d 04be
00000210: 77c1 f33d 0640 e0bc 5214 843d 9ba8 293d
00000220: df9d f4bd a15f e53d 5230 d4bc 8b83 8bbd
00000230: 967a f8bd 14ae dbbd 60ec b43d 0c74 a3bd
00000240: 6549 b3bd f4a3 f1bd 1ff1 3abd 543a f6bd
00000250: 6bab 00be 67bf 28bd 4a25 a2bd 1374 a5bd
00000260: 4765 b5bd 5eef 2bbe 15e3 c53c a850 9bbd
00000270: d9c8 51bd 61ac 26be 0c4b 0ebe 69eb b0bc
00000280: b9e0 113d c723 24be eede a4bd e894 9c3d
00000290: 463e a93d 438a 88bd 312f a53d 72bb 003e
000002a0: ece9 c6bd 91ab fdbd f4c7 0b3e 623e 833d
000002b0: 116e 7abd abc8 5bbc 105c 1abe e220 1d3d
000002c0: 1526 a93d 1e8a 9fbd 097e c43d e9e5 a6bd
000002d0: b06c cf3d 0c33 113c 8a6c a8bc bf25 32bd
000002e0: b05d 133c 16d4 eb3d 86b9 f8bd 7fd5 08be
000002f0: 7952 03be 8459 8abb 8c90 a03d 0889 b5bd
00000300: 83ea c7bd 37b0 f13c 517f 003d 18d7 2d3d
00000310: 1d7d 1e3e 0937 9f3d 94da bfbc 2a86 ab3d
00000320: 2e16 58bd 5945 de3d d819 93bd 8d43 cd3d
00000330: c8e9 013e 7bff 983d 6e3d db3d 9fb7 ebbd
00000340: e5bb 023c 1779 993d 75f2 453d 5b2e eb3d
00000350: 9c75 083e 9a87 fcbc 74db b03d 6015 71bc
00000360: 6497 dcbd 51be 123e b2e4 f2bd 85a1 a0bd
00000370: da19 cd3b 9386 b23c cdd5 cc3d 7373 ffbd
00000380: 009c a03b e61e 16be 24dd 983d 86e9 a93d
00000390: fb21 c9bc 8306 a2bd e916 aabd 5c97 373d
000003a0: 0b3f fbbc a377 99bb 3fb6 053e 23f4 f4bc
000003b0: da42 8f3d 632e f93d c715 f83d 533a 56bd
000003c0: f50c 91bd 153b 233a c6c1 1e3e 5456 c73d
000003d0: 553f 0ebe 38ae 14be 5d58 ec3c 194b e43d
000003e0: 6769 e23d 397f 193e 7dfc 80bd d3c5 763d
000003f0: b11f 193e d2fd 833c a9a2 c0bd 41e3 bb3d

module.cnn.0.bias f4 [32]
0.084273115 0.056445826 0.07017882 0.064363904 0.01280349 0.010810528 -0.023948247 0.14995046
0.091438904 0.03164386 -0.064475924 0.15804814 -0.017841287 0.15754123 0.1356582 -0.08859669
0.15514545 0.094623074 0.1837175 0.1672172 0.027792573 -0.066253185 -0.06457376 0.021959804
-0.06465173 0.013189599 0.02938948 -0.05957288 -0.13148361 0.0064690905 0.0031162065 0.040786486
00000000: 6297 ac3d bd33 673d eab9 8f3d 39d1 833d
00000010: bbc5 513c a41e 313c 1d2f c4bc 9d8c 193e
00000020: 5244 bb3d fe9c 013d f40b 84bd 5fd7 213e
00000030: e427 92bc 7d52 213e fce9 0a3e 2e72 b5bd
00000040: 73de 1e3e bec9 c13d 7120 3c3e fc3a 2b3e
00000050: 40ad e33c c0af 87bd 3f3f 84bd 0ce5 b33c
00000060: 2068 84bd 3019 583c 35c2 f03c b102 74bd
00000070: a4a3 06be aafa d33b 4539 4c3b bb0f 273d

module.cnn.2.weight f4 [64, 32, 3, 3]
-0.01741894 0.008804026 0.024247415 0.03793356 0.0074643847 0.032785766 0.0046954225 -0.031621177
-0.032118738 -0.007460423 -0.011260468 -0.022689454 -0.036384914 -0.0041176616 0.031523444 0.0072522815
-0.023122368 0.033204097 0.0104305595 -0.0011579002 -0.006842145 -0.014638458 -0.006341776 -0.0070756422
-0.013951376 -0.021963146 0.011157587 -0.03554433 -0.026530864 -0.0038267707 -0.008148559 -0.01600415
-0.017132536 -0.01917904 -0.02553038 -0.023030173 0.018335804 -0.010916795 -0.012444315 -0.020271143
-0.010898215 -0.013398624 0.034441303 -0.03871653 -0.012119865 -0.039327465 0.034465604 0.066255674
-0.05253689 -0.035991684 0.052704386 -0.034906503 -0.056152996 -0.019484188 -0.01949685 -0.005411937
-0.006082514 -0.02082179 -0.034555804 -0.021600071 -0.026926164 -0.02896813 0.027164528 -0.008493914
0.0067486153 -0.010857712 0.030811774 -0.044979233 -0.015434463 0.04033668 -0.036914263 0.029698059
-0.033295963 -0.013168549 -0.044035472 0.020678766 -0.046547998 -0.041596178 -0.01637039 0.039914872
-0.041860014 0.009072286 0.03700485 -0.035751473 -0.014546013 0.025114492 -0.01164575 0.03439051
-0.003034732 -0.019480655 0.020520968 0.023401542 -0.01982213 0.03706114 0.010015992 -0.020742856
-0.034604777 -0.016825657 -0.008942527 0.01922079 -0.044357445 0.021838836 -0.038325842 0.027943084
-0.030034265 -0.030954678 -0.01781968 -0.032648794 0.043079883 -0.014680522 -0.013061519 0.019204158
0.0046046968 0.015383448 -0.007589257 -0.023450894 0.017584344 -0.030990144 -0.01590779 -0.02215623
0.03553805 0.009947335 0.038347732 0.019223657 8.679574e-05 -0.013027559 0.035413656 -0.0053347815
0.028696807 0.030643977 -0.023576602 -0.048135817 -0.0074521746 0.019726774 -0.037540093 -0.021860037
0.024074359 0.022518888 -0.008108479 0.027457181 -0.035975162 0.016806899 -0.0421157 0.029200971
-0.020015078 0.032523114 -0.003780601 -0.024929132 0.036623824 -0.029859012 -0.026091753 -0.028020792
-0.010670402 0.014557286 -0.0043210173 0.07062692 -0.003857545 0.017411172 0.015065527 -0.040175613
-0.02888979 0.009020743 0.020716457 0.015386003 -0.021973042 0.017008798 0.008346436 0.025048073
-0.018467298 0.05166378 -0.021545034 -0.01316798 -0.031862058 0.035800196 -0.027854925 0.023911677
0.019856049 0.028267013 -0.038404178 0.017378636 -0.01439613 0.05320037 0.049609177 -0.0075843004
0.026461527 0.05074512 0.014113944 -0.036091223 -0.032474097 -0.020760618 0.041044828 -0.010257466
-0.029385112 0.045531638 0.01799023 -0.02685347 0.033685785 0.028284244 0.006440894 -0.009934875
0.040862188 0.0039035247 -0.008450921 -0.020460704 0.007388547 -0.023252133 0.0141525725 0.06278816
-0.033504732 0.018598245 0.039662376 0.04344729 0.014660531 0.045366563 0.05292278 0.014268183
-0.021022333 0.032933023 -0.009838087 -0.011586361 -0.015526433 -0.040120427 0.033521514 -0.0007623123
0.000326907 -0.018693324 0.03302314 -0.018441187 -0.02408484 -0.019785272 0.03738131 -0.041617233
0.0312125 0.0006852699 0.0068072216 -0.016565507 -0.03713293 0.016974298 -0.017851757 0.01930636
0.011494515 0.023810873 0.0078041335 -0.015176299 0.010496837 0.04539078 0.0072362595 -0.033851814
0.04280943 0.023796564 0.013555106 -0.030232674 -0.03681779 0.04281532 0.0022725526 -0.021720717
00000000: 2ab2 8ebc c33e 103c 84a2 c63c 3860 1b3d
00000010: cc97 f43b 5e4a 063d 0fdc 993b 3585 01bd
00000020: f08e 03bd 9076 f4bb d37d 38bc 3cdf b9bc
00000030: 5908 15bd 73ed 86bb ba1e 013d 8ca4 ed3b
00000040: 1f6b bdbc 0501 083d f0e4 2a3c afc4 97ba
00000050: 1334 e0bb 25d6 6fbc acce cfbb cada e7bb
00000060: 5094 64bc 0eec b3bc 50ce 363c ee96 11bd
00000070: 4157 d9bc 8fca 7abb 8981 05bc 231b 83bc
00000080: 8859 8cbc 5d1d 9dbc 1625 d1bc c6a9 bcbc
00000090: f834 963c 5bdc 32bc 3de3 4bbc ab0f a6bc
000000a0: 6d8e 32bc e785 5bbc 5312 0d3d 3995 1ebd
000000b0: 6692 46bc d615 21bd ce2b 0d3d 0eb1 873d
000000c0: ec30 57bd 046c 13bd 8ee0 573d 1ffa 0ebd
000000d0: af00 66bd 4e9d 9fbc dcb7 9fbc 9e56 b1bb
000000e0: d34f c7bb 7592 aabc 638a 0dbd a2f2 b0bc
000000f0: 4294 dcbc 924e edbc 2588 de3c 0f2a 0bbc
00000100: 7d23 dd3b 8be4 31bc f968 fc3c 253c 38bd
00000110: d4e0 7cbc 1338 253d 6933 17bd 5849 f33c
00000120: 5961 08bd e6c0 57bc 8a5e 34bd 8466 a93c
00000130: 1da9 3ebd c160 2abd 321b 86bc c77d 233d
00000140: 6875 2bbd eda3 143c 6692 173d 2370 12bd
00000150: 6752 6ebc e8bc cd3c d1cd 3ebc 10dd 0c3d
00000160: 5be2 46bb e595 9fbc 971b a83c 97b4 bf3c
00000170: 0562 a2bc 6ccd 173d 1e1a 243c ecec a9bc
00000180: bdbd 0dbd f6d5 89bc ad83 12bc eb74 9d3c
00000190: 27b0 35bd 5ce7 b23c 8ffb 1cbd e5e8 e43c
000001a0: 6b0a f6bc aa94 fdbc 94fa 91bc beba 05bd
000001b0: 8874 303d 9286 70bc fbff 55bc 0a52 9d3c
000001c0: ffe2 963b dc0a 7c3c 4daf f8bb 171c c0bc
000001d0: 0b0d 903c 0bdf fdbc 0e51 82bc fb80 b5bc
000001e0: 5990 113d 26fa 223c 8312 1d3d ee7a 9d3c
000001f0: 1c06 b638 8b71 55bc e90d 113d 64cf aebb
00000200: 9115 eb3c 1409 fb3c b823 c1bc 102a 45bd
00000210: 5f31 f4bb 0b9a a13c a4c3 19bd d213 b3bc
00000220: 9737 c53c 8879 b83c 6dd9 04bc e2ed e03c
00000230: b15a 13bd 9fae 893c 8381 2cbd e036 ef3c
00000240: a9f6 a3bc f536 053d f6c3 77bb 2e38 ccbc
00000250: dd02 163d e39a f4bc 5fbe d5bc dc8b e5bc
00000260: e9d2 2ebc af81 6e3c 5297 8dbb d9a4 903d
00000270: dece 7cbb e0a1 8e3c 66d5 763c 2f8f 24bd
00000280: 48aa ecbc bdcb 133c 8fb5 a93c 9315 7c3c
00000290: cf00 b4bc 0956 8b3c 7dbf 083c 9e31 cd3c
000002a0: bb48 97bc 669d 533d 367f b0bc 83be 57bc
000002b0: ca81 02bd 3aa3 123d 0330 e4bc 6ce2 c33c
000002c0: 27a9 a23c 3990 e73c b34d 1dbd a45d 8e3c
000002d0: bfdd 6bbc a2e8 593d fe32 4b3d b985 f8bb
000002e0: d8c5 d83c 1dda 4f3d 2c3e 673c 64d4 13bd
000002f0: 8f03 05bd 2c12 aabc 9f1e 283d ee0e 28bc
00000300: 0cb9 f0bc 627f 3a3d 3f60 933c cffb dbbc
00000310: 1bfa 093d 5cb4 e73c 230e d33b e3c5 22bc
00000320: 1c5f 273d 47d2 7f3b bb75 0abc 359d a7bc
00000330: a01b f23b 427b bebc 31e0 673c 1497 803d
00000340: 423c 09bd 595b 983c 0475 223d c9f5 313d
00000350: b932 703c 4ad2 393d 8fc5 583d 19c5 693c
00000360: 0737 acbc c7e4 063d ed2f 21bc b8d4 3dbc
00000370: 9462 7ebc 5155 24bd db4d 093d ead5 47ba
00000380: b764 ab39 be22 99bc 4643 073d f911 97bc
00000390: 924d c5bc b914 a2bc 251d 193d d576 2abd
000003a0: 5bb1 ff3c afa3 333a 1d0f df3b 63b4 87bc
000003b0: b318 18bd af0d 8b3c d93d 92bc 5f28 9e3c
000003c0: 7e53 3c3c 050f c33c d1b9 ff3b 03a6 78bc
000003d0: edfa 2b3c afeb 393d 251e ed3b 33a8 0abd
000003e0: f158 2f3d 03f1 c23c 3c16 5e3c 83aa f7bc
000003f0: 40ce 16bd 1e5f 2f3d 1bef 143b a5ef b1bc

module.cnn.2.bias f4 [64]
0.019696899 0.025313165 0.0025895124 -0.028770637 -0.02084657 0.0052748513 0.03333177 -0.009514311
0.015152533 -0.033898573 -0.011435337 0.024961252 -0.009291347 -0.025926027 -0.031561356 -0.004123357
-0.006673052 0.03397477 0.039513636 -0.0059258305 -0.035399675 0.02924958 0.021016806 0.023240186
0.01701017 0.012030828 -0.027188594 -0.025442027 -0.04067788 -0.030846793 -0.009401638 -0.03558261
-0.030677626 0.04503743 0.016695827 -0.012662053 -0.016336616 -0.011150379 -0.035397585 0.020934133
-0.03519217 0.027576001 0.029068517 -0.021631835 0.03796996 0.020527344 -0.008484976 -0.009431982
-0.007856487 -0.05096933 0.0398227 -0.014643799 0.005822271 0.0084328195 0.013424659 0.012822895
-0.027897298 -0.03472707 0.008468542 -0.0037352622 0.009137266 0.01410787 0.02962412 -0.014794613
00000000: 645b a13c 8e5d cf3c cfb4 293b 66b0 ebbc
00000010: 6dc6 aabc a9d8 ac3b e586 083d eae1 1bbc
00000020: 5442 783c 3bd9 0abd 485b 3bbc 8a7b cc3c
00000030: bc3a 18bc d262 d4bc 7b46 01bd 3a1d 87bb
00000040: 9ea9 dabb 2129 0b3d 0dd9 213d 782d c2bb
00000050: 40ff 10bd d19c ef3c 702b ac3c 3462 be3c
00000060: e958 8b3c f31c 453c 9dba debc cc6b d0bc
00000070: d99d 26bd 6ab2 fcbc 5409 1abc 12bf 11bd
00000080: a54f fbbc 2b79 383d b0c5 883c 8074 4fbc
00000090: 5ed4 85bc 14b0 36bc 0ffd 10bd 0f7e ab3c
000000a0: aa25 10bd 11e7 e13c 1921 ee3c 3f35 b1bc
000000b0: 6486 1b3d f628 a83c 9204 0bbc 9a88 1abc
000000c0: 7fb8 00bc 37c5 50bd 211d 233d 8bec 6fbc
000000d0: c0c8 be3b cf29 0a3c 1af3 5b3c 1f17 523c
000000e0: e088 e4bc f93d 0ebd a4bf 0a3c 4dcb 74bb
000000f0: 79b4 153c b224 673c 48ae f23c 1b65 72bc

module.fc.0.weight f4 [5, 67]
-0.15774971 -0.07329784 0.07211388 -0.017043797 0.057522014 0.016543455 0.035674177 -0.08486456
-0.03749925 0.10233819 0.13668053 0.0068006106 0.06865077 -0.03869843 0.09261332 -0.017911779
0.096904635 -0.12092065 0.087250985 0.01963654 0.0014963116 0.03732051 -0.19791065 0.09536719
0.07105456 0.06429772 0.15211159 -0.10366876 -0.0053891162 0.042250562 0.10014984 0.08810732
0.035034694 -0.12773913 -0.13561347 -0.058846574 -0.08462071 0.0035758412 0.075064674 -0.12416863
-0.07284501 -0.06403468 -0.06901188 0.054044254 -0.06595519 0.013637315 -0.022726152 -0.04413603
-0.004934279 0.05062512 -0.12089721 0.037326828 0.03455778 -0.085779995 -0.023410289 -0.049842242
-0.11966017 0.07817545 0.122414194 -0.26526618 -0.03202821 -0.10262872 -0.24115723 0.08710178
-0.19904065 -0.44129342 0.59073144 0.0071608853 0.08090462 0.043306682 -0.12163923 0.09801065
0.039839476 -0.0776746 0.036740374 -0.043649856 -0.03037771 -0.08851269 0.09241117 0.10181806
0.062795326 -0.018786239 0.06565186 -0.091371894 -0.12503113 0.0011990358 -0.03699494 0.06926012
-0.032232 -0.04509766 -0.016499989 -0.0070771594 0.095603526 -0.0049498957 0.0079354 -0.0336051
-0.06353311 0.045515627 -0.057683434 0.01089675 -0.07122842 0.06681472 -0.052073654 -0.12625474
-0.007994786 -0.07041716 0.14137454 0.06469804 -0.059384 0.061740633 -0.0335719 -0.071144946
0.057874925 0.08492354 0.060057614 0.057797965 0.048872575 0.06934362 -0.033346232 -0.0011975075
-0.015449573 -0.05981047 0.062067818 -0.034501344 0.040587362 -0.043972015 0.06338208 0.06626021
-0.10148367 -0.0022150886 -0.018254278 0.14750059 -0.4137281 0.4822671 -0.028619431 0.06782934
-0.04978701 -0.054887652 -0.05525783 -0.07504099 -0.09986004 0.0045971214 0.06511174 -0.067282416
-0.114068754 0.023685647 0.060062744 0.05909361 -0.059113275 0.105806425 -0.07486143 -0.022979315
-0.07357083 -0.09142264 -0.0197872 -0.034253802 0.12723334 -0.0726435 0.08725226 -0.062604815
0.0588708 0.10020319 -0.0469272 -0.018727457 -0.05928291 -0.101770125 0.092123345 -0.041652758
-0.07966993 -0.030846456 0.010764926 -0.06647675 0.027107347 0.18231037 -0.0018716773 0.05914778
0.020418858 -0.019957902 -0.07934771 0.096106716 -0.0559669 0.08875932 -0.047444705 -0.0863061
-0.06418784 0.107006945 0.061940227 -0.045584515 -0.01127469 0.046457615 0.07023359 -0.0067564817
-0.032265827 0.27045015 0.069772586 0.036562253 0.13527572 -0.13781042 0.40514055 -0.23300715
-0.2059557 0.1442307 0.12992857 0.07794219 0.110375285 -0.08506816 -0.070025526 0.09207724
-0.073325716 -0.06750893 0.0374816 0.05152184 -0.0073813247 0.029199889 0.09302744 0.08853806
0.036975782 -0.09720488 -0.021224378 -0.05746596 0.09429207 0.03487575 -0.054482512 -0.0062462753
-0.040035993 0.023835536 -0.07398376 -0.12570803 -0.044110272 0.014634267 -0.097491734 -0.12516706
0.0932202 -0.012054353 -0.0030979386 0.092646524 0.042771686 -0.041194983 -0.079706185 -0.094278984
0.08622651 0.1327935 -0.009612465 -0.04572698 0.038278133 0.008744704 0.08145171 0.027034633
0.098028004 -0.0067547555 0.019993106 0.03627236 0.108877055 0.03851296 -0.046235356 0.007934197
00000000: 2489 21be 2e1d 96bd 71b0 933d 6f9f 8bbc
00000010: 349c 6b3d 2486 873c 161f 123d 78cd adbd
00000020: d098 19bd af96 d13d fbf5 0b3e a8d7 de3b
00000030: c698 8c3d 3f82 1ebd 0dac bd3d b9bb 92bc
00000040: f075 c63d 3fa5 f7bd a5b0 b23d cfdc a03c
00000050: e31f c43a 64dd 183d 17a9 4abe e04f c33d
00000060: 0e85 913d 86ae 833d 24c3 1b3e 4950 d4bd
00000070: 2f97 b0bb ed0e 2d3d 5c1b cd3d 9c71 b43d
00000080: 8a80 0f3d 0cce 02be 42de 0abe 1b09 71bd
00000090: 9f4d adbd a958 6a3b 82bb 993d 1f4c febd
000000a0: c42f 95bd 9d24 83bd 1a56 8dbd 825d 5d3d
000000b0: 8413 87bd 0b6f 5f3c 322c babc fbc7 34bd
000000c0: bbaf a1bb 495c 4f3d f598 f7bd 04e4 183d
000000d0: 758c 0d3d 6cad afbd efc6 bfbc 6127 4cbd
000000e0: 6410 f5bd 731a a03d 4bb4 fa3d f8d0 87be
000000f0: 0330 03bd 022f d2bd ecf1 76be 6b62 b23d
00000100: 50d1 4bbe 36f1 e1be 2d3a 173f dca5 ea3b
00000110: 52b1 a53d 5962 313d fd1d f9bd cfb9 c83d
00000120: b82e 233d dc13 9fbd 137d 163d 31ca 32bd
00000130: adda f8bc 2446 b5bd 1142 bd3d fd85 d03d
00000140: d69a 803d 99e5 99bc 7b74 863d 3021 bbbd
00000150: 2908 00be f728 9d3a 0288 17bd 40d8 8d3d
00000160: b405 04bd 53b8 38bd fc2a 87bc 84e7 e7bb
00000170: c8cb c33d bc32 a2bb 7b03 023c 80a5 09bd
00000180: a61d 82bd 986e 3a3d 7745 6cbd 4888 323c
00000190: 35e0 91bd 28d6 883d 2f4b 55bd ec48 01be
000001a0: 90fc 02bc df36 90bd 7dc4 103e 6880 843d
000001b0: a33c 73bd bfe3 7c3d b082 09bd 71b4 91bd
000001c0: 420e 6d3d 65ec ad3d f9fe 753d 8fbd 6c3d
000001d0: 9c2e 483d 0704 8e3d 0f96 08bd aff5 9cba
000001e0: 3520 7dbc d3fb 74bd d33a 7e3d 4851 0dbd
000001f0: ef3e 263d 001c 34bd 77ce 813d 6fb3 873d
00000200: acd6 cfbd 052b 11bb ff89 95bc 650a 173e
00000210: 2bd4 d3be b7eb f63e 4c73 eabc 1cea 8a3d
00000220: 77ed 4bbd e0d1 60bd 0956 62bd 17af 99bd
00000230: 6c83 ccbd 73a3 963b 4e59 853d 5dcb 89bd
00000240: e19c e9bd 6708 c23c 5a04 763d 240c 723d
00000250: c320 72bd 0ab1 d83d f350 99bd 1e3f bcbc
00000260: 4eac 96bd cb3b bbbd c418 a2bc b74d 0cbd
00000270: 7549 023e 1ec6 94bd 50b1 b23d f436 80bd
00000280: 8222 713d 5537 cd3d bc36 40bd 536a 99bc
00000290: a3d2 72bd db6c d0bd 2aab bc3d 159c 2abd
000002a0: fd29 a3bd b5b1 fcbc 5f5f 303c f624 88bd
000002b0: 3a10 de3c 92af 3a3e 1253 f5ba f144 723d
000002c0: 7345 a73c c17e a3bc 0d81 a2bd 99d3 c43d
000002d0: 8c3d 65bd 72c7 b53d 6155 42bd 41c1 b0bd
000002e0: ea74 83bd 7526 db3d 09b5 7d3d d4b6 3abd
000002f0: 7ab9 38bc 574a 3e3d a1d6 8f3d 7a65 ddbb
00000300: 2c29 04bd 7178 8a3e eee4 8e3d 4dc2 153d
00000310: b885 0a3e 2d1e 0dbe 956e cf3e 6d99 6ebe
00000320: 0de6 52be 36b1 133e ff0b 053e 28a0 9f3d
00000330: 700c e23d 3738 aebd 8b69 8fbd fe92 bc3d
00000340: cb2b 96bd 1f42 8abd 4e86 193d 9108 533d
00000350: 0adf f1bb 9b34 ef3c 2c85 be3d 7153 b53d
00000360: eb73 173d 5a13 c7bd bfde adbc 6d61 6bbd
00000370: 331c c13d e0d9 0e3d 0e29 5fbd 8ead ccbb
00000380: c8fc 23bd be42 c33c cc84 97bd 9bb9 00be
00000390: f9ac 34bd 91c4 6f3c bfa9 c7bd cb2b 00be
000003a0: 3bea be3d 9f7f 45bc c906 4bbb 76bd bd3d
000003b0: 5d31 2f3d 12bc 28bd ff3c a3bd 5715 c1bd
000003c0: 8697 b03d 05fb 073e 9a7d 1dbc 374c 3bbd
000003d0: 88c9 1c3d f245 0f3c 27d0 a63d bc77 dd3c
000003e0: e8c2 c83d ff56 ddbb 95c8 a33c 5392 143d
000003f0: effa de3d c4bf 1d3d 4961 3dbd 6ffe 013c

module.fc.0.bias f4 [5]
-0.077185035 0.047409583 -0.035227105 -0.05942168 -0.012015734
00000000: 3013 9ebd 8d30 423d 4c4a 10bd 2664 73bd
00000010: a4dd 44bc
