Sem 2/Intelligent Robots/Assignments/Lab 2/BehaviourCloning/Checkpoints/ckpt_e5.pth (torch, 80983 bytes, 6 tensors)

module.cnn.0.weight f4 [32, 3, 3, 3]
0	0x3e214adf	0.15751217
1	0x3e04e3b6	0.1297749
2	0xbbd6842f	-0.006546519
3	0xbc228ea1	-0.009921701
4	0x3e1749c2	0.1477423
5	0x3ba020af	0.0048867087
6	0xbe0b194b	-0.13583867
7	0x3dfb23d7	0.12262695
8	0xbd0150a6	-0.031571053
9	0x3cbb9fa3	0.02290327
10	0x3dfdc52b	0.123911224
11	0x3dcfd252	0.10147537
12	0xbd531f2d	-0.051543403
13	0xbcd15419	-0.025552796
14	0x3e037358	0.12836969
15	0x3d8e39cb	0.06944617
16	0xbd353e1e	-0.044248693
17	0x3e27de50	0.16393399
18	0xbcdd42ef	-0.027009455
19	0xbe175485	-0.14778335
20	0xbcc9a4c7	-0.024614705
21	0x3d4dc952	0.050240822
22	0x3d0b7ae0	0.03405273
23	0x3d7b1bcf	0.061305817
24	0xbdd0f477	-0.10202878
25	0xbe0940b2	-0.13403586
26	0x3e0fd845	0.14047344
27	0x3e115267	0.1419159
28	0x3e2b1a86	0.16709337
29	0xbb81a688	-0.0039566197
30	0xbc4e2bfa	-0.012583727
31	0x3da399ed	0.079883434
32	0x3d2e8ded	0.04261582
33	0x3e1a441a	0.15065041
34	0xbddf32dc	-0.108983725
35	0x3dd41ee2	0.10357453
36	0xbd00e8c7	-0.031471994
37	0x3e22b238	0.15888298
38	0x3de24462	0.11048199
39	0x3d41906b	0.04725687
40	0x3df06291	0.1173755
41	0x3d605ae3	0.054774176
42	0x3c135917	0.008993409
43	0xbe02c8b3	-0.12771873
44	0xbe1fa0b3	-0.15588646
45	0x3ca36433	0.01994524
46	0x3d287c29	0.041134033
47	0xbd10eb89	-0.035380874
48	0xbc717a7a	-0.014738673
49	0x3e10a437	0.14125143
50	0xbd2fe229	-0.042940293
51	0xbe06a0a2	-0.13147214
52	0xbd8c77cb	-0.06858786
53	0xbe27c6ad	-0.16384383
54	0x3e0609d8	0.13089693
55	0xbda97b8f	-0.0827552
56	0x3c84400f	0.016143827
57	0x3dbed512	0.09317984
58	0xbde6ca5e	-0.11269067
59	0xbc07520c	-0.008259308
60	0x3dcdc27f	0.10046863
61	0x3e051b24	0.12998635
62	0xbe1cc51f	-0.1530957
63	0xbcbecea3	-0.023291891
64	0xbbe18e59	-0.0068834242
65	0x39573bbf	0.00020526255
66	0x3ba55731	0.0050457944
67	0xbd7e2329	-0.06204525
68	0xbe1a45d7	-0.15065704
69	0xbe14102a	-0.14459291
70	0x3caa773a	0.020808805
71	0x3e04d9c5	0.12973697
72	0x3dc573cb	0.096412264
73	0x3abff81e	0.0014646088
74	0x3d6d4d70	0.05793518
75	0x3c9bb62e	0.019007768
76	0x3d9f06df	0.077649824
77	0xbdc73210	-0.097263455
78	0xb78ea765	-1.7005668e-05
79	0x3d59594d	0.05306368
80	0xbdce5d6c	-0.100764126
81	0x3d30ca69	0.043161783
82	0x3c355a6b	0.011068921
83	0x3e258777	0.16164957
84	0xbd1453be	-0.036212675
85	0x3e1c448d	0.15260525
86	0xbdcd42ba	-0.10022493
87	0xbe058ede	-0.13042781
88	0x3d608adb	0.054819923
89	0x3e0a49f0	0.13504767
90	0xbd8a2c9e	-0.06746791
91	0xbe2536bd	-0.16134162
92	0x3ddb89e2	0.107196584
93	0x3df67cfd	0.120355584
94	0xbe0655ec	-0.13118714
95	0xbd188183	-0.037232887
96	0x3dfdce45	0.123928584
97	0xbd633cb9	-0.05547783
98	0xbd066013	-0.032806467
99	0xbdf70893	-0.12062182
100	0xbe168615	-0.14699586
101	0xbb0837d6	-0.0020785234
102	0xbdbeb719	-0.09312267
103	0xbda3bc9a	-0.07994957
104	0x3bc7c868	0.0060968883
105	0xbe28d4cf	-0.1648743
106	0xbd6b3d87	-0.057431724
107	0xbd2e9d51	-0.042630497
108	0xbe043f3a	-0.12914744
109	0x3df96a99	0.12178535
110	0x3dc06edd	0.093961455
111	0x3df9bb81	0.12193967
112	0x3d87296a	0.06599696
113	0xbd26978e	-0.040671878
114	0xbd9adcd2	-0.075616494
115	0x3e12daea	0.14341322
116	0x3e07107c	0.13189882
117	0xbdda0aad	-0.106465675
118	0x3d6b5783	0.057456505
119	0xbdba644f	-0.091011636
120	0xbe24711b	-0.16058771
121	0xbdf40075	-0.1191415
122	0x3dcd2388	0.10016543
123	0xbe3199e4	-0.17343861
124	0xbddff71b	-0.109358035
125	0xbe0d4cee	-0.13798878
126	0x3d9b275f	0.07575869
127	0xbe07d7a1	-0.1326585
128	0x3e02fab3	0.12790947
129	0xbe14b1ba	-0.14520922
130	0x3d3f9bdd	0.046779502
131	0xbe16f5c4	-0.1474219
132	0x3e1353ea	0.1438748
133	0xbcda53cf	-0.026651291
134	0x3d94fe80	0.072751045
135	0x3d538c90	0.051647723
136	0xbe040e19	-0.12896003
137	0x3e077eb5	0.13231929
138	0xbcd022f3	-0.02540729
139	0xbd9035ff	-0.07041549
140	0xbe04b7b6	-0.12960705
141	0xbdf32a02	-0.11873247
142	0x3dd97b70	0.10619247
143	0xbda6e8c0	-0.08149862
144	0xbd9444da	-0.07239695
145	0xbdd33cc8	-0.103143275
146	0xbcb7aae3	-0.022420352
147	0xbde15986	-0.11003403
148	0xbde2143e	-0.11039017
149	0xbc6fc6d2	-0.014634805
150	0xbd85dbc3	-0.06536057
151	0xbd7402ff	-0.05957317
152	0xbd876dc0	-0.0661273
153	0xbe327661	-0.1742797
154	0x3d352030	0.04422015
155	0xbd8f2d27	-0.06991034
156	0xbd331792	-0.04372365
157	0xbe29c665	-0.16579588
158	0xbe0e0598	-0.13869321
159	0xbc4b95d6	-0.01242586
160	0x3d6d583d	0.05794548
161	0xbe24e9db	-0.16104834
162	0xbdad80f4	-0.084718615
163	0x3da7b664	0.08189085
164	0x3daa03c4	0.083014995
165	0xbd8a5324	-0.06754139
166	0x3db4e7e1	0.0883329
167	0x3e07f408	0.13276684
168	0xbdcc2df3	-0.099697016
169	0xbe0f2dc7	-0.13982306
170	0x3e1737f6	0.14767441
171	0x3daed796	0.085372135
172	0xbd8c18a3	-0.068406366
173	0xbcb11e00	-0.02162075
174	0xbe1f11a7	-0.15534078
175	0x3d3c62f7	0.045992818
176	0x3db496ce	0.08817826
177	0xbd90459a	-0.070445254
178	0x3dea4116	0.114381954
179	0xbdbf8cdf	-0.09353041
180	0x3dfb97e0	0.12284827
181	0x3bdaa2d1	0.0066722413
182	0xbd06ab42	-0.032878168
183	0xbd1f1efb	-0.038847905
184	0x3c12049a	0.00891223
185	0x3df98d8f	0.12185203
186	0xbdfe470b	-0.12415894
187	0xbe1830d6	-0.1486238
188	0xbe18ea00	-0.14933014
189	0xbc124292	-0.008927004
190	0x3da9f424	0.08298519
191	0xbdd5e12e	-0.1044334
192	0xbdf011fd	-0.11722181
193	0x3cc21813	0.02369312
194	0x3cde8756	0.027164143
195	0x3d1fb77f	0.038993355
196	0x3e280703	0.16408925
197	0x3da1f683	0.079083465
198	0xbd06442a	-0.03277985
199	0x3db1c0ad	0.08679328
200	0xbd84d7f3	-0.064865015
201	0x3de75e53	0.11297288
202	0xbdbf1121	-0.09329439
203	0x3dd4401f	0.10363793
204	0x3e070882	0.13186839
205	0x3d91dd24	0.07122257
206	0x3de361de	0.11102651
207	0xbe0d6b4d	-0.13810463
208	0xba9ccab7	-0.0011962269
209	0x3d9bd52c	0.07609019
210	0x3d31690e	0.04331308
211	0x3debdf71	0.115172274
212	0x3e0d33ef	0.13789342
213	0xbd44fa8f	-0.048090514
214	0x3da79888	0.0818339
215	0xbcf3e7fa	-0.029773701
216	0xbdf14d11	-0.117822774
217	0x3e23dfaa	0.1600329
218	0xbe0afcd8	-0.13573015
219	0xbdab5533	-0.0836586
220	0x3b8b0f6b	0.0042437813
221	0x3ca33bae	0.019925918
222	0x3df5fc44	0.120110065
223	0xbe119e24	-0.14220482
224	0x39df430a	0.00042583823
225	0xbe25661f	-0.16152237
226	0x3da85851	0.0821997
227	0x3dbac2c0	0.09119177
228	0xbcb3e262	-0.021958534
229	0xbdbc1b46	-0.091848895
230	0xbdc9fc9a	-0.09862633
231	0x3d726cda	0.05918584
232	0xbd104c2f	-0.035228904
233	0xbc29387c	-0.010328408
234	0x3e18e87f	0.1493244
235	0xbd1858a7	-0.03719392
236	0x3d9a657c	0.07538888
237	0x3e0fedc4	0.14055544
238	0x3e07b459	0.13252391
239	0xbd8571e1	-0.06515861
240	0xbd9848a3	-0.07435729
241	0xbb00167e	-0.0019544656
242	0x3e2cb042	0.16864112
243	0x3dd3a1e0	0.103336096
244	0xbe22be79	-0.15892972
245	0xbe2564d2	-0.16151741
246	0x3cd5412a	0.02603205
247	0x3dfbaf3a	0.12289281
248	0x3e004001	0.12524416
249	0x3e28e5f0	0.16493964
250	0xbd949ec3	-0.07256844
251	0x3d8ce8f4	0.0688037
252	0x3e264d5c	0.16240448
253	0x3c947ef7	0.018126948
254	0xbdce8477	-0.100838594
255	0x3dc718ec	0.0972155

module.cnn.0.bias f4 [32]
0	0x3da4f5be	0.08054684
1	0x3d578aa1	0.05262244
2	0x3d84ebe7	0.06490307
3	0x3d83afe5	0.064300336
4	0x3c0cc64f	0.008592202
5	0x3b4be264	0.003111028
6	0xbd23cdd1	-0.039991204
7	0x3e22fe15	0.15917237
8	0x3dbc3b8e	0.09191047
9	0x3d01b9c1	0.03167129
10	0xbda6cebc	-0.081449
11	0x3e2c10b2	0.16803244
12	0xbd050c30	-0.032482326
13	0x3e229214	0.15876037
14	0x3e107e7c	0.1411075
15	0xbde0e9ab	-0.10982069
16	0x3e2630e6	0.16229591
17	0x3dc77bc5	0.09740404
18	0x3e2d9c07	0.16954051
19	0x3e2dc985	0.16971405
20	0x3ca46e61	0.020072164
21	0xbda59216	-0.08084504
22	0xbda980d7	-0.082765274
23	0x3aa0ded4	0.0012273439
24	0xbda813da	-0.082069114
25	0x3ca73236	0.020409685
26	0x3cb48a4a	0.022038598
27	0xbd87eab3	-0.06636562
28	0xbe1b2564	-0.15150982
29	0xbc44e9f0	-0.012018666
30	0xbada81ee	-0.0016670802
31	0x3cf62306	0.030045997

module.cnn.2.weight f4 [64, 32, 3, 3]
0	0xbc84142b	-0.016122898
1	0x3c2c80c5	0.010528748
2	0x3ce3fcc8	0.027830496
3	0x3d31a44e	0.043369584
4	0x3c13bfa9	0.009017863
5	0x3d19c910	0.037545264
6	0x3a718375	0.0009213009
7	0xbd15b60b	-0.036550563
8	0xbd1289d9	-0.035775993
9	0xbc09fe02	-0.008422377
10	0xbc13cc0d	-0.0090208175
11	0xbcd14c06	-0.025548946
12	0xbd2e158a	-0.04250101
13	0xbadc3919	-0.0016801684
14	0x3d129dc2	0.03579498
15	0x3b2050e9	0.0024462289
16	0xbcd1184a	-0.025524277
17	0x3d1afef2	0.03784079
18	0x3be612ef	0.0070213
19	0xbab30bcd	-0.0013660133
20	0xbbe75153	-0.007059255
21	0xbc922f79	-0.017844902
22	0xbc0e5ec9	-0.008689591
23	0xbc0c1753	-0.008550483
24	0xbc6e7343	-0.014553848
25	0xbcd69f3a	-0.026198972
26	0x3c229a52	0.009924488
27	0xbd1c2b2c	-0.03812711
28	0xbd155e22	-0.036466725
29	0xbbd4a707	-0.006489638
30	0xbbda6541	-0.0066649024
31	0xbca34277	-0.019929154
32	0xbc9d8f75	-0.019233445
33	0xbc990dd5	-0.018683353
34	0xbcea7706	-0.028621208
35	0xbcbc1740	-0.022960305
36	0x3cb56fd0	0.022148043
37	0xbc4ed90a	-0.012624988
38	0xbca1331e	-0.019677695
39	0xbcaea38f	-0.021318225
40	0xbc215134	-0.0098460205
41	0xbc957613	-0.018244779
42	0x3d26fdc9	0.040769372
43	0xbd25ac6c	-0.040447637
44	0xbc6e34fa	-0.014538998
45	0xbd23b986	-0.03997185
46	0x3ca93519	0.020655202
47	0x3d83615d	0.06415055
48	0xbd461b1c	-0.048365697
49	0xbd3529e5	-0.044229407
50	0x3d531262	0.051531203
51	0xbcdc6a1e	-0.02690607
52	0xbd62936f	-0.055316385
53	0xbcba2eed	-0.022727454
54	0xbcb0280e	-0.021503475
55	0xbbc89352	-0.0061210776
56	0xbc034ad2	-0.008013444
57	0xbcbd8a9e	-0.023137387
58	0xbd1e53eb	-0.03865425
59	0xbcc32a0c	-0.02382376
60	0xbcfdfa1e	-0.031003054
61	0xbd044ebc	-0.03230165
62	0x3d029e3c	0.031889185
63	0xbbfc1945	-0.007693442
64	0x3c2acf67	0.010425425
65	0xbc3a9e8f	-0.011390342
66	0x3cf8b0c2	0.030357722
67	0xbd4d5962	-0.05013407
68	0xbc875be3	-0.016523307
69	0x3d22f079	0.039780114
70	0xbd35492b	-0.04425923
71	0x3d0cd5a6	0.03438344
72	0xbd120e81	-0.035658363
73	0xbc5f85ac	-0.01364271
74	0xbd4ebf25	-0.05047526
75	0x3cc77a01	0.024350168
76	0xbd530afe	-0.051524155
77	0xbd42f320	-0.047595143
78	0xbc95be8c	-0.018279336
79	0x3d39fb78	0.045405835
80	0xbd4281a0	-0.0474869
81	0x3be938f2	0.007117384
82	0x3d35dc0b	0.044399302
83	0xbd240dd8	-0.040052265
84	0xbcb5bbc0	-0.022184253
85	0x3cf58294	0.029969491
86	0xbc513cd9	-0.012770855
87	0x3d072271	0.03299183
88	0xbbca6be6	-0.0061774133
89	0xbcb5dea7	-0.022200895
90	0x3c9317b9	0.017955648
91	0x3ca2d1de	0.019875463
92	0xbca7595e	-0.020428356
93	0x3d1f40a2	0.038879998
94	0x3b668907	0.003517689
95	0xbcba816e	-0.022766795
96	0xbd21606b	-0.039398592
97	0xbccab0da	-0.024742533
98	0xbc4dd1fb	-0.01256227
99	0x3cc17909	0.023617284
100	0xbd45940f	-0.048236903
101	0x3cc6b2e5	0.024255225
102	0xbd26a38e	-0.04068332
103	0x3d102594	0.035192087
104	0xbd067061	-0.032822017
105	0xbd03f397	-0.032214727
106	0xbc820600	-0.015872002
107	0xbd0df65a	-0.034658767
108	0x3d356599	0.044286344
109	0xbcaaf82f	-0.020870296
110	0xbc64cc83	-0.013964775
111	0x3cb5b73b	0.022182098
112	0x3b11613e	0.0022183205
113	0x3c8df1fd	0.017327303
114	0xbba0800a	-0.004898076
115	0xbce2d159	-0.027687715
116	0x3c978a01	0.018498423
117	0xbcf58d88	-0.029974714
118	0xbc8c045c	-0.017091922
119	0xbcc6ede0	-0.02428335
120	0x3d3186bc	0.043341383
121	0x3c482f3c	0.012218293
122	0x3d36c5c0	0.044622183
123	0x3cb258fb	0.021770945
124	0x39496274	0.0001920553
125	0xbc5cb24e	-0.0134702455
126	0x3d2cb27a	0.042162396
127	0xbb532ef7	-0.0032224038
128	0x3d04c1d8	0.032411426
129	0x3d0e1d7a	0.03469608
130	0xbcc6d14c	-0.024269722
131	0xbd5aba09	-0.053400073
132	0xbc21d8f5	-0.009878387
133	0x3cafb23c	0.021447293
134	0xbd2c7fd7	-0.042114105
135	0xbcc0eddb	-0.023550918
136	0x3cccb584	0.024988897
137	0x3cbb8815	0.022892037
138	0xbc02a8f9	-0.0079748565
139	0x3cffc104	0.031219967
140	0xbd23b507	-0.039967563
141	0x3c9f5844	0.019451268
142	0xbd411d57	-0.04714712
143	0x3d0ef4a7	0.034901287
144	0xbccf25d5	-0.025286594
145	0x3ce1bbaa	0.027555306
146	0xbb6be956	-0.0035997233
147	0xbcde87ae	-0.027164306
148	0x3d05f944	0.03270842
149	0xbd107f00	-0.035277367
150	0xbcc297fd	-0.023754114
151	0xbd044585	-0.03229286
152	0xbc61fdb0	-0.013793394
153	0x3cb0325f	0.021508394
154	0xbca4a8e1	-0.020100059
155	0x3d90be00	0.070674896
156	0x3bb74328	0.0055927224
157	0x3c87a938	0.016560182
158	0x3c2fb501	0.010724307
159	0xbd0f7b27	-0.035029557
160	0xbce180c9	-0.02752723
161	0x3c1f5ec2	0.009727182
162	0x3c025c2b	0.007956545
163	0x3cbec739	0.023288356
164	0xbcbf0bc4	-0.02332104
165	0x3bd04332	0.0063556666
166	0x3beda8f3	0.0072528063
167	0x3cf4e3ab	0.029893717
168	0xbce8fe56	-0.02844159
169	0x3d457fea	0.04821769
170	0xbcd5d80f	-0.026104001
171	0xbc1af963	-0.0094588725
172	0xbd1b3968	-0.037896544
173	0x3d1d150c	0.03835015
174	0xbcdea11f	-0.027176438
175	0x3cdfa071	0.027298184
176	0x3cb2253a	0.021746267
177	0x3d08c028	0.03338638
178	0xbd2ef78a	-0.04271654
179	0x3cb06068	0.021530345
180	0xbc44d9ef	-0.01201485
181	0x3d392c5d	0.045208324
182	0x3d447ebf	0.047972437
183	0x3afa20a6	0.0019083216
184	0x3ce537cc	0.027980708
185	0x3d548515	0.05188473
186	0x3ce469d6	0.027882498
187	0xbd076028	-0.033050686
188	0xbd15ef03	-0.036604892
189	0xbd00204e	-0.03128081
190	0x3d3b93a3	0.045795094
191	0xbc381362	-0.01123509
192	0xbd188414	-0.037235335
193	0x3d408105	0.046998043
194	0x3c966bee	0.018362012
195	0xbcf8eb0a	-0.030385513
196	0x3d0cb9d3	0.034356903
197	0x3ce909e7	0.028447105
198	0x3c119256	0.008884987
199	0xbc36bf41	-0.011153997
200	0x3d3d427e	0.04620599
201	0x3bbb8e4a	0.0057237493
202	0xbc1ab2e8	-0.009442069
203	0xbcbc258d	-0.022967124
204	0x3bfede06	0.007777932
205	0xbcd68900	-0.026188374
206	0x3c84f164	0.016228385
207	0x3d6ca033	0.057769965
208	0xbd151249	-0.03639439
209	0x3cb98cc9	0.02265014
210	0x3d129a24	0.03579153
211	0x3d3985ff	0.045293804
212	0x3c8fccd1	0.017553719
213	0x3d4156d1	0.047201935
214	0x3d598ccf	0.0531128
215	0x3c5f41ea	0.013626555
216	0xbcb7241a	-0.022356082
217	0x3d1ebb1e	0.038752668
218	0xbc2d2a13	-0.010569113
219	0xbc899c67	-0.016798211
220	0xbc8c86c4	-0.017154105
221	0xbd37530b	-0.04475693
222	0x3d07b927	0.03313556
223	0xbb28274b	-0.0025658186
224	0x3a5146ad	0.0007983249
225	0xbcb026b8	-0.021502838
226	0x3d07291e	0.032998197
227	0xbca29cc6	-0.019850146
228	0xbce7e98c	-0.028309606
229	0xbce6914b	-0.028145453
230	0x3d2d4650	0.042303383
231	0xbd40dae3	-0.047083747
232	0x3d01bd2d	0.031674553
233	0xb87fed11	-6.1017523e-05
234	0xbb85bbab	-0.0040812097
235	0xbc9dd1da	-0.019265104
236	0xbd1d0637	-0.038336005
237	0x3c35eef2	0.011104332
238	0xbcd046ba	-0.02542435
239	0x3cc5472a	0.024081785
240	0x3c3334f9	0.010937923
241	0x3ca0d52b	0.019632896
242	0x3bd8489b	0.006600452
243	0xbc868fcb	-0.016425988
244	0x3b725918	0.0036979374
245	0x3d4154d3	0.047200035
246	0x3c31efb5	0.010860373
247	0xbd2bba86	-0.04192593
248	0x3d3c1c38	0.04592535
249	0x3cfac265	0.030610273
250	0x3c6e03c2	0.014527263
251	0xbd0dae57	-0.03459009
252	0xbd23ac43	-0.039959203
253	0x3d1dacbb	0.038494807
254	0xbac8ef21	-0.0015330055
255	0xbca06278	-0.019578204

module.cnn.2.bias f4 [64]
0	0x3cc020e2	0.02345318
1	0x3cded63c	0.027201764
2	0x3aaa2f50	0.0012984071
3	0xbcf88a3b	-0.03033935
4	0xbcd65723	-0.026164597
5	0x3bc7b64f	0.006094731
6	0x3d1e7ea8	0.038695008
7	0xbc435074	-0.011921037
8	0x3c9047c1	0.01761234
9	0xbd1ddaa4	-0.03853859
10	0xbc454cc2	-0.012042226
11	0x3cdc6ff1	0.026908847
12	0xbc43e1f4	-0.011955727
13	0xbcf62964	-0.030049033
14	0xbd1013a1	-0.03517497
15	0xbbab9d0d	-0.005237228
16	0xbbdeef2e	-0.006803415
17	0x3d296430	0.041355312
18	0x3d3214fe	0.04347705
19	0xbbcb7eb2	-0.0062101716
20	0xbd2956bb	-0.04134248
21	0x3d0b3f6e	0.03399604
22	0x3cb8dc20	0.022565901
23	0x3cd111eb	0.02552124
24	0x3ca446d5	0.020053307
25	0x3c42fb34	0.011900712
26	0xbcf82899	-0.030292796
27	0xbcf1b129	-0.029503422
28	0xbd3b6a78	-0.045755833
29	0xbd0b5de1	-0.034025077
30	0xbc375036	-0.011188557
31	0xbd15d690	-0.036581576
32	0xbd0b41e6	-0.033998393
33	0x3d51d7d0	0.051231205
34	0x3c97a5b2	0.018511627
35	0xbc593e35	-0.01325946
36	0xbc85e7ec	-0.01634594
37	0xbc506cf4	-0.012721289
38	0xbd1b7c08	-0.037960082
39	0x3cb7d225	0.022439072
40	0xbd233f58	-0.03985533
41	0x3d06eb8c	0.03293948
42	0x3d00fa6c	0.03148882
43	0xbcbf69a1	-0.023365797
44	0x3d35e38f	0.04440647
45	0x3cb8b4f5	0.022547225
46	0xbc24b04e	-0.0100518
47	0xbc3454b8	-0.011006527
48	0xbc2fbf95	-0.010726829
49	0xbd5f12fe	-0.05446147
50	0x3d364d04	0.04450704
51	0xbc861729	-0.016368465
52	0x3bc9561c	0.0061442982
53	0x3c2c998d	0.010534656
54	0x3c7bacef	0.015361055
55	0x3c5b5ea0	0.01338926
56	0xbcef1891	-0.029186519
57	0xbd235ee3	-0.039885413
58	0x3c122388	0.008919604
59	0xbb6d5b17	-0.0036217624
60	0x3c249ccf	0.010047152
61	0x3c9b207a	0.018936384
62	0x3d0f785b	0.03502689
63	0xbc8c9c79	-0.017164456

module.fc.0.weight f4 [5, 67]
0	0xbe066930	-0.13126063
1	0xbd54a1d3	-0.05191214
2	0x3d7c9d63	0.061673533
3	0x3c9299db	0.01789563
4	0x3d216aa3	0.039408337
5	0x3c2620de	0.010139672
6	0x3d15b9c3	0.03655411
7	0xbdb5d4ed	-0.08878503
8	0xbd22379b	-0.03960381
9	0x3dd3fdcc	0.10351142
10	0x3e0106e2	0.12600282
11	0x3bbeab09	0.005818729
12	0x3d8887fa	0.066665605
13	0xbc7ebf60	-0.015548557
14	0x3db8918e	0.09012137
15	0xbba517ec	-0.005038252
16	0x3da0e765	0.07856635
17	0xbdbcfd0a	-0.09227951
18	0x3d8ce009	0.06878669
19	0x3cac12cb	0.021005055
20	0xbbba03e7	-0.0056767347
21	0x3cedd297	0.029031081
22	0xbe33b6ff	-0.17550276
23	0x3db6104c	0.08889827
24	0x3d9c52f7	0.07633012
25	0x3d70f6ea	0.058829226
26	0x3e0c21c2	0.13684753
27	0xbdc5f22f	-0.096653335
28	0xbc26631d	-0.010155466
29	0x3cfec019	0.031097459
30	0x3dac0c8b	0.0840083
31	0x3db7fae6	0.08983402
32	0x3d1afe59	0.03784022
33	0xbdebea5a	-0.115193084
34	0xbdf65a7e	-0.12028979
35	0xbd2c60da	-0.042084552
36	0xbdadbcc7	-0.08483272
37	0xbc8642e7	-0.016389323
38	0x3d732596	0.059362017
39	0xbdb27e24	-0.08715466
40	0xbd5fec1a	-0.054668523
41	0xbd96d75f	-0.073652975
42	0xbd881460	-0.06644511
43	0x3d436d2d	0.04771154
44	0xbd8ea3ce	-0.06964837
45	0x3c9cc8f0	0.019138783
46	0xbd00a3ed	-0.03140633
47	0xbcd4e79d	-0.025989348
48	0xbca3c74c	-0.019992493
49	0x3d648b9c	0.055797204
50	0xbdfe5672	-0.12418832
51	0x3d3ccfd9	0.046096656
52	0x3d3376b8	0.04381439
53	0xbd9ff1da	-0.078098014
54	0xbcb96a82	-0.022633795
55	0xbcb18740	-0.021670938
56	0xbdc55aac	-0.09636435
57	0x3d9552a3	0.07291152
58	0x3de6a473	0.11261835
59	0xbe29bf4f	-0.16576885
60	0xbd0929eb	-0.03348724
61	0xbd715748	-0.05892113
62	0xbe3d2a2a	-0.18473116
63	0x3d83cf6f	0.06436049
64	0xbe43128b	-0.19050042
65	0xbeb7851f	-0.3584375
66	0x3efa5f45	0.4890081
67	0x3c5e80e5	0.013580536
68	0x3da10fb6	0.07864325
69	0x3d2edf14	0.042693213
70	0xbdeb2701	-0.11482049
71	0x3dc94723	0.098280214
72	0x3d406da7	0.046979573
73	0xbd89fe1e	-0.06737922
74	0x3d61e26d	0.055147577
75	0xbd476ad0	-0.04868585
76	0xbd1b1888	-0.03786519
77	0xbdb3e43b	-0.08783766
78	0x3dc818dc	0.097703665
79	0x3dd47f84	0.10375884
80	0x3d8308d3	0.063981675
81	0xbca04408	-0.01956369
82	0x3d783299	0.06059513
83	0xbdcac04e	-0.098999605
84	0xbdf670da	-0.120332435
85	0xbc31b082	-0.010845305
86	0xbd0506bd	-0.03247713
87	0x3d949858	0.0725562
88	0xbd09c146	-0.033631586
89	0xbd8d9566	-0.06913261
90	0xbc948581	-0.018130066
91	0xbbe7cdd3	-0.0070740967
92	0x3dd10c1f	0.1020739
93	0xbbc215bf	-0.0059230025
94	0x3c3a912d	0.011387152
95	0xbd39104d	-0.04518156
96	0xbd95519e	-0.07290958
97	0x3d5a2b46	0.053263925
98	0xbd5fd044	-0.054641977
99	0x3c028733	0.007966804
100	0xbd80942e	-0.06278263
101	0x3da15a03	0.078784965
102	0xbd4feeac	-0.050764725
103	0xbded8174	-0.11596957
104	0xbc298e37	-0.010348848
105	0xbd5b2a48	-0.05350712
106	0x3dfc279d	0.12312243
107	0x3d960bd4	0.07326475
108	0xbd5fa43d	-0.05459999
109	0x3d718e62	0.058973677
110	0xbd0497bb	-0.032371264
111	0xbd299b34	-0.04140778
112	0x3d58f581	0.052968506
113	0x3dbdc796	0.092665836
114	0x3d48faeb	0.04906742
115	0x3d7400cb	0.05957107
116	0x3d9013ec	0.0703505
117	0x3da235d8	0.07920426
118	0xbd34c2ae	-0.044130974
119	0xbc82b5dc	-0.015955858
120	0xbc85dc48	-0.01634039
121	0xbd8e12eb	-0.06937202
122	0x3d449405	0.047992725
123	0xbbdb6c56	-0.0066962643
124	0x3d353501	0.04424
125	0xbd4efae8	-0.05053225
126	0x3c6230cb	0.013805578
127	0x3d8d76e3	0.069074415
128	0xbdd8d61f	-0.10587715
129	0xbcd82527	-0.026384903
130	0xbc3493ca	-0.011021564
131	0x3e2148cc	0.15750426
132	0xbe97b1f4	-0.29627955
133	0x3ebd6ccc	0.36997068
134	0xbce9bf9a	-0.028533746
135	0x3d85a9b5	0.0652651
136	0xbd1f7f17	-0.03893956
137	0xbd990f46	-0.07473616
138	0xbd5bba57	-0.053644504
139	0xbd9af063	-0.075653814
140	0xbdccc0c9	-0.09997708
141	0x3bb9572e	0.0056561446
142	0x3d871d09	0.06597335
143	0xbd97e702	-0.07417108
144	0xbdae19f1	-0.08501042
145	0x3d023035	0.031784255
146	0x3d973696	0.07383458
147	0x3d5af02f	0.053451713
148	0xbd7185c4	-0.05896546
149	0x3ddd4397	0.10803907
150	0xbda7351f	-0.08164429
151	0xbd1ab886	-0.03777363
152	0xbd98c8f4	-0.07460204
153	0xbdb32cc1	-0.087487705
154	0xbc96f9f4	-0.018429734
155	0xbd04d40b	-0.032428782
156	0x3de04643	0.10950901
157	0xbd6ca329	-0.05777279
158	0x3dd113bf	0.102088444
159	0xbd69f4b8	-0.057118148
160	0x3d8c99da	0.06865282
161	0x3dccb318	0.09995097
162	0xbd443fdd	-0.047912467
163	0xbca1773e	-0.01971018
164	0xbd859422	-0.06522395
165	0xbdb270f0	-0.08712947
166	0x3dd60e23	0.10451915
167	0xbd73ce4b	-0.05952291
168	0xbdae5bfa	-0.08513637
169	0xbd2066e5	-0.039160628
170	0x3c05ed58	0.008174263
171	0xbd8936de	-0.06699918
172	0x3d0d71fb	0.03453253
173	0x3e1d8d0c	0.15385836
174	0xbbc593a3	-0.0060295626
175	0x3d91c42f	0.07117497
176	0x3c7933b8	0.015210085
177	0xbc39e046	-0.011344975
178	0xbd9c7837	-0.07640117
179	0x3dcb96c9	0.09940869
180	0xbd3f7bbb	-0.046748858
181	0x3dafa9ef	0.08577334
182	0xbd275029	-0.04084793
183	0xbdb8c62d	-0.09022174
184	0xbd9b63b3	-0.075873755
185	0x3dd0e47e	0.101998314
186	0x3d721fa9	0.059112225
187	0xbd627877	-0.055290665
188	0xbcb82063	-0.02247638
189	0x3cc3f5af	0.023920862
190	0x3d791395	0.06080969
191	0xbbb02b20	-0.0053762347
192	0xbd0ef7d6	-0.034904324
193	0x3e441575	0.1914881
194	0x3dabc26c	0.083866924
195	0x3c89189f	0.016735373
196	0x3dae374b	0.0850664
197	0xbdc36dbb	-0.09542414
198	0x3eb61432	0.35562283
199	0xbe58331a	-0.21113244
200	0xbe32ee45	-0.17473705
201	0x3e0efdaa	0.13963953
202	0x3de30684	0.11085227
203	0x3da9ce8c	0.08291349
204	0x3dc91c98	0.09819907
205	0xbdb62ae9	-0.08894903
206	0xbd9a16cc	-0.075238794
207	0x3dc5a175	0.09649936
208	0xbdaebf59	-0.085325904
209	0xbd9c91ec	-0.0764502
210	0x3d5a6894	0.05332239
211	0x3d68829a	0.056765176
212	0xbc20f819	-0.009824776
213	0x3d10af69	0.035323534
214	0x3d9c8e12	0.07644285
215	0x3dd10326	0.10205679
216	0x3cd3f649	0.025874274
217	0xbdb28823	-0.08717372
218	0xbd33adc2	-0.04386688
219	0xbd3272c7	-0.04356649
220	0x3dce4b35	0.10072938
221	0x3d344401	0.044010166
222	0xbd5946c2	-0.053045996
223	0xbcfd1e54	-0.03089825
224	0xbd2f7922	-0.04284013
225	0x3ceadf8b	0.028671047
226	0xbda12345	-0.07868055
227	0xbde9919b	-0.11404725
228	0xbd530f23	-0.051528107
229	0x3ca63ab8	0.020291671
230	0xbdc299c6	-0.09501986
231	0xbdf29998	-0.11845702
232	0x3dcf60a6	0.10125856
233	0xbc50db80	-0.012747645
234	0xbc99c0e7	-0.01876874
235	0x3db325f4	0.08747473
236	0x3d1b36eb	0.03789417
237	0xbd4f606d	-0.05062907
238	0xbd9ddc9e	-0.07708095
239	0xbdb2b5e7	-0.08726101
240	0x3da04fd0	0.07827723
241	0x3dfe3d2e	0.12414013
242	0xbc6091ae	-0.013706608
243	0xbd81e533	-0.063425444
244	0x3d39931c	0.04530631
245	0xbb565518	-0.0032704528
246	0x3dc91473	0.098183535
247	0x3d0637a7	0.032767918
248	0x3dcceabd	0.1000571
249	0xbc2ce8af	-0.010553523
250	0x3c9ed364	0.019387908
251	0x3d17b141	0.037034277
252	0x3df45042	0.119293705
253	0x3d26e518	0.040745825
254	0xbd775698	-0.060385317
255	0x3bbc4666	0.005745697

module.fc.0.bias f4 [5]
0	0xbdba83b6	-0.09107153
1	0x3d2733f0	0.040821016
2	0xbd02632d	-0.031832863
3	0xbd897150	-0.06711066
4	0xbb9e90ac	-0.0048390236
