Sem 2/Intelligent Robots/Assignments/Lab 2/BehaviourCloning/Checkpoints/ckpt_e3.pth (torch, 80983 bytes, 6 tensors)

module.cnn.0.weight f4 [32, 3, 3, 3]
0.16654076 0.13627082 -0.009519551 -0.011279955 0.15496583 0.0014812716 -0.14460406 0.12891366
-0.036711022 0.02381723 0.12986103 0.105014004 -0.055556215 -0.029644812 0.13213979 0.0735859
-0.048685778 0.17065999 -0.031072473 -0.16061987 -0.030722318 0.050530124 0.031712465 0.058995575
-0.110721424 -0.14611828 0.14380805 0.1440313 0.17085826 -0.008691505 -0.017202873 0.080165915
0.04171951 0.15893991 -0.11792401 0.108468466 -0.03717109 0.16531868 0.11603682 0.049742907
0.12354674 0.058088806 0.012317057 -0.13369818 -0.16318983 0.016137665 0.038647655 -0.040591583
-0.017711561 0.14713983 -0.04752449 -0.13863927 -0.0727834 -0.1735625 0.13895321 -0.08707837
0.018932141 0.09945667 -0.11853885 -0.0063249483 0.10734628 0.13947593 -0.15939541 -0.023712136
-0.0033381141 0.0049203355 0.0068550208 -0.06167176 -0.15466419 -0.15214716 0.026428383 0.14408772
0.1016383 0.0027133243 0.06369259 0.019749545 0.08385708 -0.1005739 -0.0004000716 0.05785212
-0.10344506 0.047429655 0.009940711 0.16765608 -0.03697078 0.160541 -0.110314205 -0.1369633
0.057260234 0.14076388 -0.06342063 -0.16585064 0.116807215 0.13603075 -0.1334667 -0.036063466
0.13983716 -0.052386448 -0.030096024 -0.12265211 -0.15351053 -0.0018230426 -0.09354753 -0.08189555
0.0075322585 -0.16993275 -0.05747831 -0.043095704 -0.13752343 0.12793407 0.09730006 0.12914777
0.06863543 -0.04585894 -0.080389865 0.15111972 0.13753176 -0.10534732 0.06749779 -0.09192219
-0.16282804 -0.11995234 0.11137721 -0.17626695 -0.10940048 -0.14159636 0.08438421 -0.13812943
0.13726287 -0.15047956 0.0526853 -0.15505818 0.15675992 -0.025246462 0.07893709 0.05682114
-0.13534757 0.1415227 -0.025886815 -0.07334112 -0.13668174 -0.12554425 0.114525184 -0.084830396
-0.063986436 -0.09559635 -0.010800788 -0.10469912 -0.10316156 -0.0018504428 -0.05792257 -0.048962273
-0.055563617 -0.17725228 0.055073448 -0.06730894 -0.03949402 -0.16813453 -0.13985449 -0.00721432
0.06955293 -0.16277242 -0.087857604 0.084717795 0.08371388 -0.06918647 0.091969915 0.13669044
-0.102650374 -0.14959848 0.15338524 0.09489745 -0.07351197 -0.026247198 -0.16019814 0.048721325
0.09076339 -0.06907395 0.12251909 -0.10110997 0.13301612 0.004797844 -0.039411847 -0.038062785
0.007965293 0.12548502 -0.12767383 -0.15815403 -0.16134472 -0.01179505 0.08516658 -0.11419968
-0.12738852 0.021096077 0.024471726 0.037865672 0.16992658 0.07966035 -0.037572607 0.08869167
-0.07215319 0.11659669 -0.10394009 0.10552315 0.13594507 0.070525736 0.11339074 -0.1503896
-0.005916121 0.07623653 0.041620895 0.11642179 0.14052977 -0.056277137 0.08059901 -0.03767555
-0.12337854 0.16868283 -0.14546533 -0.0856256 0.0033630868 0.018865474 0.13264368 -0.15130779
-0.0022880407 -0.16994074 0.08554271 0.095036864 -0.01984893 -0.0988473 -0.107467696 0.06837269
-0.03752804 -0.013998943 0.15930532 -0.04200948 0.077697 0.15161204 0.13875325 -0.072434746
-0.07489338 -0.003081717 0.17564747 0.1068187 -0.16909157 -0.16958784 0.024503626 0.13005272
0.13444366 0.17311972 -0.07697702 0.074686915 0.1693881 0.019419797 -0.104340315 0.10003224
00000000: a989 2a3e 948a 0b3e e4f7 1bbc 8fcf 38bc
00000010: 5daf 1e3e 3a27 c23a 1613 14be f101 043e
00000020: 4c5e 16bd 5a1c c33c 4afa 043e 9511 d73d
00000030: ea8e 63bd add9 f2bc a74f 073e 34b4 963d
00000040: bd6a 47bd 7ec1 2e3e b38b febc 8979 24be
00000050: 5fad fbbc adf8 4e3d eee4 013d 58a5 713d
00000060: eac1 e2bd 08a0 15be 6b42 133e f17c 133e
00000070: 78f5 2e3e d066 0ebc 0aed 8cbc 072e a43d
00000080: 14e2 2a3d 25c1 223e 2582 f1bd b724 de3d
00000090: b640 18bd 4d49 293e b6a4 ed3d 38bf 4b3d
000000a0: 1306 fd3d 87ee 6d3d 7bcd 493c 2de8 08be
000000b0: 3c1b 27be 2333 843c 014d 1e3d 5c43 26bd
000000c0: d617 91bc d3ab 163e 0aa9 42bd 74f7 0dbe
000000d0: 770f 95bd 5eba 31be c049 0e3e 2556 b2bd
000000e0: 9417 9b3c f0af cb3d 7fc4 f2bd 8341 cfbb
000000f0: 5ed8 db3d c7d2 0e3e 8d38 23be f43f c2bc
00000100: 43c4 5abb c43a a13b 15a0 e03b 879b 7cbd
00000110: 4a60 1ebe 77cc 1bbe 5680 d83c bb8b 133e
00000120: be27 d03d 07d2 313b 4371 823d ccc9 a13c
00000130: 43bd ab3d b0f9 cdbd b4c0 d1b9 58f6 6c3d
00000140: 01db d3bd 9945 423d 5dde 223c 09ae 2b3e
00000150: ac6e 17bd dc64 243e 6aec e1bd 1b40 0cbe
00000160: b589 6a3d 6824 103e ade2 81bd c0d4 29be
00000170: 9f38 ef3d a54b 0b3e 7fab 08be 49b7 13bd
00000180: 7931 0f3e 2c93 56bd f08b f6bc 0831 fbbd
00000190: dd31 1dbe 29f3 eeba d995 bfbd dbb8 a7bd
000001a0: 2ad1 f63b da02 2ebe 606e 6bbd 1f85 30bd
000001b0: f1d2 0cbe 2601 033e 4145 c73d 503f 043e
000001c0: bb90 8c3d 95d6 3bbd 71a3 a4bd 21bf 1a3e
000001d0: 20d5 0c3e 56c0 d7bd 483c 8a3d b341 bcbd
000001e0: 65bc 26be 93a9 f5bd bc19 e43d 537f 34be
000001f0: 5c0d e0bd a3fe 10be a1d1 ac3d cd71 0dbe
00000200: a38e 0c3e 5017 1abe 8bcc 573d 92c7 1ebe
00000210: ac85 203e abd1 cebc c5a9 a13d 49bd 683d
00000220: 8e98 0abe 54eb 103e 9610 d4bc de33 96bd
00000230: 4cf6 0bbe ac8e 00be 2e8c ea3d 8fbb adbd
00000240: 520b 83bd 05c8 c3bd caf5 30bc 7e6c d6bd
00000250: 5e46 d3bd 8f8a f2ba 3740 6dbd aa8c 48bd
00000260: ad96 63bd 9f81 35be b294 613d 45d9 89bd
00000270: 7bc4 21bd 752b 2cbe 0436 0fbe 1a66 ecbb
00000280: c471 8e3d d0ad 26be b0ee b3bd 8680 ad3d
00000290: 2f72 ab3d a3b1 8dbd b95a bc3d 94f8 0b3e
000002a0: 5c3a d2bd 5830 19be 0511 1d3e 9859 c23d
000002b0: 728d 96bd 5d04 d7bc fb0a 24be 0390 473d
000002c0: 28e2 b93d a576 8dbd 4aeb fa3d be12 cfbd
000002d0: 6135 083e 3c37 9d3b 516e 21bd b9e7 1bbd
000002e0: dc80 023c 257f 003e eebc 02be 21f3 21be
000002f0: 8d37 25be 0740 41bc d16b ae3d 86e1 e9bd
00000300: 2372 02be aed1 ac3c ee78 c83c 0919 1b3d
00000310: 3c01 2e3e f724 a33d bce5 19bd faa3 b53d
00000320: 0dc5 93bd 3fca ee3d 8bde d4bd 851c d83d
00000330: 2f35 0b3e cc6f 903d 6739 e83d bbff 19be
00000340: 05dc c1bb e621 9c3d ac7a 2a3d 8c6e ee3d
00000350: 09e7 0f3e db82 66bd 1811 a53d ad51 1abd
00000360: e3ad fcbd 31bb 2c3e ddf4 14be 795c afbd
00000370: 3c67 5c3b c48b 9a3c bfd3 073e 6ef0 1abe
00000380: f4f2 15bb f204 2ebe 0431 af3d b0a2 c23d
00000390: 399a a2bc 7470 cabd 0618 dcbd fb06 8c3d
000003a0: 01b7 19bd d35b 65bc ef20 233e 2212 2cbd
000003b0: 9b1f 9f3d 3040 1b3e 5515 0e3e ab58 94bd
000003c0: b361 99bd a2f6 49bb eedc 333e c3c3 da3d
000003d0: 5726 2dbe 6fa8 2dbe d4bb c83c 8a2c 053e
000003e0: 99ab 093e 4c46 313e 21a6 9dbd 74f5 983d
000003f0: 1374 2d3e 4416 9f3c 60b0 d5bd b4dd cc3d

module.cnn.0.bias f4 [32]
0.08015382 0.05116804 0.066960596 0.06455382 0.0068375617 -0.0012828092 -0.04703758 0.1652469
0.09349274 0.03181811 -0.09099286 0.17484507 -0.039069694 0.16173758 0.1449295 -0.12082543
0.16728668 0.100210786 0.16606306 0.17342703 0.016925579 -0.08830839 -0.09153378 -0.006053343
-0.09101757 0.026212431 0.019492405 -0.07147219 -0.16180307 -0.021599026 -0.003503886 0.027003068
00000000: b027 a43d 9495 513d a322 893d cb34 843d
00000010: a00d e03b ef23 a8ba 7aaa 40bd 7c36 293e
00000020: 1f79 bf3d b553 023d 775a babd 960a 333e
00000030: 8b07 20bd 899e 253e 6668 143e 5373 f7bd
00000040: 334d 2b3e 503b cd3d 6f0c 2a3e db96 313e
00000050: 83a7 8a3c 07db b4bd 1076 bbbd 1f5b c6bb
00000060: 6b67 babd 74bb d63c 89ae 9f3c 0360 92bd
00000070: b4af 25be 71f0 b0bc 74a1 65bb 8a35 dd3c

module.cnn.2.weight f4 [64, 32, 3, 3]
-0.01661404 0.011731105 0.030089073 0.044984367 0.01004848 0.040417627 -0.002475895 -0.039175805
-0.037520584 -0.01007572 -0.0077696918 -0.026984122 -0.046605445 -0.00043054987 0.03824816 -0.00074174075
-0.027112165 0.04046648 0.0050184675 -0.0024753704 -0.0068825115 -0.01978225 -0.0110213775 -0.009166807
-0.015140029 -0.029392807 0.009207678 -0.039760303 -0.040893484 -0.00886957 -0.006168049 -0.02144368
-0.021009717 -0.018708503 -0.030017145 -0.023314042 0.024000999 -0.013359244 -0.023656959 -0.022193227
-0.009529843 -0.020713683 0.043838475 -0.041765835 -0.015711084 -0.040412612 0.0147590535 0.060490567
-0.046874747 -0.047447387 0.04882973 -0.023462169 -0.05404739 -0.025835456 -0.022712389 -0.006476281
-0.009267656 -0.024561971 -0.04088864 -0.025069136 -0.033350363 -0.034138262 0.03439727 -0.008932215
0.01293241 -0.01121076 0.028500393 -0.052840736 -0.016692271 0.0380547 -0.048400663 0.037575115
-0.037537653 -0.01347187 -0.05366562 0.025933737 -0.054009244 -0.050692018 -0.019622663 0.04854369
-0.0505842 0.005295844 0.04825957 -0.04215102 -0.027009213 0.032143638 -0.0131782405 0.03132362
-0.008631559 -0.023366995 0.01725738 0.017424637 -0.020969957 0.04019041 -0.00030571956 -0.024063047
-0.04202743 -0.029122408 -0.014638937 0.02561217 -0.050588995 0.025190316 -0.042249013 0.038786303
-0.034678377 -0.032933246 -0.015068743 -0.035902347 0.045378562 -0.024791626 -0.014878619 0.023881627
0.00030076405 0.017843485 -0.0036303722 -0.030694032 0.018352164 -0.029945776 -0.01730442 -0.025165223
0.046909403 0.013817502 0.048364267 0.02256038 0.0005979995 -0.013428176 0.04527507 -0.0016974219
0.035038 0.036157798 -0.024529971 -0.05580866 -0.01207377 0.02210108 -0.04427517 -0.024368312
0.025882559 0.022506995 -0.007871191 0.033512536 -0.042452414 0.02089024 -0.049793117 0.037783533
-0.02793388 0.024567703 -0.004176857 -0.028755309 0.030114805 -0.0394371 -0.02295569 -0.035126563
-0.01667781 0.02568997 -0.027373023 0.06872725 0.010631646 0.01715627 0.006637324 -0.032612108
-0.026063392 0.008803765 0.00023097575 0.025749465 -0.023690106 -0.00027701177 0.004963544 0.032730926
-0.03559632 0.04459719 -0.028316857 -0.007355389 -0.040264405 0.04042756 -0.027059995 0.029538484
0.023169778 0.03554512 -0.044897333 0.023663146 -0.010510046 0.04255051 0.044799514 0.006505794
0.030020783 0.05043999 0.034621757 -0.030797087 -0.04037311 -0.03659398 0.047435045 -0.011823606
-0.041223504 0.046923116 0.01838858 -0.03245904 0.03384049 0.028408013 0.010022646 -0.0117701385
0.04917215 0.0064602713 -0.009938386 -0.0242728 0.0076822774 -0.027760634 0.017399782 0.055157952
-0.039407674 0.024790516 0.03340427 0.045090232 0.019081913 0.047070213 0.051902015 0.013333169
-0.024563858 0.04235945 -0.010646184 -0.02111605 -0.017922029 -0.046986107 0.031552665 -0.00356396
0.0015339084 -0.02299841 0.033274405 -0.020773692 -0.030638913 -0.03230218 0.044680785 -0.05012578
0.032364327 -0.00076279993 -0.010022631 -0.021899704 -0.03957707 0.0075930348 -0.03090527 0.026333619
0.009729259 0.015843777 0.005961009 -0.017235234 0.001176807 0.047813706 0.012435191 -0.045639176
0.047305312 0.03392989 0.015335405 -0.03712057 -0.041579623 0.03654315 -0.0054842085 -0.018787663
00000000: 2b1a 88bc d233 403c 5c7d f63c 8741 383d
00000010: 61a2 243c f48c 253d a042 22bb cf76 20bd
00000020: 2faf 19bd a214 25bc e698 febb ce0d ddbc
00000030: 5ae5 3ebd 6dbb e1b9 1aaa 1c3d 6171 42ba
00000040: 551a debc 2ec0 253d f571 a43b d339 22bb
00000050: b186 e1bb 630e a2bc 0293 34bc 6030 16bc
00000060: e20d 78bc 2fc9 f0bc cddb 163c b3db 22bd
00000070: ed7f 27bd ac51 11bc 581d cabb a8aa afbc
00000080: 921c acbc 9342 99bc 84e6 f5bc 17fd bebc
00000090: be9d c43c bbe0 5abc 3dcc c1bc 92ce b5bc
000000a0: 0f23 1cbc beaf a9bc f98f 333d a712 2bbd
000000b0: 88b4 80bc b287 25bd f5cf 713c f5c4 773d
000000c0: bcff 3fbd 3158 42bd af01 483d bc33 c0bc
000000d0: cc60 5dbd e1a4 d3bc 550f babc fc36 d4bb
000000e0: 5ed7 17bc 3036 c9bc d97a 27bd ca5d cdbc
000000f0: 649a 08bd 90d4 0bbd 27e4 0c3d 6d58 12bc
00000100: 76e2 533c 56ad 37bc a879 e93c 876f 58bd
00000110: 3bbe 88bc 3fdf 1b3d c63f 46bd 5de8 193d
00000120: 15c1 19bd 1eb9 5cbc 7bd0 5bbd fd72 d43c
00000130: cc38 5dbd 6fa2 4fbd b5bf a0bc c0d5 463d
00000140: 6131 4fbd c288 ad3b d4ab 453d 8ca6 2cbd
00000150: 6d42 ddbc 0ca9 033d 8ce9 57bc 324d 003d
00000160: 626b 0dbc 246c bfbc 595f 8d3c 1dbe 8e3c
00000170: 30c9 abbc b39e 243d fc48 a0b9 de1f c5bc
00000180: f424 2cbd 1e92 eebc 27d8 6fbc 9dd0 d13c
00000190: 6836 4fbd ec5b ce3c 4d0d 2dbd 63de 1e3d
000001a0: ea0a 0ebd 03e5 06bd e4e2 76bc 570e 13bd
000001b0: dfde 393d cf17 cbbc 74c5 73bc 67a3 c33c
000001c0: deaf 9d39 802c 923c 8aeb 6dbb 0d72 fbbc
000001d0: 4757 963c d850 f5bc 00c2 8dbc 4c27 cebc
000001e0: 1324 403d ce62 623c 9c19 463d 8cd0 b83c
000001f0: 11c3 1c3a da01 5cbc 5a72 393d 077c deba
00000200: 0284 0f3d 331a 143d 14f3 c8bc 9f97 64bd
00000210: 10d1 45bc 530d b53c e159 35bd 0ea0 c7bc
00000220: a907 d43c 9760 b83c 2bf6 00bc 7144 093d
00000230: 95e2 2dbd 0222 ab3c def3 4bbd e8c2 1a3d
00000240: 98d5 e4bc 3542 c93c 04de 88bb 4190 ebbc
00000250: 53b3 f63c cc88 21bd 920d bcbc dfe0 0fbd
00000260: e79f 88bc c673 d23c 643d e0bc dfc0 8c3d
00000270: 5b30 2e3c 4e8b 8c3c e97d d93b 4694 05bd
00000280: e582 d5bc ab3d 103c 1532 7239 8bf0 d23c
00000290: c111 c2bc e43b 91b9 3aa5 a23b dd10 063d
000002a0: 72cd 11bd 8bab 363d c1f8 e7bc 7a05 f1bb
000002b0: 4aec 24bd 5f97 253d ecac ddbc b1fa f13c
000002c0: 8cce bd3c c297 113d 44e6 37bd 37d9 c13c
000002d0: 5432 2cbc 7249 2e3d b27f 373d 8e2e d53b
000002e0: 25ee f53c 2a9a 4e3d 8bcf 0d3d 2c4a fcbc
000002f0: 465e 25bd 92e3 15bd 404b 423d ccb7 41bc
00000300: fad9 28bd 7432 403d a6a3 963c c5f3 04bd
00000310: 539c 0a3d ecb7 e83c 0636 243c 8ad7 40bc
00000320: bd68 493d afb0 d33b 9dd4 22bc c0d7 c6bc
00000330: 9dbb fb3b 456a e3bc fd89 8e3c 4eed 613d
00000340: f169 21bd 7b15 cb3c ead2 083d 89b0 383d
00000350: ac51 9c3c b2cc 403d 3597 543d 5d73 5a3c
00000360: 253a c9bc 1a81 2d3d 556d 2ebc 91fb acbc
00000370: 38d1 92bc 8174 40bd 5e3d 013d 5491 69bb
00000380: 6d0d c93a 2967 bcbc be4a 083d 972d aabc
00000390: 75fe fabc 4a4f 04bd 3303 373d b150 4dbd
000003a0: 7590 043d a3f6 47ba f635 24bc 0267 b3bc
000003b0: 911b 22bd fece f83b 0c2d fdbc 9ab9 d73c
000003c0: 7867 1f3c cfca 813c 9154 c33b e830 8dbc
000003d0: 173f 9a3a 4ed8 433d f9bc 4b3c 25f0 3abd
000003e0: 37c3 413d 11fa 0a3d 5a41 7b3c bd0b 18bd
000003f0: 654f 2abd 45ae 153d e0b4 b3bb 96e8 99bc

module.cnn.2.bias f4 [64]
0.025190065 0.028709209 0.0003581956 -0.032223046 -0.028901648 0.0064317756 0.040772054 -0.01435025
0.019577177 -0.041750103 -0.013265878 0.028323663 -0.013046541 -0.032170665 -0.0372866 -0.0052051595
-0.007362678 0.045018572 0.045404047 -0.006877273 -0.04465567 0.036340702 0.024800565 0.026450636
0.021879539 0.011751991 -0.031811778 -0.030859735 -0.04872904 -0.035814874 -0.012439942 -0.03730126
-0.03541394 0.054091495 0.01917587 -0.013929858 -0.016329631 -0.013609633 -0.039526578 0.024257926
-0.042524062 0.03621496 0.033402998 -0.024675611 0.04740436 0.024082739 -0.011046306 -0.011460214
-0.012192699 -0.055817656 0.046981946 -0.017105896 0.0065355445 0.011579014 0.016363619 0.0137861185
-0.02983172 -0.042783882 0.008818397 -0.0023494023 0.011027381 0.021262033 0.038362868 -0.019138435
00000000: 655b ce3c 932f eb3c 33cc bb39 50fc 03bd
00000010: 26c3 ecbc a5c1 d23b 9900 273d 501d 6bbc
00000020: 5160 a03c 2802 2bbd 2059 59bc 0707 e83c
00000030: 29c1 55bc 63c5 03bd d5b9 18bd 0b90 aabb
00000040: 9f42 f1bb 6565 383d 98f9 393d bf5a e1bb
00000050: dde8 36bd fdd9 143d 8e2a cb3c 01af d83c
00000060: b83c b33c 6c8b 403c 114d 02bd 8ecd fcbc
00000070: 1a98 47bd 9eb2 12bd e6d0 4bbc 35c9 18bd
00000080: 350e 11bd 0b8f 5d3d b716 9d3c 0f3a 64bc
00000090: b8c5 85bc f0fa 5ebc 9fe6 21bd 8fb8 c63c
000000a0: b62d 2ebd 2356 143d 95d1 083d 8224 cabc
000000b0: 132b 423d 2a49 c53c 91fb 34bc 9fc3 3bbc
000000c0: e3c3 47bc 0ea1 64bd 2470 403d aa21 8cbc
000000d0: 1f28 d63b e8b5 3d3c ff0c 863c 2cdf 613c
000000e0: a761 f4bc 273e 2fbd 0a7b 103c 6ef8 19bb
000000f0: 30ac 343c b72d ae3c 6222 1d3d 35c8 9cbc

module.fc.0.weight f4 [5, 67]
-0.113138735 -0.033445694 0.061898705 0.034320313 0.035377916 0.010048236 0.0402009 -0.08884981
-0.04070652 0.10371044 0.12226364 0.005757195 0.06891607 0.00074491795 0.09131429 0.004907668
0.06631704 -0.0816017 0.060531538 0.023060516 -0.004469591 0.028657462 -0.15694477 0.087530956
0.082441464 0.058002632 0.12697892 -0.08759456 -0.011471956 0.024298334 0.073682375 0.094222635
0.043344487 -0.10994027 -0.10923077 -0.035456162 -0.08737754 -0.02262526 0.049376994 -0.055442348
-0.046552427 -0.07679353 -0.063625224 0.04284657 -0.068875544 0.020303242 -0.033766426 -0.013628486
-0.019392198 0.060377043 -0.12619068 0.05209691 0.052313816 -0.07492604 -0.020613838 -0.009162224
-0.082151055 0.06961188 0.10521834 -0.10994411 -0.02639728 -0.037640795 -0.14655666 0.05945311
-0.16400705 -0.2920457 0.388198 0.013594433 0.07531401 0.041231707 -0.11188131 0.096495524
0.0497895 -0.062346756 0.06428248 -0.050184112 -0.041479234 -0.08653167 0.10033851 0.10331033
0.0633696 -0.021396304 0.057600923 -0.10023169 -0.1185779 -0.013213681 -0.033176273 0.07311004
-0.035820942 -0.08345275 -0.018751256 -0.0079469085 0.106671 -0.003799357 0.010515165 -0.05402707
-0.07647582 0.059988666 -0.054558173 0.00466157 -0.05919232 0.082708724 -0.049925096 -0.11388634
-0.013360796 -0.043389127 0.110211365 0.07547044 -0.05479421 0.058282692 -0.030886482 -0.030577822
0.04921974 0.09580281 0.041660853 0.059012726 0.08080807 0.08319677 -0.048997816 -0.024282765
-0.017527226 -0.07537422 0.04456477 0.0051346687 0.047982484 -0.051801104 -0.009934583 0.06756124
-0.109540515 -0.03909967 -0.008082467 0.15632631 -0.20770681 0.2925005 -0.03194886 0.062305093
-0.036742646 -0.083278805 -0.054194853 -0.07752151 -0.102327794 0.005695962 0.06705992 -0.07569947
-0.077628 0.03709815 0.080994055 0.049365785 -0.060306817 0.11017171 -0.08191613 -0.043073848
-0.07410504 -0.08672273 -0.017797109 -0.030741176 0.0996004 -0.049876105 0.1108737 -0.05757566
0.07736502 0.09870744 -0.048010897 -0.017748712 -0.06542141 -0.0809882 0.11003738 -0.068940975
-0.09101583 -0.040356122 0.008860372 -0.06716826 0.041016903 0.13156916 -0.006607433 0.07753765
0.012950378 -0.008563551 -0.074814886 0.10918746 -0.042762976 0.08208006 -0.039939743 -0.09280778
-0.080295116 0.10491936 0.055520758 -0.05956985 -0.02855691 0.015680023 0.055525523 -0.002289351
-0.033173002 0.15046133 0.090503454 0.0111810155 0.06087989 -0.08028992 0.2925799 -0.18024704
-0.13678908 0.13317132 0.09660971 0.08283012 0.09353676 -0.09412993 -0.079684645 0.098073155
-0.09411846 -0.08196776 0.059493348 0.05984286 -0.012399102 0.03668495 0.065989465 0.10850382
0.016914848 -0.08302361 -0.053176448 -0.039537996 0.10260747 0.045813855 -0.055991072 -0.051862624
-0.04683742 0.027998965 -0.08325768 -0.110094115 -0.06059893 0.023022842 -0.0954976 -0.11671508
0.103088886 -0.01571146 -0.026538014 0.08291584 0.03505555 -0.055645604 -0.07873149 -0.08483463
0.064866826 0.119205 -0.018627713 -0.07472749 0.050410748 -0.013474206 0.10505819 0.032920055
0.09941215 -0.019173225 0.017987799 0.035563074 0.120701246 0.04060411 -0.06778693 0.002717629
00000000: 48b5 e7bd 5afe 08bd 7f89 7d3d 7593 0c3d
00000010: 6fe8 103d 5ba1 243c b3a9 243d e4f6 b5bd
00000020: e1bb 26bd 2466 d43d 5c65 fa3d daa6 bc3b
00000030: de23 8d3d 9946 433a fd02 bb3d 81d0 a03b
00000040: 3ad1 873d cb1e a7bd ebef 773d 68e9 bc3c
00000050: a675 92bb 0ec3 ea3c 21b6 20be 6e43 b33d
00000060: 12d7 a83d 2b94 6d3d c306 023e c764 b3bd
00000070: dff4 3bbc 4d0d c73c c9e6 963d ccf7 c03d
00000080: fd89 313d 5d28 e1bd 62b4 dfbd 7b3a 11bd
00000090: fff2 b2bd 9c58 b9bc 883f 4a3d 8417 63bd
000000a0: c2ad 3ebd ed45 9dbd f14d 82bd e37f 2f3d
000000b0: 9f0e 8dbd fc52 a63c aa4e 0abd 034a 5fbc
000000c0: 63dc 9ebc eb4d 773d 2138 01be 9263 553d
000000d0: 0347 563d d372 99bd 5ade a8bc 271d 16bc
000000e0: d03e a8bd ac90 8e3d b77c d73d 612a e1bd
000000f0: 1c3f d8bc 3c2d 1abd f312 16be 1b85 733d
00000100: 77f1 27be 0487 95be e3c1 c63e 2fbb 5e3c
00000110: 3b3e 9a3d 94e2 283d 0722 e5bd 729f c53d
00000120: 13f0 4b3d 505f 7fbd 88a6 833d db8d 4dbd
00000130: 21e6 29bd 8437 b1bd 477e cd3d 5e94 d33d
00000140: ecc7 813d 4d47 afbc f2ee 6b3d 4646 cdbd
00000150: f8d8 f2bd 327e 58bc d8e3 07bd b7ba 953d
00000160: fbb8 12bd 47e9 aabd 3c9c 99bc c033 02bc
00000170: 5376 da3d a2fe 78bb cc47 2c3c 7d4b 5dbd
00000180: 5b9f 9cbd adb6 753d 6478 5fbd 15c0 983b
00000190: a573 72bd 3163 a93d 427e 4cbd 3e3d e9bd
000001a0: 3de7 5abc ccb8 31bd 7fb6 e13d 3f90 9a3d
000001b0: e56f 60bd d5b9 6e3d a605 fdbc 577e fabc
000001c0: a39a 493d 4334 c43d 92a4 2a3d 54b7 713d
000001d0: b47e a53d 1163 aa3d efb1 48bd a6ec c6bc
000001e0: 4295 8fbc cd5d 9abd 8c89 363d b940 a83b
000001f0: 4889 443d 652d 54bd a9c4 22bc 8c5d 8a3d
00000200: c756 e0bd fa26 20bd 536c 04bc 0114 203e
00000210: 18b1 54be a0c2 953e cfdc 02bd a033 7f3d
00000220: 757f 16bd 148e aabd 6cfb 5dbd 99c3 9ebd
00000230: 3c91 d1bd 31a5 ba3b b656 893d 5308 9bbd
00000240: 6efb 9ebd 3bf4 173d 36e0 a53d c733 4a3d
00000250: 4804 77bd b5a1 e13d a5c3 a7bd 346e 30bd
00000260: 62c4 97bd b09b b1bd 3ecb 91bc ebd4 fbbc
00000270: 4bfb cb3d e34a 4cbd c011 e33d 75d4 6bbd
00000280: 8d71 9e3d 2027 ca3d 13a7 44bd bf65 91bc
00000290: a9fb 85bd 24dd a5bd 475b e13d ed30 8dbd
000002a0: 8266 babd 764c 25bd 182b 113c 838f 89bd
000002b0: 5701 283d 11ba 063e 2a83 d8bb 0fcc 9e3d
000002c0: d22d 543c 234e 0cbc 8c38 99bd ad9d df3d
000002d0: 3b28 2fbd 9719 a83d db97 23bd 0112 bebd
000002e0: c471 a4bd f6df d63d bc69 633d 84ff 73bd
000002f0: 2ef0 e9bc 6473 803c bb6e 633d f008 16bb
00000300: 6ae0 07bd 8912 1a3e e059 b93d 9430 373c
00000310: 315d 793d 0b6f a4bd 08cd 953e ae92 38be
00000320: 7012 0cbe 105e 083e 50db c53d d7a2 a93d
00000330: 3390 bf3d 31c7 c0bd b431 a3bd 94da c83d
00000340: 2ec1 c0bd b7de a7bd 4caf 733d c91d 753d
00000350: 9a25 4bbc f542 163d 7c25 873d 4037 de3d
00000360: 0291 8a3c 4808 aabd 8ccf 59bd 98f2 21bd
00000370: dd23 d23d 4fa7 3b3d e556 65bd e76d 54bd
00000380: 98d8 3fbd 165e e53c 0183 aabd 0679 e1bd
00000390: 9536 78bd 669a bc3c 3f94 c3bd 5108 efbd
000003a0: 4420 d33d 52b5 80bc 4066 d9bc c8cf a93d
000003b0: 6996 0f3d a5ec 63bd fa3d a1bd c7bd adbd
000003c0: e6d8 843d c021 f43d 2599 98bc ba0a 99bd
000003d0: 807b 4e3d ebc2 5cbc c028 d73d 2ed7 063d
000003e0: 9998 cb3d 2b11 9dbc 265b 933c 96aa 113d
000003f0: 3732 f73d 7f50 263d e0d3 8abd 401a 323b

module.fc.0.bias f4 [5]
-0.10094297 0.03884384 -0.026141826 -0.07312434 -0.0022969255
00000000: 30bb cebd b81a 1f3d 6227 d6bc 37c2 95bd
00000010: 0488 16bb
