Sem 1/CS4248 NLP/Assignments/Assignment 2/a2_files/model.pt (torch, 605289 bytes, 15 tensors)

embedding.weight f4 [659, 64]
0	0xbf88f9ce	-1.0701234
1	0xbf8a350a	-1.0797436
2	0xbe7d472a	-0.24734178
3	0xbebe4ad9	-0.3716648
4	0x3f42a1f5	0.76028377
5	0x3f1607df	0.5860576
6	0xbe84232b	-0.2580808
7	0xc000202c	-2.0019636
8	0x3e95d221	0.29261878
9	0xbf947032	-1.1596739
10	0x3ea0871a	0.31353074
11	0x3e981ea6	0.29710883
12	0x3db59422	0.08866145
13	0x3f93f40d	1.1558853
14	0x3f7e6ff1	0.9938956
15	0xbe68e0bb	-0.22741978
16	0xbfa341f5	-1.2754503
17	0xbfc40517	-1.5314053
18	0x3f004e69	0.50119644
19	0x3f3f49ad	0.74721795
20	0x3f1552ff	0.58329767
21	0xbfb4a11d	-1.4111668
22	0xbea1b037	-0.31579754
23	0x3fdb7fb2	1.7148345
24	0x3f2d4650	0.67685413
25	0xbf0cc486	-0.5498737
26	0xbe1d89a9	-0.15384544
27	0x3e0edaa0	0.13950586
28	0x3fa16c0f	1.2611102
29	0x3fb93ea9	1.4472247
30	0x3f5b0869	0.8555971
31	0xbf3c4d1b	-0.73555154
32	0xbf0b1d96	-0.5434202
33	0x3cfd30e0	0.030907094
34	0xbef02a53	-0.4690729
35	0x3e59bb6a	0.21262899
36	0x3ed69610	0.41911364
37	0x3d95d083	0.07315161
38	0x3f1074f9	0.56428486
39	0x3ebd7b51	0.37008145
40	0xbd8c75f4	-0.06858435
41	0x3f312563	0.6919767
42	0xbe8bf0a8	-0.27332044
43	0x3d696453	0.056980442
44	0x3eeaf8c0	0.45892906
45	0x400b15cb	2.1732051
46	0xbfac8af7	-1.3479909
47	0xbfae131a	-1.3599579
48	0xbf1a01ac	-0.601588
49	0x3f4e99fa	0.807037
50	0x3f808b2e	1.0042474
51	0x3e0a9d91	0.1353667
52	0xbe41cedb	-0.18926565
53	0xbeb9f698	-0.3632095
54	0x3ef4dbda	0.47823983
55	0xbeadc6f6	-0.33940858
56	0xbeb6ed2b	-0.3572782
57	0x3f3446b4	0.70420384
58	0x3fb75a72	1.4324477
59	0x404b151e	3.173164
60	0xbfb36507	-1.4015206
61	0xbf86ea10	-1.054018
62	0x3fd73be8	1.6815157
63	0xbef4b229	-0.47792175
64	0xc0356972	-2.8345609
65	0xbe7d2e83	-0.24724774
66	0xbe7806c3	-0.2422133
67	0x40026b26	2.0377898
68	0xc0536c6d	-3.3034928
69	0x3fc2f0fb	1.5229791
70	0x3ee736b8	0.45158935
71	0xbfee3322	-1.8609354
72	0xc0640fa1	-3.563454
73	0xbf5e41e3	-0.86819285
74	0xbf963d22	-1.1737406
75	0x3ee4ba02	0.44673163
76	0xc0144fbe	-2.317367
77	0x402cf622	2.7025228
78	0x3f5ee407	0.8706669
79	0xbf6bfaf7	-0.92179817
80	0x3f972366	1.1807678
81	0x4006d755	2.1068928
82	0xbefea71b	-0.49736866
83	0x3ef1c371	0.47219422
84	0x3fff7ded	1.9960304
85	0xbecf289f	-0.4046068
86	0x40420f9f	3.0322034
87	0x3f016fe0	0.5056133
88	0x3f797e6b	0.97458524
89	0x40454232	3.0821652
90	0xc057361d	-3.3626778
91	0xbf96dde0	-1.1786461
92	0xc0065085	-2.0986645
93	0xc010af86	-2.260713
94	0x3f4b3fe8	0.7939439
95	0x3fa5de3a	1.2958443
96	0x3f904d96	1.1273677
97	0xc05b0964	-3.4224482
98	0xbf871970	-1.0554638
99	0x400a7213	2.1632125
100	0xbfa5d704	-1.2956243
101	0xc0435bfc	-3.0524893
102	0x3f6ea9ed	0.93228036
103	0xbf7650ee	-0.9621724
104	0x3fc8a56c	1.5675483
105	0xbf6ade6d	-0.91745645
106	0x40042841	2.064957
107	0xbe067362	-0.13129953
108	0x400040d5	2.003957
109	0xc01c7fa8	-2.4452915
110	0x3e33b045	0.1754771
111	0xbe3a88bb	-0.18216221
112	0xc0146395	-2.318578
113	0xbf4dc49e	-0.8037814
114	0xbf8515ff	-1.0397338
115	0xbf65ab0b	-0.89714116
116	0x4018f6d9	2.3900664
117	0x40349b85	2.8219922
118	0xc043ced9	-3.0595
119	0x3ff92376	1.9463947
120	0xc0044566	-2.0667357
121	0xbd529b21	-0.051417474
122	0x4025b4c2	2.5891576
123	0xbe997dad	-0.29978696
124	0x3f238a0f	0.63882536
125	0x3df041c9	0.117312975
126	0xbdaeae4c	-0.08529338
127	0xbf03a76b	-0.51427335
128	0xc01212af	-2.2823904
129	0xbf4b465a	-0.7940422
130	0xc02a6238	-2.6622448
131	0x401981d0	2.3985481
132	0xbfe5302e	-1.7905328
133	0xbf9eaed6	-1.2397106
134	0x4061804e	3.523456
135	0xbff274ed	-1.8941933
136	0xbf868fa7	-1.0512589
137	0x3fb06582	1.3780978
138	0x3f09d63f	0.5384254
139	0x3f866847	1.0500573
140	0xbf2dc62a	-0.678805
141	0x3f4d54d4	0.8020756
142	0xbfd01ecc	-1.6259398
143	0xbfd49bac	-1.6610007
144	0xbf65b11c	-0.8972337
145	0x3f0a930f	0.54130644
146	0xbf75caaa	-0.96012366
147	0x400941f1	2.1446497
148	0x3feb360a	1.8375866
149	0x3fc1dcd9	1.5145522
150	0x3f2b959b	0.67025155
151	0x3e2dc580	0.16969872
152	0x3e4d85d6	0.20070586
153	0xbee26be1	-0.4422293
154	0xc0074ea1	-2.1141741
155	0xbf45253c	-0.7700994
156	0xbe05d4f1	-0.13069512
157	0x3ca55ae9	0.02018495
158	0x3fd88330	1.6915035
159	0x3ff0214e	1.8760164
160	0x401e4b19	2.4733336
161	0xc00132b9	-2.0187209
162	0xc003c15c	-2.0586767
163	0x3e443f31	0.1916473
164	0x404ff819	3.2495177
165	0xbfead7ad	-1.8347069
166	0xbee157a0	-0.44012165
167	0xbeb80268	-0.35939336
168	0x3f8551d0	1.0415592
169	0x3f49f9c2	0.78896725
170	0xbf3563e6	-0.7085556
171	0xbcc74b2b	-0.024327835
172	0xbfd51a2f	-1.6648616
173	0xbfde91e6	-1.7388275
174	0x3e820b4c	0.25399244
175	0xbf87274c	-1.0558867
176	0xbfd9f625	-1.7028242
177	0x3f9b7f18	1.2148161
178	0xbe38911a	-0.18024102
179	0xbffc7077	-1.9721822
180	0x3fc9a646	1.5753868
181	0x3f020d3c	0.50801444
182	0xbf44847b	-0.7676465
183	0x40404358	3.0041103
184	0xc01ae0dd	-2.4199746
185	0xbf9eb396	-1.2398555
186	0x3f69d315	0.9133771
187	0x3f3a1b57	0.7269797
188	0x3f399f44	0.72508645
189	0xbf992be4	-1.1966519
190	0xc023e824	-2.5610437
191	0xc039a21b	-2.9005191
192	0xbe44bef3	-0.19213466
193	0x3eae764e	0.34074634
194	0x3ec38fe7	0.38195726
195	0xbec5de7f	-0.38646314
196	0x3fa8bfc3	1.3183521
197	0x40058cfe	2.0867305
198	0xbf8caeb6	-1.0990818
199	0x3fc9e40e	1.5772722
200	0xbe796285	-0.24353988
201	0xc019aaba	-2.4010453
202	0xbf763640	-0.9617653
203	0xbeb9ee66	-0.36314696
204	0x3f2d4ce5	0.67695457
205	0xc019e85b	-2.4048069
206	0x3fc8d4f1	1.5689985
207	0xbdac811e	-0.08423065
208	0x3ff6b4aa	1.9273884
209	0x3e98fd76	0.29880875
210	0x3fd86c4c	1.690805
211	0x3f1d8cb9	0.6154285
212	0xbfeed2c7	-1.8658074
213	0x3fadc7c2	1.3576586
214	0xbf645ccc	-0.89204097
215	0xc0029070	-2.0400658
216	0x3f224c4f	0.6339769
217	0x3f7dc0a5	0.9912208
218	0xbfa11825	-1.2585493
219	0x3ec84654	0.39116156
220	0xbe9064ad	-0.2820181
221	0x3ea5728d	0.32313958
222	0xc0160da8	-2.3445835
223	0xbd4034e9	-0.04692546
224	0xbfb39cc9	-1.4032222
225	0x40014f79	2.0204756
226	0x3f74beaa	0.9560343
227	0x3f146185	0.57961303
228	0xbf601af8	-0.8754115
229	0x3f34b18e	0.70583427
230	0xbd0b5ce3	-0.03402413
231	0xbfc0772d	-1.503637
232	0x3e064e5c	0.13115829
233	0xbf435ea2	-0.76316273
234	0xbc9f242b	-0.019426426
235	0x3fc7142d	1.5553032
236	0xbe80b9bd	-0.25141707
237	0x3fa9df66	1.3271301
238	0x3f322286	0.6958393
239	0xbff55a7a	-1.9168236
240	0xbf7c4171	-0.98537356
241	0xc035eca7	-2.842569
242	0xbf0fa373	-0.5610878
243	0xbf1cebab	-0.612971
244	0x40131f9b	2.298804
245	0xbe4d3520	-0.20039797
246	0x3faa0594	1.3282952
247	0xbfba763b	-1.4567331
248	0x3f293aba	0.66105235
249	0x3fcc98b7	1.5984105
250	0x3fc40ee8	1.5317049
251	0xbf83182f	-1.0241755
252	0xbe144e2e	-0.14482948
253	0xbedf3887	-0.43597814
254	0x401f10e1	2.4854052
255	0x3f964bcd	1.1741883

input.weight f4 [100, 64]
0	0x3e87a703	0.26494607
1	0x3e0278cd	0.12741394
2	0xbdced29f	-0.100987665
3	0x3d496102	0.04916478
4	0x3e6875ec	0.22701234
5	0x382732dc	3.986327e-05
6	0x3d279e38	0.040922374
7	0x3e2d7b32	0.16941527
8	0x3e7b9938	0.24570167
9	0x3cb8df4d	0.022567416
10	0xbdfaf467	-0.12253647
11	0xbdb04c4f	-0.08608305
12	0x3e4812f0	0.19538474
13	0xbe0df52e	-0.1386306
14	0x3dbf4439	0.09339184
15	0x3e909b81	0.2824364
16	0xbe0aa1c9	-0.13538279
17	0xbe0fe8d6	-0.14053664
18	0x3df87103	0.1213093
19	0x3e08ddaf	0.13365816
20	0x3d1c6217	0.038179483
21	0x3da311ad	0.07962356
22	0xbf07e8d6	-0.53089654
23	0xbe00d22c	-0.12580174
24	0xbdbdb8ee	-0.09263788
25	0xbea73036	-0.3265397
26	0x3e8ff448	0.2811606
27	0xbe4e8737	-0.20168768
28	0x3d350aa4	0.0441996
29	0x3d6072dc	0.05479704
30	0xbda47f91	-0.08032144
31	0xbc674fad	-0.014118117
32	0x3cdd0960	0.02698201
33	0x3feafda8	1.835866
34	0x3dc8a225	0.097965516
35	0xbee08cdf	-0.43857476
36	0xbe2ece30	-0.17070842
37	0xbcbfffe5	-0.02343745
38	0xbe587877	-0.21139704
39	0x3c5e61c9	0.0135731185
40	0xbe036592	-0.12831715
41	0x3e1286c9	0.14309229
42	0xbeed19dd	-0.46308795
43	0x3f7e54b4	0.99347997
44	0xbe87bd35	-0.2651154
45	0x3d83236d	0.06403241
46	0xbd24041c	-0.04004298
47	0xbe20d6ca	-0.15706936
48	0x3e90a577	0.2825124
49	0xbe7a994a	-0.24472538
50	0xbd19a895	-0.037514288
51	0xbec82d1f	-0.39096925
52	0xbd528ce4	-0.051403895
53	0xbee4589c	-0.44598854
54	0x3df1c9cf	0.1180607
55	0xbec3008d	-0.38086358
56	0x3e85dcc9	0.26145008
57	0x3e55d910	0.20883584
58	0x3c46ea0f	0.012140765
59	0x3d134ab0	0.0359599
60	0x3e11e57f	0.14247702
61	0x3d85698a	0.065142706
62	0x3df8a294	0.12140384
63	0x3df5a3f8	0.11994165
64	0xbe8ff9e0	-0.28120327
65	0x3e63e6f5	0.22256072
66	0xbe10bf60	-0.14135504
67	0xbe488c65	-0.19584806
68	0xbe04db05	-0.12974174
69	0x3e68c97f	0.22733115
70	0xbf181803	-0.5941164
71	0xbc9af803	-0.01891709
72	0xbeb5f298	-0.35536647
73	0x3c3a43ef	0.011368736
74	0x3e1ca6d9	0.15298022
75	0xbe35e816	-0.17764315
76	0x3f32a68e	0.6978539
77	0xbdd3f176	-0.103487894
78	0x3e214761	0.15749885
79	0xbe574c23	-0.21025138
80	0xbd1e5b9b	-0.03866158
81	0x3d7950ea	0.06086818
82	0xbe7327ed	-0.23745699
83	0xbe8f4c6e	-0.27988
84	0xbe52d6f5	-0.20589812
85	0xbb7f1b10	-0.0038926043
86	0x3e902fad	0.28161374
87	0x3de03689	0.10947902
88	0xbdedc661	-0.116101034
89	0x3e9d2522	0.30692393
90	0x3ed8a806	0.42315692
91	0x3f287b9b	0.65813607
92	0xbd013e08	-0.0315533
93	0xbcb53ddb	-0.022124222
94	0xbe3facad	-0.18718214
95	0xbd8e3667	-0.0694397
96	0xbdf55d21	-0.119806536
97	0xbff647ce	-1.9240663
98	0xbdcefeb3	-0.10107174
99	0xbe312e1a	-0.17302743
100	0x3d811bbd	0.06304119
101	0x3f3a9705	0.7288669
102	0x3e7fa386	0.24964723
103	0x3ee30d5f	0.4434614
104	0xbf861211	-1.0474263
105	0x3d34200a	0.043975867
106	0x3e8125b8	0.2522409
107	0xbf95aa9f	-1.1692694
108	0x3e4bbae4	0.19895512
109	0x3d55e36e	0.052218847
110	0x3df458bd	0.11930988
111	0x3dd46d94	0.10372463
112	0xbdbbd776	-0.09171955
113	0x3e33578b	0.17513864
114	0x3e033001	0.12811281
115	0x3f4dd773	0.80406874
116	0xbd7c681a	-0.061622716
117	0x3e499a9d	0.19687887
118	0xbdc86454	-0.09784761
119	0xbcb72000	-0.022354126
120	0x3e0ac9c6	0.13553533
121	0xbea34ea0	-0.31895924
122	0xbe49bca2	-0.19700864
123	0xbdf9ab16	-0.12190835
124	0xbe5c17dd	-0.21493478
125	0xbdbb7bef	-0.09154498
126	0x3e4d1f26	0.20031413
127	0xbe63af98	-0.22234952
128	0x3da11bee	0.07866655
129	0x3c1d9aa0	0.009619385
130	0x3c69e3c0	0.014275491
131	0x3c6099b0	0.013708517
132	0xbc9e4100	-0.019318104
133	0x3b49e180	0.0030804574
134	0x3d3f8ce8	0.046765238
135	0x3a7e761a	0.00097069296
136	0x3d024cb4	0.03181143
137	0xbddd1328	-0.107946694
138	0xbdca8a30	-0.098896384
139	0xbdad402e	-0.08459507
140	0x3d9ceb2c	0.07662043
141	0x3d25f230	0.04051417
142	0xbdb8bd56	-0.09020488
143	0x3dc89b00	0.09795189
144	0xbba192c0	-0.004930824
145	0x3d8a6938	0.0675835
146	0xbdd37baa	-0.103263214
147	0x3d9b7dc6	0.07592349
148	0xbcb30080	-0.021850824
149	0xbbdac7e0	-0.006676659
150	0xbd8e02de	-0.069341406
151	0xbd0eca24	-0.034860745
152	0x3da7d832	0.08195533
153	0xbcb25388	-0.021768346
154	0xbd2f34cc	-0.04277496
155	0xbd316e24	-0.04331793
156	0xbd5bfe04	-0.053709045
157	0x3dc57a2a	0.096424416
158	0x3da84804	0.08216861
159	0xbdaca434	-0.08429757
160	0xbbd12e40	-0.0063836873
161	0x3d55a050	0.05215484
162	0xbdde991e	-0.108690485
163	0x3de56c2e	0.11202274
164	0x3d8c3044	0.068451434
165	0xbac8cd00	-0.0015319884
166	0x3d9cf9ec	0.07664856
167	0x3da2ba90	0.0794574
168	0xbde529d4	-0.11189619
169	0x3cc68038	0.024231061
170	0x3dd5ce68	0.104397595
171	0xbd1c4c54	-0.03815873
172	0xbcde2608	-0.027117744
173	0xbc723ff0	-0.014785752
174	0xbccae1c0	-0.02476585
175	0xb7cc8599	-2.4380906e-05
176	0xbb9704a0	-0.0046087056
177	0xbdc2f63c	-0.09519622
178	0x3d87893a	0.06617971
179	0xbd8c888c	-0.06861982
180	0xbd999644	-0.07499364
181	0x3d4d6e24	0.050153866
182	0xbdefef88	-0.11715609
183	0xbb981600	-0.0046412945
184	0x3da92fec	0.082610935
185	0x3dd92cee	0.10604273
186	0xbdc79630	-0.09745443
187	0xbd70198c	-0.058618113
188	0xbdd016a0	-0.101605654
189	0x3d698d64	0.057019606
190	0x3d1caf84	0.038253322
191	0x3ddc7282	0.10764028
192	0x3e217712	0.15768078
193	0xbcc4639f	-0.023973284
194	0x3dab2c35	0.08358041
195	0xbd880b5a	-0.0664279
196	0x3e90ac9c	0.2825669
197	0x3e546366	0.20741042
198	0xbe65f9f7	-0.22458635
199	0x3de5a371	0.112128146
200	0x3d8ec9fd	0.0697212
201	0xbe348221	-0.17627765
202	0xbe89742a	-0.2684644
203	0xbd2f4683	-0.042791855
204	0x3f1b5e4a	0.6069075
205	0xbe86e61b	-0.26347432
206	0x3dd4e169	0.10394556
207	0x3e4b0b27	0.19828473
208	0x3ddc46a2	0.1075566
209	0xbc82ff18	-0.015990779
210	0x3df0f03c	0.11764571
211	0x3d4722ac	0.04861705
212	0xbe13d100	-0.14435196
213	0xbd809632	-0.062786475
214	0xbf42e96d	-0.7613743
215	0xbdde4b5d	-0.10854218
216	0xbd46b080	-0.048508167
217	0xbdcbeecd	-0.09957657
218	0x3e2acb28	0.1667906
219	0xbd541100	-0.051774025
220	0x3d30bbce	0.043147855
221	0x3e061266	0.13092956
222	0xbd92f4d5	-0.07175604
223	0x3d85a47e	0.06525515
224	0x3cfb09ea	0.030644376
225	0x3fc8cac3	1.5686878
226	0x3e82b69b	0.25529942
227	0xbef8faca	-0.48628837
228	0xbdc95c9a	-0.098321155
229	0x3db32a9c	0.087483615
230	0xbde4ab8b	-0.11165532
231	0xbcd98331	-0.026551815
232	0xbeaa158a	-0.33219558
233	0xbafcdaa4	-0.0019291234
234	0xbe4addfe	-0.19811246
235	0x3f4d93cd	0.8030365
236	0xbd4772cc	-0.048693463
237	0x3dcf128d	0.1011096
238	0xbdf4f17c	-0.11960122
239	0xbd5620a2	-0.052277215
240	0x3e5d42a1	0.21607448
241	0xbeb46dc7	-0.35240003
242	0x3d9a1c28	0.07524902
243	0x3dcff2e8	0.101537526
244	0x3ea1e2a5	0.3161823
245	0xbea1344e	-0.31485218
246	0x3e60a4f1	0.2193792
247	0xbf0257f7	-0.50915474
248	0x3e9936bf	0.2992458
249	0x3da3ad9e	0.07992099
250	0xbc959ed7	-0.018264217
251	0xbd02568a	-0.03182081
252	0xbcd6a193	-0.026200091
253	0xbc73785a	-0.014860237
254	0x3cbd3c1c	0.023099951
255	0x3e8d8c0b	0.27645907

input.bias f4 [100]
0	0xbc6e9d79	-0.014563912
1	0x3e01b145	0.12665279
2	0xbdff73d6	-0.12473266
3	0xbe0ac489	-0.13551535
4	0x3de5bccc	0.11217651
5	0xbdba6093	-0.09100451
6	0x3e1fb6fb	0.15597145
7	0xbd899f44	-0.06719831
8	0x3dbfb71b	0.093610965
9	0xbd91852c	-0.07105479
10	0x3dd2be74	0.10290232
11	0x3d566534	0.05234261
12	0x3dc30b67	0.09523659
13	0xbb9363ff	-0.0044980044
14	0x3d345f8e	0.04403644
15	0xbd82a1d6	-0.06378524
16	0x3c65cd97	0.014026067
17	0x3e4ba45f	0.19886921
18	0xbd72b6ef	-0.05925649
19	0x3d5b74c5	0.053578157
20	0x3e062430	0.13099742
21	0x3cd3130a	0.025765914
22	0xbdf400af	-0.11914193
23	0xbd0e5efe	-0.03475856
24	0xbd11f92f	-0.03563803
25	0x3dd4216a	0.10357936
26	0x3da9d77d	0.08293054
27	0x3e2c7d3c	0.16844648
28	0x3e0923d8	0.1339258
29	0x3e2a08b6	0.16604885
30	0x3ceadaad	0.028668726
31	0xbdb71063	-0.089386724
32	0x3dd00129	0.10156471
33	0x3c885b74	0.01664517
34	0xbd9a09cc	-0.075214
35	0xbda70f61	-0.0815723
36	0x3d93f924	0.07225254
37	0x3da1a94f	0.07893621
38	0xbe0ccdd7	-0.13750397
39	0xbd16b690	-0.0367952
40	0xbde924fa	-0.11384006
41	0x3d9ee9be	0.077594265
42	0x3dbfe718	0.093702495
43	0x3c937bcc	0.018003367
44	0xbdbcc1d0	-0.09216654
45	0x3e0aa929	0.13541092
46	0xbb83573d	-0.0040082023
47	0x3db0c263	0.08630826
48	0x3df0ebc6	0.1176372
49	0xbd99f262	-0.07516934
50	0x3c3fd79a	0.011709118
51	0x3dedd39e	0.116126284
52	0x3dcff447	0.10154014
53	0x3d966783	0.07343962
54	0x3e07b4ff	0.13252638
55	0xbdc524da	-0.096261695
56	0x3dcdf0bf	0.10055684
57	0x3da7684d	0.08174191
58	0x3cc59f21	0.02412373
59	0xbdd79efc	-0.10528371
60	0xbd5c8a19	-0.053842638
61	0xbd7687b7	-0.06018802
62	0xbdd800ad	-0.10547004
63	0x3cddb283	0.02706266
64	0x3d459228	0.04823509
65	0xbd9884ed	-0.074472286
66	0x3e048be0	0.12943983
67	0x3e1b0a60	0.15140676
68	0x3c7ecb81	0.015551449
69	0x3c9af01b	0.01891332
70	0x3d5c7476	0.053822003
71	0xbc95146d	-0.018198216
72	0x3e14a165	0.14514692
73	0x3def7c88	0.11693674
74	0x3e0ccdba	0.13750353
75	0x3dc6409e	0.096802935
76	0x3c3d0309	0.011536368
77	0x3d871f72	0.065977946
78	0x3e467463	0.19380336
79	0x3d2f56b8	0.04280731
80	0xbdabb59d	-0.08384249
81	0x3d3a29b0	0.045449913
82	0x3caffcbd	0.02148282
83	0x3e007aff	0.1254692
84	0x3d4340a0	0.047669053
85	0x3c3b10bc	0.011417564
86	0x3d74244a	0.05960492
87	0xbdd8a170	-0.10577667
88	0xbd15edb0	-0.03660363
89	0x3d83e47b	0.064400636
90	0x3dfafc41	0.12255145
91	0x3dbc4b8b	0.09194096
92	0x3cba7fbf	0.022765992
93	0xbd5523e3	-0.052036177
94	0xbde6868e	-0.11256133
95	0x3d669de6	0.056302927
96	0x3e321c9f	0.1739373
97	0x3e3a2402	0.18177798
98	0x3c91de64	0.01780624
99	0x3e0756f6	0.13216767

output.weight f4 [5, 100]
0	0xbf82cdeb	-1.0219091
1	0xbf70df7a	-0.94091
2	0x3d54853a	0.051884867
3	0xbfa73d8f	-1.3065661
4	0xbf33d4e6	-0.7024673
5	0xbdac26fb	-0.084058724
6	0xbfd83e60	-1.6894035
7	0x3f665ad8	0.89982367
8	0x3f626882	0.88440716
9	0x3dbbd9a1	0.09172369
10	0xbe489546	-0.19588193
11	0xbef0484a	-0.46930152
12	0x3f39d40f	0.725892
13	0x3f50287e	0.81311786
14	0xbf6bdaf2	-0.9213096
15	0xbeeaac09	-0.45834377
16	0xbd5e53fe	-0.05427932
17	0xbf84b31b	-1.0367159
18	0xbf97668d	-1.1828171
19	0x3f079ff1	0.52978426
20	0x3d4f3f6c	0.050597593
21	0x3f170f3c	0.5900762
22	0x3d06e5c2	0.032933958
23	0xbf1c34cf	-0.6101808
24	0xbf5bb7a9	-0.8582712
25	0xbf0f0b67	-0.55876774
26	0xbe0f17d2	-0.1397393
27	0x3f4ccd96	0.800012
28	0x3ee80ed6	0.4532382
29	0x3cf2b76e	0.029628482
30	0xbefc6726	-0.49297446
31	0x3d46987f	0.048485275
32	0x3f01de45	0.5072978
33	0xbec62aab	-0.38704428
34	0x3d80b6e7	0.06284886
35	0xbedbbac9	-0.42915943
36	0x3fa49e52	1.2860816
37	0xbf884b3e	-1.0647962
38	0xbd5e22a1	-0.054232243
39	0xbf56f4bd	-0.8396719
40	0x3aa33bd7	0.0012453747
41	0x3f0f16d8	0.5589423
42	0xbfaab0ed	-1.3335243
43	0xbf5fb294	-0.87381864
44	0xbfb04933	-1.3772339
45	0x3f821519	1.0162688
46	0x3e5396d2	0.20663002
47	0xbdcecf2a	-0.10098107
48	0xbe1e7127	-0.15472852
49	0xbca80680	-0.020510912
50	0xbf7051fc	-0.938751
51	0x3f308457	0.68951935
52	0x3ef83e09	0.4848483
53	0xbf45201f	-0.7700214
54	0x3d6b8bed	0.05750649
55	0xbc151a70	-0.0091005415
56	0xbfb6c67c	-1.4279323
57	0xbe16eaa0	-0.1473794
58	0x3f0a5780	0.54039764
59	0xbdb56e47	-0.08858924
60	0xbd909469	-0.07059557
61	0xbddc20e7	-0.10748463
62	0x3d1d18f4	0.038353875
63	0x3ea3243b	0.3186358
64	0x3f3010c9	0.6877561
65	0xbddd880d	-0.10816965
66	0xbe20d04f	-0.15704463
67	0xbd494c1c	-0.04914485
68	0xbf9e389c	-1.2361026
69	0xbfa405db	-1.2814287
70	0xbf0c09ab	-0.5470225
71	0x3f783cdd	0.9696787
72	0x3efba17e	0.49146646
73	0x3e98a0e8	0.29810262
74	0xbf42c7e1	-0.7608624
75	0x3cf913fc	0.030405037
76	0xbd86b513	-0.06577506
77	0xbf4c61d9	-0.79836804
78	0x3f526e1d	0.8219927
79	0x3dcc76a0	0.099835634
80	0xbd378082	-0.04480029
81	0xbe111c8c	-0.14171046
82	0xbf5c1263	-0.85965556
83	0x3f0e806a	0.55664694
84	0xbd18c9e7	-0.037301924
85	0xbfa29a22	-1.2703288
86	0x3dcf82fe	0.10132407
87	0x3d57124b	0.05250768
88	0x3eb3d119	0.35120466
89	0xbf67b2b0	-0.9050703
90	0xbea79bc7	-0.32736036
91	0xbf91d651	-1.1393529
92	0xbefb6476	-0.49100083
93	0x3f65602d	0.8959988
94	0xbca29fec	-0.019851647
95	0xbfaa6165	-1.3310972
96	0xbf59d066	-0.85083616
97	0xbe70b785	-0.23507507
98	0xbed33677	-0.4125249
99	0xbf3384ca	-0.70124495
100	0x3f54b602	0.8309022
101	0xbf6bb74e	-0.92076576
102	0xbcd05018	-0.025428817
103	0x3e976e9e	0.29576582
104	0xbf0608fd	-0.52357465
105	0x3d369875	0.044578988
106	0x3f5724c2	0.8404046
107	0xbf4dd7e4	-0.8040755
108	0x3f362f4f	0.7116594
109	0x3c3ed27f	0.011646866
110	0x3f6d4eae	0.9269818
111	0x3f9e0641	1.2345659
112	0x3ecb578e	0.39715236
113	0x3d9c7a81	0.07640553
114	0xbe9deb05	-0.30843368
115	0xbe0a8327	-0.13526593
116	0xbeedc8d0	-0.4644227
117	0x3f9d9f0d	1.2314163
118	0x3f4c856f	0.79891104
119	0x3f04ad28	0.51826715
120	0xbfc7bc59	-1.5604354
121	0xbf529e06	-0.82272375
122	0x3d559536	0.05214425
123	0x3f3ae223	0.7300131
124	0xbfaa9b34	-1.3328614
125	0x3f57662f	0.84140295
126	0x3e49a0ab	0.19690196
127	0xbf2ad299	-0.66727597
128	0xbfa1655e	-1.260906
129	0xbf57f50f	-0.84358305
130	0x3ec4dd3d	0.3845004
131	0xbce6052d	-0.02807864
132	0x3e26dc7f	0.1629505
133	0xbf61d172	-0.88210213
134	0xbf8af895	-1.0857111
135	0xbf1bac4b	-0.60809773
136	0xbf26e758	-0.6519675
137	0x3f5bae5d	0.8581293
138	0x3d978d3e	0.07399987
139	0x3e2cb3ea	0.16865507
140	0x3dc9966b	0.09843143
141	0x3ea6fc61	0.32614425
142	0x3f0edd10	0.55806065
143	0xbf31797b	-0.6932599
144	0x3f054dc0	0.5207176
145	0xbd00ae04	-0.031415954
146	0x3b06f06f	0.0020590087
147	0x3d202951	0.039101902
148	0x3deb1d15	0.11480156
149	0xbc5982c8	-0.01327581
150	0xbf73065d	-0.94931585
151	0x3ec81a7a	0.390827
152	0x3f5540e7	0.8330216
153	0xbf072aa0	-0.52799416
154	0x3db29978	0.08720678
155	0x3d5be06a	0.053680815
156	0x3e4a7a0e	0.19773123
157	0x3f1e0b89	0.6173635
158	0x3df4882d	0.11940036
159	0xbcb4daa8	-0.02207692
160	0x3d5761e2	0.052583583
161	0xbd8f955d	-0.07010911
162	0x3d9bf036	0.07614176
163	0xbfc344ee	-1.5255411
164	0x3e71fd66	0.2363182
165	0xbf148304	-0.58012414
166	0x3f14d81a	0.58142245
167	0xbf800e2a	-1.0004323
168	0x3ecc81bf	0.39942738
169	0xbf31cc15	-0.6945203
170	0x3f57b61b	0.84262246
171	0xbf62e76d	-0.8863438
172	0xbe6e1db5	-0.2325352
173	0xbf421876	-0.75818574
174	0xbe2f6844	-0.17129618
175	0xbfb55158	-1.4165449
176	0x3da3eb92	0.08003916
177	0x3d588631	0.05286235
178	0x3d256bce	0.040386014
179	0xbe7a1bd9	-0.24424686
180	0xbdb5d94d	-0.088793375
181	0xbe8c8743	-0.27446947
182	0xbf2cb865	-0.67468864
183	0x3ee1c86c	0.44098222
184	0x3e70f943	0.23532586
185	0xbedb886e	-0.42877525
186	0x3f2fdbcf	0.68694776
187	0x3cd71984	0.026257284
188	0xbf2ebe84	-0.68259454
189	0x3f2ea6f2	0.6822349
190	0x3ee2fc78	0.44333243
191	0xbfa70777	-1.3049153
192	0x3f08d6dc	0.5345285
193	0x3e9d6c67	0.30746767
194	0x3d81d0bd	0.06338642
195	0x3ea44844	0.32086384
196	0xbfc0184c	-1.5007415
197	0xbf3c85b3	-0.7364151
198	0xbfaa8a01	-1.3323365
199	0x3f1f9d8d	0.6234978
200	0x3f3cdf46	0.7377819
201	0xbf32d205	-0.69851714
202	0xbd4b38dd	-0.049614776
203	0x3f6aaaeb	0.9166705
204	0xbeee11fe	-0.46498102
205	0xbc431ec8	-0.011909194
206	0x3c631682	0.013860347
207	0x3f25d2d3	0.6477482
208	0xbfb0c1a9	-1.38091
209	0xbcd21eee	-0.025649514
210	0x3d208117	0.03918561
211	0xbf84dd0d	-1.0379959
212	0xbf7a47f7	-0.9776606
213	0x3ea0c75b	0.31402096
214	0xbf3d4fee	-0.7395009
215	0x3f18612a	0.5952326
216	0xbecd5d0c	-0.40110052
217	0xbf908260	-1.1289787
218	0x3f55a594	0.8345578
219	0xbe0c7c6a	-0.13719335
220	0x3ea1b183	0.31580743
221	0xbf5937c4	-0.84850717
222	0xbd9d8a6b	-0.07692417
223	0xbf17b366	-0.59258115
224	0x3f24cd0b	0.6437537
225	0xbf7fc810	-0.99914646
226	0xbda04908	-0.078264296
227	0xbe3cc34e	-0.18433878
228	0x3eb2c0eb	0.3491281
229	0x3c037fe5	0.008026098
230	0x3f04cc7e	0.5187453
231	0x3d9507f3	0.07276907
232	0xbf625903	-0.8841707
233	0xbd208480	-0.03918886
234	0x3f5d4879	0.8643871
235	0xbcf165d2	-0.029467497
236	0xbf609f1f	-0.877428
237	0x3f02c1cb	0.51076955
238	0x3d8b6ea7	0.06808215
239	0x3f59fcd9	0.8515144
240	0x3d7f41f1	0.062318746
241	0x3f0faa79	0.56119496
242	0x3f182e6a	0.5944582
243	0xbf464942	-0.7745553
244	0x3f4b2740	0.79356766
245	0xbf8be9d3	-1.0930732
246	0xbf573fa4	-0.8408148
247	0xbf3086e4	-0.68955827
248	0x3f23cd41	0.6398507
249	0xbd811274	-0.06302348
250	0x3ce7ed17	0.028311295
251	0x3dd0e74c	0.102003664
252	0xbed19202	-0.40931708
253	0x3ecd9351	0.40151456
254	0x3e74f9f7	0.23923479
255	0xbd1cc83d	-0.0382769

output.bias f4 [5]
0	0x3e24eb2c	0.16105336
1	0xbd60443a	-0.054752566
2	0xbe153385	-0.14570434
3	0x3dca6cf5	0.09884063
4	0x3de77625	0.11301831

exp_avg f4 [659, 64]
0	0x3b41bd3f	0.0029562262
1	0x3b8546b0	0.0040672645
2	0x3b5e74a5	0.0033944037
3	0xbac4ee6e	-0.0015024671
4	0x39ac0ef4	0.00032817537
5	0x3a710e24	0.00091955275
6	0xbb713930	-0.0036807768
7	0x39876063	0.0002582102
8	0x3b76e523	0.0037673197
9	0x3b0f4919	0.0021863638
10	0x3ba08514	0.0048986766
11	0xbab394cb	-0.001370096
12	0x3c83e962	0.016102497
13	0xbae2cd70	-0.0017303657
14	0xba5c7191	-0.00084092567
15	0x3bad110f	0.0052815746
16	0xbb084326	-0.0020791977
17	0xbb128f3f	-0.0022363213
18	0xbb33448d	-0.0027354092
19	0xbb0c76c3	-0.0021433092
20	0xbbc9619d	-0.0061456696
21	0x38a084f7	7.654161e-05
22	0xbc18d677	-0.009328476
23	0x398b3003	0.00026547918
24	0xbb158377	-0.0022813955
25	0x3a41da63	0.0007394908
26	0x3c8ef471	0.017450543
27	0x3c5d1dd7	0.013495884
28	0x3aea94c8	0.0017897123
29	0x392e2b15	0.00016609982
30	0x39f87a6b	0.00047393455
31	0xba9cb0b4	-0.0011954517
32	0x3a9a33bd	0.0011764687
33	0x3bea44dc	0.007149322
34	0x3a3c35e4	0.0007179661
35	0xbc54090a	-0.012941608
36	0xba2a69c6	-0.0006500747
37	0x3ca0901e	0.01959997
38	0xbaad82f2	-0.0013237877
39	0x3c1a413c	0.009414967
40	0xbd0042f2	-0.031313844
41	0x3b4010eb	0.002930696
42	0xbbc994ee	-0.006151787
43	0xbbf57089	-0.007490222
44	0xbb4b47cc	-0.0031018136
45	0x39d7f5f2	0.0004119124
46	0x3aa153f3	0.0012308344
47	0xb9fd9731	-0.00048368567
48	0x3ae7713e	0.001765765
49	0x39da2afc	0.00041612226
50	0x3b083f8c	0.002078983
51	0x3beecbbc	0.0072874706
52	0xbca176a6	-0.019709896
53	0xbb9ced4b	-0.0047890297
54	0x3b0e2d08	0.0021694321
55	0xbb3c84b0	-0.0028765611
56	0x3b5e0711	0.0033878724
57	0xbb4e3737	-0.0031466016
58	0xbb29a526	-0.002588579
59	0xba44b60a	-0.00075039326
60	0xbb2e8f00	-0.0026635528
61	0x3ac3bac6	0.0014932982
62	0x3aa1366d	0.0012299545
63	0xb9ceb52d	-0.00039426368
64	0x365b7b28	3.270523e-06
65	0x370331b6	7.819783e-06
66	0xb6c7ce85	-5.954704e-06
67	0x365fc08e	3.334167e-06
68	0xb624c7d8	-2.4554229e-06
69	0x34aaae7f	3.179193e-07
70	0xb5335fb5	-6.682197e-07
71	0x356a2737	8.722886e-07
72	0x35e1c719	1.6821751e-06
73	0x3670d359	3.5885807e-06
74	0x376f2e4d	1.425629e-05
75	0x3712722d	8.728862e-06
76	0x38094055	3.272326e-05
77	0xb5b613e9	-1.3565851e-06
78	0xb667e26d	-3.455348e-06
79	0xb61682d8	-2.2427903e-06
80	0xb6b3a8f3	-5.354284e-06
81	0xb6926b1e	-4.363609e-06
82	0xb70f6700	-8.547446e-06
83	0xb5c670bd	-1.4784961e-06
84	0xb69773f8	-4.513651e-06
85	0x36085e29	2.0320388e-06
86	0xb79dd9fa	-1.8817362e-05
87	0x3559446e	8.093838e-07
88	0xb6ea25a1	-6.978124e-06
89	0x362b8aae	2.5561708e-06
90	0x38115bb5	3.4656103e-05
91	0x378cf7f1	1.6804757e-05
92	0x368d41b3	4.209776e-06
93	0x35d9c835	1.6226028e-06
94	0x351cb321	5.8375196e-07
95	0x352330d0	6.0793263e-07
96	0x369d05e7	4.6796517e-06
97	0x3648623b	2.98595e-06
98	0xb6a814e8	-5.009224e-06
99	0xb7ea2f09	-2.7916876e-05
100	0x3702dae5	7.799569e-06
101	0x37985e28	1.8163657e-05
102	0xb6d10bcb	-6.2300583e-06
103	0x3755f46b	1.2752697e-05
104	0xb85ac385	-5.2157342e-05
105	0x36f3c9c7	7.2654543e-06
106	0xb7981630	-1.8130144e-05
107	0xb75d9d3b	-1.3209235e-05
108	0xb737c1c7	-1.0952767e-05
109	0x350c82dd	5.2344495e-07
110	0x36396405	2.7625367e-06
111	0xb4c9fba6	-3.7622266e-07
112	0x35e19dc0	1.6809718e-06
113	0x35a2672d	1.2099969e-06
114	0x36ec79d9	7.047533e-06
115	0xb5f05176	-1.7905102e-06
116	0xb7b92ee0	-2.2075546e-05
117	0xb71e3357	-9.429487e-06
118	0xb5a02b69	-1.1933563e-06
119	0xb63fa467	-2.8556913e-06
120	0x369f46eb	4.746825e-06
121	0xb710d0fa	-8.631725e-06
122	0xb6c11f78	-5.7555117e-06
123	0xb531ba5e	-6.620884e-07
124	0xb6822cc6	-3.879514e-06
125	0x3638df21	2.7548015e-06
126	0x3569a551	8.703983e-07
127	0xb605519e	-1.9866052e-06
128	0x35ddbda8	1.652098e-06
129	0x361af5b2	2.3090802e-06
130	0x3620b130	2.3944995e-06
131	0xb6f28857	-7.228034e-06
132	0x36582cf1	3.2212668e-06
133	0x36a3d5a4	4.8826496e-06
134	0xb76015ae	-1.3356488e-05
135	0xb3623f7e	-5.267747e-08
136	0xb5aebefc	-1.3019594e-06
137	0xb5c0284e	-1.4316845e-06
138	0xb62ca1af	-2.572411e-06
139	0xb6ed27ae	-7.0677697e-06
140	0x379610ff	1.7889308e-05
141	0xb6905958	-4.3019354e-06
142	0x35ac552f	1.283979e-06
143	0x35f7322a	1.8417534e-06
144	0x344b072f	1.8908462e-07
145	0xb59448b5	-1.104802e-06
146	0xb41c6527	-1.4565431e-07
147	0xb692f130	-4.379217e-06
148	0xb706af54	-8.027844e-06
149	0xb3a882ff	-7.846938e-08
150	0xb6fc3699	-7.5165412e-06
151	0xb4e00917	-4.1729865e-07
152	0xb62e2c25	-2.5953716e-06
153	0x364875cf	2.9870896e-06
154	0x36ce3ceb	6.14637e-06
155	0x374014b3	1.1448911e-05
156	0x359113f1	1.0809146e-06
157	0x35382579	6.859987e-07
158	0xb65d6c8e	-3.2994753e-06
159	0xb600e368	-1.9205854e-06
160	0xb697decb	-4.526087e-06
161	0xb6722930	-3.6084784e-06
162	0x3688c236	4.075725e-06
163	0xb6edd404	-7.0878323e-06
164	0xb64d4e21	-3.0592857e-06
165	0x378bc4a5	1.6661661e-05
166	0x3613d5ca	2.2029149e-06
167	0x370fe4e0	8.576753e-06
168	0xb7ce65fa	-2.46046e-05
169	0x358def65	1.0574992e-06
170	0xb438e9eb	-1.7221434e-07
171	0xb6d6f4ea	-6.4062087e-06
172	0x36540032	3.1590575e-06
173	0x348430b9	2.4622366e-07
174	0x35c7d475	1.4888489e-06
175	0xb5061ff1	-4.996537e-07
176	0x3569bf42	8.707758e-07
177	0xb5f0ece4	-1.7950338e-06
178	0xb4c3cd3e	-3.6470914e-07
179	0x379e9077	1.890234e-05
180	0xb692718b	-4.364357e-06
181	0x3460a424	2.092134e-07
182	0x363659b6	2.7172332e-06
183	0xb6ec68a4	-7.04553e-06
184	0x36b5bdcc	5.4163156e-06
185	0xb611e3c4	-2.173926e-06
186	0xb571cca5	-9.0077293e-07
187	0xb5ee06fa	-1.7734412e-06
188	0xb5d8279c	-1.6104782e-06
189	0x352ab434	6.3592165e-07
190	0x36658b4e	3.4204745e-06
191	0xb44ba34c	-1.8965255e-07
192	0x368286c6	3.8899916e-06
193	0x360c5e83	2.0916639e-06
194	0x381157d1	3.465248e-05
195	0xb810ba46	-3.4505756e-05
196	0x3761c4c9	1.3456863e-05
197	0x377e1637	1.5144752e-05
198	0xb84e4feb	-4.9188657e-05
199	0xb668368c	-3.4602444e-06
200	0x361d17a0	2.3408575e-06
201	0xb6535840	-3.1492818e-06
202	0xb79f838e	-1.9015537e-05
203	0xb83c79dc	-4.4936183e-05
204	0x37df2700	2.6601832e-05
205	0xb75f2dc3	-1.33024905e-05
206	0x370f83cf	8.554153e-06
207	0x37e12fc8	2.684434e-05
208	0x36cfe6f5	6.1959677e-06
209	0x352556db	6.159368e-07
210	0x37121fa5	8.709646e-06
211	0xb79b00d4	-1.8477826e-05
212	0xb80efbd6	-3.408998e-05
213	0xb6c11120	-5.753842e-06
214	0x3482a456	2.4333957e-07
215	0xb5161b93	-5.591948e-07
216	0x36125669	2.1805993e-06
217	0x371ebfa5	9.462155e-06
218	0xb690c4be	-4.3144382e-06
219	0x383a927b	4.4482276e-05
220	0xb56475cd	-8.510804e-07
221	0xb61d0e3e	-2.3403113e-06
222	0xb6f946d7	-7.429025e-06
223	0xb74ca55f	-1.2197851e-05
224	0xb7a3d18a	-1.9528688e-05
225	0xb7a5046f	-1.9671597e-05
226	0x37c1672d	2.3055438e-05
227	0x36beeb2b	5.6898184e-06
228	0xb7f150ca	-2.876706e-05
229	0x389dd68c	7.526306e-05
230	0x379ef653	1.8949771e-05
231	0x37eb5b55	2.8056713e-05
232	0xb8711d4b	-5.748616e-05
233	0xb67a2138	-3.7272239e-06
234	0x37d23414	2.5058202e-05
235	0xb7fcfc04	-3.0158095e-05
236	0x37d8c3c9	2.5840376e-05
237	0xb530b3f8	-6.5827e-07
238	0x362ef693	2.6071546e-06
239	0xb5e5d529	-1.7123867e-06
240	0x35edd1e1	1.7718959e-06
241	0xb634e91a	-2.6957773e-06
242	0xb73741f0	-1.0923002e-05
243	0x38b7aa80	8.757878e-05
244	0xb814260f	-3.5321395e-05
245	0x373cae91	1.1246318e-05
246	0x377e35f3	1.5152141e-05
247	0xb78673b0	-1.6027916e-05
248	0x3758406e	1.28896045e-05
249	0x3525212b	6.1515556e-07
250	0x356a390f	8.7254824e-07
251	0xb6d1800e	-6.243593e-06
252	0xb6d85c6c	-6.448061e-06
253	0x3583ae9f	9.811082e-07
254	0x3747dbfb	1.19125425e-05
255	0xb5aafa9c	-1.2738924e-06

exp_avg_sq f4 [659, 64]
0	0x3936909c	0.00017410744
1	0x39060d8d	0.00012784284
2	0x3b1850ec	0.0023241593
3	0x3a5b88e2	0.0008374584
4	0x396ff360	0.0002288348
5	0x3933f777	0.00017162958
6	0x3acd639f	0.0015669948
7	0x385185e4	4.995418e-05
8	0x3a3b0949	0.00071348675
9	0x38d9248f	0.00010354176
10	0x3ab01ae6	0.0013435751
11	0x3b124f4d	0.00223251
12	0x3b7110e6	0.0036783754
13	0x38efabc2	0.000114284005
14	0x38db7f83	0.00010466485
15	0x3b1ebf5d	0.0024222948
16	0x38e0be02	0.00010716544
17	0x381e963f	3.7810063e-05
18	0x39cfb181	0.00039614367
19	0x398191ff	0.00024713573
20	0x3a34f4df	0.0006902944
21	0x386f3157	5.702799e-05
22	0x3ad54bf4	0.0016273246
23	0x3833ce99	4.2869335e-05
24	0x399fe3d4	0.00030496588
25	0x3a0bee19	0.00053379085
26	0x3b2c7d78	0.0026319902
27	0x3ad47d09	0.001621158
28	0x3866185e	5.4858967e-05
29	0x385b6cb9	5.2314925e-05
30	0x39075941	0.00012907853
31	0x39269845	0.00015887718
32	0x39cefaa9	0.00039478138
33	0x3c64accc	0.013957214
34	0x3a2b993c	0.0006545966
35	0x3b15d349	0.0022861531
36	0x3accd135	0.0015626313
37	0x3b98cbba	0.004662958
38	0x39de58c6	0.0004240928
39	0x3a0e8989	0.00054373645
40	0x3bcc5498	0.0062356703
41	0x391642c4	0.00014329987
42	0x3ae764b3	0.0017653912
43	0x3b97e3e4	0.004635321
44	0x3a4e82e3	0.000787778
45	0x380d8988	3.3745106e-05
46	0x384c5355	4.8715e-05
47	0x378383e2	1.567783e-05
48	0x3912955c	0.00013979286
49	0x393adc08	0.0001782031
50	0x39822aa1	0.00024827293
51	0x3b9cc96b	0.004784753
52	0x3b7d878c	0.0038685529
53	0x3a188853	0.0005818654
54	0x39edee0e	0.00045381527
55	0x3a26aa0b	0.0006357736
56	0x393743e6	0.00017477534
57	0x39eea6f7	0.00045519296
58	0x38eb2912	0.00011213323
59	0x3760ee20	1.3406883e-05
60	0x3887154e	6.44127e-05
61	0x37e75bce	2.7580096e-05
62	0x388c93f5	6.703279e-05
63	0x396b5c36	0.00022445698
64	0x2f22d9cd	1.4811193e-10
65	0x3073c5d0	8.8683993e-10
66	0x30e1edb6	1.6438466e-09
67	0x30a42b95	1.1944957e-09
68	0x2f0326e6	1.19282e-10
69	0x302ac367	6.2123323e-10
70	0x31d2b51b	6.1323937e-09
71	0x2e1130b2	3.3012433e-11
72	0x30a8e09a	1.2287444e-09
73	0x2e551c14	4.845553e-11
74	0x30ba5923	1.3558615e-09
75	0x309c98a5	1.1393878e-09
76	0x32e77b93	2.6948134e-08
77	0x2fbb9abb	3.4125044e-10
78	0x2edc77ed	1.0025745e-10
79	0x3123af69	2.381933e-09
80	0x2efde4b2	1.15457324e-10
81	0x2f2319ec	1.4833973e-10
82	0x3085e7ae	9.742871e-10
83	0x308e54ec	1.0355996e-09
84	0x311bfefb	2.2700408e-09
85	0x2e53e2ac	4.817717e-11
86	0x313c714d	2.7422005e-09
87	0x2eb47add	8.207277e-11
88	0x308b5ef2	1.0140566e-09
89	0x31109f5e	2.1045348e-09
90	0x321892ae	8.880916e-09
91	0x3224c7c7	9.5914805e-09
92	0x2ec85beb	9.111275e-11
93	0x2eafb08a	7.989438e-11
94	0x2faa900b	3.1025169e-10
95	0x2f3977f3	1.6868267e-10
96	0x2fcf114d	3.7665374e-10
97	0x32f8c2ec	2.895964e-08
98	0x2fd93f9a	3.9517262e-10
99	0x31e7acef	6.742645e-09
100	0x308499dc	9.647994e-10
101	0x327ce7bb	1.472102e-08
102	0x2fa234df	2.9505196e-10
103	0x31a43635	4.779191e-09
104	0x336dfe16	5.5411952e-08
105	0x2ffad11a	4.562331e-10
106	0x30a5d885	1.2066869e-09
107	0x3286af54	1.5679383e-08
108	0x2fa02a85	2.9134042e-10
109	0x2e3bb5b9	4.268028e-11
110	0x2f7b5f61	2.2862202e-10
111	0x2e90221a	6.5544195e-11
112	0x2f29af0d	1.5432651e-10
113	0x2f18126b	1.3830863e-10
114	0x2f85bc9d	2.4326577e-10
115	0x325f8792	1.30111335e-08
116	0x318e3707	4.139e-09
117	0x2fc8b4b9	3.65082e-10
118	0x2fa6a4dd	3.0312367e-10
119	0x30532343	7.681146e-10
120	0x307a1cab	9.099021e-10
121	0x311164cf	2.115758e-09
122	0x2fe4c5f6	4.1613618e-10
123	0x2ef855a4	1.1292947e-10
124	0x2fce9a80	3.758096e-10
125	0x2f49ec5b	1.8364814e-10
126	0x2fc822bc	3.6404468e-10
127	0x2fcaf224	3.6915637e-10
128	0x2f42fcdf	1.7734035e-10
129	0x306b6b74	8.56452e-10
130	0x310457a2	1.9258342e-09
131	0x310fc447	2.092081e-09
132	0x2faa1370	3.093663e-10
133	0x3063341d	8.2656176e-10
134	0x3208ec50	7.969973e-09
135	0x2e32a348	4.0617537e-11
136	0x30bcfaf5	1.3750127e-09
137	0x2f40ec0c	1.7546159e-10
138	0x31398d76	2.7001454e-09
139	0x31411415	2.8096612e-09
140	0x32d9120a	2.5270328e-08
141	0x2fdd356e	4.023763e-10
142	0x2f68a4ec	2.1158869e-10
143	0x312b2e19	2.4909979e-09
144	0x2f724153	2.203298e-10
145	0x2f2ef6e7	1.5912925e-10
146	0x309a713f	1.1237161e-09
147	0x30a172a1	1.1746871e-09
148	0x3130d2f1	2.5731277e-09
149	0x2e74c727	5.565606e-11
150	0x31372851	2.6652922e-09
151	0x2eafebc9	7.9999625e-11
152	0x308780de	9.859169e-10
153	0x31149327	2.162048e-09
154	0x32340378	1.0478168e-08
155	0x321bef09	9.076538e-09
156	0x2eee2841	1.08301375e-10
157	0x2eadeadc	7.9088486e-11
158	0x2ff6d787	4.490028e-10
159	0x2f87aea5	2.468045e-10
160	0x308daae1	1.0307667e-09
161	0x33032f0d	3.0543607e-08
162	0x3066058d	8.36814e-10
163	0x31fccc53	7.3573942e-09
164	0x30e752c6	1.6830988e-09
165	0x32781e89	1.4442443e-08
166	0x30440054	7.130485e-10
167	0x319b2b04	4.515984e-09
168	0x335f6f4a	5.202245e-08
169	0x30063c1f	4.8834353e-10
170	0x3130b21e	2.5712619e-09
171	0x3281e06d	1.5119634e-08
172	0x30b01a6a	1.2813193e-09
173	0x2e39a3b4	4.2209528e-11
174	0x2f6d1c7a	2.1565141e-10
175	0x2e93b2ef	6.716571e-11
176	0x2f245b2d	1.4948105e-10
177	0x2f37dd90	1.6722468e-10
178	0x2fe8c159	4.2337936e-10
179	0x3295516a	1.7382906e-08
180	0x31a5a568	4.8209365e-09
181	0x3059ed5b	7.928144e-10
182	0x2fe0f254	4.0917547e-10
183	0x3081fe72	9.458303e-10
184	0x30721880	8.8073904e-10
185	0x310e03e5	2.0665933e-09
186	0x2ff59e0b	4.4677537e-10
187	0x2f075553	1.2308492e-10
188	0x2fc57a64	3.5921055e-10
189	0x2f47274c	1.8112906e-10
190	0x2fe85c4f	4.2266143e-10
191	0x2fc9962d	3.6668393e-10
192	0x31503331	3.0297083e-09
193	0x315bd47e	3.1989482e-09
194	0x3337d800	4.280446e-08
195	0x32dcc44b	2.5700635e-08
196	0x31f57d43	7.144679e-09
197	0x31ea792b	6.8240715e-09
198	0x3375190f	5.70663e-08
199	0x309d149e	1.1429113e-09
200	0x3249ca01	1.174567e-08
201	0x318dd733	4.1281054e-09
202	0x333a9508	4.3442043e-08
203	0x33725a3d	5.6427087e-08
204	0x33b7765d	8.543132e-08
205	0x31822c66	3.7885455e-09
206	0x31538f0b	3.0785852e-09
207	0x3320cc7a	3.7438873e-08
208	0x316125df	3.2763336e-09
209	0x308c9863	1.0229652e-09
210	0x322c7450	1.0038164e-08
211	0x31f52f6b	7.1358293e-09
212	0x329be389	1.8147846e-08
213	0x30a249ee	1.1808063e-09
214	0x331334ab	3.4274006e-08
215	0x30a5dee4	1.2068679e-09
216	0x31dfbb78	6.511467e-09
217	0x323f00b7	1.1117826e-08
218	0x33a04ea7	7.4648874e-08
219	0x332af6af	3.9805567e-08
220	0x30a41360	1.1938077e-09
221	0x30923800	1.0638814e-09
222	0x31a65c35	4.8417186e-09
223	0x3185391e	3.877303e-09
224	0x32771459	1.4381919e-08
225	0x348f74f4	2.672092e-07
226	0x32963bdc	1.748952e-08
227	0x3368e768	5.4227172e-08
228	0x33125d4c	3.4078127e-08
229	0x33cd8a3a	9.5712e-08
230	0x3250671c	1.2130638e-08
231	0x3270c26f	1.4014048e-08
232	0x3425f8b6	1.5457303e-07
233	0x3182d927	3.8081853e-09
234	0x3345ec88	4.608276e-08
235	0x33f2f4c8	1.13135286e-07
236	0x32d1dbe3	2.4430795e-08
237	0x304ad83a	7.379445e-10
238	0x3090420d	1.0496152e-09
239	0x2fb86d6a	3.3547148e-10
240	0x31225890	2.3624445e-09
241	0x31b76f6e	5.338669e-09
242	0x31e3de45	6.6318386e-09
243	0x34201f88	1.4912632e-07
244	0x33bc0f82	8.757253e-08
245	0x326ebd0a	1.3896406e-08
246	0x3211decd	8.49077e-09
247	0x32a90ce8	1.9680058e-08
248	0x319e7aa7	4.612349e-09
249	0x3237d5ea	1.070064e-08
250	0x3158dc39	3.155732e-09
251	0x30199770	5.587628e-10
252	0x310405f3	1.921191e-09
253	0x3046fd77	7.2392176e-10
254	0x31250114	2.4011273e-09
255	0x31a92de3	4.923764e-09

exp_avg f4 [100, 64]
0	0xbaad3d32	-0.001321709
1	0xbaaa1c44	-0.0012978395
2	0xb9b968a0	-0.000353639
3	0xb9db08fb	-0.00041777626
4	0x3a639210	0.0008681128
5	0x3a2aef8e	0.0006520682
6	0xb9886e4a	-0.00026022113
7	0xbb1e3b01	-0.0024144056
8	0x39b24437	0.0003400163
9	0xbab26a1a	-0.0013611943
10	0x39b999cb	0.00035400534
11	0x39c86a9e	0.0003822641
12	0x3891dd9a	6.955415e-05
13	0x3ac059c1	0.0014675186
14	0x3a9f50ac	0.0012154779
15	0xb9935b8f	-0.0002810624
16	0xbac96273	-0.0015364423
17	0xbae787c5	-0.0017664364
18	0x3a18fdd0	0.0005836161
19	0x3a76d11e	0.0009415316
20	0x3a3d0f95	0.00072121
21	0xbad7ef99	-0.0016474604
22	0xb9a79bba	-0.00031968747
23	0x3b073d25	0.002063581
24	0x3a52283e	0.0008016861
25	0xba33ba31	-0.0006856053
26	0xb93c6146	-0.00017965314
27	0x392e80f6	0.00016641975
28	0x3ac4bb8f	0.001500951
29	0x3ade7f07	0.0016975113
30	0x3a8b66bb	0.0010635474
31	0xba55f1f9	-0.0008161362
32	0xba27d6cc	-0.00064025517
33	0x381e298b	3.7708825e-05
34	0xba29b176	-0.0006473282
35	0x3990ba95	0.00027604835
36	0x3a08a0a0	0.0005211923
37	0x38607f47	5.3524298e-05
38	0x3a2a8b78	0.0006505768
39	0x39c1172b	0.0003682909
40	0xb827f475	-4.004357e-05
41	0x3a651ece	0.0008740247
42	0xb9b71121	-0.00034917242
43	0x38a1eeb8	7.721543e-05
44	0x3a0b03e8	0.0005303011
45	0x3b28aafd	0.0025736683
46	0xbad8f0a6	-0.0016551211
47	0xbad6443b	-0.0016347239
48	0xba4c16d4	-0.0007785384
49	0x3a822c1f	0.0009931362
50	0x3a9d3ed2	0.0011996871
51	0x38f19765	0.00011519975
52	0xb94964c5	-0.00019206393
53	0xb9de3c26	-0.00042387954
54	0x3a085580	0.0005200729
55	0xb9b78b56	-0.00035008293
56	0xb9feaca3	-0.0004857528
57	0x3a60ea0a	0.00085797964
58	0x3adf232c	0.0017024032
59	0x3b79c255	0.0038110216
60	0xbadc25bc	-0.0016795914
61	0xbaae21cb	-0.0013285218
62	0x3afdbcc3	0.0019358624
63	0xba20a6e0	-0.0006128382
64	0xb8f472f0	-0.000116562354
65	0xb90ad5a0	-0.00013240287
66	0xb7ef9787	-2.856158e-05
67	0xb849bc7b	-4.809767e-05
68	0x38c7fb2d	9.5358446e-05
69	0x3896042c	7.1533344e-05
70	0xb80599c6	-3.1852884e-05
71	0xb96db591	-0.0002266972
72	0x381d7f9b	3.755056e-05
73	0xb9123f0a	-0.00013947129
74	0x37b6066e	2.1699085e-05
75	0x37e69f6a	2.749237e-05
76	0x369c6ea1	4.662041e-06
77	0x3904fff1	0.00012683847
78	0x3900b79a	0.00012275428
79	0xb7b3c73c	-2.1431239e-05
80	0xb91454a0	-0.00014145905
81	0xb93045b2	-0.00016810631
82	0x38868e75	6.4161526e-05
83	0x38b970b1	8.842478e-05
84	0x38810143	6.151434e-05
85	0xb927bcbe	-0.00015996673
86	0xb8070345	-3.2189553e-05
87	0x39468dc5	0.00018935565
88	0x38a5a03d	7.89766e-05
89	0xb8a187ba	-7.702359e-05
90	0xb7d3d873	-2.5253952e-05
91	0x3733bdc2	1.0713413e-05
92	0x390dac21	0.00013510931
93	0x392c9166	0.00016457363
94	0x38c594f9	9.42144e-05
95	0xb8b315c5	-8.53944e-05
96	0xb8911c5d	-6.919422e-05
97	0x375301c1	1.2576988e-05
98	0xb848335b	-4.7731544e-05
99	0x37d2d800	2.5134534e-05
100	0x38326fda	4.2542677e-05
101	0x362ec7de	2.6044358e-06
102	0x388266a4	6.218001e-05
103	0x3810b4fe	3.4500838e-05
104	0xb5ba1525	-1.3864234e-06
105	0x38a200cf	7.7249126e-05
106	0xb7d56e7a	-2.5443023e-05
107	0x37a4cb57	1.9645011e-05
108	0x386f9411	5.7119938e-05
109	0x3985c046	0.00025510992
110	0xb92dfbfd	-0.00016592439
111	0xb928d88c	-0.00016102399
112	0xb88b7ac7	-6.6509056e-05
113	0x38ad735b	8.2707695e-05
114	0x38e35c18	0.00010841357
115	0x3776f7a3	1.47204e-05
116	0xb775a0e4	-1.4640598e-05
117	0xb82aa6ea	-4.068661e-05
118	0x38825dde	6.216367e-05
119	0xb83cc759	-4.500835e-05
120	0xb8381972	-4.3892716e-05
121	0x38bdf54e	9.057914e-05
122	0x3934dbac	0.00017247972
123	0x39bfe0d3	0.00036597866
124	0xb91e5051	-0.00015097974
125	0xb908302a	-0.00012987913
126	0x39490473	0.00019170511
127	0xb855bb66	-5.0957686e-05
128	0x8c3d22e4	-1.457053e-31
129	0x8c744ec5	-1.882078e-31
130	0x0c28d91e	1.3007586e-31
131	0x8c5384f7	-1.6294861e-31
132	0x0bb57023	6.988739e-32
133	0x0be55ae0	8.8344325e-32
134	0x8c62d6f9	-1.7475098e-31
135	0x8baae8c9	-6.5831874e-32
136	0x8c206b7a	-1.2358294e-31
137	0x8c336122	-1.3818888e-31
138	0x8b1ca091	-3.0165304e-32
139	0x8b21c91b	-3.1158767e-32
140	0x8b5c6ed1	-4.2453828e-32
141	0x8bfd6be3	-9.7614385e-32
142	0x0bec1b67	9.0945124e-32
143	0x8c441b20	-1.5107453e-31
144	0x0c300ae9	1.356183e-31
145	0x8a3e8eba	-9.175011e-33
146	0x0bb30e64	6.8969945e-32
147	0x8c88a4b0	-2.1053235e-31
148	0x8b0611c7	-2.5820835e-32
149	0x8c4f15d4	-1.5953269e-31
150	0x0bde1fce	8.5559144e-32
151	0x0be12d1d	8.6734726e-32
152	0x0c45a714	1.5226606e-31
153	0x0caa63e2	2.6252762e-31
154	0x8c9e8849	-2.4425778e-31
155	0x0b04d5ba	2.5583065e-32
156	0x8aeff929	-2.3108586e-32
157	0x0bdab6dd	8.424569e-32
158	0x8c3c5e72	-1.4511414e-31
159	0x8c822d05	-2.0056767e-31
160	0x8c937522	-2.2719433e-31
161	0x8c8ef4ff	-2.2026016e-31
162	0x0c860c47	2.0653358e-31
163	0x0c7c1b44	1.9421579e-31
164	0x8b57799c	-4.1498983e-32
165	0x0ab32653	1.7251489e-32
166	0x0c8ea691	2.1978813e-31
167	0x0b14a1a0	2.8625356e-32
168	0x0c1731a9	1.1647561e-31
169	0x8c860eda	-2.0654907e-31
170	0x0c7a1fe0	1.9268891e-31
171	0x8c689d11	-1.7919895e-31
172	0x0c90438a	2.2227362e-31
173	0x8c2216cb	-1.2486885e-31
174	0x8a9b445a	-1.4951668e-32
175	0x0c14e99f	1.1471808e-31
176	0x8b5e8822	-4.285806e-32
177	0x0b0acc4e	2.6731535e-32
178	0x8c03442c	-1.0112388e-31
179	0x0c9a5fc1	2.3785087e-31
180	0x0bf22736	9.327401e-32
181	0x0caf58f3	2.7016554e-31
182	0x8ae7936d	-2.2299946e-32
183	0x8b52456f	-4.0496765e-32
184	0x0aba277b	1.7926e-32
185	0x8b84e41e	-5.1187783e-32
186	0x0c8f33ca	2.2063808e-31
187	0x8b3658b3	-3.5118655e-32
188	0x8a280ffe	-8.0919136e-33
189	0x0a84e3a6	1.279677e-32
190	0x0c8da2bb	2.182243e-31
191	0x8ad7fe46	-2.0799394e-32
192	0xba068119	-0.00051309314
193	0xba033736	-0.00050054805
194	0xb91f66ba	-0.0001520169
195	0xb93344eb	-0.00017096444
196	0x39bec2f7	0.00036384884
197	0x398e2510	0.00027111964
198	0xb8dc4362	-0.000105029685
199	0xba7742aa	-0.0009432236
200	0x391b4ee5	0.00014811342
201	0xba0feb19	-0.00054900494
202	0x38cd9ed3	9.804745e-05
203	0x390aedcf	0.00013249296
204	0x3821b598	3.8554514e-05
205	0x3a13c1a5	0.000563646
206	0x3a0424a8	0.00050408626
207	0xb88aed65	-6.624571e-05
208	0xba1c76ed	-0.0005968649
209	0xba373f14	-0.00069902954
210	0x39712a6c	0.00022999354
211	0x39c6ccc0	0.00037918054
212	0x398799c6	0.00025863777
213	0xba291df5	-0.00064513023
214	0xb90b1198	-0.00013262627
215	0x3a540e0b	0.0008089251
216	0x399ec7d3	0.0003028499
217	0xb9a2c0b6	-0.0003104263
218	0xb8938634	-7.0345035e-05
219	0x38802547	6.110459e-05
220	0x3a17ca1d	0.000579031
221	0x3a2c5ea3	0.0006575381
222	0x39d3de0a	0.00040410488
223	0xb99f8ba9	-0.00030430898
224	0xb97db580	-0.00024195574
225	0x3841153d	4.6034565e-05
226	0xb97dee8a	-0.00024216823
227	0x38d42fdd	0.00010117863
228	0x39420206	0.00018502036
229	0x382387ce	3.8988706e-05
230	0x397939b6	0.0002376799
231	0x391ee0f9	0.00015151863
232	0xb7bcac2a	-2.2491517e-05
233	0x39c06044	0.00036692817
234	0xb90d579e	-0.00013479448
235	0x386f7ab4	5.7096317e-05
236	0x395080df	0.00019884434
237	0x3a86a892	0.0010273627
238	0xba2d620a	-0.0006614035
239	0xba31247a	-0.00067574496
240	0xb997d929	-0.0002896276
241	0x39c90924	0.00038344518
242	0x39f765ee	0.00047187455
243	0x382d3c99	4.130285e-05
244	0xb8b48c13	-8.60916e-05
245	0xb94282b2	-0.0001854997
246	0x3976cdb9	0.00023537026
247	0xb92a95ac	-0.0001626822
248	0xb94b59bf	-0.00019393022
249	0x39ba8fe3	0.00035583889
250	0x3a2d0f41	0.0006601699
251	0x3ac36d43	0.0014909882
252	0xba2b696c	-0.00065388414
253	0xba0d2cb5	-0.0005385385
254	0x3a498f95	0.0007688937
255	0xb977e331	-0.00023640391
