Sem 1/CS4248 NLP/Project/Final Submission/G02_code_data/Improved ESC-CNN/esc/conll-exp/models/model.pt (torch, 3543 bytes, 3 tensors)

linear1.weight f4 [1, 65]
00000000: 33cc 5bbf 23db 873f a9d1 cebd 0d12 e03d
00000010: 3e30 493e 5180 aa3e d609 603e 1163 7b3e
00000020: 2f30 1a3e 835f 5b3e 49bf 12be 0141 5b3e
00000030: 07ad d33d 3d9e b23e bf6d cd3d d3f9 953e
00000040: e92a 953e cc63 9d3e 71d2 8f3e 3cc3 f83d
00000050: c770 083f fc6e df3d be94 fa3e 9744 013f
00000060: a1a8 f5bb 5763 ae3e fc32 bc3e 1966 b8bc
00000070: 9db3 73bd 9e01 cb3e 2ace dd3e a522 47bd
00000080: 1fc4 a43e d861 5d3e f5f9 483e ea18 ed3d
00000090: 5b35 8e3d 0887 7b3e 5275 c13e 85d6 0b3e
000000a0: a33b 163f 82b8 bb3e 4599 f63e 7a23 fc3e
000000b0: f5a0 9c3e 1636 f53e 5730 0c3f 9274 183f
000000c0: 2c59 b13e 9649 f13e 5aef 203f bcc1 4b3e
000000d0: d320 0d3f 1d51 043f 10d8 ca3e f5d1 913d
000000e0: 0e20 4f3e c0d1 913e f126 6a3e a7d4 0f3e
000000f0: 8933 273d 1d30 d03d df68 6ebc c385 f83e
00000100: b43b 523e
-0.8585846 1.061375 -0.10098583 0.10940943 0.19647309 0.33301023 0.21878752 0.2454951
0.15057443 0.21423154 -0.14330782 0.21411516 0.10335737 0.3488635 0.10030698 0.29292163
0.291343 0.307402 0.28090242 0.12146613 0.53297085 0.109098405 0.48941606 0.50495285
-0.007496909 0.34060165 0.36757648 -0.022509621 -0.059497464 0.3964967 0.43321353 -0.048617024
0.3218088 0.21619356 0.19626601 0.115770176 0.069437705 0.24563229 0.3778482 0.13656051
0.5868475 0.36664206 0.4816381 0.49245816 0.3059155 0.47892827 0.5476126 0.5955287
0.34638345 0.47126454 0.6286522 0.19898123 0.5512821 0.5168627 0.39617968 0.07120124
0.20227072 0.2848034 0.22866417 0.14045964 0.040820632 0.10165427 -0.01455137 0.48539552
0.20530587

conv1.weight f4 [1, 1, 3]
00000000: 4d4c fbb8 f9e8 c63e 3a09 c23f
-0.00011982825 0.3884962 1.5159066

conv2.weight f4 [1, 1, 3]
00000000: fc2d 44bf 1298 98be 1743 2f3f
-0.76632667 -0.2980352 0.68461746
