CS4248 NLP/Assignments/Assignment 2/a2_files/model.pt (torch, 461895 bytes, 10 tensors)

embedding.weight f4 [659, 64]
00000000: 9861 28be 2239 93be d8b2 68bd c64c e0bc
00000010: 282e 1d3e 36cf 293e 568e a8bc 244d cdbe
00000020: 660a 9d3d 5d69 91be b16d e03d d2fb f03d
00000030: 3264 5e3c 3d88 9a3e 6cab 293e d230 bcbd
00000040: 2219 a7be 0e1f ccbe 186e ce3d 9bf3 673e
00000050: e7c6 893e e84a b2be c4bb 1bbe cf2c d63e
00000060: 6bfa 283e 0774 0dbe 5a6d 30bd 3ab7 3a3c
00000070: 45ec 903e c57a d13e e74d 613e 2675 46be
00000080: 357b cdbd 7314 fd3c 497d cabd bce2 b53c
00000090: 339d 113e ff01 60bc 497d f13d e82d a73d
000000a0: 34c0 573c c630 ec3d bfc9 debd b029 1f3d
000000b0: 7722 9c3d b85e 053f 8ad5 a0be f5cf bbbe
000000c0: 5ab1 babd f1e7 473e 2de3 783e 5510 e03c
000000d0: ad57 eebc c5b5 ebbd b10e fe3d c590 9cbd
000000e0: 4843 45bd d30e 2e3e ca86 bc3e 34c4 443f
000000f0: dc8f 98be 360c 7dbe e1c9 c43e 3ea3 dfbd
00000100: 5d86 83bf 06f1 4b3f c86e 5f3f 6d23 ad3f
00000110: a0b8 e3bf 41bf 1540 f9bf 6bbe b522 623e
00000120: d06c e6bf 5089 0bbf 6c5a d9be caa8 bfbe
00000130: 5bda aabf cff2 ae3f 2d96 7dbd b1e7 363f
00000140: a538 4b3d 6bd3 4a3f 32ea 40bf 9325 d93d
00000150: f01d a73f 4917 83be cdb9 c43f b5ce 833e
00000160: 7c26 79be 13e5 1a40 a311 0ac0 3307 17be
00000170: 619a 8bbf b6b8 6fbf d97b 7fbd 1d28 453f
00000180: cdb5 dd3f cbf5 cabf 3d73 c13d 7db9 5b3f
00000190: eae5 1dc0 d6e8 fabf 25a1 65be 7500 2abe
000001a0: b21c 2c3f 6a99 f1bc adc8 ee3e 4534 e53e
000001b0: d22c e43e 93fc 95bf 1e79 4e3f caaf 5fbf
000001c0: 0937 f1be 6415 18c0 fe95 2abe 0aa7 45be
000001d0: cb69 aa3f 4e34 113f 9459 84bf b471 753e
000001e0: c770 61bf da8b febe 7bbc 0b40 e49f 81be
000001f0: 5d2c 293e 264f 7c3f bb8a 253f f7f4 bf3f
00000200: a36d 8ebf fcbc e2be fc00 83bf 8572 493f
00000210: 636c 2b3e 5573 943e 88b9 1340 229a 8dbf
00000220: df64 72be 0567 663e 36f1 c2be 6410 89bf
00000230: cc25 bebe c787 3dbf afd5 b3be f112 273e
00000240: 58c8 8cbe 017d 183e a377 983e 3161 b33f
00000250: 9d51 4b3f 1652 fb3e a813 583d 028b 33be
00000260: 99e2 823d e995 3cbf 96de 01c0 fb7e 863d
00000270: 188b 45bf 49e4 ab3e c57e 563e 189c c83e
00000280: ff0f 923f 3595 8ebf c491 a8bc 1344 223d
00000290: df06 9d3f 1d15 33bf 4d07 1e3f 7bdb 913e
000002a0: d203 1b3f 5291 293e 11d1 5ebe f67a c73e
000002b0: b1c4 05bf 7632 a6bf f445 b83e 5523 a8bf
000002c0: 716d 75be 0598 85be 925f c6bf 90a0 0dbf
000002d0: 9471 a53f 3d63 cd3d c71c b23f ff90 8b3f
000002e0: 2e64 96bf aec6 44bf 94fa c53f 89eb d43e
000002f0: 076b 233f 1477 8fbf 3a29 bcbf 07fe 89bf
00000300: a493 bfbe 2891 c03e eaad bf3e 54e6 133e
00000310: 4dd9 293f 967e 863f 177d 21bf 64db 9a3f
00000320: f65c 0a3d 9cf2 c6bf f9d5 aabd dab4 023f
00000330: fd53 663f 56a0 ccbf fe10 353f add0 07bf
00000340: 2019 ae3f 6016 783e 66b1 713f 2690 373f
00000350: 256c b5bf eff1 873f daf5 16bf f30e b7bf
00000360: 1627 943f af34 a13f e8c2 5abf 4a47 ea3e
00000370: 4ba2 793e f013 0d3e bd77 bbbf 9465 213d
00000380: 655e 06bf dd43 e13f 218f 223f 3595 d93e
00000390: eaef b1be 291f 0b3f ea88 f2bd 8cfa b1bf
000003a0: d8b9 a4bc d1d1 31bf 5f46 97be 7352 8b3f
000003b0: ac6a 0bbf 6a84 7c3f 5041 783f 925c 00c0
000003c0: b45e afbf ee1d 02c0 acde 01be 81eb 74bf
000003d0: 95a0 e83f 6a80 d23d 90d8 6a3f 7447 15bf
000003e0: 2b86 71bd 78e0 a43f 6f15 993f 2581 10bf
000003f0: 803d 02bf 988b cd3d df51 0740 5c89 9f3e
-0.16443479 -0.28754526 -0.056811184 -0.027380358 0.15349638 0.16582951 -0.020575684 -0.40097916
0.07667999 -0.28400698 0.10958422 0.11766781 0.013573693 0.30182067 0.16569299 -0.09188999
-0.32636362 -0.39867443 0.100795925 0.22651522 0.26909563 -0.34822774 -0.15208346 0.4183106
0.16501777 -0.13813792 -0.043073036 0.011396224 0.2830526 0.40913978 0.22002374 -0.19380626
-0.100332655 0.03089354 -0.098871775 0.022202842 0.14220123 -0.013672351 0.11791474 0.08163053
0.013168383 0.1153274 -0.10878324 0.038858116 0.07623761 0.52097654 -0.31412917 -0.36682096
-0.091158584 0.19522072 0.2430541 0.027351538 -0.029094541 -0.11509279 0.12405146 -0.076448
-0.048159868 0.16997842 0.36821586 0.7686188 -0.29797256 -0.2471169 0.3843527 -0.10919808
-1.027538 0.7966465 0.87278414 1.3526436 -1.7790718 2.3397982 -0.2302245 0.22083552
-1.8001957 -0.545064 -0.424518 -0.37433463 -1.3347887 1.3667849 -0.061910797 0.71447283
0.049614567 0.7922885 -0.75357354 0.1060287 1.3056011 -0.25603703 1.5369202 0.25743642
-0.24331087 2.4202316 -2.1573265 -0.1474884 -1.0906488 -0.9364122 -0.06237397 0.77014333
1.7321106 -1.585626 0.09445808 0.8582991 -2.4671578 -1.9602306 -0.22424753 -0.16601737
0.67231286 -0.029492099 0.46637478 0.4476644 0.44565445 -1.1717705 0.8065356 -0.8737761
-0.471123 -2.3763056 -0.1665878 -0.19302002 1.3313535 0.56720436 -1.0339837 0.23969156
-0.8806271 -0.49716073 2.183379 -0.253173 0.1652083 0.9855827 0.6466481 1.4996632
-1.1127208 -0.4428481 -1.0234675 0.7869037 0.16740565 0.2899424 2.308199 -1.1062663
-0.23671292 0.22500236 -0.38074654 -1.0708127 -0.37138212 -0.74035305 -0.35123965 0.1631582
-0.274966 0.14891435 0.29778776 1.4014035 0.79421407 0.49086064 0.05275312 -0.17533496
0.06390876 -0.73666245 -2.0292106 0.06567188 -0.77165365 0.33572605 0.20946796 0.3918159
1.1411132 -1.1139284 -0.020577319 0.039615702 1.2267722 -0.6995409 0.6172989 0.28487763
0.60552704 0.16559342 -0.2175944 0.38961 -0.5225325 -1.298415 0.3599087 -1.3135782
-0.2396753 -0.26092544 -1.5497916 -0.55323124 1.2925286 0.10028694 1.3915032 1.0903624
-1.1749322 -0.7686566 1.5467095 0.4158595 0.63835186 -1.1208215 -1.4700081 -1.0780648
-0.37417328 0.37610745 0.37437373 0.14443332 0.663472 1.0507381 -0.63081497 1.2098203
0.03378006 -1.5542789 -0.08341593 0.5105721 0.89971906 -1.5986431 0.70729053 -0.5305279
1.3601418 0.24227285 0.94411314 0.7170433 -1.4173628 1.0620707 -0.5896889 -1.4301437
1.1574428 1.2594203 -0.85453653 0.45757514 0.24378316 0.13777137 -1.4645916 0.039403513
-0.52487785 1.7598835 0.6349965 0.42496648 -0.34753352 0.5434442 -0.118425205 -1.3904586
-0.020108148 -0.6946078 -0.29545876 1.0884537 -0.54459643 0.9863955 0.9697466 -2.00565
-1.3700776 -2.0330768 -0.12682599 -0.9567185 1.8174006 0.10278399 0.917367 -0.58312154
-0.058965843 1.2881002 1.1959666 -0.5644706 -0.5087509 0.10036391 2.114372 0.31159484

input.weight f4 [200, 64]
00000000: e005 20bd 2c51 803e ebd7 9fbe 4fa5 9f3d
00000010: 58ab a9bd 7466 56bd 8c7f 06bd 1c86 15bd
00000020: a103 02be 1a67 443e 02ce a93e 0a6a 76bd
00000030: 4d0e c43c f162 82bc 51d7 89bb 06ae 1cbe
00000040: bdcd 7bbe e1ec 96be d456 973c a58f 34bd
00000050: 0a83 bcbb 9437 343e 92d2 85bd 933d f3bc
00000060: 3a70 8abe 3047 3b3e d449 013e 63ba 9dbc
00000070: 3548 ef3d 16aa 383d b194 b73d 3884 dabd
00000080: 30c4 c1bd d8ce 17be cb04 3bbe daa4 dbbd
00000090: cc87 983d 05b9 abbc 9649 02be ca93 0d3e
000000a0: 892b 84be 02cd 743e 328f 97be e013 55be
000000b0: d898 a7be c31f 38bd d7b5 6d3e 9564 6cbd
000000c0: 8f4e 8b3d 7a31 9fbb 36e7 053e a4af 91bc
000000d0: 5a17 88be 14d6 45be bb2a 89be 6970 713d
000000e0: a74b 393e 856a 79be cca8 b0be 0b75 6cbd
000000f0: 2868 1dbe 85e5 1c3e 2b7b 193e 501e 05be
00000100: a319 afbd 053e dc3d db40 40bc 5c99 a63d
00000110: fb4f e3bd 6042 913d 02c5 b4bd 75ea c33d
00000120: 8982 04bd 68ee ce3c 08d9 843d 5d4a d53c
00000130: ff09 a3bd e3cb 69bd 6111 d13d 5b16 2ebc
00000140: 5891 cfbc 9bde a63d 5f3a f8bd fac3 31bd
00000150: 3f38 ea3d 0252 8dbc b393 9d3d be59 d83c
00000160: 5c29 b33c 3f03 90bd 6471 fd3d b2d5 16ba
00000170: 482f dabd 51f5 28bd 6062 cebd 2e3f 82bc
00000180: 6e96 a53d b214 81bd 2656 953c 529a a0bd
00000190: 74df 913d fb46 b73c ce63 d03d 03b3 f43d
000001a0: a51d d13d 085a c1bd bdb0 f83d 1837 97b9
000001b0: ed38 b63d f7be b83d cf4b fc3c 2d72 a13d
000001c0: f2c2 d63d f768 8e3d ceab 9a3d 2429 ab3d
000001d0: e5b2 c93d 7fd7 82bd 571b 18bd f723 32bd
000001e0: d8ff e33d 2809 dabc 6d10 a2bd 3905 cfbd
000001f0: 6fa7 80bd 539d dabd 39dd b73d 0ef9 233d
00000200: 735b 9e3d bffb 103c 98d4 7c3c 90ec 5a3c
00000210: 6ef7 9ebc 4ac7 143b 95a6 3b3d 7575 a93a
00000220: 640b 013d 6c7b dcbd 7f87 c8bd 0851 abbd
00000230: 2b76 9c3d c6a5 233d 7a9a bcbd f8da c53d
00000240: eddd 5dbb 9457 873d bbb5 d4bd afea 953d
00000250: 8925 aabc d2a3 dcbb d281 8bbd b84c 0ebd
00000260: b996 ab3d 5f97 93bc 29e6 30bd b827 32bd
00000270: 1bc1 59bd d737 c63d 750c a73d b5d0 adbd
00000280: 4064 f8bb 7d50 4c3d 302e dabd 3989 e73d
00000290: 104d 8c3d fef8 00bb b14a a23d 18f9 a33d
000002a0: ab89 e4bd dcef b03c 939d da3d 4749 29bd
000002b0: 21e4 d2bc fecd 86bc 0b04 cfbc a2be 1a3a
000002c0: f585 4abb bcf0 c0bd e070 863d b233 89bd
000002d0: 5ca4 9bbd d883 5a3d 277c f1bd da32 6abb
000002e0: 7cf9 a93d 56b1 d53d 18b8 c5bd 4413 75bd
000002f0: 30c2 cebd 00a6 713d 091c 1c3d 3798 dc3d
00000300: 2ed5 26be 2af2 2d3d fc8e b03e 074d 6cbe
00000310: 9e53 b13e 2bdb 493d d99d 6ebe c1d2 edbd
00000320: 2cca 35bd 117c 3a3c 2a7d f03b 575d 90bd
00000330: 7c10 223e 4c3d 06be a798 4a3e a051 bd3d
00000340: 7ced 363e aede 5abc 0a32 533d f602 9cbe
00000350: 8ba3 f4be 8aaa 5cbe a1ee efbc 39f2 7b3d
00000360: 8500 4b3e e105 de3d 4878 1e3e 462b 5d3e
00000370: 9612 313e 14a2 f1bd c8c8 333e 9cdd 4f3c
00000380: cfdb 10bd 0dca 20be 12a2 993d e11c 7dbd
00000390: 5cea 31be bf5d 8a3e 9575 e93d 5d97 143e
000003a0: e76c a9be 72d4 193e 5abd 5b3e a4be 93be
000003b0: 5893 003e c4a8 3b3d 8d1b 3dbe 00a5 953d
000003c0: 1b13 aa3a 0f4b a4bd cb7f af3d 466b 3b3e
000003d0: 868a c2be 7f65 c33d 4a01 0f3d e2b1 0bbd
000003e0: 46e1 87bd 0976 16be 9094 16be f643 02be
000003f0: 9560 90be 836a f23d ea2b 603d 6fc4 113b
-0.039068103 0.2506193 -0.3121942 0.07795202 -0.08284634 -0.0523438 -0.032836482 -0.03650485
-0.12696697 0.19179955 0.33164984 -0.06015972 0.0239326 -0.01591632 -0.004206576 -0.1530076
-0.24590202 -0.294776 0.01847402 -0.044082303 -0.0057529258 0.17599326 -0.06534304 -0.029692447
-0.27038747 0.18288875 0.1262582 -0.019253915 0.11683694 0.04508408 0.089639075 -0.1066975
-0.09461248 -0.14824998 -0.18263547 -0.10724802 0.07447776 -0.020962248 -0.12723383 0.13825908
-0.25814465 0.2390633 -0.29601437 -0.20808363 -0.32733798 -0.044952165 0.23213898 -0.05771311
0.06802093 -0.004858193 0.13076481 -0.017783947 -0.26580316 -0.19319946 -0.26790413 0.058945093
0.18095265 -0.2435704 -0.34503782 -0.05772881 -0.15371764 0.1532193 0.14988391 -0.12999845
-0.08549812 0.10754017 -0.011734213 0.0813472 -0.110992394 0.07092738 -0.08826639 0.095662035
-0.03235105 0.025260165 0.06486708 0.026036436 -0.07960891 -0.057079207 0.10208393 -0.010625447
-0.02533786 0.081479274 -0.121205084 -0.04339979 0.11436509 -0.017251018 0.07694187 0.02640998
0.021870308 -0.07031869 0.12375143 -0.0005753889 -0.106535494 -0.041249577 -0.10077357 -0.015899267
0.08085333 -0.063027754 0.018229555 -0.07841934 0.071226984 0.022372713 0.10175286 0.11948206
0.10210732 -0.09441 0.12143085 -0.00028842012 0.088975765 0.09020799 0.030797867 0.078831054
0.104864016 0.06953614 0.075523004 0.08357456 0.098485745 -0.06388759 -0.03713545 -0.04349133
0.11132783 -0.026615694 -0.07913289 -0.10108418 -0.062819354 -0.106745385 0.08977742 0.04003244
0.07732286 0.008849083 0.015431546 0.013362065 -0.019405093 0.0022701793 0.045813162 0.0012928682
0.031505004 -0.10765728 -0.09791469 -0.08365065 0.07639726 0.039953016 -0.092091516 0.096609056
-0.0033854202 0.06608501 -0.10386225 0.07320153 -0.020769851 -0.006733396 -0.06811871 -0.034741133
0.083783574 -0.018016515 -0.043188248 -0.04349491 -0.053162675 0.09678619 0.08156673 -0.08487073
-0.00758031 0.049881447 -0.10653341 0.1130547 0.06850636 -0.001967966 0.079244025 0.08006495
-0.111590706 0.021598749 0.10674586 -0.04132965 -0.025743546 -0.016455647 -0.025270483 0.00059030403
-0.0030902599 -0.094209164 0.06564498 -0.06699313 -0.075997084 0.053348392 -0.11791258 -0.0035735876
0.082995385 0.10434215 -0.09654254 -0.059832826 -0.10095632 0.0589962 0.038112674 0.1077122
-0.16292259 0.042467274 0.34484088 -0.23076259 0.34634107 0.04928128 -0.23302402 -0.11612464
-0.04438226 0.011382119 0.0073391395 -0.07049053 0.15826601 -0.1310932 0.19784795 0.09244084
0.1786403 -0.013358755 0.051561393 -0.3047101 -0.47781023 -0.2154943 -0.029288592 0.0615103
0.19824417 0.10840965 0.15475571 0.21598539 0.17292246 -0.11798492 0.1755706 0.012687113
-0.035365876 -0.15702076 0.075016156 -0.06179512 -0.17374557 0.27024648 0.1139938 0.14510866
-0.33090898 0.15022448 0.2145895 -0.28856385 0.12556207 0.045815244 -0.18467541 0.07306862
0.0012975665 -0.08022129 0.085692964 0.1830264 -0.3799631 0.09540843 0.03491334 -0.03410519
-0.066347644 -0.14693464 -0.1470511 -0.12721238 -0.28198686 0.11836722 0.05472938 0.0022242328

input.bias f4 [200]
00000000: 525c 643e b920 d6bc 96a9 a3bc ef73 033e
00000010: 8f14 b9bc 00f4 873e b994 b1bd e88d 053e
00000020: 0bd5 e6bd 4c39 87bd 88e0 e5bd 3e2a c53d
00000030: ea58 d83b b26e 833e 4cc3 d73d 4f65 a13c
00000040: a906 a83e bcc9 ccbd b349 9cbe a9af ec3d
00000050: 0bb5 eb3c e63d 083e 016b c5bd f45a 2dbe
00000060: f3b5 96bd 9235 dd3d ce33 5b3e fe20 87bd
00000070: 5e56 24bb cd5d 99bc bdf7 743d cdfb 41bd
00000080: 0b56 953d 54e3 7fbe 006b ef3c 058e 933d
00000090: de62 2bbd 6d1a 583d 7bd2 f5bd 6da2 8a3d
000000a0: 6694 d4bd f586 da3d 8a91 353c ee31 ecbd
000000b0: fd35 343d a78b b4bb 3301 0dbe c0bd 843d
000000c0: 5d8e 63be a4d9 a2bd de05 853e bb25 d6bd
000000d0: 9e06 243e 9f6d 1d3e 0c98 14bc 8459 e8bc
000000e0: ef6b 83bd c810 a6be 331c 3b3e 9ec8 2a3e
000000f0: 3de2 65bd 0ebe 473d 25d0 cb3c 7a8a 573d
00000100: 18cd 6e3e 7cb8 fbbd 6cdb af3d 8097 78bd
00000110: b540 193e 0321 1c3e 75e9 923e 9e96 a03d
00000120: 9301 4d3d a2a4 973e e4fe 1c3e 7007 59bd
00000130: 7e45 8d3d e813 8a3e 348a 23bd 8f96 acbb
00000140: 95f9 333e 9a5d 603e cd3b 623d f3d1 4d3c
00000150: 9efa ec3d 1b2d 283e c8fe 53be b2f7 c23d
00000160: 803d 1f3e 9807 6d3d e544 503e 15f7 a43e
00000170: bc76 7abd f6a5 0c3d 7622 023e aaa0 a53d
00000180: b63b ff3b 1539 b73e de2f 8d3e 14cb 693d
00000190: d17c a139 1d16 6c3c 2f39 853c bbb6 7cbd
000001a0: ebcf 113e 0260 7f3e daf8 843d 7033 063d
000001b0: fc2d 663e 7ce4 8f3e 0e68 5ebc 98f2 edbd
000001c0: 1e27 8bbc ad09 aebd 2e7a 3c3e fcc1 903d
000001d0: 8844 9abc 3fcc 313d 8bfc 193e 8c3d 1b3e
000001e0: a8a6 fb3d 9c2d 2ebd caf1 43bd 34e8 953e
000001f0: 7db6 ca3d 4099 91be bf21 9f3e 3f6f efbb
00000200: d180 dd3e 7040 e0bd 0ef7 c63d 34d5 a63e
00000210: ff9f e23d af8d 1d3e 2c23 033d fd17 b93d
00000220: bc73 afbd e54b d7bd dbf4 533e 34a8 52bd
00000230: 768b 3e3e efe4 acbe 5189 bebd 4a1b 823e
00000240: 1215 5a3e 8eb7 82bd 9a50 5f3d 3f7c 353d
00000250: f212 173e 43e2 983c 0bde c9bd 83d2 013e
00000260: 19e3 403e 5957 243c 6994 483e 334e 1c3e
00000270: e659 84bd 4304 01bc 3419 21bd 275f 4ebd
00000280: fb48 133e 6321 93bd a953 d33d b5fe 953c
00000290: d458 683b 9cd3 97bd 5c08 2abe 61d7 b33d
000002a0: 19b0 e93d 291d d03e b755 04bd 746f 8d3e
000002b0: bd7c cfbd ff60 a13e 81ed 243e c676 ddbd
000002c0: 62b1 503c 9ec6 423d 2cab d6bd c522 423e
000002d0: 46b5 acbb c674 823e 7d9c 173e 25bf 2c3e
000002e0: e4e0 533e 63c7 e43d 2520 cf3e 6978 863d
000002f0: ef5b fbbd 8cbd f3bd 26ab 2cbe b58e ab3e
00000300: 4c65 4a3e 8780 dd3d 1dab 36bd 977b 483d
00000310: 6b1d fe3d 06a2 313e bde6 cc3e 2150 f5bd
0.22300842 -0.02613865 -0.019978326 0.12837194 -0.02259281 0.26553345 -0.08670945 0.13042414
-0.112711035 -0.066027254 -0.112244666 0.09627198 0.0066023963 0.2567039 0.10535297 0.019701628
0.3281758 -0.09999415 -0.30524978 0.11556942 0.028772851 0.13304862 -0.0963955 -0.16929227
-0.07358923 0.10801233 0.2140648 -0.0659809 -0.0025075893 -0.018721486 0.059806574 -0.047359277
0.07291802 -0.24989063 0.029225826 0.072048225 -0.041842334 0.052759577 -0.120030366 0.067692615
-0.10379867 0.10670272 0.0110820625 -0.11532961 0.0439968 -0.005509812 -0.13769989 0.064815044
-0.22222276 -0.07951668 0.2598104 -0.10456415 0.1601815 0.15373848 -0.009069454 -0.028362997
-0.06417071 -0.32434678 0.18272476 0.16678092 -0.05612396 0.048765235 0.024879524 0.052622296
0.23320425 -0.12291047 0.08586773 -0.060691357 0.1496609 0.15246968 0.2869374 0.07841228
0.05005033 0.29617792 0.15331608 -0.05298561 0.0689802 0.26968312 -0.039926723 -0.0052669714
0.17575677 0.21910706 0.05523281 0.012562263 0.11571239 0.16423456 -0.2070266 0.095199004
0.15550804 0.05786857 0.20338781 0.3221976 -0.06114839 0.03433796 0.12708458 0.08087285
0.0077891005 0.35785738 0.27575582 0.057078436 0.00030801308 0.014409569 0.016262619 -0.061697703
0.1423947 0.24938968 0.06492777 0.0327639 0.22478479 0.28104007 -0.013574613 -0.11618537
-0.016986426 -0.08497939 0.18405983 0.070682496 -0.018831506 0.043407675 0.15037744 0.15160197
0.122876465 -0.042523965 -0.04783801 0.2927872 0.09898088 -0.28437233 0.31080434 -0.0073069627
0.43262342 -0.109497905 0.09715091 0.32584536 0.11065673 0.15386079 0.032015964 0.090377785
-0.085669965 -0.105125226 0.20698874 -0.051429942 0.18607888 -0.33768412 -0.09303535 0.25411445
0.212971 -0.063826665 0.054520227 0.044307943 0.14753321 0.018662577 -0.098568045 0.1267796
0.18836631 0.010030591 0.19587864 0.15264206 -0.06462459 -0.007874551 -0.039330676 -0.050383713
0.14383309 -0.071841024 0.10318691 0.01830993 0.0035453336 -0.07413408 -0.16604751 0.08781315
0.11410541 0.40647247 -0.032308307 0.27624094 -0.10131214 0.31519315 0.16106226 -0.1081367
0.012737604 0.047552697 -0.10481867 0.18958576 -0.005270633 0.25479716 0.1480579 0.16869791
0.20691258 0.111708425 0.40454212 0.06565935 -0.12273394 -0.119013876 -0.16862163 0.33507314
0.19765204 0.1081553 -0.04459678 0.04894599 0.12407955 0.17346963 0.4001979 -0.11978174

output.weight f4 [5, 200]
00000000: 01ca aebe f615 073d 0181 65bd d4cc 1cbf
00000010: 33bb 223d f613 123f c0f7 cdbc a524 093f
00000020: d5a5 933e df57 07bd 6e8e 883e 197e cebd
00000030: 397a babc 24d5 a43f 175a 7bbf f03f afbe
00000040: 755d 3a3f a411 f83c 09ce 87be ec06 fa3d
00000050: 7508 efbc 68c6 0d3f ad74 963c 8081 14bf
00000060: cf74 463f 0ed6 b83c 6df1 c4bc d335 c03b
00000070: d13d 85bf 9fcf b23e 409f 12bf 0d80 65bd
00000080: 55f4 933d 9a05 54bf 8e2f 05ba 0c54 d7be
00000090: 3756 fbbc 1589 633d a664 cb3e 9daa 093f
000000a0: ea51 73bd f95e f33c de24 f8bc 121a 813d
000000b0: d09d 63bf dc75 86bd 0c05 b0be 05d1 0b3f
000000c0: ac5c 3dbf b5df e1bd 95f6 b2be f4f8 b5bc
000000d0: 42aa de3e 1dd8 333f 195c 26be 278b 6b3d
000000e0: 4429 82bc 546d d4be f676 b73e 3515 5dbe
000000f0: ac31 863b c5a4 063d 0b47 86bd da2c 443f
00000100: c11a 053f edc0 dd3e aeae 063d 0720 62bc
00000110: 5751 d4be fc09 2bbf b5bf 8f3f a81a 5e3e
00000120: 8395 ac3e 6cc1 803e abc7 9e3e 211f 913d
00000130: f698 62bb 385b 893e 804c 0abd f3f6 ad3e
00000140: 42d1 983e 0752 eebc 453e 023d a592 14bc
00000150: 3492 95be 9da9 d1be baf3 84bd 3289 a5bb
00000160: be93 a53e d8e9 743e edb2 243f 2679 46bf
00000170: 24c7 7a3d 5b44 f5bd 5650 843d a734 b33e
00000180: 89ed d23d a9fb d9be 7d10 bebd d15b 2c3e
00000190: 7177 11bf 8d69 3abe 1d6d 0bbf e143 923d
000001a0: 8623 3dbf f541 853e a5c5 06bf 9993 08be
000001b0: 5c7e 43be 06ee ed3e aa84 b43c cff7 f6be
000001c0: 0283 40bd de11 6d3b 4913 83bc ecfc 0fbf
000001d0: 86e1 d1be 7d66 6dbd e905 fdbe 61ed c1be
000001e0: 1116 f9be c145 65bb 333d 423d aa18 9b3f
000001f0: 2618 893e 590e 62bf 7a95 e3be 3df8 76be
00000200: 7aab 30be 43f7 553f caa6 bb3f e4ed 263f
00000210: e9e5 86be 1741 f33b 373a 86be 04d8 f7bd
00000220: 10b9 4bbe 1a0b 7ebd 6918 45bc b20b e7be
00000230: 7ba4 b93e 5cb0 5dbf 9382 9cbf 484c d6be
00000240: 0376 57bf 86ba d7bd e26d 46bf 1977 553f
00000250: d5d0 8f3f 0b48 15bd cc9c 7ebc fcc2 b03d
00000260: f93d ae3e 1a7d 9b3c 46bd 49be 9cf2 14bd
00000270: 002b 99bb 4929 d63b 34ab 053e cd82 94bd
00000280: 7138 483f 7cfb 7d3d ff87 bbbe f5e3 853c
00000290: 5fb1 8fbd a49c 5d3d 362b 68bf 8920 65be
000002a0: f754 3dbd 7093 303d 0799 29bf 590c 133e
000002b0: c96c 83bf b917 143f 92b4 673e 2d27 40bf
000002c0: e68f c2bc ca58 bfbe 6c6a 423d c5f1 b8be
000002d0: 9573 783d f7f0 ef3e cfb0 d3bd 1738 443f
000002e0: 0198 b3be fbe6 7e3d a9c2 e83e 045e 44bf
000002f0: 6aa8 acbc a0e5 7cbd 9e7b a9bd 85ca ec3e
00000300: b92c da3c 2278 eb3e 1a57 2fbd 9779 9a3d
00000310: 742d 7fbf 03f3 283f 5ad9 af3e aa47 5bbf
00000320: 38ca 9f3e db4e 443c dc53 2cbd f64d d6be
00000330: 3eaa 2f3c 6535 65be e668 603d 0e3c 8fbf
00000340: fc34 13bf 5aaa 3fba b572 043e e55b 013e
00000350: a43e 01bf 5925 063f 87ec 193f c9f6 473e
00000360: 6e52 433f 462f 52bd 67ad a33e 8af5 8cbd
00000370: 7923 a8be 26bf 05bf eb05 b53c aefc 383f
00000380: 6604 ddbe 056b 5a3d 64aa 7f3e e655 9fb8
00000390: d059 d3be 30c7 113d c4d4 63bf ef87 793d
000003a0: 034b b7be 2f33 fbbe 4182 25bd a81b 23bf
000003b0: 6a5e 43bd 3c37 c33b 4ff4 88bc 67e5 2fbe
000003c0: 4779 803d f8cc 05bf faf3 3c3f 6464 3abd
000003d0: 2b22 163e 8d43 2bbc a8c7 f1bc 565c e4bd
000003e0: e40a 43bf 7576 1b3e d13f a1bf bc1b 9ab9
000003f0: 7e71 473f 9663 5c3f 4b47 993e 1732 e93b
-0.34138492 0.032979928 -0.05603123 -0.6125004 0.03972931 0.5706171 -0.02514255 0.5357154
0.28837457 -0.033042785 0.26671165 -0.10082645 -0.022763358 1.2877545 -0.9818434 -0.34228468
0.72798854 0.03028185 -0.2652438 0.122083515 -0.029178837 0.5538087 0.018366182 -0.580101
0.77521986 0.022563007 -0.024040902 0.0058657913 -1.040949 0.34924027 -0.57274246 -0.056030322
0.07224337 -0.8282105 -0.00050806336 -0.4205631 -0.030680759 0.055550653 0.39725226 0.5377596
-0.05940429 0.029708372 -0.030291017 0.06303801 -0.8891268 -0.06565449 -0.3437885 0.54615813
-0.7396953 -0.11028997 -0.34953752 -0.022213437 0.4348927 0.7025164 -0.1624607 0.057505753
-0.015888818 -0.4148966 0.35832947 -0.21590121 0.004095277 0.03287198 -0.06556519 0.7663094
0.5199395 0.43311253 0.03288143 -0.013801581 -0.41468307 -0.6681211 1.1230379 0.21689856
0.33707818 0.2514757 0.3101171 0.070860155 -0.0034576035 0.26827407 -0.033764362 0.3397747
0.2984715 -0.029091848 0.031797666 -0.009068166 -0.29213107 -0.40949717 -0.064918 -0.0050517553
0.3233928 0.2391733 0.6433552 -0.7752861 0.06122507 -0.119759284 0.06460635 0.35001108
0.102992125 -0.42574814 -0.09280489 0.168319 -0.5682288 -0.18204327 -0.5446337 0.07141853
-0.7388233 0.26026884 -0.5264533 -0.13337554 -0.19091171 0.4647066 0.022035915 -0.48235938
-0.04699994 0.003617398 -0.016000407 -0.56245303 -0.40992373 -0.05795907 -0.49418572 -0.37876418
-0.48649648 -0.0034984204 0.047421645 1.2116902 0.26776236 -0.8830314 -0.4444998 -0.24118133
-0.17252913 0.83580416 1.4660275 0.6520674 -0.26347283 0.007423531 -0.2621629 -0.121017486
-0.19894814 -0.062022306 -0.012029746 -0.4512611 0.362583 -0.8659723 -1.2227348 -0.41855073
-0.84164447 -0.105336234 -0.7751142 0.83384854 1.1235605 -0.03644566 -0.015540313 0.0863094
0.34031656 0.018980552 -0.19701108 -0.036364183 -0.0046743155 0.0065356833 0.1305359 -0.07251511
0.7821112 0.062007412 -0.36627194 0.01634405 -0.07016253 0.054104462 -0.90690935 -0.22375692
-0.046223607 0.043109357 -0.66249126 0.14360179 -1.0267574 0.578487 0.22627476 -0.7505978
-0.023750257 -0.37372428 0.047464773 -0.36121956 0.060657103 0.4686353 -0.10336458 0.76648086
-0.35076907 0.062232 0.45461014 -0.76705956 -0.0210764 -0.061742425 -0.08275531 0.4624826
0.026632654 0.45990092 -0.042807676 0.07542723 -0.9967873 0.65995806 0.34345514 -0.85656226
0.31208968 0.011981691 -0.042072162 -0.41856354 0.010721741 -0.2238365 0.05478754 -1.1190202
-0.5750272 -0.0007311456 0.12934382 0.12632711 -0.50486207 0.5240074 0.6012654 0.19527735
0.7629765 -0.051314615 0.31968233 -0.0688277 -0.32839563 -0.52244794 0.022097548 0.7226056
-0.43167418 0.053324718 0.24967343 -7.597711e-05 -0.4127946 0.03559035 -0.8899653 0.060920652
-0.35799417 -0.49062487 -0.040407423 -0.63714075 -0.047697462 0.005957512 -0.016718058 -0.17177354
0.06273132 -0.5226588 0.7380978 -0.045505896 0.14661472 -0.010453117 -0.029514149 -0.11150424
-0.7618849 0.15181907 -1.25976 -0.00029393833 0.7790755 0.86089456 0.29937205 0.007116567

output.bias f4 [5]
00000000: 697d ea3e ac2b bdbd cd30 17bf 9969 d93d
00000010: 0276 babd
0.45798805 -0.092368454 -0.5905884 0.10615844 -0.091045395

momentum_buffer f4 [659, 64]
00000000: 1b26 bdbf 864e 893e a027 dbbf 9471 7d3e
00000010: 9c57 6fbf fe7e 55be dff4 76be 6bed 2abf
00000020: 1d81 15bf 3c3d c03c c6d1 593f 1546 833e
00000030: 5519 aa3e a090 8f3a a54c b3be 5143 4cbf
00000040: 18a3 61be 86eb 37bf 9e7e 50be 0bf8 0fbe
00000050: 79a3 1e3f 1663 833f dca3 dd3d 5eef 4ebe
00000060: f561 94bf 2772 c83f 3924 61bc 727c 8fbe
00000070: 7a05 dd3e 80a8 253f a22e 78be 8bc6 323d
00000080: 6565 c2be 8f6d 79bf 0f50 30bf 4b6d 683c
00000090: a337 843f 82e5 cebe 6056 10be 2e37 94be
000000a0: da9c b3be f426 313c 1585 e1be 3f99 3cbf
000000b0: 3ad5 0ebf f9b4 09bf 001f 873f 57c3 f6ba
000000c0: b928 a6be 9641 183e 18c4 fd3e 640a 7c3d
000000d0: 7412 da3e c201 153e ac34 43bf a275 7b3e
000000e0: 2220 c9bc bdea 9dbf fce7 22bf dad8 82be
000000f0: 7e4b f0be 2c11 4fbe 4c86 983e 0500 a3bd
00000100: 93d9 25b9 5b28 a739 5b3b 30b9 30b0 69b9
00000110: 99f4 8e39 fcf9 7039 054a 3bba 1d74 97b9
00000120: f626 0d38 246f 5eb7 2050 3239 6a78 80b9
00000130: c57c 3d3a 993d e2b9 4e70 59b9 71b0 dfb8
00000140: fa84 82b9 7ee8 0cba bdaf 27b9 3c6d 0aba
00000150: 09ea 59ba a281 0239 a67b 21ba 306c 3239
00000160: 01c2 9fb9 a266 213a cec0 f339 1496 1339
00000170: 8c29 d039 5089 3039 26d7 a438 fa45 b8b8
00000180: ecbf d4b9 04d5 5eb9 212c f938 6be5 00ba
00000190: 227e 4938 faa8 c739 29c0 be38 2641 413a
000001a0: 16fb 84ba 6551 7539 26a8 2fb9 0007 14ba
000001b0: 52a4 60b8 6d10 5b39 ffc5 b439 6c5d 42b8
000001c0: 8b0f 6e39 b91d 7437 440f df39 1cf1 de39
000001d0: d429 1bba b62c 77b8 4638 dab8 7b04 e1b9
000001e0: b605 9b39 6c19 2cba e2e5 34ba bf6f cab9
000001f0: 3069 cdb9 d0a2 ac39 8adc 283a db75 87b9
00000200: 4ffc 943a 2038 a2b8 f25c 3d3a 6ada 68b9
00000210: 4fa1 403a bca0 cd39 27ac 0fb9 4bf3 013a
00000220: 7e36 c839 c1cd 8bb9 aa46 11ba 1af7 2bb9
00000230: 77a2 5639 282d b6b9 1b09 6db7 6344 e639
00000240: 2462 f1b7 12f5 4039 9c24 4438 e8ef 9f38
00000250: 465e 06ba ff1d d5b9 9ab8 27ba 3661 0bb6
00000260: 35ae c639 b841 37ba 8e54 6839 1fbb a238
00000270: 941a 15b9 5024 adb8 42f6 5837 86f5 bcb7
00000280: 5e9a 8538 71ff 4a3a 97a4 173a e456 bcb9
00000290: 186b fab9 3928 9039 4fae 7538 92a7 be39
000002a0: 4e0d 06b9 5b37 0337 b014 d6b5 3c32 ef39
000002b0: 46d7 7639 7fde 173a 36ff c2b9 e655 47b9
000002c0: e687 c739 52ce 6fb9 ef23 2fb9 cb9f b738
000002d0: 1023 33b9 1cba 91b9 023e 103a 31bd 07ba
000002e0: f491 b339 05b5 273a 4e84 4739 60e9 4137
000002f0: 36c0 ac39 f215 fe38 a99d 8839 e236 84b8
00000300: 201c 25bb e280 373b 3b58 d4bb 1f36 eb3b
00000310: ce5e 39bc 60ea 31bb ecfc 013c b718 b8ba
00000320: 6877 4fbb 63be bb3b 0410 1d3c 1fd7 623b
00000330: b821 7bbb 6eaa b33b 0900 57bb 37ae 07bb
00000340: b1c5 89bb 3485 49bb 8032 0eba 50ee 973b
00000350: 6412 0a3c 5df4 483b 1287 e7b9 e498 39b9
00000360: 1a7f f8bb e29d 283b 227a 063b 7cc8 28ba
00000370: 5ed9 27ba f1f1 a039 cd48 9f3b 88a0 b6ba
00000380: 3668 6f3b fc2c 04bb 69b6 00bc 4019 f2ba
00000390: ddc3 f03b b851 2abb a25b a9bb 9883 23bb
000003a0: 0c26 8cb9 d9bd e03a 2fca e0bb 79e0 05bb
000003b0: 817e 11bc e343 4dbb a67d ce3b 908e fe3a
000003c0: f628 b7ba 8e3c 353b 5088 753b 0896 53bb
000003d0: 2fcd 9cba 88a1 a7bb 4139 cabb 8098 e83b
000003e0: 3ff9 d13a ce20 89bb e531 afbb db6d 623a
000003f0: ee0c 93bb 65ef 84ba de92 76bb b776 ad3a
-1.4777254 0.2681772 -1.7121468 0.24750358 -0.93493056 -0.20849225 -0.24116848 -0.6676852
-0.58400136 0.023466699 0.85085714 0.25639406 0.33222452 0.0010953136 -0.35019413 -0.79790217
-0.22034872 -0.71843755 -0.203608 -0.14059465 0.6196819 1.0264614 0.10822269 -0.20208499
-1.1592394 1.5659837 -0.013741546 -0.28024632 0.4316824 0.64710236 -0.24236539 0.043646377
-0.37967983 -0.974328 -0.6887216 0.014186214 1.0329479 -0.40409476 -0.1409545 -0.2894835
-0.35080606 0.01081251 -0.44046846 -0.73671335 -0.5579411 -0.5379177 1.0556335 -0.0018826526
-0.32452944 0.14868769 0.4956367 0.061533347 0.42592204 0.14551452 -0.76252246 0.24556592
-0.024551455 -1.2337261 -0.6363523 -0.2555607 -0.46932596 -0.20221394 0.2978996 -0.07958988
-0.00015816679 0.0003188279 -0.0001680678 -0.00022286247 0.0002726659 0.0002298131 -0.00071445137 -0.00028887475
3.3653305e-05 -1.3258108e-05 0.00017005252 -0.00024503778 0.000722837 -0.00043151973 -0.0002073657 -0.000106663334
-0.00024894607 -0.000537522 -0.00015991829 -0.00052805594 -0.0008312767 0.00012446058 -0.00061600877 0.00017015706
-0.00030471387 0.0006156956 0.00046492222 0.00014074921 0.00039703806 0.00016835821 7.860204e-05 -8.786838e-05
-0.00040578784 -0.00021250924 0.00011881465 -0.00049169984 4.8039605e-05 0.00038082135 9.0956986e-05 0.00073720736
-0.001014563 0.00023395343 -0.0001675194 -0.0005646795 -5.3558797e-05 0.00020891587 0.00034479794 -4.634021e-05
0.00022703239 1.4550454e-05 0.00042545248 0.0004252278 -0.00059190136 -5.893103e-05 -0.00010405532 -0.00042918682
0.0002956816 -0.00065650675 -0.000690071 -0.000386117 -0.00039179018 0.000329277 0.0006441554 -0.00025837016
0.0011366698 -7.735216e-05 0.0007223628 -0.0002220661 0.00073482556 0.00039220403 -0.00013701674 0.0004957213
0.00038187572 -0.00026665445 -0.0005541841 -0.00016399883 0.00020469153 -0.0003474739 -1.4128421e-05 0.0004391997
-2.8775139e-05 0.00018401843 4.6764137e-05 7.626397e-05 -0.0005125742 -0.00040648875 -0.0006398052 -2.0769198e-06
0.00037895297 -0.0006990689 0.00022156743 7.759616e-05 -0.00014219648 -8.2560466e-05 1.293194e-05 -2.2525677e-05
6.370687e-05 0.0007743752 0.00057847187 -0.00035922893 -0.00047763507 0.00027495789 5.857489e-05 0.00036364474
-0.00012784192 7.821097e-06 -1.5950263e-06 0.0004562306 0.00023540584 0.00057933474 -0.0003719271 -0.00019010119
0.0003805749 -0.00022869676 -0.00016702687 8.755884e-05 -0.00017083832 -0.00027795217 0.0005502404 -0.0005178033
0.00034250284 0.00063975184 0.00019027406 1.1558033e-05 0.00032949605 0.000121157515 0.00026057407 -6.304473e-05
-0.0025193766 0.0028000404 -0.0064802445 0.0071780826 -0.011314107 -0.0027147755 0.007933836 -0.0014045452
-0.0031656865 0.005729483 0.009586338 0.0034613085 -0.0038319658 0.0054829633 -0.0032806417 -0.0020703205
-0.004204475 -0.0030749561 -0.0005424395 0.0046365634 0.008427236 0.003066323 -0.0004416039 -0.00017699931
-0.007583511 0.002572887 0.0020519574 -0.0006438566 -0.00064029347 0.00030697839 0.0048609735 -0.001393334
0.003653062 -0.0020168414 -0.00785599 -0.001847066 0.0073475675 -0.002598865 -0.005168394 -0.0024950262
-0.00026731228 0.0017146423 -0.0068600397 -0.0020427986 -0.008880259 -0.0031320981 0.0063015996 0.0019421149
-0.0013973999 0.0027654502 0.0037465282 -0.003228547 -0.0011963005 -0.0051156916 -0.006171376 0.0070982575
0.0016019716 -0.004184819 -0.005346524 0.00086375856 -0.0044876253 -0.0010142146 -0.003762416 0.0013234232

momentum_buffer f4 [200, 64]
00000000: f36c 80bc 3b1c b1bc d50f edbb 22b4 a7bb
00000010: 2cdd 673c daa9 6c3c 38e4 bdbb bf42 09bd
00000020: cc95 b53b 7792 bfbc 729f b73b 1446 dc3b
00000030: bf02 503b a440 b23c 42fa 8f3c ac18 d2bb
00000040: 2118 c7bc ae83 00bd abf1 043c 865e 913c
00000050: 34fe 933c d846 ecbc 4705 44bc 4c9e 093d
00000060: 3451 3e3c 1290 4cbc 6166 9abb 69d5 9d3a
00000070: a2c0 cd3c 38e5 063d 1bf8 833c 348b 5cbc
00000080: 263a 25bc e97f 513b 0331 18bc 3c38 303b
00000090: bb11 223c 4a12 1f3a 9cda 043c ce52 c53b
000000a0: 269f 5eb9 113a 4f3c 9bd1 0fbc 3917 d63b
000000b0: 58e3 a03b 771c 323d df32 c3bc 85fb fabc
000000c0: fa7b 04bc af96 633c 6b56 9e3c 90ff 3e3b
000000d0: 0a1d 9cba 5702 1abc 002f 373c b32c 02bc
000000e0: ffa9 eabb 2589 633c 8dfe eb3c b5d7 7e3d
000000f0: 656e cebc 0432 b9bc 9ac0 0b3d 888b 2ebc
00000100: ce0c 01ae 8992 462f b8a9 45af a36c 182e
00000110: e771 7b2d 618e 54ad 8d45 a5ae d234 082f
00000120: 045f 37ae 308b e8ad 45b3 b6af d605 03af
00000130: b766 702e ac6b 83ae 5ce2 ef2f e02e ba2e
00000140: 0843 02af a21a 9d2f 428e 6e2e c9ab 9c2f
00000150: 3814 39af ae29 942e f80c 062f 1e01 e3ae
00000160: fc31 64af de42 f6af 3772 2e2f 96a7 132d
00000170: 9ecf c6ae 82dc 12af 7615 58af d4ec d12e
00000180: d3c2 c4ae 8fb7 472f b37f 03af b846 a4af
00000190: 9a1b 34af 2b62 7d2e 4e6e a7af b37c 83af
000001a0: b37a 372f 3cf1 c62f 60df 5baf d113 cb2f
000001b0: 49f8 c2ae 31c2 852e 1c6f 34ae e473 952e
000001c0: 5fd3 95ae 4e51 7faf b50c 8f2e cb4d 82af
000001d0: e456 432f a868 9caf 1b7a 9a2e 7dbb 5caf
000001e0: b77f ffae 91aa 312f 7a37 92af c1fc 6fad
000001f0: 5ff1 b42e 46a5 79af 479a 312e aee2 17ae
00000200: 7418 5e33 f9fe 8db4 8747 96b3 e049 37b2
00000210: 7617 1b34 0987 8234 98c1 4bb0 97af b4b4
00000220: 55a9 e433 ac20 a1b4 f28d 0f32 de6f aa32
00000230: cd6b 8b33 c176 8234 3f55 8534 f088 3433
00000240: 70f5 d2b4 5b8a aab4 d5fb 0a34 7730 ad34
00000250: 9104 3e34 5ac2 c0b4 a970 acb4 b058 ed34
00000260: 0738 f133 b649 b3b4 28ea c9b2 4301 8a33
00000270: c22c 6834 24fc ed34 d18e 8334 b4af 5ab4
00000280: 9068 23b3 2c0b 6134 84a2 06b4 10c7 45b3
00000290: b1fe dd33 ef69 98b2 5d58 de32 3c90 0e34
000002a0: c423 7932 dd8c 7434 bd5d 50b4 b13c 8234
000002b0: 75b9 a933 ce5c 2e35 cb0e ccb4 aa39 d7b4
000002c0: 50c6 18b2 627f 2134 c546 a034 b2b0 9532
000002d0: d7f1 9633 64c6 aab4 d791 3834 fcc5 44b4
000002e0: e9db 8ab2 72d7 b034 3e5c c734 50c4 4f35
000002f0: ffc4 66b4 a6f8 9db4 6262 e234 6a34 17b4
00000300: b2af e43b f49f 093c 6113 2a3b 5ef7 713b
00000310: 7cf6 03bc 2127 9abb efe6 813b 8f40 593c
00000320: 5a7b 1bbb ca82 0f3c 29fb aaba 552f b3ba
00000330: fc33 16bb 021c f1bb 0ebe f3bb ff7d e83a
00000340: 4518 1e3c deef 443c 6f06 6abb a48c bbbb
00000350: eaa8 91bb eca9 2b3c d9e7 7e3b 6ed3 4fbc
00000360: bb46 99bb cb2a d03b bb40 e93a 0ec9 3aba
00000370: db6f 15bc 30b4 3cbc 9d14 bfbb bd78 ad3b
00000380: 31af 713b 8de6 b0ba e6e9 573b f06e f0ba
00000390: cef0 22bb 92bc c5ba 53e9 77bb c57c 0ebb
000003a0: cca9 2f3a 8767 c0bb bcc7 243b c50d 0cbb
000003b0: 81e9 26bb 33c1 87bc 9c6b 223c b57b 373c
000003c0: bc89 543b 1e5a adbb 9420 e9bb 1ade aeba
000003d0: 4e54 893a be31 5e3b 2015 9fbb c2ce 853b
000003e0: f78d 3d3b 110d 9abb 6067 2fbc ad26 bfbc
000003f0: 5cdb 203c 143c 0a3c a709 53bc 2ce3 803b
-0.015676951 -0.021619907 -0.0072345533 -0.005117909 0.014151853 0.014444793 -0.005795028 -0.03351092
0.005541539 -0.02338527 0.005603724 0.006722221 0.0031739918 0.021759339 0.017575387 -0.0064116325
-0.024303498 -0.03137558 0.008114259 0.017745268 0.01806555 -0.028842375 -0.011964149 0.03359823
0.01161604 -0.012485521 -0.0047119115 0.0012041751 0.025116269 0.032933444 0.016109517 -0.013460923
-0.010084664 0.003196711 -0.009289029 0.0026888987 0.009891923 0.0006068094 0.008108761 0.006021834
-0.00021230857 0.012648121 -0.008778001 0.00653353 0.004909914 0.043484177 -0.023827968 -0.030637512
-0.008086199 0.013890906 0.019328317 0.0029144026 -0.001191051 -0.009399972 0.011180639 -0.007945227
-0.0071613784 0.013887678 0.028807903 0.062217433 -0.025199125 -0.022606857 0.034119226 -0.010653384
-2.9342577e-11 1.8060055e-10 -1.7977342e-10 3.4657287e-11 1.42929895e-11 -1.2082419e-11 -7.515686e-11 1.2387893e-10
-4.1693773e-11 -2.6437158e-11 -3.3232986e-10 -1.1916454e-10 5.466091e-11 -5.976317e-11 4.3634685e-10 8.4666274e-11
-1.1847245e-10 2.8577057e-10 5.4241285e-11 2.8498295e-10 -1.6832835e-10 6.7376646e-11 1.2191836e-10 -1.0322963e-10
-2.0754237e-10 -4.479465e-10 1.5865785e-10 8.393194e-12 -9.040878e-11 -1.3356963e-10 -1.965271e-10 9.546289e-11
-8.947656e-11 1.8164158e-10 -1.1959748e-10 -2.9881675e-10 -1.638071e-10 5.761273e-11 -3.04555e-10 -2.3917365e-10
1.6687345e-10 3.6187398e-10 -1.9997293e-10 3.6939565e-10 -8.866203e-11 6.082635e-11 -4.1025947e-11 6.796322e-11
-6.8132826e-11 -2.3221e-10 6.505144e-11 -2.3702137e-10 1.7766016e-10 -2.8450597e-10 7.0247995e-11 -2.0075493e-10
-1.1618744e-10 1.6158654e-10 -2.6596664e-10 -1.36417e-11 8.2283284e-11 -2.2705135e-10 4.0382166e-11 -3.4534757e-11
5.1710643e-08 -2.6448814e-07 -6.99793e-08 -1.0668799e-08 1.4444035e-07 2.4312638e-07 -7.4126083e-10 -3.365537e-07
1.0647879e-07 -3.001236e-07 8.35597e-09 1.9841476e-08 6.492301e-08 2.4300792e-07 2.4835205e-07 4.203406e-08
-3.9294127e-07 -3.1765634e-07 1.2943867e-07 3.2259024e-07 1.769679e-07 -3.5904196e-07 -3.2119468e-07 4.420922e-07
1.1232628e-07 -3.339498e-07 -2.3505962e-08 6.426355e-08 2.1622967e-07 4.4328146e-07 2.4504564e-07 -2.0366753e-07
-3.8046494e-08 2.0958822e-07 -1.2538845e-07 -4.6048683e-08 1.03374425e-07 -1.7743302e-08 2.5884384e-08 1.3277253e-07
1.450184e-08 2.2775517e-07 -1.9405611e-07 2.4258546e-07 7.90341e-08 6.49551e-07 -3.8008724e-07 -4.0088827e-07
-8.8926555e-09 1.5040635e-07 2.9853814e-07 1.7426235e-08 7.02891e-08 -3.1809316e-07 1.7189392e-07 -1.8325949e-07
-1.6165318e-08 3.2939312e-07 3.7133753e-07 7.739918e-07 -2.1492086e-07 -2.9424444e-07 4.2167363e-07 -1.4082039e-07
0.0069789523 0.008399952 0.0025951492 0.0036921124 -0.008054372 -0.0047043716 0.003964297 0.013260021
-0.0023724646 0.00875921 -0.0013044822 -0.0013670722 -0.0022919169 -0.007358075 -0.007438428 0.0017737745
0.009649341 0.012020079 -0.00357094 -0.005723553 -0.004445185 0.010477524 0.0038895516 -0.012684686
-0.004677621 0.0063527576 0.001779578 -0.00071252964 -0.009120907 -0.011517569 -0.0058313147 0.005293934
0.0036878104 -0.0013496444 0.003294581 -0.0018343609 -0.002486277 -0.0015086106 -0.003782828 -0.002174185
0.0006701022 -0.0058717164 0.0025143465 -0.0021370512 -0.002546877 -0.016571617 0.009913351 0.011198928
0.003243073 -0.005290284 -0.0071144793 -0.0013341338 0.0010477395 0.003390416 -0.004854813 0.0040834853
0.002892373 -0.0047012647 -0.010705799 -0.023333872 0.009817924 0.008437175 -0.012880719 0.003933331

momentum_buffer f4 [200]
00000000: b648 c83d 43d7 d030 80f9 cd35 1dbc 27bd
00000010: 7252 79b9 0ec4 113e 70dc d395 7ff3 883d
00000020: 5204 8fbd 93cf bf0e 5825 1ebc 82f4 89bd
00000030: c143 f63d fdc9 5ebc baa5 c1bd 533c 34bc
00000040: ee43 c1bd 0400 0080 88ee 3e3c 98b4 48b7
00000050: c7e7 2cbd 2934 8ebd 2324 1d1d 8bbd 3bbc
00000060: 01dc 14bc 33f7 a4b6 7351 8bbc d1f5 4fb1
00000070: e8ab c8bd ca0d 2abd 3c2d 643c 77a6 912b
00000080: 9419 29bd a185 1fbd bee3 4836 f96d 4abc
00000090: 70fb 4814 d2a8 98bb c65e 433c 2070 313c
000000a0: 0000 0000 152f 2abc 28d8 8cbb fe73 0722
000000b0: 193d df3d 56e1 8c3a a6ab b2bc df57 013d
000000c0: 8d99 2fbe 94a4 81bb 00e3 4a3c 1fd5 c7aa
000000d0: 9b32 893c bcac 9f3c 9ad7 8bbb 9bcc 1394
000000e0: 7e0e 4b32 bccb 67bc 4a80 a73d 477a 883c
000000f0: b224 db2c cec0 fbb6 9857 0c33 3332 43bd
00000100: 5c9a 17bd fa21 22bd 7e51 633b 3437 a732
00000110: ce51 ec3b 4637 cb3b 8f9c cebd c8ce 23bc
00000120: 25db f6bc d0fc 653d 924a 1b3d 7816 abb2
00000130: 1803 9337 b874 7b3c 0400 0080 d50b 28bd
00000140: f61c fbbc 9f28 103d ecf8 67bc 5ff8 0cbb
00000150: 6e42 cd3d a11c 363c 7d49 97bc 0d44 0134
00000160: f31b bbbd 769b 0fbc 74a8 2b3e b2f3 973d
00000170: b609 02af bd90 983c 9319 b3bc 62e1 98bd
00000180: 721f d5b5 0f58 c8bc f140 483d c6e6 d2bc
00000190: e438 8f3d 52dd a63c 439d 1abd 4fbe 88bc
000001a0: acb5 983d 6f39 b0bd 6eba 103d d799 253c
000001b0: 7510 2d3d 5d3b 1f3e 05be f03c 0037 d9bd
000001c0: 8c0b c738 1111 429e b4e5 043e 36c7 f4bd
000001d0: 7243 0c3d f4ac 0aba 8c7b e33b 1319 da3d
000001e0: ed0a cbbd da23 02bb 277a 9db6 6e5b 4c3d
000001f0: 02e6 e5bd e151 42bc bc07 803d 06ff c13d
00000200: db68 fc3d ae19 b8bc 406e 87ba 3fbf 3c3c
00000210: da46 b7ba b55c db3b e766 14bc 196d 63ba
00000220: d498 363c 5dde 9031 da47 1fbd 05c4 b23c
00000230: 2d6f 803d 7c2c 97bd d8f1 debc 0e6f d23c
00000240: 18f4 c7bd 15ed b334 3534 bdbd 7a43 c6bc
00000250: 0a62 6a3c 1ece 1128 0689 d2bb 6ac1 85bd
00000260: a953 debc 1cac feaf 5703 90bc 93ff b23a
00000270: 0000 0000 54bf d333 fde4 1dbc b3ee d833
00000280: 1b9c 10bd fd26 1931 f88a 7cbd a5d8 06b8
00000290: 8079 5d3d 7ba9 152f d036 5dbd ece5 8a3d
000002a0: febc 39b8 bf9e 9a3d fb6e 1dbd a79e 853d
000002b0: 365d 84bd c3c7 353e 9fc1 9a3d bce5 7ebd
000002c0: e6db 083d 7385 8abc 0000 0000 d61c 8a3b
000002d0: 9e69 5d2a 4c20 2e3d 8e74 533b 2ffa 02bd
000002e0: 86f9 b4bb a309 d9bc 2d83 84bd 4078 91bd
000002f0: de31 8b2d c5f6 251f 0eb6 c3bd 3c26 133e
00000300: 7443 9fbd 6403 cabc 5daa ca2e cfab c8b4
00000310: 049f 20bd 00a3 f93b be00 fd3d 53cb cf3c
0.097794935 1.5195173e-09 1.5346304e-06 -0.040950883 -0.00023777204 0.14234945 -8.557001e-26 0.06687068
-0.06983246 4.7285022e-30 -0.009652458 -0.06736089 0.12024642 -0.013597962 -0.09455438 -0.011000711
-0.09436785 -6e-45 0.01165355 -1.1962977e-05 -0.042213228 -0.069435425 2.079746e-21 -0.011458765
-0.009085656 -4.9163586e-06 -0.017006611 -3.0262195e-09 -0.097984135 -0.041517057 0.0139268 1.0349073e-12
-0.04128416 -0.038945798 2.9934886e-06 -0.012355321 1.0147007e-26 -0.004658797 0.011924451 0.010829955
0.0 -0.010387202 -0.004298229 1.8357317e-18 0.10900325 0.0010748308 -0.021810364 0.03157794
-0.17148419 -0.003956387 0.012383223 -3.5497384e-13 0.016747763 0.019491546 -0.004267645 -7.461955e-27
1.181945e-08 -0.014147695 0.08178766 0.016659869 6.2284284e-12 -7.5028283e-06 3.2675956e-08 -0.047655296
-0.037012443 -0.039583184 0.0034686024 1.9466462e-08 0.0072119003 0.0062016575 -0.10088455 -0.009998031
-0.030133793 0.056149304 0.037912913 -1.9917238e-08 1.7525206e-05 0.015347652 -6e-45 -0.04102691
-0.030653458 0.03519499 -0.014158469 -0.0021510345 0.10022436 0.011115224 -0.01846766 1.2038818e-07
-0.0913619 -0.008765092 0.16763479 0.07419528 -1.1826881e-10 0.018623704 -0.02186278 -0.07464863
-1.5878888e-06 -0.024456052 0.048890058 -0.025744807 0.06993273 0.020369206 -0.037747633 -0.016692309
0.07456526 -0.086047046 0.035334043 0.010107479 0.042252023 0.15549989 0.029387483 -0.106061935
9.49121e-05 -1.0273804e-20 0.1297825 -0.11952059 0.03424401 -0.0005290054 0.006942218 0.10649314
-0.09914193 -0.0019857795 -4.693185e-06 0.04989188 -0.11225511 -0.011860342 0.06251475 0.0947247
0.12324687 -0.022473183 -0.001033254 0.011520206 -0.0013982907 0.006694401 -0.009057737 -0.00086756196
0.0111448355 4.2162314e-09 -0.038886882 0.021821985 0.06271205 -0.073815316 -0.02721493 0.02568772
-0.09763354 3.3513848e-07 -0.09238473 -0.024202097 0.014305601 8.0938115e-15 -0.006425026 -0.065310314
-0.027139502 -4.6324622e-10 -0.017579718 0.0013656489 0.0 9.8602555e-08 -0.009637115 1.0101703e-07
-0.035305124 2.2286593e-09 -0.06165597 -3.2149856e-05 0.05407095 1.3611683e-10 -0.05400735 0.06782135
-4.428345e-05 0.0754981 -0.038435917 0.06524401 -0.06463091 0.17751984 0.075564615 -0.06223081
0.033412836 -0.016909337 0.0 0.0042148633 1.9665386e-13 0.04251127 0.0032265517 -0.031976875
-0.0055229096 -0.026493853 -0.06470332 -0.07103014 1.5824616e-11 3.5144232e-20 -0.095562086 0.14370054
-0.077765375 -0.02465982 9.216159e-11 -3.737791e-07 -0.03921415 0.007618308 0.12353657 0.025365507

momentum_buffer f4 [5, 200]
00000000: f995 d2ba 6e78 7d30 7f52 122d 256f 8f3a
00000010: e0d7 84b7 0d18 13bb f724 820b 94e4 8bbb
00000020: 0dc3 8dba 1cd8 9f8e 44df adba 2e8d b0b9
00000030: 4a16 89bb f54e f3ba 6da9 4a3b 8aac c53a
00000040: 4c3f 22bb 0400 0000 563b e53a 97ef 6839
00000050: 641b 0f3a f423 d739 ac05 c213 2691 db39
00000060: 6ec4 d9b9 b9d4 3eb4 c8d0 5439 ac06 98b1
00000070: f5c1 9d3a 441d 2f3b 2645 17bb cc3e a320
00000080: 506a 7939 0202 7a3a b6d6 f133 6b73 eb39
00000090: b62f 1793 d598 7839 7a90 46ba b477 8839
000000a0: 0000 0000 15bf 1aba ac27 993a e295 b51c
000000b0: 891e e6ba 7c31 99b8 61cd 5739 34ad 183b
000000c0: c833 5d3a 9561 10ba 11f7 4fba 6b5d 76a2
000000d0: 5759 44bb 2754 40bb 0054 9aba 2fc8 8e0f
000000e0: 29cb ea27 e9f4 0b3a 0f4a a93a 38ba 89ba
000000f0: 2fb3 49ac f645 f7b6 1dd3 24b2 983b 34bb
00000100: 30b0 7e3a 6d02 f2ba 7423 47ba 4d6a 8bb2
00000110: 437d e53a 228b eb3a b59c e6bb 6c76 c4ba
00000120: 6cbc b8ba e537 d9ba accd 0ebb 9e63 c7b0
00000130: 35f0 25b4 58bc 7dbb 0400 0080 87c9 d73a
00000140: 2135 13ba 2011 cbb9 ffb3 193b 6da3 4c39
00000150: b679 36bb 6604 793a 9c35 16ba 9628 4db4
00000160: 21eb c23b e23b 07bb 586e c6bb 7953 9eba
00000170: 50d9 c126 0912 edb9 1aaa b0ba 57e9 0bba
00000180: ff38 a3b4 6502 6d3a 371b 76bb bee1 a0ba
00000190: 0f40 8e39 460a 7438 83fd 133b 75f8 77ba
000001a0: 8f21 b3ba 4083 c738 dbd2 9039 169b e8b9
000001b0: 3b94 2d3a cf50 94ba aded 34ba 1a53 8a3a
000001c0: 6e3c 19b8 50ea 4a13 f91d 9139 53b2 6a39
000001d0: 19e1 2abb 82ab 5e3a b141 bab9 7cc6 863a
000001e0: 4175 d538 f148 39ba 8ca1 ae2c 15b4 30ba
000001f0: ebb4 09ba 9490 5838 2be9 0bba a076 6cbb
00000200: 91c1 cfba 3812 c33a 0114 5cbb d6ec d839
00000210: f0ce b739 3054 1ebb 9e3b e439 c0f6 763a
00000220: be0b 503a 4375 6eb0 af85 5d3a 3955 41ba
00000230: 2709 9cba 8886 823b 2203 92b9 1094 7eba
00000240: 5563 073b 00e1 54b3 e6a6 063b ca9c f8ba
00000250: 1435 75ba e906 c01b 99cc 8436 e2a5 c03b
00000260: b22c 203a e8e2 ee25 888f e23a 604e ac36
00000270: 0000 0000 c0cd b6b4 47ce 35ba 9f6d abb3
00000280: 9f19 f5ba 5905 bc2b db0c 203a bc2b b1b3
00000290: 44d9 d7ba 88aa e12b 7651 213b 1b99 d5b9
000002a0: baec a3b4 187d 0bbb b227 8039 7dbb 9fba
000002b0: 3fa5 2e3b 11c6 1bbb 22a2 52bb dbcb a8b9
000002c0: a989 93ba 276f 94b9 0000 0000 78ab 7b3a
000002d0: 54fd fb28 704d c4b9 e795 133b ea11 4939
000002e0: 1cf9 2439 f490 513a d85f 913a c211 323b
000002f0: 6cf7 1c28 9872 541d 7234 0b3a 2c35 a6bb
00000300: be4c be39 7682 243a 713a fcad 691e f4b4
00000310: 675b 103a ec13 d8bb 3c89 02b9 1b05 253a
00000320: 1ba9 d5ba 60ef 8fb0 ab1f b7b1 e7b2 16ba
00000330: 0ecb 8eb7 3c3e dbbb 7fe6 e90c c9cb 923a
00000340: e28e 083c eee5 9a0e 881f fe3a 5205 10bb
00000350: a021 38ba a46c 4bbb 0e23 d539 07d1 d53a
00000360: c0fa b63b 0000 0000 03c7 123b a70d 9eb9
00000370: 99d5 053b 54ef 363b deae c912 3a2f 103a
00000380: 5d74 e13a 76f4 eb33 8417 48b8 3c37 e130
00000390: 516e 633b 81df 843b 2c78 4a3b ce41 d227
000003a0: 7f76 d13a 9538 593b 67a4 3d33 484e 843b
000003b0: a78e 3d0e 34ab 483a bf37 443b 1a99 9fba
000003c0: 0000 0000 ad3a 573b 12b2 1cba b1e6 c60e
000003d0: d26a 63bb 9887 9d35 56ee 163b e669 c6bb
000003e0: b065 893b c3d5 6839 3ba7 663b 620d 9f2a
000003f0: 6a0b 273a c9d0 0c3c aada f73a eef6 fe91
-0.0016066424 9.2212005e-10 8.317457e-12 0.0010943158 -1.583615e-05 -0.0022444755 5.01298e-32 -0.004269192
-0.0010815576 -3.9404632e-30 -0.0013265391 -0.00033674523 -0.0041835653 -0.001856296 0.003092374 0.0015081328
-0.0024756966 6e-45 0.0017488997 0.00022214498 0.00054590986 0.00041034783 4.8978078e-27 0.0004187908
-0.00041535817 -1.7772517e-07 0.00020295673 -4.4245407e-09 0.0012035953 0.0026720325 -0.0023081987 2.765483e-19
0.00023786095 0.00095370424 1.1261493e-07 0.00044908686 -1.9082403e-27 0.00023708057 -0.0007574629 0.00026029127
0.0 -0.0005903107 0.0011684797 1.2016319e-21 -0.0017556708 -7.304826e-05 0.00020580507 0.0023296596
0.0008438197 -0.0005507705 -0.0007933239 -3.3388672e-18 -0.0029960477 -0.0029347034 -0.0011774302 1.4079389e-29
6.5168314e-15 0.00053389237 0.0012915748 -0.0010507768 -2.8663285e-12 -7.369318e-06 -9.594058e-09 -0.002750134
0.0009715585 -0.0018463858 -0.00075965305 -1.623007e-08 0.0017508644 0.0017970542 -0.007037724 -0.0014988906
-0.001409424 -0.0016572444 -0.002179007 -1.4507469e-09 -1.545421e-07 -0.0038716998 -6e-45 0.0016463258
-0.0005615522 -0.00038731936 0.0023453233 0.00019515837 -0.0027843541 0.00094992516 -0.00057300343 -1.9106878e-07
0.0059484397 -0.0020635058 -0.0060556345 -0.001207932 1.3450968e-15 -0.000452176 -0.0013478429 -0.00053371995
-3.0402586e-07 0.00090411893 -0.0037552842 -0.0012274308 0.00027132078 5.81837e-05 0.0022581525 -0.0009459325
-0.0013666617 9.513507e-05 0.0002762292 -0.00044366036 0.00066215143 -0.0011315587 -0.00069018715 0.0010553331
-3.6534322e-05 2.561151e-27 0.00027678887 0.0002238241 -0.002607411 0.00084941846 -0.00035525628 0.0010282542
0.00010178472 -0.0007068059 4.9633127e-12 -0.00067407015 -0.0005253094 5.1633062e-05 -0.0005337174 -0.0036081448
-0.0015850534 0.0014882749 -0.003358126 0.00041375187 0.0003505866 -0.0024159066 0.00043531967 0.0009420924
0.000793632 -8.6750535e-10 0.00084504014 -0.0007375065 -0.0011904583 0.0039833225 -0.00027849624 -0.0009711394
0.0020658572 -4.9564733e-08 0.0020546257 -0.0018967625 -0.00093539176 3.17682e-22 3.957725e-06 0.00587915
0.0006110176 4.1440176e-16 0.0017285207 5.1351235e-06 0.0 -3.4049845e-07 -0.000693534 -7.982748e-08
-0.0018699652 1.3359688e-12 0.0006105431 -8.25016e-08 -0.0016467948 1.6034543e-12 0.0024615205 -0.00040740598
-3.0533357e-07 -0.0021284278 0.00024443638 -0.0012186613 0.0026648787 -0.002376918 -0.0032140096 -0.0003219534
-0.0011256236 -0.00028311575 0.0 0.0009600441 2.7976461e-14 -0.0003744173 0.0022519769 0.00019175527
0.00015733059 0.0007994317 0.0011091186 0.002717123 8.713391e-15 2.811721e-21 0.0005310244 -0.0050722566
0.000362968 0.0006275544 -2.8675036e-11 -4.5470668e-07 0.0005506784 -0.0065941717 -0.0001244889 0.0006295011
-0.0016301008 -1.0472654e-09 -5.329601e-09 -0.00057487044 -1.7022274e-05 -0.0066907685 3.603806e-31 0.0011199649
0.008334847 3.8185345e-30 0.0019388059 -0.0021975827 -0.00070240535 -0.0031040097 0.00040652644 0.0016312905
0.005584091 0.0 0.0022396452 -0.0003014628 0.0020421504 0.0027913647 1.2727991e-27 0.00055002014
0.0017200817 1.09875074e-07 -4.7705616e-05 1.6386603e-09 0.0034703205 0.004054964 0.0030894382 5.8358054e-15
0.0015980749 0.0033145298 4.4154515e-08 0.004037652 2.3364733e-30 0.0007654906 0.0029940454 -0.0012176365
0.0 0.003284137 -0.0005977462 4.9032916e-30 -0.003470112 1.1736875e-06 0.0023030243 -0.0060551045
0.0041930303 0.00022204877 0.0035194892 2.825336e-13 0.0006372245 0.0085947 0.0018909771 -4.0226316e-28

momentum_buffer f4 [5]
00000000: 5576 92bb b4cf 833b f52e ebbc b776 a33d
00000010: 2181 4fbd
-0.0044696727 0.004022563 -0.028708914 0.079816274 -0.050660256
