CS4248 NLP/Assignments/Assignment 2/a2_files/model.pt (torch, 545863 bytes, 10 tensors)

embedding.weight f4 [659, 64]
00000000: 897e 11bf d787 2ebf b3a1 3fbe 16cc 2cbe
00000010: 6dfd ca3e 7cd1 cb3e 0f1c cfbd ed4e 96bf
00000020: 5a56 273e 37b3 42bf fac7 7a3e f41e 703e
00000030: 8ac0 143d baa1 413f a5b1 113f d5f9 41be
00000040: 471a 57bf 1338 81bf 9fde ab3e 7f28 0f3f
00000050: 1622 023f c8d0 64bf 0220 87be 005d 893f
00000060: 7866 ca3e 9f62 aebe 875a ebbd 09ef 983d
00000070: f9f6 453f b7ae 7e3f 5d2b 0e3f c81f 02bf
00000080: 146d 99be dc03 4d3d 1ac7 a0be cb57 ee3d
00000090: aa3e a83e a175 353c a1ff a53e 1760 533e
000000a0: a3eb d0bb 2a45 cc3e 394f 6ebe c3d6 9e3d
000000b0: b269 6b3e 9ab0 ac3f 8bc8 50bf c3a5 6ebf
000000c0: 4997 c1be 3a35 043f 771c 213f 884b 7e3d
000000d0: bb35 76bd 326b 97be f141 953e f9ff 4cbe
000000e0: cae7 3cbe 8f54 f33e 4a47 653f a772 0240
000000f0: 70a7 5bbf 0920 37bf 62ae 843f 1828 98be
00000100: 25d6 66bf 01dd 583f d0b1 743f 201c ae3f
00000110: fae8 d1bf f344 1840 a578 8bbe b789 813e
00000120: 278d debf 1d47 0ebf 26ad eabe 9c0f e3be
00000130: 9747 a5bf 16cc a33f 497b 88bd 8dcb 343f
00000140: 1c6a 493c 0d70 3e3f 2f7e 43bf 3e1b b73d
00000150: 02a0 9a3f 82ad 91be cc90 b13f c1e8 813e
00000160: a143 5bbe ba76 1540 65a9 05c0 13bd 14be
00000170: 22d6 88bf 03ef 68bf 8a01 9abd 0506 403f
00000180: d4d4 df3f ce99 c1bf 8a51 343e f97d 493f
00000190: c42e 21c0 e5a8 f5bf 2021 77be 391c e5bc
000001a0: 2a68 103f f34e 953c 5961 e33e 0a23 e53e
000001b0: 9111 d73e 8ca4 88bf 752f 483f 08ee 68bf
000001c0: df9c c6be b2df 18c0 17ea 06be da40 26be
000001d0: b286 9c3f 4ee5 fe3e 63fd 84bf 36d8 153e
000001e0: 0cbc 4cbf 4b41 f3be 32a6 0740 d2e4 9ebe
000001f0: 3846 243e 4ee8 853f 47e9 423f d9e6 b93f
00000200: a762 85bf 80cd e2be 5545 70bf d09b 383f
00000210: 7a72 b53e be3f a33e 4afc 0d40 bc40 8bbf
00000220: e6a2 39be 8824 293e edf4 f8be 8599 94bf
00000230: 641a abbe 3506 57bf 4d2b a1be 7480 283e
00000240: 3f9a 89be e3cb 153e dd5b 983e ebc5 a93f
00000250: ae0e 2c3f f7e3 ed3e d0f9 41bc c0b3 3fbe
00000260: bae5 143e 16af 47bf ec26 00c0 b283 753d
00000270: 89d6 3ebf 49da b33e c376 0e3e a0db c73e
00000280: 81d0 8d3f 3d42 89bf fcf3 c53d 2371 fc3c
00000290: ea4e 933f 8f7f 2dbf c754 2d3f 249e c13e
000002a0: 269e 0b3f 872d 373e 16e8 13be 378c c43e
000002b0: 3c9c e7be 2dcc 9bbf 1c96 933e 145e adbf
000002c0: 6e11 43be 452a 97be 7e5a c7bf a763 febe
000002d0: ba98 a03f 1000 ef3d ecda b63f e1f2 7f3f
000002e0: 4697 92bf 1ef8 36bf 3c46 c63f 27f3 c63e
000002f0: 3ffb 273f 72bc 8abf 883e b0bf fa43 8fbf
00000300: 8bc1 00bf 410f ea3e ba37 b13e 6160 713e
00000310: 5170 f73e c2b1 7f3f c0d0 12bf 1331 8f3f
00000320: f6b6 22bc 0cb2 b3bf 04fa e43d aa09 123f
00000330: 12ae 653f 2cef bcbf 6b95 2e3f ed27 12bf
00000340: 49bd aa3f f41e 1b3e 7905 793f 85a2 453f
00000350: 44b7 b1bf 6a31 873f 1e97 09bf 205b b0bf
00000360: e770 863f 0aa6 a43f 77d2 54bf 97d3 043f
00000370: d7f0 853e 40a5 b53d 9a3a a6bf 6c17 89bc
00000380: a8db e8be ab76 d53f afdc f23e e8a1 d53e
00000390: a105 9abe b339 183f 77ab 58be 3602 afbf
000003a0: bdec 2ebd 13a8 26bf d975 c4be 0ca4 813f
000003b0: f8da 28bf 4a41 673f 8153 893f 17d1 f9bf
000003c0: 2241 b4bf 0ab3 f9bf 1fa7 94bd a64b 82bf
000003d0: e40e da3f abe0 223d ef08 503f 0649 f6be
000003e0: c0d7 8dbd c82e 923f bf26 923f 344e 15bf
000003f0: 4763 1ebf 1c31 b63d 30e2 0740 f5d3 a93e
-0.568337 -0.68176025 -0.18714027 -0.16874728 0.39646474 0.3980826 -0.101127736 -1.1742836
0.16341534 -0.7605471 0.24490348 0.23449308 0.036316432 0.756374 0.5691169 -0.1894296
-0.8402447 -1.0095237 0.33568284 0.5592117 0.5083326 -0.89381075 -0.26391608 1.0731506
0.39531302 -0.34059617 -0.11491876 0.07467467 0.77329975 0.99485344 0.5553492 -0.50829744
-0.29966033 0.05005251 -0.31401902 0.11637839 0.3286031 0.011075408 0.32421592 0.20642124
-0.0063757463 0.39896518 -0.23272409 0.07755806 0.22989538 1.3491395 -0.81556004 -0.9322168
-0.37810734 0.5164372 0.6293406 0.06208375 -0.060109835 -0.2957397 0.29151872 -0.20019521
-0.18447796 0.4752545 0.89561903 2.0382478 -0.85802364 -0.71533257 1.0365717 -0.2971809
-0.9017051 0.84712225 0.9558382 1.3602333 -1.6399224 2.3792083 -0.27240482 0.2530038
-1.7386826 -0.5557726 -0.45835227 -0.44347847 -1.2912472 1.2796657 -0.0666414 0.70623094
0.012293365 0.74389726 -0.76364416 0.08940743 1.208008 -0.28452688 1.3872313 0.2537289
-0.21412517 2.3353715 -2.088464 -0.14525251 -1.0690348 -0.909897 -0.07519825 0.75009185
1.7486825 -1.5125062 0.1760923 0.78707844 -2.5184793 -1.9192168 -0.2413373 -0.02796756
0.5640894 0.018226122 0.44410208 0.44753295 0.4200559 -1.0675216 0.78197414 -0.90988207
-0.38791558 -2.3886533 -0.13175236 -0.16235676 1.2228606 0.4978432 -1.0389827 0.14633259
-0.79974437 -0.47510752 2.1195188 -0.3103395 0.16042411 1.0461519 0.761372 1.4523574
-1.0420731 -0.4429741 -0.9385579 0.7211275 0.354389 0.3188457 2.2185235 -1.087913
-0.18128547 0.16517842 -0.48624364 -1.160935 -0.33418572 -0.83993846 -0.31478348 0.16455251
-0.26875493 0.14628558 0.29757586 1.3263525 0.672099 0.46462986 -0.011839345 -0.18720913
0.14540759 -0.78001535 -2.0023756 0.059940048 -0.74546105 0.35127476 0.13912492 0.39034748
1.1079255 -1.0723339 0.09665677 0.030815667 1.1508458 -0.67772764 0.67707485 0.37815964
0.5453819 0.17888461 -0.14444003 0.38388225 -0.45236385 -1.2171685 0.28825462 -1.3544335
-0.19049618 -0.29524437 -1.5574491 -0.49685404 1.2546608 0.11669934 1.428556 0.9997998
-1.1452415 -0.71472347 1.5490184 0.38857386 0.65617746 -1.0838759 -1.3769083 -1.119262
-0.50295323 0.45714763 0.34612828 0.23571922 0.48327878 0.9988061 -0.5734978 1.1186851
-0.009931317 -1.403871 0.11180499 0.57045996 0.89718735 -1.476049 0.68196744 -0.5709217
1.3339015 0.15148526 0.97273976 0.7720111 -1.3884053 1.0561955 -0.5374621 -1.3777809
1.0503205 1.2863171 -0.83133644 0.5188536 0.2616031 0.088694096 -1.2986634 -0.016734801
-0.45480084 1.667684 0.47433993 0.41725087 -0.3008242 0.5946304 -0.21159159 -1.367255
-0.04270624 -0.6510021 -0.3837116 1.0128188 -0.6595912 0.90334 1.0728608 -1.9516934
-1.4082377 -1.9507763 -0.07258438 -1.0179336 1.7035794 0.03976504 0.8126363 -0.48102587
-0.06925917 1.1420527 1.1418074 -0.58322453 -0.61870235 0.088960856 2.1231804 0.33169523

input.weight f4 [350, 64]
00000000: a110 883d ffc8 173e 2b6e 5cbe 0d7d 983c
00000010: d81b 223d 97c8 cabc ec7c 73bd bc7e 903d
00000020: 3b88 afbd 8831 8b3d d4ff 133e 36df 44bd
00000030: b599 ddbb 4165 90bd 6935 7d3d d404 ecbd
00000040: f2b0 1ebe 2a00 34be ea2c 373d 675a 273c
00000050: c4f7 443d 2fed d43d 0c7a a1bc 2a51 8fbd
00000060: 7ebb fcbd 2147 143d 0bdb 363c 671a 4fbd
00000070: fbec 6c3d 9c70 8d3d a76a 19bd 2dbe 99bd
00000080: 0af0 9bbd 1951 19bd 41dd 83bd 0ab3 83bc
00000090: 5a68 d7bc f979 84bd 7e11 79bd 7cc7 2f3d
000000a0: 7389 bdbd 39a6 0c3e 0e3a 48be 3e53 07bd
000000b0: bf35 4abe da35 533c 08bb a93d 4b9f ebbd
000000c0: ec7d a63d 21b0 76bd 4cf9 b43b 6639 6cbd
000000d0: b70f edbd 6802 f3bd cee6 0ebe 89a8 dcbb
000000e0: a6b4 143e 6481 04bd 1f37 f0bd ddb6 d93b
000000f0: 2e31 e43c 673d be3d 150c 1c3e b30a d8bd
00000100: b73c c1bd b788 d83d 7042 87bc cfe7 a03d
00000110: 5fdf ddbd 9e5f 923d ec11 c2bd 70be bb3d
00000120: 6fcf 0abd e7d8 ad3c f254 833d a50a d33c
00000130: 683f 9dbd 36d7 75bd 2712 d53d bc0c 6dbc
00000140: a7c5 b1bc 36ee a13d c07b f6bd 06e2 42bd
00000150: 97c3 e93d 6e68 6fbc 8b97 a43d a6ce d03c
00000160: 2ccb bc3c f5bc 82bd 2745 f63d 3b8d 03bb
00000170: 13df d4bd 5587 1bbd 0a06 d9bd 2317 6cbc
00000180: f7ef 9d3d ea9c 8abd f6c6 a03c d237 98bd
00000190: 04a2 923d f1af ae3c 43b7 d83d ee3d f23d
000001a0: d495 d03d 396d c4bd a438 003e e1d4 26bb
000001b0: 8e90 bd3d 242a b63d 0809 003d b3a6 9b3d
000001c0: a991 d03d 6b05 8d3d 8cff 9a3d d068 b03d
000001d0: 3982 d23d c7af 6bbd 4345 15bd f588 39bd
000001e0: 666f dd3d da56 f5bc ec70 99bd 9d21 cfbd
000001f0: ecaa 7fbd 3fed dcbd 15ef c13d e290 1e3d
00000200: ee1b a13d a09a 1d3c c0e3 693c b099 603c
00000210: 0041 9ebc 80e1 493b e88c 3f3d 0c76 7e3a
00000220: b44c 023d 2813 ddbd 308a cabd 2e40 adbd
00000230: 2ceb 9c3d 30f2 253d 56bd b8bd 009b c83d
00000240: c092 a1bb 3869 8a3d aa7b d3bd c67d 9b3d
00000250: 8000 b3bc e0c7 dabb de02 8ebd 24ca 0ebd
00000260: 32d8 a73d 8853 b2bc cc34 2fbd 246e 31bd
00000270: 04fe 5bbd 2a7a c53d 0448 a83d 34a4 acbd
00000280: 402e d1bb 50a0 553d 1e99 debd 2e6c e53d
00000290: 4430 8c3d f6cc c8ba ecf9 9c3d 90ba a23d
000002a0: d429 e5bd 3880 c63c 68ce d53d 544c 1cbd
000002b0: 0826 debc f03f 72bc c0e1 cabc f680 ccb7
000002c0: a004 97bb 3cf6 c2bd 3a89 873d 8c88 8cbd
000002d0: 4496 99bd 246e 4d3d 88ef efbd 0016 98bb
000002e0: ec2f a93d ee2c d93d 3096 c7bd 8c19 70bd
000002f0: a016 d0bd 648d 693d 84af 1c3d 8272 dc3d
00000300: 7e99 58be 88b1 893d d8d0 063e 0d03 9abe
00000310: cfd1 cf3e 4eb7 f93d 4120 ddbe f6ef 0cbe
00000320: 8df1 90bd 9a3b b3bd 2f38 cfbb 3df6 9abd
00000330: d5f7 c13e dc9e a4be 73d2 1d3e 2ba2 8b3c
00000340: 7707 223e 826a dbbd 08b0 313c 9922 b2be
00000350: 91e1 17bf 401f 9abd 9dee 42be 020d 953c
00000360: d024 303d 61a6 8f3e f51a 4a3e 1e2c 3c3e
00000370: afbb 5f3e f38d ce3c 8d7b 563d 1e23 0b3d
00000380: f9ce 3abe eb4f 41be 7331 1d3e f891 2bbe
00000390: a6af e2bd 5e08 993e 2a98 113e 03e1 643e
000003a0: 96c0 f3be 4ecc 183e d8ce 163e 738d aebe
000003b0: bc26 063e e841 a83d 435a 6cbd 82cc 8f3b
000003c0: e72d 6a3c 0016 eebd db4f 113e a184 813e
000003d0: 1649 a0be 28b2 c53d c2a6 683d 6f59 51be
000003e0: f7a6 7f3b 196d 91be 0063 90be 1a55 5abe
000003f0: 6a9c 84be c763 f63d dd59 663e fed5 59bd
0.06643797 0.14822768 -0.215264 0.018614316 0.039577335 -0.024753852 -0.059445307 0.07055423
-0.08570906 0.06796557 0.1445306 -0.048064433 -0.006762708 -0.07050563 0.061818514 -0.115243584
-0.15497187 -0.17578188 0.044720568 0.010214425 0.04808785 0.10396802 -0.019711517 -0.06997903
-0.12340449 0.036200646 0.011160622 -0.05056229 0.05784319 0.06906244 -0.037455227 -0.07506976
-0.07614143 -0.037430856 -0.06438685 -0.016076583 -0.026294876 -0.06468577 -0.060807697 0.042914852
-0.09254732 0.13735284 -0.19553396 -0.03303837 -0.19747065 0.012891257 0.082876265 -0.11504992
0.081294864 -0.060226563 0.0055228826 -0.057671927 -0.11575263 -0.11865693 -0.13955233 -0.006733958
0.14522037 -0.03234996 -0.117292635 0.0066441135 0.027855482 0.09289055 0.15238984 -0.10548916
-0.094354086 0.10572951 -0.016511172 0.07856714 -0.1083362 0.07147144 -0.094760746 0.091671824
-0.03388923 0.021221591 0.064126864 0.025761912 -0.076781094 -0.060019694 0.10403853 -0.014468368
-0.021700693 0.07906763 -0.12035322 -0.047578834 0.11414259 -0.0146123 0.08036717 0.025489163
0.023046099 -0.06383697 0.120249085 -0.0020073194 -0.103941105 -0.03797086 -0.10596855 -0.014409813
0.07711785 -0.0676821 0.019626122 -0.07432522 0.07159808 0.02132413 0.105818294 0.118282184
0.101848274 -0.09591145 0.12521607 -0.0025456476 0.09256087 0.088947564 0.031258613 0.07600155
0.101840325 0.06885799 0.07568273 0.086137414 0.10278744 -0.05754068 -0.036443006 -0.045296628
0.10812263 -0.02994864 -0.07492241 -0.10113833 -0.062418863 -0.107874386 0.094694294 0.03871239
0.07866655 0.009619385 0.014275491 0.013708517 -0.019318104 0.0030804574 0.046765238 0.00097069214
0.03181143 -0.107946694 -0.098896384 -0.08459507 0.07662043 0.04051417 -0.09020488 0.09795189
-0.004930824 0.0675835 -0.103263214 0.07592349 -0.021850824 -0.006676659 -0.069341406 -0.034860745
0.08195533 -0.021768346 -0.04277496 -0.04331793 -0.053709045 0.096424416 0.08216861 -0.08429757
-0.0063836873 0.05215484 -0.108690485 0.11202274 0.068451434 -0.0015319872 0.07664856 0.0794574
-0.11189619 0.024231061 0.104397595 -0.03815873 -0.027117744 -0.014785752 -0.02476585 -2.4378747e-05
-0.0046087056 -0.09519622 0.06617971 -0.06861982 -0.07499364 0.050153866 -0.11715609 -0.0046412945
0.082610935 0.10604273 -0.09745443 -0.058618113 -0.101605654 0.057019606 0.038253322 0.10764028
-0.21152303 0.067233145 0.13165605 -0.30080453 0.4058976 0.12193166 -0.4318867 -0.13763413
-0.07077322 -0.087516025 -0.0063238363 -0.075664975 0.37884393 -0.3215245 0.15412311 0.017045101
0.1582316 -0.10713674 0.010845192 -0.3479202 -0.5932856 -0.07525492 -0.19036336 0.01819468
0.043003857 0.28056625 0.19736846 0.18376204 0.2184894 0.025214171 0.05236392 0.033969037
-0.18243016 -0.18878143 0.15350895 -0.16754901 -0.110686585 0.29889196 0.14218202 0.2235146
-0.4760787 0.14921686 0.14727342 -0.34092292 0.13100713 0.082156956 -0.057703268 0.004388393
0.0142931705 -0.1162529 0.14190619 0.252965 -0.3130576 0.09653121 0.056799658 -0.20444272
0.003900943 -0.28403547 -0.2820053 -0.21321526 -0.25900584 0.1203075 0.22495218 -0.053182594

input.bias f4 [350]
00000000: a019 00bd cdb5 aa3d 1237 b8bd 1790 833e
00000010: e579 7bbd 5567 fd3d 1054 f9bc 8c0f d33d
00000020: 414d 863d a935 45bd 6168 173e a5af e13d
00000030: 3133 7e3b ae81 483e 5621 013e 3de3 bbbd
00000040: 49a3 713e 166b f7bd a19e 48be e6aa 1abd
00000050: ba46 8ebd 408d 993d 5838 243c 2800 19bc
00000060: 2c38 8cbd 3953 8b3c 3bec 6fbd 4b9a c0bd
00000070: 5526 0fbc 61e8 c63d 69aa 82bc 806d 243d
00000080: 3985 2e3e ebfa 06bd d8e5 a43c 9cb2 893d
00000090: 50e0 f7bd af07 22bd e766 543c 4425 ccbd
000000a0: 81e4 c33d aede 263e 821c 493d 4aee fcbd
000000b0: fb36 f6bd 1ced ecbd 314f c2bc d6cf f33d
000000c0: ecfb 3a3c d150 53bc 9671 823e 8a79 cc3d
000000d0: ebff 2bbd 1803 9fbc 2c5c b4bd 640c fbbd
000000e0: aa0c 063d 4f5d 17be 707a f3bc cafb dfbd
000000f0: 8b3f cc3d 8d11 cc3d cea7 ca3d 88a9 193e
00000100: 637b bbbd 9f4d bd3d 4709 7abd 725d 843e
00000110: 5841 ec3c a7db 033e f8e1 763e 00b0 ee3d
00000120: a408 d4bc 0d74 043e 6065 f0bd dc38 3c3c
00000130: 1f1d c03d 3278 f73e 3f26 b33d 7434 b93c
00000140: 7140 2c3e 3d12 89bd b11b e73b 5877 9d3c
00000150: 8aaf 223e f99c 593e 385d 9dbd a0d9 22bd
00000160: 5198 e13d 2972 c33d f3e3 933d df6b 823e
00000170: ac1a 49bd 8629 333d 05b9 513c d2a8 1b3e
00000180: f4ce 313e 5ad5 993e d90f e5bd cd81 b33c
00000190: c83c 593a b49c 9cbc 07c7 bdbd 9201 2fbd
000001a0: f6de d13d ce36 6e3e 3fb7 b53d 1288 f53c
000001b0: 0274 cabd 448d 73bd 22cc 61bc 4746 e6bd
000001c0: 8117 e63d c208 bdbc 6950 26bd 588b 0e3e
000001d0: 86a0 733d f020 59bd b871 b43c 3d80 da3b
000001e0: faeb 293e 32f1 45be 51d9 883a 8642 153e
000001f0: 334f e8bc 4d85 1fbe e716 c8bd 603c f2bd
00000200: 6030 a33e 39f4 093c 6739 893e 5259 a53d
00000210: 2514 e4bd d1df 92bd 9aa5 f8bd d369 963d
00000220: 8d6e cebd 2bf6 5b3e 4226 263d 6c98 15bd
00000230: 158e b4bc 01d7 e6bd e6d0 a23c c5f3 203e
00000240: 76f8 253e d5f8 cfbc d306 903d 8532 f43d
00000250: 1304 0a3e 1854 e5bc a64a 343e 1020 393d
00000260: 1d05 97bd 10ed b5bd 9bf0 1f3e 06e2 f5bd
00000270: f0e1 6ebc 68cb 0b3e c84d 94bd 870a 653d
00000280: 7b0f c63d bc23 463e 9a64 edbd 4725 043e
00000290: 4c07 c83c bda1 18bc 3fcd 53bd a5ac c03d
000002a0: 0cf6 bb3d 5167 a0bd aefc a33d cc44 a9bd
000002b0: b421 883d 2d85 c63d 3653 8f3b a703 d83c
000002c0: 435e d13a 8e54 7dbc 5ed9 4ebc 996b 863d
000002d0: a5e7 bd3e 13a9 afbb c68c 0e3c 8afa 183e
000002e0: 9759 5b3e 078d a23c dbb7 dc3e c0a6 563b
000002f0: 01b7 223d 15a0 32bd c6e6 ffbd 7b6f 69bd
00000300: c2ac 51bd 88c7 a6bc 8d56 30bd 8d99 be3d
00000310: 4eb9 123d 51b4 633d 74e9 463d d2b0 ebbd
00000320: d85b c4bd 2759 33be abeb c23d 8243 f9bd
00000330: 59eb 913e ffec 90bd 1694 cfbd f56d 02be
00000340: 2cf4 023e 74b5 b6bd 0eea 34bd c160 343d
00000350: 4ecc 43be 9def b53c c395 7f3d 151b b83d
00000360: 3629 d8bd 11d4 c93d 08e0 73bc ea64 1f3c
00000370: cc6f f23d e0b9 083c fab3 ec3d 5a94 8bbd
00000380: 704e 203e feb7 a03d fc15 043d 225a dc3d
00000390: 7a12 1bbc 4a36 cbbd 12ad 273d adad af3e
000003a0: 4e81 0ebe 7fd4 123e 8055 8c3d 9b8a d03e
000003b0: 21c7 023d cc47 f7bd 8cc7 2b3e 4787 91bd
000003c0: 684b 5c3c 629f d5bd e8cc f8bd dfe7 3cbd
000003d0: 1ebd 233c ca72 033d 3914 943e 82d3 e3bd
000003e0: c306 ca3a 9b65 ad3d 0ca0 fabd 7429 e0bd
000003f0: 0f92 31bd 5b5b 0dbc 4b55 bc3d 0a79 803d
-0.031274438 0.08335457 -0.08994879 0.2569587 -0.061395545 0.12373225 -0.030435592 0.103057
0.06557704 -0.048146877 0.14785911 0.1101983 0.0038787837 0.19580719 0.12610373 -0.09174202
0.23597445 -0.12080972 -0.19591762 -0.037760638 -0.06947084 0.074976444 0.010023199 -0.009338416
-0.068466514 0.017007457 -0.058574896 -0.09404429 -0.008737166 0.097122915 -0.015950399 0.04014349
0.17043008 -0.032954138 0.02012913 0.0672352 -0.12103331 -0.03955811 0.012963987 -0.09968045
0.09565068 0.16295883 0.049099453 -0.123501375 -0.120222054 -0.115686625 -0.023719402 0.11904876
0.011412602 -0.012897686 0.25477284 0.09984119 -0.04199211 -0.019410655 -0.08806643 -0.12258223
0.03272692 -0.14781688 -0.029721469 -0.10936697 0.09973057 0.09964285 0.098952875 0.15006077
-0.091543935 0.09243321 -0.061044004 0.25852543 0.028839752 0.1287676 0.24109638 0.11654663
-0.025883026 0.12934895 -0.11738086 0.011488166 0.093805544 0.4833389 0.08747529 0.02260802
0.16821457 -0.06692932 0.0070528616 0.019221947 0.15887275 0.21251287 -0.07683796 -0.039758325
0.1101538 0.09543259 0.07221212 0.25472924 -0.049097702 0.04374077 0.01280046 0.15201119
0.17364103 0.30045587 -0.11184663 0.02191248 0.000828695 -0.01911769 -0.09266477 -0.042726107
0.102476045 0.23263094 0.08872842 0.02997211 -0.09885408 -0.059460893 -0.013781579 -0.11243873
0.11234952 -0.023075465 -0.04060403 0.13920343 0.05947926 -0.053009927 0.022026882 0.006668119
0.16593924 -0.1933029 0.0010440742 0.14576158 -0.028358078 -0.15578194 -0.09769993 -0.11827922
0.31872845 0.008420044 0.26801607 0.08073677 -0.11136655 -0.07171596 -0.12140961 0.07344403
-0.1007968 0.21480624 0.04056383 -0.036522314 -0.022040406 -0.112714775 0.019875001 0.1571799
0.16208062 -0.025387207 0.070325516 0.11923698 0.13478117 -0.0279942 0.17606601 0.045196593
-0.07374022 -0.08883107 0.15619127 -0.12006001 -0.014580235 0.13651812 -0.07241398 0.055918243
0.096709214 0.19349569 -0.11591454 0.12904845 0.024417542 -0.009315905 -0.05170941 0.09407929
0.09177789 -0.07832206 0.08007179 -0.08265075 0.06647053 0.0969337 0.004373933 0.02636893
0.0015973527 -0.015462054 -0.012625067 0.065634914 0.37090793 -0.0053607314 0.008700555 0.14939323
0.21420895 0.019842638 0.4310902 0.00327532 0.039725307 -0.043609697 -0.124951884 -0.05699108
-0.051190145 -0.020358816 -0.04305129 0.09306631 0.03582125 0.055591885 0.048562482 -0.11508335
-0.0958783 -0.17514478 0.09517606 -0.12171079 0.2849987 -0.070764534 -0.10135667 -0.12737258
0.12788457 -0.08921328 -0.044168524 0.044037584 -0.19120905 0.022208983 0.062398683 0.089895405
-0.10554735 0.098549016 -0.014884956 0.00972865 0.1183773 0.008345097 0.11557765 -0.06815405
0.15654922 0.07847594 0.03224753 0.10759379 -0.009464854 -0.09922464 0.040936537 0.34312192
-0.13916513 0.14338873 0.06852245 0.40730748 0.031928185 -0.12074241 0.1677534 -0.0710588
0.013445713 -0.104307905 -0.12148458 -0.046119567 0.0099938195 0.032091893 0.2892168 -0.11124326
0.0015413392 0.08466645 -0.12237558 -0.109454066 -0.043352183 -0.008627738 0.09195956 0.06273086

output.weight f4 [5, 350]
00000000: 0a14 3bbe c6da 133c d421 0bbc b541 78bf
00000010: 36f1 16be b6b7 a83e 9ce6 423d efaf 3a3f
00000020: e64f 3c3f 5af2 64bc fed7 d03e f3e7 01bd
00000030: 6426 7b3d d1cc 523f 1fac 80bf ef56 e6bc
00000040: a9a4 493e 2aa0 943c 15f1 16bd 95a0 13bd
00000050: c8a6 51be 78d2 e63d 3131 4fbd 8ddc 0dbe
00000060: 696d d73e 1ede 373c 3a6d cbbc c783 36bd
00000070: c96d 04bf 67ba 223e ad2a 97be 57b8 6fbd
00000080: 2967 eb3d 379b bdbe ecc4 5fbd 5609 8abe
00000090: 362e 23bd 15f8 26bd 0591 723e 2107 d5bb
000000a0: 6139 34bc e2c2 d8bd ab81 a23e b254 41bd
000000b0: a8f3 06bf ec6a 6f3c 24a1 6abe 90fc 1e3f
000000c0: 223e 0fbf c653 3ebd 88ba 46bf 2d9f 9b3d
000000d0: 41ff da3c c823 743e c1df d9bd eeb3 e23c
000000e0: 866d 183d 0d9e 95be 8fbf 9b3d da3b 2f3d
000000f0: 1db3 133e ab7e bb3c cd57 a8bc 70b7 343f
00000100: fe4e db3c db0e 33bd a4a9 46bc a5f0 1b3f
00000110: a2e3 7fbd e8cf 30bf 80ad 793e 0fad d7bd
00000120: c2b1 003e c476 a1bd 407b 433b 7764 89bb
00000130: 6b40 253e 7c9a 67bd c75a 933c 3d5c 61be
00000140: 995e 913e 8c47 183d 6a16 34be a140 053f
00000150: 98f6 c63b de81 01bf 8f4d f0ba 20ab d5ba
00000160: 9afe f73e 1b38 823e b010 ad3d 5ef4 1ebe
00000170: caef b7bc 5780 3abd 3dc9 dbbc c5fc 0d3f
00000180: fa5e 403e fb5d 41be ae90 45bd 3ab4 3e3e
00000190: ac24 05bc 514e a33b 0099 5d3c 1031 55bd
000001a0: 5dd4 ddbe 0559 b03e 8984 03bf 367a fbbd
000001b0: 0076 2abb bcb3 4bbd 8ccd 3b3d 8719 1b3d
000001c0: d31d 9f3e 3d30 70bb 1acc 56bc 31d6 4ebe
000001d0: 4a8e 9bbd 5d99 90bc 602f 69bd d58f 84be
000001e0: 477f a0be eba4 11bd 80f4 90be d629 303f
000001f0: 225c b7bd 7ec7 49bf e464 853b 3c4f 38bd
00000200: e7f5 a13e b3e6 da3e d6d9 8d3f a85c d33e
00000210: 789e d7bc 5511 48bd e384 963c c5ca 8fbe
00000220: 9988 d9be 39a4 e23e 4f08 e8be 4cde 2cbd
00000230: 620b debc d502 27bf 575d 8cbf a2aa 9abe
00000240: 8bd7 ecbe 94fb 93bc e470 65bf 6626 693f
00000250: edfa 3d3f 4212 d5bc 31b6 c73e 988e 9ebe
00000260: b1a3 49bc 1320 0e3d 2450 8f3e 1e6e 8dbb
00000270: 0a8e c03c 9783 b0bd c4ea 2cbd 4aa7 a1bb
00000280: 9796 9b3e 12ad 06bf ba19 553d 05e3 1bbe
00000290: d468 0ebe ae01 0b3e b90f 04bf e96e 73be
000002a0: 7ac2 873c 84c8 d4bd 9654 f9bd 9d4a ad3d
000002b0: 6f73 c3be 6b43 fe3c 80b1 a73c 8665 f7be
000002c0: bd0f afbc aaef afbe f3fb 0b3c 5762 7bbe
000002d0: f645 e53e 8ac2 9fbc 39e3 26bd 686b c53e
000002e0: 86d7 2dbf 7281 14bd 123c bc3e 8177 a5be
000002f0: 7436 31ba aac4 cf3c 02bb 8ebd 71b7 55bd
00000300: 326d 2abd ead8 b63d b4ff 9c3b daa9 883d
00000310: c61f e8be 9d8d 0ebe 82d9 58bc cf68 a6be
00000320: a18a b1be 578b 6dbf ac89 203e b634 16bd
00000330: f6ce e73e 51d7 c5be bb38 4f3d b80e b33e
00000340: 929d 433f 9639 dc3c 9c7a 153d 814b 823e
00000350: 629b 4dbe 6d70 c5be adb3 c0be eda2 0e3b
00000360: c31c 99bd 0633 643e 6941 013d 2147 843d
00000370: 51ac f5be b627 0f3d 6fcb 1abd 98c7 4ebc
00000380: 9d48 f5bc d174 a1bd 0aff 413e 13c7 dfbd
00000390: 29f1 8f3d 8753 b9bb bb79 873e bed8 313f
000003a0: 03b3 2f3b de4a b33e 9de2 bf3e 9541 7a3f
000003b0: f1f4 4bbe 105d 39bb fbba a5be 6222 4cbd
000003c0: 2fe3 c6bc 4c6f acbc 5041 b0bc 5af2 8cbd
000003d0: b35a 873c 732d f8bd 2a8d 4f3f 3e2b 28bd
000003e0: 9ddb 133e 1820 613f 42dc 493d 10c7 0bbb
000003f0: 2f63 f33c 5995 643c c3bf 95be ebc2 d5be
-0.18269363 0.009024328 -0.008491952 -0.9697526 -0.14740452 0.3295266 0.047583207 0.72924703
0.73559415 -0.013973797 0.4078979 -0.031715345 0.06131591 0.82343775 -1.0052527 -0.028117625
0.19691719 0.018142778 -0.036851007 -0.036041815 -0.20473778 0.112706125 -0.050584022 -0.13853665
0.4207566 0.01122239 -0.024832357 -0.044559266 -0.5173002 0.1589142 -0.29524747 -0.05852541
0.114942856 -0.37032482 -0.05463116 -0.26960248 -0.039838992 -0.040763933 0.23688133 -0.006501094
-0.011000008 -0.10584046 0.31739554 -0.047199912 -0.5271554 0.0146128945 -0.22913033 0.6210413
-0.5595418 -0.04646661 -0.77628374 0.0759872 0.026733043 0.23841774 -0.10638381 0.027673688
0.037213825 -0.29222146 0.07604896 0.04278169 0.14423795 0.022887548 -0.02054968 0.70592403
0.026771065 -0.04371534 -0.012125406 0.6091407 -0.062472947 -0.6906724 0.24382591 -0.10531055
0.12567809 -0.07883981 0.0029828101 -0.0041928845 0.16137855 -0.056543812 0.017987622 -0.22007842
0.28392485 0.037177607 -0.17586675 0.5205174 0.0060718767 -0.50588787 -0.0018333661 -0.001630161
0.48436433 0.2543343 0.084504485 -0.15522906 -0.022453208 -0.04553255 -0.026829356 0.5546382
0.1878623 -0.18883507 -0.04823368 0.18623438 -0.008126419 0.0049837013 0.013525248 -0.052048743
-0.43326083 0.34442917 -0.5137411 -0.12279169 -0.0026010275 -0.049731955 0.04585032 0.03786614
0.31077442 -0.0036649846 -0.013110185 -0.20198895 -0.07595499 -0.017651254 -0.056929946 -0.25890985
-0.31347105 -0.03555767 -0.2831154 0.68813837 -0.0895312 -0.78820026 0.004070865 -0.04499744
0.3163292 0.42754135 1.1082103 0.4128163 -0.026320681 -0.048844654 0.018373912 -0.28084388
-0.42487028 0.44265917 -0.4531884 -0.042204186 -0.027105037 -0.65238696 -1.0965985 -0.30208308
-0.46258196 -0.018064298 -0.8962538 0.91074216 0.7421101 -0.026009683 0.3900619 -0.30968165
-0.0123070935 0.034698557 0.2799083 -0.0043161055 0.02350523 -0.08618849 -0.042216077 -0.0049332725
0.30388328 -0.52607834 0.052026488 -0.1522332 -0.13907176 0.1357486 -0.5158649 -0.23772778
0.016572226 -0.10389808 -0.121743366 0.08461497 -0.38174006 0.031038007 0.02047038 -0.48319644
-0.02136981 -0.34362537 0.008543956 -0.24549232 0.44779938 -0.019501943 -0.04074404 0.38558507
-0.6790699 -0.03625626 0.3676458 -0.32317737 -0.00067601283 0.025362331 -0.06969263 -0.052176896
-0.041608043 0.08928092 0.0047912244 0.066730216 -0.4533674 -0.13921209 -0.013235452 -0.32501838
-0.34676078 -0.9279074 0.15677518 -0.036671363 0.45275086 -0.38640836 0.05059121 0.34972167
0.7641231 0.026882928 0.036493883 0.2544823 -0.20078805 -0.38562337 -0.37637082 0.0021764592
-0.07476189 0.22285089 0.03155652 0.06458879 -0.4798303 0.03494998 -0.037791666 -0.012620829
-0.029941851 -0.07883609 0.18944946 -0.10926642 0.070284195 -0.005655709 0.2646006 0.6947135
0.002680958 0.35018057 0.3747758 0.9775632 -0.19917656 -0.002828423 -0.32369217 -0.049837478
-0.024278251 -0.021049164 -0.021515518 -0.068821624 0.016522741 -0.12118044 0.81074774 -0.041056864
0.14439245 0.87939596 0.04928232 -0.0021328367 0.02971038 0.013951623 -0.29247865 -0.41750273

output.bias f4 [5]
00000000: 0c96 a03e 82bf 71bd d311 0fbf c9e4 cb3c
00000010: 53fe 4f3e
0.31364477 -0.059020527 -0.5588657 0.024889367 0.2031186

momentum_buffer f4 [659, 64]
00000000: eb1c 0d3f 4d60 8ebd 7f64 c13d 48dd 613e
00000010: 0bd8 b9bd 4419 a33d 8e6c 933e 340e 983e
00000020: 4857 9a3d 1ea2 b2bd 0303 aabd 3f75 f73d
00000030: ab54 d5bd 1b35 273d 76f3 96bb 7c89 b33d
00000040: ba46 a7bd 7f60 423e 60b9 113d 095b a13e
00000050: 249d 9e3e 4760 d0bd a34d 58be 1cb9 6fbd
00000060: 5f19 ea3c 24ab cdbe 52c4 53bd 82ce 90bd
00000070: e834 67be 0d1c ee3c 962e 363c 64d3 5dbc
00000080: 8c71 543e 5295 c83e 8479 893d 3af4 d5bd
00000090: 0373 e33c 1313 13be 6698 5ebe 5209 18be
000000a0: 17d7 903e 1c5b 9dbd 811d 1fbe 4654 e03e
000000b0: 5eeb efbd 26c5 243e 3bba c2bd e723 02be
000000c0: f8e3 f73d 6ba5 d1bd aa3f d7bd 3b27 1ebe
000000d0: 3ec5 5e3e 1a27 98be 614b 0b3e 30cd 49bd
000000e0: e49a 303e cbc4 d93e c068 263e 6e35 0f3e
000000f0: d9ff 663e 26b7 00be 1e19 f9bd 38f9 983d
00000100: 7e0e 283b 140e 7a39 0cbe 833a fae9 abb9
00000110: 4779 9e3a 02ad 9b3a 9af5 87ba a1fa 5d3a
00000120: 4735 353a 0713 f5b9 db94 01ba 60e4 9db9
00000130: e87e c23a fef7 90ba 5767 efb9 7842 313a
00000140: 3e22 27ba 505c 29b9 5dab 85b9 ae30 3fb9
00000150: 7103 f3ba 5bdb 38ba ce37 20bb e071 f039
00000160: 0a67 c9b8 e390 29ba 8033 8e3a 92e7 063a
00000170: e655 c6b8 a888 6838 de1d f139 4677 94b9
00000180: 0e1a f1b9 1d91 be3a da8f a33a 48f9 e2ba
00000190: fcb8 2dba eb1c 8a3a 3995 21b9 27fa d63a
000001a0: 3787 c3ba 8c8c 2739 29e7 22ba 5506 e439
000001b0: 3940 2139 e0a2 bd3a b2c7 0db9 7634 ffb9
000001c0: 573d 9b3a ddd5 efb9 1225 9339 f288 1d3a
000001d0: f335 84ba 004f 8eba 9843 893a cf10 d1ba
000001e0: 9194 b33a 26eb ff39 e2d9 6cba 7d91 d7b9
000001f0: 0678 4539 624c 203a e828 893a 9499 acb9
00000200: 7aa9 193b 8ce8 26b9 6464 d63a 844c a4ba
00000210: 55f2 253b 95a3 a33a 3726 fcba e67f 553a
00000220: 0fa0 8d3a a3e6 76ba f2b3 cdba aa80 30ba
00000230: 8434 ed3a 5003 c9ba d2d5 bf38 420f 803a
00000240: 46dc 1739 97b7 5d39 b202 3bb9 4051 6aba
00000250: 5a82 30bb b705 71ba b235 f1ba 2bbf cd39
00000260: c281 543a 9ded 69ba 761a 173a 6a46 093a
00000270: 300d 6eb8 194f 09b9 46d7 e3b7 bd07 fdb8
00000280: 7fd2 53ba c478 d03a 481d 083b 2a41 99ba
00000290: 18f2 d0ba 04c4 9e3a 492c ef39 6c97 dd3a
000002a0: 1511 9bba 708b 7836 26ef c039 587f 153a
000002b0: 54e6 a73a ca21 c63a be30 62ba df8b 45ba
000002c0: e3ce a33a 6ac6 3dba 6adb b2b9 ceb4 7b3a
000002d0: d24d 45ba f60e 0db9 f97f e93a 549a 0ebb
000002e0: 33c1 573a b64c 6b3a b0ab 5e37 157f 19ba
000002f0: 3d77 413a f608 143a 3ba3 ba3a 5d13 efb9
00000300: ec55 163b bd0f fa39 5737 18bb cbb7 243b
00000310: a4b3 2bbb cc57 2f3a 3c20 ea3a 0d17 b93a
00000320: f8e1 55ba f029 50ba ff73 b33a e4de c03a
00000330: cc5f 2339 504e 40b8 d9ed acba c70c 8bba
00000340: 6084 eeba 7b10 ccb9 719c dab8 36fb 273b
00000350: 8673 4d3b 88ab 543a 5ffa 35bb 6264 0dba
00000360: 15c5 12bb 20fe 71b7 2cff 8f39 796c 3dba
00000370: bd42 61ba 2596 f43a d1a9 58b9 17dc 58b9
00000380: 273d 683a dc7d 803a 0c6e 38ba cc94 d2ba
00000390: 2856 173b 1276 a4ba 3a67 fbba b4d9 8cba
000003a0: 70a2 d539 f145 f1b9 7b29 27bb 94a3 db3a
000003b0: 0331 1abb 5a6a 2c3a 2136 cf3a 3852 6fba
000003c0: af36 8139 7ee9 d8b9 9447 593a 049d 96ba
000003d0: 799d f13a 4723 33bb 3a31 c4b9 083c 53b9
000003e0: d105 063b c679 ce39 b8a0 74ba c02a 053a
000003f0: d2b7 dd39 988d 57ba 40b9 59b8 000a 7239
0.5512225 -0.06951962 0.09442996 0.22057068 -0.0907441 0.079638034 0.28793758 0.29698336
0.07536179 -0.08722328 -0.08301356 0.1208291 -0.1041654 0.04082213 -0.0046066595 0.087664574
-0.08167787 0.18982123 0.035577178 0.31514767 0.30979264 -0.101746134 -0.21123366 -0.058526143
0.028576551 -0.40169632 -0.051700898 -0.07070638 -0.22578776 0.02906611 0.011119505 -0.013539169
0.2074644 0.39176422 0.067126304 -0.10446973 0.027764803 -0.14362745 -0.21737823 -0.14847305
0.282891 -0.07683393 -0.15538599 0.43814296 -0.117148146 0.16090831 -0.09508177 -0.12709008
0.121040285 -0.10236629 -0.1051019 -0.15444653 0.2175493 -0.29717332 0.13602974 -0.049267948
0.17246586 0.42532954 0.16250896 0.13985226 0.22558536 -0.12569866 -0.12162994 0.0746941
0.0025643404 0.00023847102 0.0010051145 -0.00032789988 0.0012090587 0.0011877122 -0.0010372878 0.00084678276
0.0006912541 -0.00046744218 -0.00049431407 -0.00030115526 0.0014838846 -0.0011060236 -0.00045662627 0.0006761919
-0.0006375647 -0.00016151485 -0.00025495412 -0.00018233314 -0.0018540454 -0.00070517295 -0.0024447325 0.0004586121
-9.6036194e-05 -0.0006468428 0.0010849088 0.0005146201 -9.4573756e-05 5.544038e-05 0.00045989355 -0.00028317625
-0.00045986514 0.0014539097 0.0012478784 -0.0017316723 -0.0006626991 0.0010537183 -0.00015409746 0.0016401456
-0.0014917616 0.00015978719 -0.0006214255 0.00043492267 0.00015378081 0.0014468096 -0.000135212 -0.00048676477
0.0011843842 -0.00045744973 0.00028065644 0.0006009481 -0.0010086879 -0.0010857284 0.0010472415 -0.0015950444
0.0013700892 0.0004881259 -0.00090351526 -0.00041116393 0.00018832096 0.00061148976 0.0010464462 -0.0003292082
0.0023446963 -0.00015917624 0.0016356823 -0.001253501 0.0025321443 0.0012484664 -0.0019237463 0.00081443635
0.0010805147 -0.0009418523 -0.0015693887 -0.00067330396 0.0018097316 -0.001533607 9.147417e-05 0.0009770172
0.0001448254 0.00021144595 -0.00017834714 -0.0008938499 -0.0026933164 -0.0009194272 -0.0018402843 0.00039243078
0.00081064936 -0.0008923652 0.0005764136 0.0005236628 -5.6755904e-05 -0.00013094804 -2.7160753e-05 -0.000120654215
-0.00080803776 0.0015905132 0.0020769406 -0.0011692394 -0.001594129 0.001211286 0.00045618627 0.0016906089
-0.0011830652 3.7036043e-06 0.00036799273 0.00057028746 0.0012809732 0.0015116271 -0.0008628479 -0.0007535796
0.001249757 -0.0007239344 -0.00034114282 0.0009601832 -0.000752655 -0.00013452381 0.0017814628 -0.0021759467
0.0008230388 0.00089759694 1.3272205e-05 -0.00058554235 0.00073801336 0.0005647087 0.001423932 -0.0004560006
0.0022939397 0.00047695442 -0.0023226344 0.0025133963 -0.0026199603 0.0006688803 0.001786239 0.001412125
-0.0008158977 -0.00079408195 0.0013691186 0.0014714864 0.00015580578 -4.58493e-05 -0.0013193443 -0.0010608666
-0.001819741 -0.0003892219 -0.000104241895 0.002563191 0.0031349375 0.00081127184 -0.002776764 -0.00053936813
-0.0022395302 -1.44238875e-05 0.00027465203 -0.00072259415 -0.00085930136 0.0018660469 -0.00020662627 -0.00020681355
0.000885921 0.0009803134 -0.0007035441 -0.0016066073 0.0023092125 -0.0012547395 -0.0019180544 -0.0010746033
0.0004074755 -0.00046019212 -0.0025506902 0.0016757124 -0.0023527748 0.0006577127 0.0015808978 -0.0009129378
0.0002464554 -0.00041372696 0.0008288559 -0.0011490886 0.0018433771 -0.002733426 -0.0003742071 -0.00020144891
0.0020450244 0.0003938211 -0.000933181 0.00050799176 0.00042289362 -0.0008222698 -5.190936e-05 0.00023082644

momentum_buffer f4 [350, 64]
00000000: aeea ae3a 195a e53a 5841 ea3a 6007 9a39
00000010: abd2 ceb9 947d a1ba 33b2 97b9 76ba 373b
00000020: 025a 0bba 525b e83a d684 a6b9 28a2 81ba
00000030: 410c 0fba bca4 0cbb 2629 efba 6e0a 7d39
00000040: 921f 0f3b 1f9d 0e3b 6743 bdb9 8adc a4ba
00000050: a142 ccba 8a1c c13a 41ca 3cb8 2c0c f5ba
00000060: 6a31 b4b8 df31 c539 5a80 8539 5c95 8eb9
00000070: 0e4a 17bb a45d 14bb 6155 a4ba 4269 6d3a
00000080: 9e77 583a 90df 91b9 4a5c ef3a 1529 99b9
00000090: e26b 3aba 5576 103a 40c6 47b9 e000 9cb9
000000a0: e180 3c39 f52e ecba f6e1 a03a 2afc 0bba
000000b0: c71a 41b9 9a8a 3cbb 0e77 c63a 608c 2a3b
000000c0: 6bba 643a cb4c 0bba 46d7 02bb 0419 92b9
000000d0: 415b 58ba dc4b 2b3a 42a5 3fba 7dcd 5d3a
000000e0: 0834 173a 75b0 45ba 1e76 aeba d398 96bb
000000f0: c4a9 f63a 34a2 073b 27be 16bb 76cc 403a
00000100: ace6 d933 df5f 99b3 993f e533 8351 4e33
00000110: 25b0 62b2 b28e 13b3 2399 8d33 d70a 8333
00000120: 5c83 e632 d870 3533 3b3a 7a33 7b31 d433
00000130: 59c4 bab3 c451 6233 e48e f6b3 5f11 55b3
00000140: 9e67 e5b2 09cf 75b3 9a48 34b3 ed1f ca31
00000150: 2534 1c34 9f7f c7b3 e8bb 0832 43ab b332
00000160: b4aa 6833 03d8 5f33 2440 93b2 05ad 50b2
00000170: 1408 21b3 bbff 8fb2 027b 9c33 f7e7 87b3
00000180: 7bd4 fb32 e723 29b3 353c 7e32 bb74 68b2
00000190: 6b00 aa30 6500 0bb3 9936 4d33 f57b f9b0
000001a0: d94b 4d33 3639 10b4 0225 c432 5460 fcb2
000001b0: ba03 5433 5295 aab2 0812 89b3 30c4 8b33
000001c0: dfa8 ae33 d3d8 3e33 bdcb 2c33 d11e 01b3
000001d0: 2553 09b3 fdc7 2d33 87ed 95b2 9832 e432
000001e0: ae8e 3633 3073 f932 dd8b 9533 28bf b632
000001f0: 88ff f632 fb39 a733 7df2 79b3 0d19 e432
00000200: 0400 0080 0400 0000 0400 0000 0400 0000
00000210: 0400 0000 0400 0080 0400 0080 0400 0080
00000220: 0400 0080 0400 0080 0400 0000 0400 0000
00000230: 0400 0000 0400 0080 0400 0080 0400 0080
00000240: 0400 0000 0400 0080 0400 0080 0400 0080
00000250: 0400 0000 0400 0080 0400 0000 0400 0000
00000260: 0400 0000 0400 0000 0400 0080 0400 0000
00000270: 0400 0000 0400 0000 0400 0080 0400 0080
00000280: 0400 0080 0400 0080 0400 0000 0400 0000
00000290: 0400 0000 0400 0080 0400 0000 0400 0080
000002a0: 0400 0000 0400 0080 0400 0000 0400 0080
000002b0: 0400 0000 0400 0080 0400 0080 0400 0000
000002c0: 0400 0000 0400 0000 0400 0080 0400 0000
000002d0: 0400 0080 0400 0000 0400 0080 0400 0000
000002e0: 0400 0080 0400 0080 0400 0000 0400 0080
000002f0: 0400 0000 0400 0000 0400 0000 0400 0000
00000300: 8502 863c 1159 a13c 47ac 7f3b 4940 b83b
00000310: 21e7 55bc ecac 40bc 7842 903b a9e6 0d3d
00000320: 46bf a6bb ed50 b13c 7585 dbbb 30e9 ccbb
00000330: a29a 0fbb 7603 b0bc 2b1d 8fbc 358d a53b
00000340: b21b ca3c e407 ec3c 5a41 21bc d1f1 70bc
00000350: 0452 43bc 874e da3c 8a6f 003c c8a5 00bd
00000360: cc4c 3bbc 6b2a 2c3c 331d 233b 9e49 2bbb
00000370: c639 bfbc 0212 e8bc 52a3 87bc c591 753c
00000380: 9a2f 1c3c 7d4d bdba a432 1c3c 2079 47bb
00000390: 621b 02bc 114b eeba aac4 1fbc c490 f2bb
000003a0: 7775 073a 1b0d 4dbc 9d3e e13b 8e6f 08bb
000003b0: 1c26 f3bb 4dce 20bd ec5d c23c 489e dd3c
000003c0: aafd 333c 54c5 80bc d2cb 99bc 587c 4ebb
000003d0: 21ac 3e3b 8c6a 133c 3880 0ebc 2945 de3b
000003e0: 3ab7 b63b 3191 5cbc 9e44 d0bc a09f 6fbd
000003f0: 0da1 d23c 6c1a a93c 5f6e f8bc d353 0e3c
0.0013345086 0.0017498165 0.0017872257 0.00029378664 -0.00039448342 -0.001232075 -0.00028933733 0.0028034723
-0.00053158414 0.0017727411 -0.00031760958 -0.0009890245 -0.0005456843 -0.0021460494 -0.0018246516 0.00024131846
0.0021838886 0.0021761132 -0.00036099108 -0.0012577933 -0.0015583822 0.0014733237 -4.5011056e-05 -0.0018695644
-8.592273e-05 0.00037611925 0.00025463366 -0.00027195632 -0.0023084912 -0.0022638822 -0.0012537652 0.0009056517
0.00082575704 -0.00027823122 0.0018261757 -0.00029213043 -0.00071114127 0.0005510797 -0.00019051973 -0.0002975529
0.00017977088 -0.0018019365 0.0012274373 -0.00053400046 -0.0001841589 -0.0028769136 0.0015141682 0.0026023611
0.0008725288 -0.0005313872 -0.0019964739 -0.00027865928 -0.0008253344 0.0006534436 -0.0007310697 0.0008461101
0.0005767946 -0.0007541248 -0.0013310348 -0.004595855 0.0018818905 0.0020696046 -0.0023001523 0.0007354686
1.0146809e-07 -7.1420565e-08 1.0675212e-07 4.8037247e-08 -1.3194982e-08 -3.4355885e-08 6.5936796e-08 6.1021346e-08
2.683526e-08 4.2244977e-08 5.826062e-08 9.88102e-08 -8.6970154e-08 5.269409e-08 -1.1481259e-07 -4.9608726e-08
-2.6706228e-08 -5.7231805e-08 -4.1975547e-08 5.8826033e-09 1.4547602e-07 -9.289874e-08 7.958967e-09 2.0916223e-08
5.4171963e-08 5.2117695e-08 -1.714222e-08 -1.2146534e-08 -3.749308e-08 -1.6763684e-08 7.286691e-08 -6.3286215e-08
2.931687e-08 -3.938103e-08 1.4798435e-08 -1.3530719e-08 1.2369247e-09 -3.236382e-08 4.777994e-08 -1.8152365e-09
4.7799265e-08 -1.3431858e-07 2.2834232e-08 -2.9380466e-08 4.9363486e-08 -1.9858508e-08 -6.3828395e-08 6.508378e-08
8.133224e-08 4.4435023e-08 4.023217e-08 -3.006318e-08 -3.1973418e-08 4.046159e-08 -1.7453898e-08 2.65657e-08
4.2504944e-08 2.9039796e-08 6.963794e-08 2.1274516e-08 2.8754371e-08 7.78709e-08 -5.8195372e-08 2.6554085e-08
-6e-45 6e-45 6e-45 6e-45 6e-45 -6e-45 -6e-45 -6e-45
-6e-45 -6e-45 6e-45 6e-45 6e-45 -6e-45 -6e-45 -6e-45
6e-45 -6e-45 -6e-45 -6e-45 6e-45 -6e-45 6e-45 6e-45
6e-45 6e-45 -6e-45 6e-45 6e-45 6e-45 -6e-45 -6e-45
-6e-45 -6e-45 6e-45 6e-45 6e-45 -6e-45 6e-45 -6e-45
6e-45 -6e-45 6e-45 -6e-45 6e-45 -6e-45 -6e-45 6e-45
6e-45 6e-45 -6e-45 6e-45 -6e-45 6e-45 -6e-45 6e-45
-6e-45 -6e-45 6e-45 -6e-45 6e-45 6e-45 6e-45 6e-45
0.016358623 0.01969579 0.0039012597 0.0056228978 -0.013055594 -0.011759978 0.004402455 0.034643803
-0.0050887195 0.021645034 -0.006699259 -0.006253384 -0.0021912237 -0.021486025 -0.017469963 0.0050522336
0.02467141 0.028812356 -0.009842241 -0.014706091 -0.0119214095 0.026648773 0.007839093 -0.0314081
-0.011431884 0.01050816 0.002488923 -0.0026136409 -0.023342978 -0.0283289 -0.01655737 0.014988367
0.0095328335 -0.0014442649 0.009533558 -0.0030437186 -0.007941099 -0.001818033 -0.009751478 -0.0074025113
0.0005167345 -0.012515332 0.006873919 -0.0020818445 -0.0074203145 -0.039259244 0.023726426 0.027053013
0.010985771 -0.015719093 -0.018773947 -0.003150722 0.0029094296 0.008997571 -0.008697562 0.006783147
0.0055760415 -0.013462351 -0.025423344 -0.05850184 0.02571156 0.020642482 -0.030326067 0.008686977

momentum_buffer f4 [350]
00000000: f677 8bbb 4916 1bb5 0400 0080 9241 05bd
00000010: a2d8 7fbc f6a7 f83b 663b 072a 50ab 20bb
00000020: 1028 003c 0400 0080 9ab5 db3c 90f3 603c
00000030: 7930 1cbd d4bd 03bb c4fd af3c 4766 31bc
00000040: 4748 903d 0000 0000 7e29 95bb b211 4437
00000050: 8fa4 1a3d 8c5f 8cbb a188 7437 ba94 a63b
00000060: 2c9a f23b 5c98 48b5 965b 653a 8072 e736
00000070: e9e6 aa3b 66a8 bf3b 1504 11bc baf8 2334
00000080: 8459 60bd 98c2 3a3c a4b3 8b37 4cae 593a
00000090: 0400 0000 b86b 8f2e 2cb2 183a 915a b4ab
000000a0: 9b9d 0fb7 2554 f0bc 551c 9c3c 0000 0000
000000b0: 887a 1b3d 0000 0000 8043 ca38 9a59 c7bc
000000c0: 7553 0bbc 7945 33bb 8c2f a2bc 4e63 8ab7
000000d0: 183f ddb3 5bad eb3b f3db b93c 0000 0000
000000e0: 7296 d6b6 3059 a83c 935a 03bb 0400 0000
000000f0: 880c 703a c0cf 0fbc 9599 88b3 e814 b9bc
00000100: 2f8b 20ac d31e 96ba 4182 9fb3 79eb 983c
00000110: 2c83 e636 e395 b8bb d9b7 393c 5681 75bc
00000120: bf61 b53c 185c 23bd 0000 0000 ed77 253b
00000130: 56c7 87ba e3cd 0bbd 1166 3ab7 87e5 e03c
00000140: 18f8 1c3b 0400 0080 adc4 1a3d 721c e03b
00000150: 3cd5 863b 38d6 1abc 2465 c73c 0000 0000
00000160: 8285 fbbb d0cd 483c 8f10 06bc ecbd c63b
00000170: a681 8031 f656 7fbc e377 0237 9ae4 9ebc
00000180: d80a b13b a8cd 98bb ba62 0ab4 36cc f2bb
00000190: 9a9e 8b33 e655 81b4 7de2 82b1 60e0 a937
000001a0: a65c 6c3c 2c92 db3b 7a5e 2bbb b411 253b
000001b0: da02 08af 0000 0000 b070 83b7 4659 0eb0
000001c0: 4e57 893c e118 abb0 25ff 91b0 e8f9 11bc
000001d0: ecc9 6d3c 676b 06b0 c1ff 233c fbd5 a93c
000001e0: bb74 373c c2fc 043c 8ea7 573c b32f 9cbc
000001f0: 7371 563c 4494 523d 8b13 53bb b11d 56bc
00000200: eb56 f9bc f409 bb3c 6d66 4e3d 3689 d43b
00000210: 9b20 c02a 5c8a 7b30 bb13 1b2f e8fc 8cbb
00000220: d8be 823c 5aa3 383b aa18 6fbb 8cc5 fbb2
00000230: a6e4 0b2f 5a5e 533d 7999 1bbc 06bb 8cbc
00000240: 0f67 ec3a 3da3 ff36 154d 183c 5bf2 4c3c
00000250: a8c8 dc3c 0000 0000 4011 323c 6e2b 843c
00000260: 0078 4132 0000 0000 0de8 823c a06b 5130
00000270: 0400 0080 483b de3b 06a0 013d 0281 9037
00000280: 1847 e63a b443 d4bb d061 0ab9 0cfe 253b
00000290: a80b 85bc 8459 f93c a303 c63b 4604 a1ba
000002a0: 69c2 98b6 7272 be3b f04b b43b f893 1ab9
000002b0: d81a c83b 00f1 07bb 9e56 2b3c 2c07 35bb
000002c0: 90f5 a23b a2c7 523c 090f 4031 3527 2ebd
000002d0: e59a 153d 0e88 b630 22ce 37b4 123e fe3c
000002e0: 3eee 1cbc 3a34 06bc 747b a7bd cf22 0dbc
000002f0: 4db5 9537 979a 59b4 f853 74bc ed50 17bc
00000300: 36fc a732 9e4f 023d 2806 ea23 9e45 65b7
00000310: 4d74 8e3a d714 623b b8d3 66b2 fc20 efbb
00000320: de3e a53b 1775 9f3c f2aa 243c 0000 0000
00000330: e9b4 8fbc ac2b c1bb 0000 0000 d604 783d
00000340: d700 3dbd 0400 0080 236d 7d1c 98d9 893c
00000350: 1939 92bc 830f cabb a09f a7bb 777d 8cba
00000360: 7ae3 ebbc 7b85 873c ddce e131 adfa 86b7
00000370: 3fc0 a6bc 2615 1ab0 5d9f 27b7 9b3f a23c
00000380: 6fe6 2fbc c09a cebc e9f0 363c ae96 85bc
00000390: 1c63 42bd 0b36 b02f 2450 6e3c 7e72 1d3d
000003a0: bc16 b231 1f04 13bc 5084 a23c fd74 613c
000003b0: 3141 3b3c 0000 0000 6047 dbbc cc74 c135
000003c0: 7689 0534 0000 0000 0000 0000 8e33 c23b
000003d0: 052b 0032 0558 353a 8a74 c8bb e097 ec2b
000003e0: 7894 c2bb a0d8 363d 50c6 8834 0000 0000
000003f0: 1c23 24b2 0e83 5ab1 c3b7 a63c 0897 c9bb
-0.004256244 -5.777443e-07 -6e-45 -0.032533236 -0.015615614 0.007588382 1.2011017e-13 -0.0024516173
0.007822052 -6e-45 0.026819993 0.013729945 -0.038132165 -0.002010216 0.02148331 -0.0108276075
0.07045036 0.0 -0.0045520654 1.168663e-05 0.03775459 -0.004283851 1.4575345e-05 0.0050836476
0.0074036326 -7.472752e-07 0.0008749304 6.897666e-06 0.005215515 0.005848932 -0.008851071 1.5271044e-07
-0.05477287 0.011398934 1.6653743e-05 0.00083038653 6e-45 6.522022e-11 0.00058248895 -1.2814906e-12
-8.56016e-06 -0.029336998 0.019056479 0.0 0.03795865 0.0 9.6446835e-05 -0.024334718
-0.008503784 -0.0027354641 -0.019798063 -1.6497124e-05 -1.0302591e-07 0.0071922964 0.022687888 0.0
-6.395211e-06 0.02055034 -0.0020043 6e-45 0.0009157141 -0.008777559 -6.36093e-08 -0.022592977
-2.281463e-12 -0.0011453278 -7.4277075e-08 0.01866697 6.8698046e-06 -0.0056331023 0.011335337 -0.014984449
0.022141336 -0.03988275 0.0 0.0025248483 -0.0010359089 -0.034131896 -1.1110228e-05 0.027453197
0.0023951586 -6e-45 0.03778522 0.0068393284 0.004114775 -0.009450488 0.02434022 0.0
-0.0076758275 0.012256101 -0.008182659 0.006065121 3.7400296e-09 -0.015584698 7.776517e-06 -0.019396115
0.005402904 -0.004663188 -1.2888168e-07 -0.0074095977 6.501541e-08 -2.4090622e-07 -3.8092467e-09 2.0250853e-05
0.014426386 0.0067007747 -0.0026148842 0.0025187554 -1.2370141e-10 0.0 -1.5668891e-05 -5.1786164e-10
0.016765263 -1.2448959e-09 -1.0622655e-09 -0.00890968 0.014513474 -4.8901544e-10 0.010009707 0.020731917
0.011197264 0.008116903 0.013162507 -0.019065714 0.013088572 0.05141093 -0.0032207693 -0.013068602
-0.030436954 0.022831894 0.05039065 0.0064860834 3.4128676e-13 9.150989e-10 1.4104178e-10 -0.0043026097
0.015960142 0.0028173537 -0.0036483207 -2.931008e-08 1.2723209e-10 0.051603653 -0.00949704 -0.017179023
0.0018036085 7.6185956e-06 0.009295722 0.012508954 0.02695115 0.0 0.0108683705 0.01613399
1.1261363e-08 0.0 0.015979791 7.61867e-10 -6e-45 0.006781969 0.03164675 1.7226212e-05
0.0017568795 -0.0064777974 -0.00013197144 0.0025328426 -0.01624091 0.030438192 0.006042914 -0.0012284599
-4.5525853e-06 0.005811983 0.0055022165 -0.00014741707 0.0061067156 -0.0020743012 0.010457663 -0.0027622683
0.004973121 0.012864979 2.7948224e-09 -0.04251786 0.036524672 1.3280912e-09 -1.7118194e-07 0.031035457
-0.009578286 -0.008191163 -0.08177844 -0.008614256 1.7846609e-05 -2.026594e-07 -0.014912598 -0.009235603
1.9556051e-08 0.03181421 2.5372938e-17 -1.3665673e-05 0.00108684 0.0034497285 -1.3435901e-08 -0.007297633
0.0050428947 0.019465012 0.010050522 0.0 -0.01754232 -0.0058950987 0.0 0.060551487
-0.04614338 -6e-45 8.3851734e-22 0.01682739 -0.017849492 -0.0061664 -0.0051154643 -0.0010718544
-0.028794993 0.01654314 6.5718795e-09 -1.6090775e-05 -0.020355342 -5.605493e-10 -9.99108e-06 0.01980572
-0.010736092 -0.025220275 0.011165836 -0.016307201 -0.0474578 3.2052613e-10 0.014545474 0.038439266
5.1830664e-09 -0.0089731505 0.019838482 0.013760802 0.011429117 0.0 -0.026767433 1.4413613e-06
1.2436598e-07 0.0 0.0 0.005926556 7.460362e-09 0.0006917718 -0.006117408 1.6810962e-12
-0.005938109 0.044640183 2.5476265e-07 0.0 -9.554039e-09 -3.1797671e-09 0.020351296 -0.0061520375
