CS4248 NLP/Assignments/Assignment 2/a2_files/model.pt (torch, 185351 bytes, 10 tensors)

embedding.weight f4 [662, 16]
000000 d5 d6 24 bf 96 a1 ee be b5 5a 38 be 17 85 3a be
       -0.6439031 -0.46607655 -0.18003352 -0.18214832
000010 7a df d5 3e 29 93 d0 3e 4c a3 fe bd 66 f2 87 bf
       0.41772062 0.40737274 -0.1243349 -1.0620849
000020 24 d3 1b 3d 35 75 0a bf 48 ad 23 3e a6 63 8c 3e
       0.038043156 -0.54085094 0.1598407 0.27419776
000030 7e 3d 05 3e e7 97 17 3f 26 11 05 3f 11 e1 11 be
       0.13011739 0.5921616 0.5197929 -0.14246012
000040 69 d7 a3 bf db b4 bb bf 73 e7 2c 3e c7 b5 5c 3e
       -1.2800113 -1.4664568 0.16885166 0.21553718
000050 de 17 a8 3f c6 c4 16 c0 7a 92 1a bf 56 72 f6 3f
       1.3132284 -2.35576 -0.60379755 1.9253643
000060 95 37 8e 3f 6b fd f3 3d f9 94 5a be a6 7d ec 3e
       1.1110712 0.1191357 -0.21345891 0.46189612
000070 73 47 0f 40 df be e1 3f de 79 85 3f 19 6a 95 bf
       2.238736 1.7636374 1.0427816 -1.1673003
000080 08 3b ec be 9e bf 27 3e 54 ca 46 bf 40 0d 27 be
       -0.46138787 0.1638169 -0.7765248 -0.16313648
000090 4b bb a9 3f af e8 ab be e6 71 f6 3e d3 4e 27 3f
       1.3260282 -0.3357596 0.48133773 0.6535465
0000a0 79 1a 05 3f c5 78 8d 3f 11 0a 99 be da 1e 91 bd
       0.5199352 1.1052481 -0.29890493 -0.070859626
0000b0 a9 33 90 3f c1 78 10 40 38 23 bd bf 34 18 f9 bf
       1.1265765 2.2573702 -1.4776373 -1.9460511
0000c0 23 0c 83 bf 52 53 b6 3f 6b b8 b0 3f 02 92 45 3f
       -1.0238079 1.4244177 1.380628 0.77175915
0000d0 f9 6f ad 3d 7d 40 5f 3c 44 72 a6 3f 4d e7 be be
       0.08468623 0.013626215 1.3003621 -0.37285843
0000e0 a3 20 95 bf 47 75 7d 3f c3 51 b8 3f 56 17 92 40
       -1.1650585 0.99007076 1.4399952 4.5653486
0000f0 5b 30 8c bf f0 4b 8c bf 74 e0 10 40 5d 1e 67 3b
       -1.0952257 -1.0960674 2.2636995 0.00352659
000100 36 9b 14 bf 13 15 80 3f f3 b9 87 3f cb d4 9d 3f
       -0.58049333 1.0006431 1.0603622 1.2330564
000110 32 93 b0 bf c4 c1 1b 40 7b da ee be ed ec a7 3e
       -1.379492 2.4337015 -0.46651062 0.32797948
000120 49 3a d5 bf d7 90 c6 be ca 28 fa be 66 3d a6 be
       -1.6658412 -0.3878238 -0.48859245 -0.32468718
000130 c2 13 64 bf 5a ea 97 3f 06 4f 94 bd f8 52 4f 3f
       -0.8909265 1.1868393 -0.07241635 0.80985975
000140 87 a3 34 bd 24 9e 28 3f 0b 53 56 bf ba c7 41 3c
       -0.044101264 0.65866303 -0.83720464 0.011827404
000150 0a 26 6d 3f 29 ba b4 be 67 67 86 3f 66 da ce 3e
       0.9263617 -0.3529828 1.0500306 0.40401
000160 9d ec 0f be 61 e4 0d 40 c1 dc ee bf 2e 20 2b be
       -0.14055105 2.2170641 -1.8661119 -0.16711494
000170 a5 86 8a bf a9 d2 80 bf b6 f7 77 3c f4 11 2e 3f
       -1.082234 -1.0064288 0.0151347425 0.67996144
000180 52 93 de 3f 37 91 af bf 38 a6 a1 3e a5 08 06 3f
       1.7388709 -1.3716191 0.31572127 0.5235694
000190 c0 a8 1d c0 cf 03 d9 bf 0f a7 45 be 3d 4f ae 3e
       -2.4634247 -1.6954287 -0.19302009 0.3404483
0001a0 25 b7 b9 3e d8 a9 5b 3c f7 56 bd 3e ea 02 c0 3e
       0.3627254 0.013407193 0.3698041 0.37502223
0001b0 71 8c ee 3e f3 06 64 bf ee b4 50 3f ed a0 72 bf
       0.46591523 -0.89073104 0.81526077 -0.94776803
0001c0 a0 f5 7e be 22 d3 18 c0 25 a1 3f bc 23 5e 0b 3d
       -0.24898386 -2.3878865 -0.011696135 0.034025323
0001d0 da d0 9a 3f a6 42 01 3f 8f 2c 56 bf 69 10 20 3d
       1.2094986 0.5049232 -0.8366174 0.03907815
0001e0 97 83 f6 be 25 64 0c bf bf 95 f3 3f 78 98 f7 be
       -0.4814727 -0.5484031 1.9030074 -0.48358512
0001f0 4d 71 29 3e 62 4e 86 3f cb 02 61 3f 99 98 ad 3f
       0.16547127 1.049267 0.87894887 1.3562194
000200 68 da 79 bf 01 97 c0 be 82 a6 44 bf b2 23 13 3f
       -0.97598886 -0.37615207 -0.7681657 0.5747634
000210 85 bc 10 3f 74 9b f8 3e 5b d1 f9 3f 79 f0 8b bf
       0.5653766 0.485561 1.9517015 -1.0932761
000220 4a e0 1f be 96 31 39 3e 1f a9 20 bf 64 1f 93 bf
       -0.15612903 0.18085322 -0.6275806 -1.1493955
000230 dc 4a 80 bd 6b fe 82 bf 9d 5e ab be 21 50 87 3e
       -0.06264278 -1.0233892 -0.33470622 0.2642832
000240 1a d3 c6 be 23 98 25 3e 5f df 8f 3e 26 81 96 3f
       -0.38832933 0.16171317 0.28100106 1.1758163
000250 5a 87 d1 bc 33 24 a6 3e 6d ff 5d be c8 05 84 be
       -0.025577236 0.32449493 -0.21679468 -0.2578566
000260 80 5e f9 bd 96 f6 1c bf b4 11 f7 bf b0 e7 d2 3e
       -0.121762276 -0.6131376 -1.9302278 0.4119239
000270 49 33 32 bf e0 45 e5 3e a8 d6 48 3e 41 e1 fc 3e
       -0.69609505 0.44779873 0.19613135 0.49390605
000280 23 0b e7 3f a7 21 aa bf dc fd 98 bc 5a e0 22 be
       1.8050274 -1.329152 -0.018675737 -0.15905896
000290 a6 74 9a 3f 08 ea 42 bf 43 fd 4d 3f fb 5d 49 3f
       1.2066848 -0.76138353 0.8046457 0.7865903
0002a0 5d 55 40 3f 43 8d 78 be 46 ab 4f 3e a3 e5 4e be
       0.75130254 -0.24272637 0.2028018 -0.20204787
0002b0 dc ae 24 bf 7f 4c 7e bf 3f 78 13 3f d7 8b b3 bf
       -0.64329314 -0.99335474 0.57605356 -1.4027051
0002c0 4b b3 7e bd 53 b9 bd be c6 df ca bf ab b6 cb be
       -0.062182706 -0.37055454 -1.584954 -0.39787802
0002d0 c5 e6 7f 3f 1f 50 77 3d 21 8a c3 3f 10 41 3e 3f
       0.999615 0.060379144 1.5276529 0.7431803
0002e0 e1 6f 8f bf 87 df 2b bf 05 9b bc 3f 44 a2 9d 3e
       -1.1206018 -0.6713795 1.4734808 0.3078786
0002f0 58 35 2b 3f 44 3d 72 bf 85 53 97 bf 05 e7 98 bf
       0.6687827 -0.94624734 -1.1822363 -1.1945502
000300 9e 5d 10 bf ee 4b 02 3f 40 37 d5 3e 83 c1 c9 3e
       -0.5639285 0.5089711 0.41643715 0.3940545
000310 ae 81 da 3d bb 42 63 3f 6d 3c 9d be f3 9c 80 3f
       0.10669266 0.887737 -0.30710164 1.0047897
000320 51 b5 b4 bd 9d 6e 8e bf b0 0e c9 3e c2 2d 11 3f
       -0.08823646 -1.1127506 0.39269018 0.56710446
000330 c0 a8 1d 3f ba 5a 9a bf 76 a3 16 3f 7a c6 0b bf
       0.6158562 -1.2058938 0.5884317 -0.54599726
000340 ba 48 6d 3f fb eb 39 3e 7c 19 8e 3f d7 3a 66 3f
       0.92689097 0.18156426 1.1101527 0.8993353
000350 24 77 96 bf 32 8a 9a 3f 68 16 f3 be 24 77 a1 bf
       -1.1755109 1.2073424 -0.47478032 -1.2614484
000360 36 66 79 3f 16 d0 a4 3f f0 c6 43 bf f5 53 11 3f
       0.97421587 1.2876003 -0.7647543 0.56768733
000370 09 72 ac 3e af 59 2a be 21 73 9d bf c8 07 1e be
       0.33680752 -0.16635774 -1.230076 -0.15432656
000380 ac b3 40 bf 06 d1 d5 3f 38 48 de 3e 70 8f df 3e
       -0.7527416 1.6704414 0.43414474 0.43664122
000390 a5 6d ea bb 12 84 82 3f f8 9a 9f be 86 f7 a3 bf
       -0.007154184 1.0196555 -0.3117292 -1.2809913
0003a0 76 2f 75 bc e8 57 11 bf db 41 32 bf de 36 3b 3f
       -0.014964929 -0.5677476 -0.6963174 0.73130596
0003b0 35 ba 57 bf a8 38 11 3f 57 79 4b 3f 86 56 f2 bf
       -0.84268504 0.56727076 0.79482025 -1.8932655
0003c0 cb 26 fb bf a6 f9 e4 bf 8f 76 9f 3e 64 79 8a bf
       -1.9621214 -1.7888687 0.3114514 -1.0818295
0003d0 ef b0 48 3f 37 d5 e5 3d cf c2 b4 3e 54 0e ca be
       0.7839498 0.11222308 0.35304877 -0.39464056
0003e0 68 6d c3 be cb 73 8e 3f b9 b0 3c 3f a3 d7 e3 be
       -0.38169408 1.1129087 0.7370716 -0.44500455
0003f0 95 ae 8a bf 8d ea b0 3d 0b 7f c4 3f 58 6b bf 3e
       -1.0834528 0.08638487 1.535127 0.37386584

input.weight f4 [500, 16]
000000 16 ec 28 be da de 29 be 52 26 64 be 72 9d 2b 3e
       -0.1649631 -0.16588917 -0.22280243 0.1675928
000010 f9 4e 52 be 91 77 a5 bd bb 42 6b 3e 93 da 0e bd
       -0.20537938 -0.08079446 0.22974674 -0.034876417
000020 05 8a 19 bd 4e 8e 7d be 43 e7 f1 bc 1b ae 87 be
       -0.03748514 -0.24761316 -0.02952922 -0.2650002
000030 a7 bf 99 be 45 72 93 3e b9 77 dc bd 05 c6 28 3e
       -0.30029032 0.28798118 -0.10765023 0.16481788
000040 05 92 c4 3e 4a 6c 8b 3e d6 f1 16 3e 66 40 ae 3e
       0.38392654 0.27231055 0.1474069 0.34033507
000050 90 74 03 3f 8b ac 40 bc 57 bc 0f 3e 75 dd ef bc
       0.51349735 -0.011759887 0.1403669 -0.029280404
000060 98 c9 84 3e e9 60 8f bd d4 f2 bb 3d 87 03 1e 3c
       0.25935054 -0.07000906 0.09177175 0.009644396
000070 b6 b0 92 3e a4 fe bf bc 0a f0 a8 3e c1 09 81 3e
       0.28650445 -0.023436852 0.32995635 0.25202754
000080 c6 1b de bb cb a8 f9 bc 40 72 20 3e 8d df 5b be
       -0.006778213 -0.030475995 0.15668583 -0.21471997
000090 10 6d 0f 3f 2d 60 bd 3e d5 f9 77 bd 81 eb 05 3e
       0.5602579 0.3698744 -0.060540993 0.13078119
0000a0 bd 9a 00 3f ce 7e 0c 3e dd 44 d9 3b 5d 58 e7 be
       0.5023611 0.13720247 0.0066305236 -0.45184603
0000b0 72 94 27 bc 72 a2 03 bf 93 f0 81 be a0 8b f3 be
       -0.010228263 -0.51419747 -0.25378856 -0.47567463
0000c0 96 11 ac 3c 4f e6 be 3d e9 dd 81 3e 5b df 54 bd
       0.02100448 0.09321272 0.25364617 -0.05197082
0000d0 22 0f 86 be fe 4a b8 bd fe ba b8 bd 83 78 df bd
       -0.2618342 -0.089986786 -0.09020041 -0.10911658
0000e0 85 df a8 be 60 d8 10 3d 61 06 1e bb 4f 34 6d 3e
       -0.32983032 0.0353626 -0.002411269 0.23164485
0000f0 23 a5 1f 3d 23 b9 73 3e 46 29 14 bd 0a 07 2b 3e
       0.038975846 0.23801093 -0.036172174 0.16701904
000100 03 64 f5 be 19 e5 3e 3e 16 5c 98 3e f8 62 42 3c
       -0.47927865 0.18642081 0.29757756 0.011864416
000110 d2 c8 d9 be 8b 8c ac 3b 78 c7 c4 be 5c 6d 90 be
       -0.42536026 0.0052657775 -0.38433433 -0.28208435
000120 6c 1f bc 3d b6 ba 93 3e d2 26 82 3d 7c 43 f4 3d
       0.09185681 0.28853387 0.06355061 0.11926934
000130 cd 93 86 bd 9f ff 22 bc c8 7c c3 be 20 ea 8f be
       -0.065711595 -0.00994864 -0.38181138 -0.2810831
000140 94 d1 c2 bc a9 2c bc bd a7 eb 87 3e 72 e7 c7 bd
       -0.023781575 -0.09188206 0.26546976 -0.097609416
000150 94 70 ab 3e a7 10 55 3d 14 3e 26 3e 43 46 91 3e
       0.33484328 0.052017834 0.16234618 0.28373918
000160 cd e8 00 be 3c 92 0a be 4f c6 d6 3d e0 49 15 bc
       -0.12588806 -0.13532346 0.10487043 -0.009111851
000170 79 3c 3c 3d 4c 7f 04 3e 51 45 77 3d 87 88 70 3e
       0.04595611 0.12939185 0.06036884 0.23489581
000180 2c 82 55 be 1e 47 9c 3d c0 49 23 3d 91 a6 79 be
       -0.20850438 0.07630752 0.039865255 -0.24379946
000190 f8 42 6d bc 34 35 08 3e 06 df 63 be bc 66 2a 3e
       -0.014481299 0.13301545 -0.22253045 0.16640753
0001a0 7a 21 be bd 8a 2f 0f 3e 20 79 48 3b fa 13 40 be
       -0.09283729 0.13982978 0.0030589774 -0.1875762
0001b0 8d 11 49 3e e9 55 b3 bd 96 90 d8 bd 48 f8 0d be
       0.19635601 -0.087566204 -0.105744526 -0.13864243
0001c0 07 be 7b be bb 45 17 3e b3 c4 e7 bd 4e 15 19 3e
       -0.24584208 0.14772694 -0.11316814 0.14949533
0001d0 6d 2a f4 3d 03 ba 09 3e 9b 69 b7 3d 7e 8a a8 3d
       0.119221546 0.13449864 0.089556895 0.0822954
0001e0 77 4a 57 be 68 7a 61 bc d5 c2 d3 bd 6a 49 41 3e
       -0.210245 -0.013762094 -0.10339896 0.18875661
0001f0 39 b8 c6 3d 62 8a c8 3b b8 49 68 be 5f c5 6a be
       0.097031064 0.006120012 -0.22684371 -0.22926854
000200 7c 7e 31 bf d4 69 19 3e 73 8d bf 3e 1e c2 87 be
       -0.69333625 0.14981776 0.37412605 -0.26515287
000210 25 30 4c bf 3d 52 c7 3e 32 8e 03 be 39 68 a6 be
       -0.7976096 0.3892993 -0.12847212 -0.3250139
000220 11 70 8f be c3 b2 7e 3e fc a5 58 bd 9e 53 d2 bd
       -0.28015187 0.2487288 -0.05289267 -0.10269855
000230 ce 4a 9d be f9 f7 84 be b5 b0 eb be 17 c2 57 be
       -0.30721134 -0.25970438 -0.46033254 -0.21070133
000240 9c 00 69 be 45 e4 23 3e dc 3c 04 3e 85 9c 4d 3e
       -0.22754139 0.16005047 0.12913841 0.20079239
000250 f8 ef 88 be d4 d7 6b 3e 4f 19 9f 3e f5 54 f0 3d
       -0.26745582 0.2303155 0.31073996 0.11734954
000260 e6 47 b1 bd cf 11 84 be ac 3e 6d 3e 36 58 f2 bd
       -0.08656292 -0.25794837 0.23168439 -0.11833231
000270 14 0f 43 be 39 d9 a5 bc 9e 57 83 bd 7d 96 6c 3d
       -0.1904872 -0.020245181 -0.06413196 0.057760704
000280 46 d8 b1 bd ec 78 4e be eb 72 35 bb a3 c2 51 3d
       -0.08683829 -0.20163316 -0.0027686905 0.05121101
000290 4b 71 0f bf 27 30 02 bb f5 7b 92 bd 42 bc 84 be
       -0.56032246 -0.0019865127 -0.07152549 -0.2592488
0002a0 e8 79 7e 3d 8e a6 4c 3e b1 aa a4 3d 14 01 1e be
       0.062127978 0.1998541 0.08040369 -0.15430099
0002b0 33 aa 89 bd 77 6b 11 3e 88 4b b4 bd b7 1a 02 be
       -0.06721916 0.14201151 -0.08803469 -0.12705503
0002c0 17 d1 86 be b5 92 8d be 8f 8a 92 3e ff 24 a1 bd
       -0.26331398 -0.2765099 0.28621337 -0.078683846
0002d0 03 25 1f bf ac 26 5e 3d 82 f5 be be f7 85 31 be
       -0.6216585 0.0542361 -0.37296683 -0.1733626
0002e0 e5 57 9a be 9e 76 0a 3e d8 bb 81 3c 45 34 79 be
       -0.30145183 0.13521811 0.015836641 -0.24336345
0002f0 4c f0 8d bd ed 46 88 3d 18 2a 07 bf 4b 9e 83 be
       -0.069305986 0.06654153 -0.52798605 -0.25706705
000300 10 a5 b8 3c 86 9b 08 be 22 a8 29 3e f8 2d 60 3e
       0.022539645 -0.13340577 0.16568044 0.21892536
000310 67 20 10 be 3f de fb 3c ce 12 83 3c 07 d1 56 3e
       -0.1407486 0.030745624 0.016000178 0.20978175
000320 6c 30 4d be 7e ac b0 3d ec 2e 36 be a0 5c 5a be
       -0.20038003 0.0862665 -0.17791337 -0.21324396
000330 12 3d 63 3e 5f 14 16 3e 9d f4 7c be a5 0b 19 3e
       0.22191265 0.14656208 -0.24702688 0.14945848
000340 e0 3d 55 be 49 73 31 3e 8f d3 d7 3d 32 93 9a bd
       -0.20824385 0.17329134 0.105383985 -0.075476065
000350 1c 8e 44 bd f7 8a 89 3d 41 b6 5e bd 3e 22 f6 bd
       -0.04798709 0.067159586 -0.05437303 -0.1201825
000360 52 7b 64 3e f0 14 89 be cd b9 39 bc 7c 2c ce be
       0.22312668 -0.26773787 -0.011335802 -0.40268314
000370 13 9b 8a be c0 52 e5 bd 47 f3 0c be fc a0 9e be
       -0.27071437 -0.11197424 -0.13764678 -0.30982196
000380 f4 13 8b 3d fc 6d a4 3d 5c ad ec bd 20 cf ea 3c
       0.06790915 0.0802879 -0.11556503 0.028663218
000390 fc 7b 07 be e4 2e 5d be 40 97 2c bd b0 27 29 3e
       -0.1323089 -0.21599919 -0.04213643 0.16519046
0003a0 40 bd 15 3c 02 38 35 be 26 38 47 3e d8 c3 21 bd
       0.009139359 -0.17697147 0.19455013 -0.03949341
0003b0 3a 8f 61 be ec 01 a9 3d ba ad 51 be 42 0f 26 3e
       -0.22027293 0.0825232 -0.20476428 0.16216758
0003c0 aa 31 45 3e bb 0e 24 3e ee da 8f be 5c fc ff 3d
       0.19257227 0.16021244 -0.28096718 0.124993056
0003d0 61 9e ec bd 1f f4 6e be f0 f5 2c 3e 8e df 45 be
       -0.11553646 -0.23335312 0.16890693 -0.1932356
0003e0 a9 8a c2 be 1f 64 b7 bd 2d 1c 52 bd 3b 99 a6 3e
       -0.37996414 -0.089546435 -0.0512964 0.3253878
0003f0 cd 5e 4a 3e 69 6b 38 3e 76 c8 75 3d 49 31 1f 3e
       0.19762726 0.18009724 0.060005628 0.15546145

input.bias f4 [500]
000000 5e 80 99 bd aa ff e1 3d 21 29 ab 3e 54 e5 4f 3d
       -0.07495187 0.11035092 0.33429816 0.050755814
000010 e2 52 5d 3c 4c bb 5d 3d 7a 57 65 3e 8b b4 f7 bd
       0.01350853 0.0541337 0.22396651 -0.12094983
000020 ae cd 89 3d 0f ad 0d 3e 64 e3 91 bd c3 58 10 3e
       0.067286834 0.13835548 -0.071234494 0.1409636
000030 56 93 6e bd ff 24 2e bb fa 83 72 be 3f e7 93 bc
       -0.05824598 -0.0026572344 -0.23683158 -0.018054603
000040 8e a9 cc bc 7a e4 3a be 21 14 3b bd 99 d6 9f 3d
       -0.024983194 -0.1825122 -0.045673493 0.07804603
000050 68 11 ac 3d 0c 03 4f be d8 3c 01 bd 19 08 3c 3e
       0.084017575 -0.20216006 -0.031552166 0.18362464
000060 d0 b7 66 be 38 85 34 be 37 2e 03 3d 84 53 d0 bd
       -0.22531056 -0.17628944 0.032026496 -0.10172179
000070 30 96 f4 bd a1 05 21 be 7f 5f 84 3d 12 25 a8 3d
       -0.119427085 -0.15724804 0.06463527 0.082101956
000080 b7 c1 0a bc d9 40 a0 3e ac f7 a1 3a 54 0e 1f be
       -0.008469037 0.31299475 0.0012357137 -0.1553281
000090 50 14 c2 3a c6 82 7d be e0 12 4c be 7d ae 96 3d
       0.0014807079 -0.24756917 -0.19929075 0.073575
0000a0 40 8e af 3a a7 1b 24 be 34 94 0d be 8c 84 3d 3e
       0.0013393834 -0.16026174 -0.13826066 0.18507594
0000b0 7c fb d0 bd 89 fd c8 bd ff 64 36 3e 7c 23 4c be
       -0.10204217 -0.09813983 0.17811964 -0.19935411
0000c0 29 62 13 be 10 65 3e 3e 18 75 44 be bc 07 98 3e
       -0.14392914 0.1859324 -0.19185293 0.296934
0000d0 39 e4 bd 3d 30 69 23 3e 60 c5 05 be bc 8c 27 be
       0.09272046 0.15958095 -0.13063574 -0.1636228
0000e0 30 1d 6b be 13 c8 c0 3d 1a b4 a9 bd f6 ec d2 bb
       -0.22960353 0.09413161 -0.08286305 -0.0064369394
0000f0 da 32 1d be ce e3 f2 bd b8 e3 be bc 08 1d 06 3e
       -0.1535143 -0.118598565 -0.023301944 0.13097012
000100 ec c1 33 3e 2c eb f3 3d 64 55 57 bb 3c 1b 50 be
       0.17554444 0.1191009 -0.0032857293 -0.20322889
000110 71 fb 0a 3f 0d 98 d0 bd e1 d2 84 3b 27 46 6a bd
       0.5428992 -0.101852514 0.004053459 -0.05719581
000120 b4 ca 0e be bb 98 b1 bd fa a9 14 be 9e 76 4a be
       -0.13944513 -0.08671709 -0.14517966 -0.19771811
000130 4b f1 bb bd 37 9b c8 3c 00 7c b0 3d fb 11 89 3e
       -0.09176882 0.024488075 0.08617401 0.2677153
000140 4d de d8 3e f3 f2 38 3e 38 31 8e 3d b6 c1 70 3d
       0.42357102 0.18061428 0.069429815 0.058778487
000150 70 6c d0 bd 04 83 f2 bd 57 bb 4e 3e e3 0a 32 3e
       -0.10176933 -0.118413955 0.20188652 0.17386965
000160 a0 b3 7b 3e 15 32 14 3e aa be 19 be 76 ef 67 be
       0.2458024 0.1447223 -0.15014139 -0.22649941
000170 ea bb dd 3e fc 3d 39 be 20 7c 90 bd 2a ba 09 be
       0.4330743 -0.18090051 -0.07054925 -0.13449922
000180 6b ff 4e 3e 1c f7 88 3d c4 74 4e bd 8c 5a 93 3e
       0.20214622 0.066877574 -0.050404325 0.2878002
000190 18 11 3e bc eb b4 81 bd 43 40 74 3e 62 e6 1c 3e
       -0.011600755 -0.063333355 0.23852639 0.15322259
0001a0 ed 66 b0 bc 62 0d a5 bd 34 bd f6 bd fe 18 8b bd
       -0.021533454 -0.08059193 -0.120478064 -0.06791876
0001b0 d2 b2 7f 3e 0f 9f d9 bd 8f 20 f7 3c 9e ea 1f 3e
       0.24970558 -0.10626041 0.030166892 0.15616843
0001c0 08 a4 9f 3b 7a 33 28 3e 3c 46 fb bd d7 d5 17 3e
       0.004871849 0.16425887 -0.122692555 0.14827667
0001d0 e6 77 63 3d 90 d9 81 3b 0c cc 36 3e 4a f7 27 be
       0.055534266 0.003962703 0.17851275 -0.16402927
0001e0 96 0c a6 3e 1a cc 1b be 6c 28 22 3e 6f 31 9c 3e
       0.32431477 -0.15214577 0.15835732 0.30506465
0001f0 aa ec 01 3e 53 b7 ca 3d f3 32 9a bd 7a 38 ff 3d
       0.12687936 0.098982476 -0.07529249 0.12461944
000200 dc c6 33 be 09 af f3 3c e3 f7 be bd d1 74 c0 bd
       -0.17556328 0.02974655 -0.093246244 -0.09397281
000210 5d 8f 7f be d2 65 6b 3e 5d 41 d7 3d 18 d1 02 3e
       -0.24957033 0.2298806 0.10510514 0.12775075
000220 67 53 7a bd 2c c1 c4 bd c0 ca 9f 3d 01 fa 88 3e
       -0.061114695 -0.09607157 0.07802343 0.26753238
000230 fc 99 27 3e dd a5 b0 bd 9d 5e 01 3e ae af 94 3e
       0.16367334 -0.08625386 0.12633748 0.29040283
000240 7f e6 6d bc 8e 36 2b 3e 73 95 20 be fc f7 33 3d
       -0.014520287 0.1672003 -0.1568201 0.04393767
000250 d7 13 75 3c af 28 79 3e 9e 2d 3e 3e 10 cf 96 3e
       0.0149583435 0.24331926 0.18572089 0.2945485
000260 79 b7 fe bb 99 31 d5 3d e0 fa 2d be 3e ee 3c 3e
       -0.0077733365 0.104098506 -0.16990232 0.18450257
000270 41 1c b7 3d 29 c4 f2 bd 1b 9d 65 3d 9e ca db bd
       0.08940936 -0.11853821 0.05605803 -0.107320055
000280 cc e8 b3 3c 15 0d 67 bd 76 72 83 bb 94 a4 28 3e
       0.021961592 -0.05640896 -0.0040114475 0.16469032
000290 03 5f da 3c f8 4d 0d 3e 2e ad 3d be af af 46 bd
       0.026656633 0.13799274 -0.18523094 -0.04850739
0002a0 dd 1a 8c 3e 51 1d a9 bd 2b 91 57 be e7 c3 57 3e
       0.27364245 -0.08257545 -0.21051471 0.21070825
0002b0 c2 31 80 bc 05 3b 96 3e e0 79 e7 3d 27 92 60 3d
       -0.015648726 0.29341903 0.11302543 0.05482688
0002c0 20 7c 8f bd 3b 53 93 3e ea 7d b3 3d bf dc 73 3d
       -0.07006097 0.28774437 0.087642506 0.05953669
0002d0 73 58 a0 3d f9 12 2c 3e ae f0 4e be 0f 96 8f 3e
       0.0782937 0.16804112 -0.20209 0.28044173
0002e0 8f 9c 74 3e 0b a3 e5 3c 43 77 dc 3d 33 a9 25 3c
       0.23887847 0.028031847 0.10764935 0.010111141
0002f0 63 b6 05 bd 36 e8 25 3c a4 67 59 be 0e bf c0 bc
       -0.03264464 0.010126164 -0.21230942 -0.023528602
000300 8f 76 b8 bd d9 85 99 3e d9 b6 cd bd fb 4c c7 3a
       -0.09006988 0.2998493 -0.10044641 0.0015205437
000310 de 68 6c 3e e9 45 16 bd 5f f6 73 3d c3 b7 2c bd
       0.23086879 -0.036687765 0.05956113 -0.042167436
000320 c8 65 71 be 93 36 32 be 21 19 fb 3c d5 bf 6f 3a
       -0.23573983 -0.17403631 0.03065163 0.00091457117
000330 c8 0d ba 3d fc 26 0d 3d cf 36 00 be f2 4a 49 3e
       0.0908466 0.034461007 -0.12520908 0.19657496
000340 b4 7d 0a 3d 68 d0 7a 3c 9c 94 c6 bd a3 4f 6f bd
       0.033811286 0.015308477 -0.09696314 -0.058425557
000350 f2 d1 e1 bd 4c c6 19 be 4e e4 3a be 0f 60 38 3b
       -0.11026372 -0.1501705 -0.18251154 0.0028133427
000360 f6 17 39 3e 46 46 dd 3d b0 0a 7d be 43 1f 75 3e
       0.18075547 0.10804419 -0.24711108 0.23937707
000370 7e d2 70 be 78 6f b5 bd c9 05 65 3c e6 21 45 3d
       -0.23517796 -0.088591516 0.01397843 0.04812803
000380 b5 b9 e5 bd 4d 39 f7 3d b7 05 3b 3e b1 a3 db 3d
       -0.112170614 0.12071476 0.18263899 0.10724581
000390 8e 09 08 3e c6 08 7d bd 32 1c c2 3c f0 ed cb bd
       0.13284895 -0.061775945 0.023695085 -0.09957492
0003a0 5a 7c 42 3d be f1 4a 3e 00 65 7e be 62 cd 92 3d
       0.047481872 0.1981878 -0.24843216 0.0716808
0003b0 3d 63 26 3e 57 cb c7 bd d8 82 22 be 46 82 eb bd
       0.16248794 -0.09755581 -0.15870225 -0.11499457
0003c0 6d a7 ab 3d 33 09 7c be df 2e ed bd 0d 84 2b be
       0.08381543 -0.24612884 -0.115812056 -0.16749592
0003d0 83 d8 ad 3e e2 d2 09 3e aa 94 7d be 42 a2 ba bd
       0.33954248 0.13459352 -0.24763742 -0.091129795
0003e0 fc 6e fa bd 93 9d ef 3d d7 6d 45 3e f4 d8 9e 3e
       -0.122282 0.11699977 0.19280182 0.31024897
0003f0 f9 af 07 3e 16 bc 46 be b4 b7 1f 3d b1 52 51 3e
       0.13250722 -0.19407687 0.038993552 0.204417

output.weight f4 [5, 500]
000000 12 6a 9a be 1f f4 17 3e 1c ee 62 3e 59 78 26 bd
       -0.3015905 0.14839219 0.22161144 -0.040642116
000010 50 07 b0 3c 9c 49 91 bd 37 8a a4 3d 15 f5 19 bd
       0.021487862 -0.07094118 0.08034175 -0.037587244
000020 3f 91 ec be 7e 38 f4 be e5 97 ff bd 38 71 72 be
       -0.46204564 -0.4769935 -0.124801435 -0.23676002
000030 e6 3a 41 3c ff 9b 4a be 7d 59 30 bd a7 cc 47 3d
       0.011793828 -0.1978607 -0.043054093 0.048779156
000040 d0 54 23 bc fc 37 02 bd 28 79 d7 bb 25 08 1a 3d
       -0.009968951 -0.031791672 -0.0065757222 0.037605423
000050 8b f4 af 3e a0 e8 c8 ba 56 6c ef 3c 60 39 b0 3e
       0.3436626 -0.0015328117 0.029226463 0.34418774
000060 d8 de 96 bc 91 e1 88 bc fb 26 00 bf 64 c9 0b bd
       -0.018416807 -0.016709121 -0.5005948 -0.034127608
000070 f8 35 b2 bc f8 98 60 bd 21 66 8c be ab 2f 0a be
       -0.02175425 -0.054833382 -0.27421668 -0.13494746
000080 64 ef 1c be 2e e5 48 bf c4 ee c1 be 1f c3 e7 3c
       -0.15325695 -0.784747 -0.37877476 0.028291283
000090 a2 e4 d7 3c 10 7d fd bb 3f 2c 12 bd 0e 06 ef 3d
       0.026354138 -0.007735856 -0.035686728 0.11671077
0000a0 b7 43 be bc 40 b5 2d 3c 8d 54 27 3d a6 f8 8e 3c
       -0.023225648 0.010602295 0.04085212 0.01745255
0000b0 a5 6a c5 be f8 69 27 3e aa bd f1 be e0 b8 29 3c
       -0.38557926 0.16349018 -0.47215015 0.010359019
0000c0 f8 b3 2a ba 0d a3 1c bf ab 9b 27 3d 55 43 dc be
       -0.0006511803 -0.61186296 0.04091994 -0.4302012
0000d0 74 49 dc 3d 7c 13 36 be cf b6 2b bb be 02 b4 3c
       0.107561976 -0.1778087 -0.0026201492 0.021973964
0000e0 12 fd a0 bc 50 aa d0 bc c1 02 9b be 8d 43 f5 bc
       -0.019651923 -0.025471836 -0.3027554 -0.029939437
0000f0 ee 46 e6 3c a9 15 01 be 17 36 67 be a8 bf 0c 3e
       0.028109994 -0.12605919 -0.22579227 0.13744986
000100 9e cd 45 3e c2 f3 dd 3e d2 e5 9c 3e d2 42 a1 bd
       0.19316718 0.43350035 0.3064409 -0.07874073
000110 7e b2 4e 3f d5 97 d7 b9 f0 0d ff 3c 5d 39 58 bd
       0.8074111 -0.0004112112 0.031134576 -0.05278908
000120 28 46 dc ba 52 32 a6 bc 89 cc 40 3e 78 eb af bb
       -0.0016805576 -0.020287666 0.18828024 -0.0053686462
000130 23 95 4a 3c 87 c1 2a 3e c9 43 fb be d6 ad e1 be
       0.0123646585 0.16675387 -0.49075153 -0.4407794
000140 a7 8f ba bf c5 27 18 bf 31 fc 05 3e b7 16 cf bc
       -1.4575089 -0.59435683 0.13084485 -0.025279386
000150 e7 5e 14 bd cd 84 37 3e e5 cd 88 3e 35 1a 2a 3f
       -0.03622332 0.17921753 0.26719585 0.6644624
000160 d5 6b 60 be a0 27 54 be a0 0a c9 3a 8c 7f 8c bc
       -0.21916135 -0.2071824 0.001533825 -0.017150663
000170 f0 a7 93 3e 09 9b 04 bd 20 de a6 3c 21 ea ed 3c
       0.28839064 -0.032374416 0.02036959 0.029042305
000180 4e f9 78 bd 38 53 aa 3e 90 6c db bd 2b 8f fc bd
       -0.06078463 0.33266616 -0.10714066 -0.123319946
000190 da 0d a0 bb f6 7a 5d 3d bd 0c 25 be 34 ce d0 bc
       -0.0048844637 0.054072343 -0.1611814 -0.02548895
0001a0 45 5d e8 3e 51 50 ae be 98 ba e9 3b d0 17 2c bd
       0.4538366 -0.34045652 0.0071328394 -0.042014897
0001b0 9b d7 d5 3d 55 61 6a 3c 51 2f cf 3c 4a 7c 6a 3f
       0.10441514 0.014305432 0.025291117 0.915959
0001c0 65 d5 2a 3d a4 fe 17 bf 4b 80 1f 3d 62 2a bd bd
       0.041707415 -0.59372926 0.03894071 -0.092365995
0001d0 21 30 b1 3c ff 12 ff be 50 fa 48 3f 67 bc 33 3d
       0.021629395 -0.4981918 0.78506947 0.043880846
0001e0 c8 52 c5 3e 70 a6 a6 3b 2f a8 98 be e3 40 1e be
       0.3853972 0.005085759 -0.29815814 -0.1545444
0001f0 2c 70 0c 3f 30 78 31 be d4 e1 27 bc a8 3d 52 bc
       0.5485866 -0.17331004 -0.010246713 -0.012832083
000200 99 88 61 bd d8 fd 9d 3c 4a ce 58 be f7 8b af 3e
       -0.05506191 0.019286081 -0.21172443 0.34286472
000210 ce c3 82 3c 1a fd d8 bc 7d 46 08 3f 00 1a f9 3e
       0.015962508 -0.026487876 0.53232557 0.4865265
000220 9d f9 3c be da 8e a1 bc 8f d1 3d 3f fd ca b3 3a
       -0.18454595 -0.019721437 0.74147886 0.0013717111
000230 8b 1b 27 bf 2c 0e cb 3c 72 a6 c4 3e ff 13 0c 3f
       -0.652764 0.024787031 0.38408238 0.5471801
000240 d4 e1 a6 3e 26 4e 66 bc 6f a4 03 bd 96 a0 7c 3d
       0.32594168 -0.014056718 -0.032139238 0.061676584
000250 90 41 11 bd 2c 9c 05 bf f4 54 5e be 10 9f 0f 3e
       -0.035462916 -0.52191424 -0.21712095 0.14025521
000260 8b f8 3e 3d 31 51 40 be 9d e9 bc bc 80 c4 ec 3e
       0.046623748 -0.18780972 -0.023060614 0.46243668
000270 30 5e dd 3e 2c 1d 14 3d 36 7b 04 be 91 92 fa bc
       0.43235922 0.036160633 -0.12937626 -0.030587466
000280 83 c1 df 3c 98 bd 84 be d9 f3 83 3f 01 7a 6a be
       0.027313953 -0.259259 1.0308791 -0.22898103
000290 8d 2e ca 3d a6 ed 97 bd 69 3e 0b 3d 41 44 5b 3d
       0.0987216 -0.07418375 0.033995066 0.05353189
0002a0 04 45 0a be 9c ae e4 3c 63 68 e9 be 54 33 94 3d
       -0.1350289 0.027915291 -0.45587453 0.072363526
0002b0 5c 93 1c bd 9e 45 09 be 3e c3 ac 3d 45 2b 13 bf
       -0.03822647 -0.13405463 0.08435677 -0.574879
0002c0 c0 1a 24 3c d4 c6 5d bd 08 d8 3f bf 0a fd b3 3e
       0.010016143 -0.054144695 -0.7493901 0.3515399
0002d0 11 54 39 be 98 b8 df 3e d0 a1 5d bb f6 c3 20 3f
       -0.18098475 0.4369552 -0.0033818372 0.6279901
0002e0 2d dc 68 bd f7 cb 24 bd 04 6a cf be 5f 91 45 be
       -0.0568506 -0.04023358 -0.4051057 -0.19293736
0002f0 23 dd ac 3d 65 61 d2 bb 40 17 28 bd 30 98 cc 3e
       0.08440616 -0.0064203017 -0.041037798 0.3995986
000300 87 19 d6 3c f6 27 0d bd 5b af 2b 3b ad 65 88 3d
       0.02613522 -0.034461938 0.002619705 0.06660018
000310 a7 95 3c be c5 46 c0 be 7c d9 bf 3e 80 6e 4a 3c
       -0.18416463 -0.37553993 0.37470615 0.012355447
000320 45 85 95 bc 4f 1a 1f bd a1 fe 51 bd a9 e6 cb 3d
       -0.018252024 -0.03884345 -0.051268224 0.09956104
000330 cc 63 ac be 86 03 21 3f 11 4d 1f 3b ac 61 ee 3e
       -0.3366989 0.62896 0.002430741 0.46558893
000340 d3 2c ec bb 0a 58 b6 bc 97 f5 24 3d 0b 52 91 bc
       -0.007207492 -0.022258777 0.040273275 -0.017739316
000350 52 7a 1e bd 38 32 92 bb 3c b2 61 3c 8e d2 2e bf
       -0.038690872 -0.004461553 0.013775405 -0.6829003
000360 59 48 5c bf de b3 36 3c 55 47 aa bc 06 bb fe bd
       -0.86047894 0.011151282 -0.020785967 -0.12438016
000370 78 21 92 3b 20 10 fd be 22 6f 9c bc ff cb 81 be
       0.004459556 -0.49426365 -0.019095961 -0.2535095
000380 e3 05 b1 3d 49 56 f5 be 0b b2 03 be c4 6a d8 be
       0.08643701 -0.47917393 -0.12860887 -0.42268956
000390 6f 47 c9 be 7c 28 83 3c 92 2e 56 be ae 8e a3 3c
       -0.39312312 0.016010515 -0.20916203 0.019965496
0003a0 38 89 35 bd b2 d2 07 3f 90 d8 3d 3c a7 27 14 bc
       -0.044320315 0.5305587 0.011587277 -0.009042657
0003b0 7d 20 ee 3d c7 71 a7 3c 35 86 1a bd 63 f6 d5 3b
       0.116272904 0.020439995 -0.037725646 0.0065296157
0003c0 c9 6e 27 bf 3f 8a 33 bd 1b 98 d6 3b 81 c9 a9 be
       -0.6540342 -0.043833014 0.006548894 -0.33161548
0003d0 e1 dd 46 be 69 ef 39 3a 9a 55 bc 3c b0 90 92 be
       -0.19420578 0.0007092865 0.022990037 -0.28626013
0003e0 0f 25 23 3d a0 76 ee be 57 de 53 3e 0d d0 2a 3e
       0.039830264 -0.4657488 0.20690285 0.16680928
0003f0 25 06 a0 be 18 c4 96 3b ed 3c 1f 3f ff d8 a1 bb
       -0.31254688 0.004601013 0.6220234 -0.004939198

output.bias f4 [5]
000000 f5 2e f6 3d 33 fe 5c 3d e5 e9 08 be 6b 38 15 3d
       0.12020675 0.05395336 -0.13370474 0.036430757
000010 76 b3 be 3c
       0.023278933

momentum_buffer f4 [662, 16]
000000 b2 8d ff 3d 77 1d 97 be af b2 d6 be 26 7e 36 bf
       0.12478198 -0.29514667 -0.419332 -0.7128624
000010 6c e9 ad bf 95 da 9a bf 36 4d 5f bf a9 8e 27 bf
       -1.358686 -1.2097956 -0.8722719 -0.6545206
000020 2b 19 1e bf 1f 52 39 3f c0 3a 8b 3c 54 ac b2 3e
       -0.61757153 0.7239093 0.016995788 0.348971
000030 4a c9 c1 bd 1b 14 25 3f 28 15 52 3d b8 3e 67 bd
       -0.09462221 0.64483804 0.051289707 -0.056456298
000040 b6 fa 4e 3a 3c 4b ae ba 19 19 d5 3a 9a a7 54 3b
       0.0007895635 -0.0013297568 0.001625809 0.003244853
000050 e8 af 4d bb c4 47 80 3b 15 2d 02 3b e8 97 8c b8
       -0.0031385366 0.003914805 0.0019863297 -6.704015e-05
000060 2b 40 ce ba e5 fd 90 bb 39 84 20 3a 26 b2 de ba
       -0.0015735676 -0.004424798 0.00061232183 -0.0016990348
000070 5e aa 96 bb 9c 7a 31 ba 7f 95 0f 3a c0 2a e6 3a
       -0.004597946 -0.00067702844 0.0005477294 0.0017560348
000080 c3 3b 0b 3a 78 43 29 ba f0 dd e8 39 0a bf ce 3a
       0.00053113344 -0.0006456892 0.00044415845 0.0015773487
000090 b4 53 8d bb 8c 31 ff 39 d6 27 54 3a c2 c5 a2 ba
       -0.0043129567 0.00048674305 0.0008093094 -0.0012418556
0000a0 34 44 62 bb 44 a6 83 ba b3 d3 e3 39 4a 59 9d 3a
       -0.0034525516 -0.0010044058 0.00043454542 0.001200476
0000b0 86 c1 23 bb f0 5e a5 3a 60 14 b3 3a cd 81 05 3b
       -0.0024987175 0.0012616795 0.0013662688 0.0020371557
0000c0 6e 68 94 3b 14 31 d7 bb 5b eb a6 bb 30 62 0c bc
       0.0045290506 -0.00656713 -0.0050939745 -0.008568332
0000d0 84 da 18 bc bf f6 24 bc 6c 45 28 bc 94 93 70 bb
       -0.009329442 -0.0100685945 -0.010270458 -0.0036709057
0000e0 7e 83 2b 3b 3f 79 a7 3a 70 12 e6 3a 4a f2 eb bb
       0.0026170905 0.0012777223 0.0017553102 -0.007200514
0000f0 58 f1 8d bb ee 43 3a 3b a0 6e 12 bb 81 67 a9 bb
       -0.004331749 0.0028421837 -0.002234377 -0.0051698093
000100 46 f0 51 ba 81 12 58 b9 f3 86 9f 39 e9 62 a7 b9
       -0.0008008521 -0.00020606258 0.00030427388 -0.00031926416
000110 06 49 3e ba 06 46 8d 39 68 c2 1e ba 2e 74 86 b9
       -0.0007258806 0.00026945787 -0.00060561905 -0.00025645032
000120 88 8f 7e b8 40 0e da 38 a3 c7 b7 b9 90 9b b2 b9
       -6.0691993e-05 0.00010397704 -0.0003505322 -0.0003406671
000130 01 21 bb b9 a0 29 b3 b9 5a 8e 64 ba a0 c5 b3 b9
       -0.0003569201 -0.00034172554 -0.0008718722 -0.00034288783
000140 70 02 e1 b8 c0 52 04 3a 3b db b4 b9 9e 18 40 b9
       -0.0001072929 0.0005047731 -0.00034495615 -0.00018319717
000150 18 09 65 ba 0a 4b a3 ba 9c 72 4a 38 05 c3 1e ba
       -0.0008737012 -0.0012458276 4.826729e-05 -0.0006056282
000160 c3 dc d4 ba 62 e8 c0 3a 77 18 8e b8 72 11 06 3b
       -0.0016240109 0.0014717693 -6.7756446e-05 0.0020457176
000170 ee 30 62 3a 4f 43 92 3a e4 0e 66 3a 24 c4 56 3a
       0.0008628507 0.0011158976 0.00087760226 0.00081926794
000180 a7 44 9b ba 56 97 a9 39 82 f5 27 39 72 42 ad b9
       -0.0011846022 0.00032346946 0.0001601782 -0.00033046637
000190 51 24 38 bb 4c fc 84 ba 02 23 1f ba 56 58 a7 ba
       -0.0028097818 -0.0010145991 -0.0006070585 -0.0012767415
0001a0 92 01 30 bb ee f1 ed 3a 12 7b 07 ba 9a 3f 12 3b
       -0.0026856405 0.0018153766 -0.000516818 0.0022315742
0001b0 b4 3d 90 39 16 07 96 3a 38 dd de 38 55 c5 47 3a
       0.00027511793 0.0011446204 0.0001062699 0.00076206523
0001c0 15 b5 9e 3a cc 03 f6 b9 b1 6e 95 ba 80 9f 41 ba
       0.001210841 -0.00046923605 -0.0011400786 -0.0007386133
0001d0 7a 22 89 bb f0 ed 50 bb d1 0e 3b ba ab 15 e2 ba
       -0.004185018 -0.0031880103 -0.00071356917 -0.0017248889
0001e0 24 e1 5a bb 13 2e db 3a 1f 6b 16 3a 37 27 21 3b
       -0.0033398354 0.0016722105 0.0005738008 0.0024590024
0001f0 6f 6d df b9 d3 84 32 3b 0a 38 f4 3a ff 76 b2 3a
       -0.0004261541 0.0027239814 0.0018632424 0.0013615786
000200 03 a1 d5 39 b6 55 90 b9 b5 11 92 b9 4c ac 86 b9
       0.0004074649 -0.0002752968 -0.00027860483 -0.00025686843
000210 e9 01 76 39 b1 c1 a3 b9 b1 fc 61 b9 fa 21 a5 38
       0.000234611 -0.00031234094 -0.00021551807 7.874142e-05
000220 f0 b8 fe 39 fe 49 1f b9 f1 43 28 39 d4 8c 00 ba
       0.00048584444 -0.00015190986 0.00016047039 -0.00049037975
000230 5d 86 c3 b8 e0 d7 9a b6 10 b1 67 b7 f2 4a 82 b9
       -9.323352e-05 -4.614689e-06 -1.38098985e-05 -0.0002485137
000240 04 58 2c 3a dc 95 52 ba 04 bb 50 b9 19 13 3d b9
       0.00065743946 -0.0008033195 -0.00019906095 -0.00018031559
000250 c0 f9 c0 b9 a0 16 aa b8 3a 20 bf b9 40 59 4a 38
       -0.00036807172 -8.110446e-05 -0.0003645437 4.8243674e-05
000260 12 3d fb 39 5a 8a 4b ba b4 60 6a 39 c0 a3 70 ba
       0.00047919952 -0.00077644514 0.00022352004 -0.0009179674
000270 c6 32 78 ba 48 8d b4 b8 80 3c dc b7 7e 4a 3d b9
       -0.0009468015 -8.6093845e-05 -2.6254216e-05 -0.00018052195
000280 5a 7f ae bb 90 74 2e 3b d6 ec a6 3a 04 6e 77 ba
       -0.00532524 0.002661977 0.0012735378 -0.0009438696
000290 e0 0e 4d ba 7a f0 02 ba d6 ec 4a ba 86 e7 b0 ba
       -0.0007822346 -0.000499494 -0.000774098 -0.0013496734
0002a0 cd 16 77 bb 55 56 ac 3b a8 ca 21 bb f8 24 ba 3b
       -0.00377028 0.005259315 -0.0024687443 0.0056806765
0002b0 71 b8 77 3b 68 79 ed 39 78 8c bf ba c1 da 24 3a
       0.0037799145 0.00045294617 -0.0014614007 0.00062887004
0002c0 a2 33 d0 3a 10 43 e6 b7 d0 d6 93 ba 9d 62 2c b9
       0.0015884528 -2.7449365e-05 -0.0011279229 -0.00016439935
0002d0 a4 13 e0 ba 43 2a 24 bb dc 32 90 39 a4 4d 5f ba
       -0.0017095697 -0.0025049604 0.00027503713 -0.0008518344
0002e0 d2 27 18 bb f3 48 a1 3a 3e 85 28 3a 7d a6 24 3b
       -0.0023217094 0.0012305066 0.0006428546 0.0025123649
0002f0 82 ec 71 39 ff 2d 16 3b ee b6 17 3b 1d c4 c9 3a
       0.00023071657 0.00229156 0.0023149806 0.0015393529
000300 b5 60 e3 38 24 46 6d 39 d4 43 cc b9 0a 2f b7 b9
       0.000108422166 0.0002262821 -0.00038960448 -0.00034939527
000310 68 4a 5f b8 4b e4 7e ba e8 92 bc b8 6c 4c 7a b9
       -5.323664e-05 -0.00097233494 -8.991902e-05 -0.00023870327
000320 21 01 11 ba aa c6 76 3a 00 ae 5d 37 c7 c2 88 3a
       -0.0005531479 0.00094137585 1.3213139e-05 0.0010434025
000330 c3 e6 31 3a ae f7 1e 3a 94 bb 01 3a c3 11 81 39
       0.00067864003 0.0006064129 0.0004948911 0.0002461803
000340 da e0 34 3b 86 e4 e5 b9 2e ba f1 ba db f7 13 ba
       0.0027599842 -0.00043848547 -0.0018442327 -0.00056445383
000350 88 97 dd ba cd cb 67 bb 68 c2 9b b8 f0 4f 61 ba
       -0.0016906122 -0.0035369277 -7.427187e-05 -0.00085949805
000360 fa 6b fc ba c5 d3 9a 3a ea 16 94 3a 5e 31 0b 3b
       -0.0019258254 0.001181238 0.0011298333 0.0021239142
000370 04 f2 60 39 9e e3 2f 3b bb a8 37 3b df de ad 3a
       0.00021452463 0.0026838551 0.0028024155 0.0013265273
000380 10 55 62 3b 6c b8 5d ba 38 3c 21 bb bf 5a a3 ba
       0.0034535564 -0.0008457962 -0.0024602544 -0.0012462958
000390 ea 53 16 bb 10 cf 95 bb bb 1e 38 ba a0 fa 95 ba
       -0.00229382 -0.004571803 -0.0007023622 -0.001144249
0003a0 70 cc d8 ba 8e e5 a5 3a 0e e1 bb 3a fa fd ca 3a
       -0.0016540419 0.0012656914 0.0014334039 0.0015487068
0003b0 a8 33 80 b7 e1 76 4c 3b fb ae 42 3b 5d b0 87 3a
       -1.5282843e-05 0.0031198787 0.0029706347 0.0010352243
0003c0 d4 af 88 3b db 85 8e b9 9d ed 16 bb bc a6 82 b8
       0.004171351 -0.0002718408 -0.0023029812 -6.22994e-05
0003d0 00 f4 18 3b 38 fd 48 bb 29 e3 97 3a 68 9f 19 3a
       0.0023338795 -0.0030668508 0.0011588085 0.000586024
0003e0 c8 6e c5 39 44 76 c4 39 1c 6f d1 3a 94 60 d0 3a
       0.00037657307 0.00037472148 0.0015978548 0.0015897923
0003f0 19 5e 90 3a b0 43 05 3b a6 26 74 3b ea c7 a1 3a
       0.0011014371 0.0020334534 0.0037254482 0.0012342904

momentum_buffer f4 [500, 16]
000000 18 62 8d 3b 4a e7 5f 3b 0c ad a8 3a 23 1f 3e 3a
       0.004314672 0.0034164959 0.0012868955 0.00072525645
000010 40 d4 e6 ba 1d c0 48 bb 83 70 30 3a 97 42 f4 3b
       -0.0017610863 -0.0030632087 0.0006730633 0.007454227
000020 00 c8 8d 39 18 13 89 3b aa 55 ae ba 11 22 b3 ba
       0.00027042627 0.0041831844 -0.0013300676 -0.0013666769
000030 84 8a a1 38 08 4c 80 bb 68 2a 82 bb cf b6 45 3a
       7.702879e-05 -0.0039153136 -0.0039723404 0.0007542194
000040 ea cd 95 3c 02 a6 49 3c 9e 34 cc 3b 24 2b 82 3b
       0.018286664 0.012307646 0.0062318584 0.003972428
000050 10 6d 56 bc 55 9c 3f bc 10 45 10 3b e5 54 00 3d
       -0.013087526 -0.011694987 0.002201382 0.03133096
000060 87 86 56 ba 7e e9 7f 3c ee 73 a5 bb 4c d7 1c bc
       -0.0008183498 0.015619634 -0.0050492203 -0.009572815
000070 7b 5e 82 bb 4b f5 8e bc 2d c0 8b bc 12 8d 69 3b
       -0.003978548 -0.01745095 -0.01705941 0.0035637063
000080 24 0a a1 3c 80 71 5a 3c c6 a5 a9 3b 80 e3 af 3b
       0.019658156 0.013332725 0.0051772324 0.0053676963
000090 92 49 49 bc f0 1b 4a bc 48 16 98 3b 0c 62 fb 3c
       -0.012285607 -0.012335762 0.004641328 0.0306864
0000a0 d9 6e 08 bb 68 17 77 3c 07 e0 9d bb b0 f6 e8 bb
       -0.0020818023 0.015081264 -0.004817966 -0.0071094856
0000b0 f0 ae 41 bb f5 9c 7c bc 5c 6b 5d bc 62 34 b2 3b
       -0.0029553734 -0.015418281 -0.013514366 0.0054383734
0000c0 c0 5e 2c 3a a0 70 b1 39 f8 81 8d 39 00 c0 9a 38
       0.0006575398 0.00033843983 0.0002699045 7.379055e-05
0000d0 00 87 24 b8 40 79 99 b9 84 0f 1a 39 1c 35 87 3a
       -3.9226376e-05 -0.00029272772 0.00014692364 0.001031551
0000e0 91 19 12 3a 80 a8 0c 3a f4 41 2a 39 c8 d3 66 ba
       0.00055732677 0.00053656846 0.00016237033 -0.00088053616
0000f0 f8 6d 30 ba 1c cd 7d ba 78 26 65 ba d8 b1 19 b9
       -0.0006730254 -0.0009681748 -0.0008741389 -0.00014657469
000100 6c 11 e8 bc cf 3d aa bc 10 d3 1d bc d5 5a e8 bb
       -0.02832862 -0.020781426 -0.009632841 -0.007090906
000110 2c 0f 9c 3c bc 29 95 3c 60 f7 8a bb 78 d0 48 bd
       0.019050203 0.018208377 -0.004240915 -0.049026936
000120 48 c0 9e 3a ac 5c cf bc 55 e5 02 3c f5 4d 58 3c
       0.0012111748 -0.025312744 0.007989247 0.01320218
000130 e8 92 bb 3b 1b 67 e1 3c 76 c3 d4 3c c4 77 c9 bb
       0.0057242997 0.027514985 0.02597211 -0.0061483104
000140 d6 71 51 3c 5a a9 05 3c 9c c0 60 3b 3e 0e 25 3b
       0.012783488 0.008158052 0.0034294492 0.002518549
000150 0c 90 f9 bb 58 88 08 bc c4 6b e6 3a bd 29 a9 3c
       -0.0076160487 -0.008333288 0.0017579724 0.020649785
000160 f2 39 57 b8 47 b5 25 3c af b7 54 bb a3 b2 b6 bb
       -5.131396e-05 0.010114021 -0.0032458117 -0.0055754944
000170 d0 87 0a bb 1d cf 32 bc 18 5b 2c bc 68 c5 15 3b
       -0.002113808 -0.0109136375 -0.010519765 0.002285326
000180 14 39 ff 39 80 13 06 b9 b2 12 49 b9 88 3c 8f 38
       0.00048679917 -0.000127865 -0.00019175818 6.830046e-05
000190 48 c6 9b 38 08 d4 92 39 cc 01 02 3a d8 a2 95 b9
       7.427909e-05 0.00028005266 0.0004959374 -0.00028540823
0001a0 c0 01 14 b9 e0 86 17 ba 40 f7 65 39 72 b4 93 39
       -0.00014115032 -0.0005780291 0.0002193125 0.00028172467
0001b0 02 77 c8 b8 7a e8 56 3a 73 5f 7a 3a 4f bb cb 39
       -9.55891e-05 0.0008198094 0.0009550966 0.00038858733
0001c0 a3 d1 c1 b4 02 b3 7b b3 37 8d 13 b3 32 47 0a 33
       -3.6101582e-07 -5.8603298e-08 -3.435454e-08 3.219538e-08
0001d0 f3 53 fa 32 fd 9a 51 34 9f 76 1c b3 1a 35 d1 b4
       2.9142006e-08 1.9521026e-07 -3.6429466e-08 -3.896792e-07
0001e0 c0 3a bd b3 83 c9 c6 b3 8a 35 21 32 a1 c4 ee 33
       -8.811685e-08 -9.256748e-08 9.383607e-09 1.1118505e-07
0001f0 37 0d ba b2 b3 8f dd 33 db 56 2b 34 80 5a ab b3
       -2.165926e-08 1.0317253e-07 1.5957214e-07 -7.97927e-08
000200 be ba e6 bb 47 f3 cd bb de d4 90 bb 35 f8 24 bb
       -0.0070413044 -0.0062851044 -0.004419907 -0.0025172357
000210 e0 e7 05 3c 8a 4c 99 3b 74 39 bd b9 6a 19 80 bc
       0.008172959 0.0046783136 -0.00036091695 -0.015637118
000220 f2 98 ed 3a ce 1d 0f bc 70 76 41 3b 61 89 b3 3b
       0.0018127246 -0.008735133 0.0029520057 0.0054790233
000230 bb 22 3d 3b 20 e1 19 3c d0 87 27 3c 06 3a d6 ba
       0.0028859812 0.009392053 0.010225251 -0.0016344197
000240 a0 c1 56 3c ad 51 11 3c 72 94 59 3b af c1 27 3b
       0.013107687 0.008869571 0.0033200053 0.0025597622
000250 32 b1 02 bc f8 3a 14 bc a9 6c d1 3a 04 25 a8 3c
       -0.007976817 -0.009047262 0.0015977818 0.020525463
000260 e0 6f 53 b8 10 47 36 3c e4 92 57 bb 06 58 a8 bb
       -5.0410512e-05 0.011125341 -0.003289395 -0.0051374463
000270 2b 5f e1 ba 02 1f 37 bc a6 c1 2b bc c3 dd 12 3b
       -0.00171945 -0.011176826 -0.010483181 0.0022410012
000280 30 94 5c ba c0 e3 46 ba 40 aa ce b9 88 e6 00 ba
       -0.00084144156 -0.0007587038 -0.00039418228 -0.00049171643
000290 61 05 26 3b c4 fe 6e 3a 44 ba 84 39 a0 d4 6d ba
       0.0025332796 0.00091169425 0.0002531578 -0.0009072516
0002a0 d2 49 a0 3a fe d3 9e ba a0 d0 60 38 50 cb 88 39
       0.0012229031 -0.0012117622 5.360006e-05 0.0002609142
0002b0 c7 71 89 3a 10 26 59 3a 00 b3 56 39 ce 25 de b9
       0.0010486179 0.0008283565 0.00020475313 -0.00042371306
0002c0 47 14 bd bc a0 19 7d bc b8 14 f9 bb a8 0a b1 bb
       -0.023080958 -0.015448004 -0.007601347 -0.0054028817
0002d0 32 a2 86 3c 2c ca 75 3c 86 1a 57 bb f0 ce 20 bd
       0.016434763 0.015001815 -0.0032822206 -0.03925985
0002e0 d3 f7 ce 3a 2c 91 9f bc 32 b2 c3 3b 90 2d 38 3c
       0.001579041 -0.019478403 0.0059721703 0.011241332
0002f0 d6 68 b0 3b 50 93 b4 3c ed 94 ad 3c 3f 0b a1 bb
       0.005383591 0.0220429 0.021189177 -0.0049146707
000300 05 24 0d 32 1b 41 f0 b0 5b cd e6 b0 ab 3e 86 b1
       8.21547e-09 -1.7480802e-09 -1.6793068e-09 -3.907038e-09
000310 35 4d d3 31 ae a7 8d b1 bc e9 43 30 9b d5 31 31
       6.1496856e-09 -4.122703e-09 7.1272743e-10 2.587831e-09
000320 9c ea 96 31 fb 25 31 b1 d8 2f 71 30 08 11 85 30
       4.3922466e-09 -2.577848e-09 8.774328e-10 9.681864e-10
000330 a7 8e 30 31 88 55 3e 31 ad c1 1a 31 ec 34 89 30
       2.569246e-09 2.7697258e-09 2.2520041e-09 9.983103e-10
000340 ec 88 8b 3b 9c 2c 71 3b 14 53 9c 3a c3 97 b2 3a
       0.0042582657 0.003680027 0.0011926615 0.0013625551
000350 9a 30 1e bb e3 e2 2c bb 26 c6 aa 3a b6 37 d4 3b
       -0.0024137856 -0.0026380352 0.0013029024 0.006476368
000360 a0 cd 73 ba f6 16 84 3b 10 d8 8c ba 0f cb 97 b9
       -0.0009300355 0.0040310575 -0.0010745544 -0.00028952255
000370 09 1e 0b b9 db ea 48 bb a0 de 1f bb 18 2e bc 3a
       -0.00013267262 -0.0030657563 -0.002439417 0.0014356999
000380 00 00 00 00 00 00 00 00 00 00 00 00 00 00 00 00
       0.0 0.0 0.0 0.0
000390 00 00 00 00 00 00 00 00 00 00 00 00 00 00 00 00
       0.0 0.0 0.0 0.0
0003a0 00 00 00 00 00 00 00 00 00 00 00 00 00 00 00 00
       0.0 0.0 0.0 0.0
0003b0 00 00 00 00 00 00 00 00 00 00 00 00 00 00 00 00
       0.0 0.0 0.0 0.0
0003c0 6b 01 fc bb 77 4d b9 bb a8 05 24 bb 61 19 27 bb
       -0.0076905987 -0.0056549865 -0.0025027785 -0.0025497305
0003d0 85 70 b6 3b 6e de 9b 3b c4 03 d5 ba 95 27 48 bc
       0.0055676126 0.0047567403 -0.0016251733 -0.012216468
0003e0 ea ad c3 3a 20 27 dc bb 56 23 fd 3a c8 c2 1f 3b
       0.001492915 -0.0067185313 0.0019312899 0.0024377573
0003f0 18 76 b7 3a b7 ac cf 3b eb 8e b2 3b 20 a4 02 bb
       0.0013996987 0.006337728 0.005449166 -0.0019934252

momentum_buffer f4 [500]
000000 8f 9e 0a bc 5e e0 07 bd f0 4d 07 bd a0 50 6e b9
       -0.008460655 -0.033172958 -0.03303331 -0.00022727484
000010 80 cb 49 3d c9 85 b3 bc 10 49 1a ba 5b 56 4e 35
       0.04926634 -0.02191438 -0.0005885521 7.6866644e-07
000020 56 e2 68 3c 33 29 b3 bc 80 65 62 ba 81 88 25 3d
       0.014214119 -0.021870231 -0.00086363405 0.040413383
000030 36 2f c8 b2 9c 75 f8 bb 00 00 00 00 11 cc 51 3c
       -2.3304533e-08 -0.0075823795 0.0 0.012805001
000040 0b 04 80 33 88 d2 f4 3b 18 19 fb 35 1a 12 8f bc
       5.9612e-08 0.0074713863 1.870826e-06 -0.017464686
000050 60 b8 c9 3c 00 00 00 00 11 46 c3 37 34 58 dd 3b
       0.02462405 0.0 2.3278439e-05 0.0067548994
000060 00 00 00 00 00 00 00 00 91 3b 10 bd 00 00 00 00
       0.0 0.0 -0.035213057 0.0
000070 b9 a0 94 b1 ba f8 83 bc ac c1 4c bd 08 90 c4 bb
       -4.325639e-09 -0.016109813 -0.049989387 -0.005998615
000080 f6 44 60 3d 24 6c 0a bc 8e ce 89 bc 79 04 da 18
       0.054753266 -0.008448634 -0.016822126 5.6356195e-24
000090 ef 64 ba 33 00 00 00 00 00 00 00 00 1c 88 d2 3c
       8.67966e-08 0.0 0.0 0.025699668
0000a0 3b 55 c0 b5 9b 36 82 ac 47 c8 db 9b e4 31 2d 36
       -1.432992e-06 -3.7008847e-12 -3.6359937e-22 2.580805e-06
0000b0 70 57 0c bc ab 85 26 bc 79 99 0f bc 00 00 00 00
       -0.008565769 -0.010163705 -0.008764618 0.0
0000c0 36 1c d2 24 00 87 2c b9 00 00 00 00 f8 92 01 bd
       9.1120774e-17 -0.0001645349 0.0 -0.0316343
0000d0 d3 e3 89 3c ae 85 7d bd 99 de 67 32 00 00 00 00
       0.016832268 -0.061895065 1.34965825e-08 0.0
0000e0 00 00 00 00 a2 5f bf bb b4 ee ad 3c f1 43 a8 b3
       0.0 -0.0058402577 0.021231987 -7.835468e-08
0000f0 00 00 00 00 ee bd 10 bc 80 c7 f7 b7 5c 62 58 bb
       0.0 -0.008834345 -2.9537594e-05 -0.003301761
000100 91 8d f1 3b 8c 24 f9 bc 71 aa 83 3c 36 c5 30 bb
       0.0073716124 -0.030412935 0.016072484 -0.0026973016
000110 61 c0 14 bd 20 ec 95 32 16 ec 7c 36 5d fe 68 37
       -0.03631628 1.745326e-08 3.7688346e-06 1.3887501e-05
000120 c8 23 cd 32 1d ec 87 33 7c 8f e9 bb 00 00 00 00
       2.3881412e-08 6.329376e-08 -0.0071277004 0.0
000130 10 6b 90 3b 4d 96 b5 bc 71 c5 05 bc ec 49 f4 3b
       0.004407294 -0.022166396 -0.0081647495 0.0074551012
000140 28 e1 bf bd c0 4b f3 39 55 07 be 3c a7 f2 69 3c
       -0.09369117 0.0004640501 0.023196856 0.014279044
000150 00 0c d7 b0 cc 92 85 3c 5f 61 10 3d d2 dd 0e bd
       -1.564672e-09 0.01630535 0.03524911 -0.034879513
000160 d3 81 30 bc b8 fe 10 bc 00 00 00 00 00 00 00 00
       -0.01077314 -0.008849792 0.0 0.0
000170 0e bf 76 bd 00 00 00 00 e8 7e 1c 31 89 ca 3c 28
       -0.060240798 0.0 2.2773126e-09 1.0480014e-14
000180 77 f6 5f bd 33 f7 33 3c ac 75 06 bd 85 43 dd 3c
       -0.054678407 0.01098423 -0.032827064 0.027009735
000190 72 ba 8f b0 42 e1 93 bc 8c 9b 68 bc 25 c5 22 bb
       -1.045761e-09 -0.018051747 -0.0141972415 -0.0024836746
0001a0 ce 03 fb bc c9 5b 0f bd 00 00 00 00 78 43 b9 b2
       -0.030641463 -0.034999643 0.0 -2.1567516e-08
0001b0 a6 fb e9 bb 91 f8 3f ad fc 08 eb b8 fe 49 b9 3c
       -0.0071405945 -1.0912286e-11 -0.00011207347 0.02261829
0001c0 63 9c 5f 34 16 31 41 3d 00 00 00 00 a2 6c c6 bc
       2.0825387e-07 0.047165953 0.0 -0.024221722
0001d0 e0 af b9 3c c0 e9 0d 3a 84 b6 68 3d 00 00 00 00
       0.022666872 0.00054135546 0.056814685 0.0
0001e0 60 70 82 39 27 f0 f7 9a af 7c f1 3c 08 23 fa 3b
       0.00024879258 -1.0254479e-22 0.0294784 0.0076335706
0001f0 01 2d 49 3d d2 e2 e8 3c 6d 50 3e 2e be 24 c0 b8
       0.049115185 0.028428469 4.327243e-11 -9.162117e-05
000200 5e e0 ce ba ba 9d 89 b2 83 e7 76 bc e2 ab 0c bb
       -0.0015783419 -1.6020625e-08 -0.015069845 -0.0021464755
000210 cc 57 67 2b 17 4c 7f bc 9f d3 39 bc e8 9d 74 3d
       8.218953e-13 -0.015582106 -0.011341958 0.059720904
000220 ea e0 2f bd 00 00 00 00 29 dc c9 3c e6 2b 87 b9
       -0.042939104 0.0 0.024641113 -0.00025781913
000230 d3 ba 96 bc 4e 94 ac b7 96 8a 2f bc 80 f7 51 3a
       -0.018399632 -2.0573058e-05 -0.010714194 0.00080095977
000240 f2 01 c8 bb 9b f2 a2 b7 d5 62 93 32 19 74 80 b2
       -0.0061037475 -1.9424877e-05 1.7157996e-08 -1.4953956e-08
000250 bc 35 84 34 df 7b f8 3b c6 cd bf 3c 5e 0b 90 ba
       2.4626013e-07 0.007583126 0.02341355 -0.0010989716
000260 e0 fd 9a bc 11 64 3b bd 00 00 00 00 6e 90 19 3c
       -0.018919885 -0.045749728 0.0 0.009372814
000270 25 dd 86 3c 54 e0 29 30 28 53 b9 ba cf 66 9e 36
       0.016462872 6.180063e-10 -0.0014139162 4.7207354e-06
000280 93 f3 14 b2 2a 75 26 3d e4 13 19 3c b9 2b 6c 3d
       -8.670116e-09 0.04063908 0.009343121 0.057658885
000290 3b ef e9 3c b8 72 3d bc 04 00 00 80 28 29 09 3c
       0.028556457 -0.011562996 -6e-45 0.008371629
0002a0 d7 2f 60 bd 30 e9 58 b4 d2 9c 04 3d 12 57 6e bd
       -0.054733124 -2.0201401e-07 0.032376118 -0.058188505
0002b0 08 e9 ee b3 1b 3f 8f bc 9e 71 d5 ba d4 98 13 3b
       -1.1125127e-07 -0.017486146 -0.0016284471 0.0022521513
0002c0 36 ec 46 36 ce 5f 81 bc db 9e 0c bd 66 03 2a bc
       2.9641792e-06 -0.015792754 -0.034331184 -0.010376787
0002d0 06 8f 02 bb 20 e8 9e 3b 00 00 00 00 9a b6 23 3d
       -0.0019921674 0.004849449 0.0 0.039969064
0002e0 28 30 a7 b9 01 48 64 b8 9d 5b 8f bd 52 bb 93 3b
       -0.000318886 -5.4426495e-05 -0.06999896 0.0045084143
0002f0 74 6a 73 3b 4d a3 38 32 00 00 00 00 43 1e 84 3d
       0.0037142308 1.074734e-08 0.0 0.064510845
000300 92 8b 63 31 0b df 30 3c 30 71 05 bb d0 37 14 bd
       3.3112184e-09 0.010795365 -0.0020361654 -0.03618604
000310 57 1b 3c 3c e2 c4 b3 3c ab 6b a3 bb 4a fd f1 ab
       0.011481128 0.021944467 -0.0049872003 -1.7194382e-12
000320 00 00 00 00 79 ad 4c 3c 4e ee db b7 00 45 47 3d
       0.0 0.012492531 -2.6217804e-05 0.048649788
000330 50 37 7c bd 7f 6f 79 3c 7b 30 f5 23 43 48 44 3c
       -0.061576188 0.015224337 2.6583486e-17 0.011980119
000340 d4 29 05 ba ba 89 5f 37 9f 6b cc a8 29 ca df 2d
       -0.000507978 1.3323903e-05 -2.2695223e-14 2.5441942e-11
000350 f6 86 2e 3d 00 00 00 00 00 00 00 00 1b 3b 0e 3d
       0.042609178 0.0 0.0 0.034724336
000360 53 5f 34 bd 4f 4e 40 b7 00 00 00 00 b0 01 c1 bc
       -0.04403622 -1.1462324e-05 0.0 -0.023560375
000370 00 00 00 00 31 60 19 3d 35 72 7d b8 df 02 2f 3d
       0.0 0.03744525 -6.0426264e-05 0.042727347
000380 1d 91 19 3b 83 f2 85 bc c8 e6 00 3b bd a3 67 bd
       0.0023432442 -0.01635099 0.0019668806 -0.056552637
000390 61 a5 90 3b 48 c9 ce aa a0 31 67 bd f6 bf 9d 32
       0.004414246 -3.6732618e-13 -0.05644381 1.83645e-08
0003a0 bd a1 32 3d 75 4d 03 bd 00 00 00 00 6b 49 cc 3b
       0.043611277 -0.03205629 0.0 0.006234338
0003b0 38 9f 8c bc 5e 71 46 af 00 00 00 00 1d b2 41 b1
       -0.017165765 -1.8048271e-10 0.0 -2.8186442e-09
0003c0 d1 82 0e 3c 87 09 47 ac c9 cd 01 1f 82 3a f3 bc
       0.008698181 -2.828489e-12 2.7487034e-20 -0.029690985
0003d0 78 f1 34 3c ae c9 51 b7 00 00 00 00 de ff 81 bd
       0.011043899 -1.2504328e-05 0.0 -0.06347631
0003e0 00 00 00 00 b6 ef f8 bc 5e ef 5e 3d 9b 28 71 bc
       0.0 -0.03038774 0.054427497 -0.014719154
0003f0 ea 58 b1 3c 00 00 00 00 14 3a 79 3a 76 76 ac 3b
       0.021648843 0.0 0.00095072505 0.005263145
