CS4248 NLP/Assignments/Assignment 2/a2_files/model.pt (torch, 111371 bytes, 12 tensors)

embedding.weight f4 [200, 20]
0	0xbadb6d80	-0.0016741008
1	0x3df5a9a0	0.11995244
2	0xbe3c7496	-0.18403849
3	0xbe2882ac	-0.16456097
4	0xbdb06154	-0.08612314
5	0x3d759a80	0.059961796
6	0xbb912ca0	-0.0044303685
7	0x3e358cf2	0.17729548
8	0xbca28f68	-0.019843772
9	0x3d725b60	0.059169173
10	0xbd8a65c2	-0.0675769
11	0xbd340870	-0.04395336
12	0xbe5abfd6	-0.21362242
13	0xbe17a51c	-0.14809078
14	0xbdbcc6b6	-0.092175886
15	0x3c07b640	0.008283198
16	0x3db50ae0	0.08839965
17	0x3e0963a4	0.13416916
18	0xbe1b3afe	-0.15159222
19	0xbdc76b34	-0.09737244
20	0x3da65588	0.081217825
21	0x3e3e2300	0.18568039
22	0xbd3c7db4	-0.046018317
23	0x3e2b57ec	0.16732758
24	0xbd13a074	-0.036041692
25	0x3cc1d430	0.02366075
26	0x3e4f5476	0.20247063
27	0xbe54696c	-0.2074334
28	0xbe1025bd	-0.14076896
29	0xbd67df54	-0.056609467
30	0xbdb281f2	-0.08716191
31	0x3e45d54a	0.19319645
32	0xbe146a76	-0.14493737
33	0xbdd2ced4	-0.102933556
34	0xbe1ff856	-0.15622076
35	0xbe567290	-0.2094214
36	0xbe05a938	-0.13052833
37	0x3e44d336	0.19221196
38	0x3dcc5820	0.09977746
39	0x3dddf448	0.108376086
40	0x3c40ac50	0.0117598325
41	0xbdeac81f	-0.11463951
42	0x3d1af488	0.03783086
43	0xbe55ca8d	-0.20878048
44	0xbe2572cc	-0.16157073
45	0xbdec15d4	-0.11527601
46	0x3e1077ce	0.14108202
47	0x3e064080	0.13110542
48	0xbdcb18db	-0.0991685
49	0xbc0430c0	-0.0080682635
50	0x3e12713e	0.14301011
51	0x3e63a148	0.22229493
52	0x3db5c03c	0.088745564
53	0x3cf77620	0.030207694
54	0x3e198604	0.14992529
55	0xbe06d1ee	-0.1316602
56	0x3d2aabd8	0.04166779
57	0xbe318639	-0.17336358
58	0xbe1eb2c2	-0.15497878
59	0xbdec9158	-0.115511596
60	0x3df3cdb3	0.119044684
61	0x3ddcc353	0.10779443
62	0xbdeaabc1	-0.11458541
63	0x3daef1a3	0.08542182
64	0x3e0fff59	0.14062251
65	0xbc29a57b	-0.010354395
66	0x3cd8520d	0.026406312
67	0x3d8eb40f	0.06967937
68	0x3e2058e3	0.15658908
69	0x3e6e2807	0.23257457
70	0xbe1e279f	-0.15444802
71	0xbd833a89	-0.06407649
72	0x3dd89293	0.10574832
73	0x3e500363	0.20313792
74	0x3e598d43	0.21245293
75	0x3e5c556d	0.21516962
76	0x3d7f7754	0.06236966
77	0xbe34d053	-0.17657594
78	0x3d1d71fe	0.03843879
79	0xbdf9e620	-0.12202096
80	0xbe556486	-0.20839128
81	0x3e4b70ec	0.19867295
82	0x3e2e1a26	0.17002162
83	0xbe646847	-0.22305404
84	0x3d2b6e00	0.04185295
85	0xbd1a4a9c	-0.03766881
86	0xbd16b870	-0.036796987
87	0xbdd1a0d6	-0.10235755
88	0x3db01b34	0.085989386
89	0xbe079f2a	-0.1324431
90	0x3da7e118	0.0819723
91	0x3de7965c	0.11307976
92	0x3e23ea60	0.16007376
93	0x3dab3b3c	0.083609074
94	0xbe629f7d	-0.22131152
95	0xbe1488c8	-0.14505303
96	0x3de4a8e0	0.11165023
97	0x3d3fb2a0	0.04680121
98	0xbe329e53	-0.17443208
99	0xbe03d8ea	-0.12875715
100	0x3e576812	0.21035793
101	0x3e1a494e	0.15067026
102	0xbdc7ad20	-0.09749818
103	0xbd668434	-0.056278422
104	0xbe5a1e9d	-0.2130074
105	0xbb83b300	-0.004019141
106	0xbe2c6e30	-0.16838908
107	0xbe309ec1	-0.1724806
108	0xbc49dc90	-0.012320653
109	0x3d098450	0.03357345
110	0xbdbb8b06	-0.09157376
111	0x3e07de1e	0.13268325
112	0xbe0b56d8	-0.13607347
113	0x3e4fc37a	0.20289412
114	0x3e1cea58	0.1532377
115	0xbe4116de	-0.1885638
116	0xbd63f398	-0.05565223
117	0x3c254f60	0.010089725
118	0x3d05a140	0.032624483
119	0x3d5939f0	0.05303377
120	0x3db3b614	0.08774963
121	0x3c5b72e0	0.013394088
122	0xbddf7204	-0.10910419
123	0x3dd8b204	0.10580829
124	0xbe5ba477	-0.21449457
125	0xbe07b6cc	-0.13253325
126	0xbd654684	-0.055975452
127	0xbddf126c	-0.108921856
128	0xbda0347e	-0.07822512
129	0xbe3babe9	-0.18327297
130	0xbd42d30c	-0.04756455
131	0x3d43c730	0.047797382
132	0xbe152b16	-0.14567217
133	0xbc3c0320	-0.011475354
134	0x3e23e928	0.16006911
135	0xbcbc4ee0	-0.02298683
136	0x3bcba340	0.0062145293
137	0xbc9e06b8	-0.019290313
138	0x3d395c18	0.045253843
139	0x3e11971e	0.14217803
140	0x3e58e4e6	0.21181068
141	0x3e116930	0.14200282
142	0x3e5963f2	0.21229532
143	0xbc847a58	-0.01617162
144	0xbe4db113	-0.2008708
145	0xbdd91a24	-0.10600689
146	0x3e1be8be	0.15225503
147	0xbabdfe00	-0.0014495254
148	0xbde39ee9	-0.11114294
149	0xbe2f7709	-0.17135252
150	0xbe564902	-0.20926288
151	0xbe414162	-0.18872598
152	0xbd39c6e0	-0.045355678
153	0x3dfb2408	0.12262732
154	0x3df795b4	0.120891005
155	0xbe5cd447	-0.21565352
156	0x3e0ed458	0.1394819
157	0xbe332c7f	-0.17497443
158	0xbd41a118	-0.04727277
159	0xbdb9af54	-0.09066644
160	0xbd306a40	-0.043070078
161	0xbd33d438	-0.04390356
162	0xbe4d7820	-0.20065355
163	0xbe45b44b	-0.19307058
164	0xbd0f518c	-0.03498988
165	0x3b3d8300	0.0028917193
166	0xbdd008a0	-0.10157895
167	0x3dac8218	0.08423251
168	0xbe4e16e2	-0.20125917
169	0xbc773e90	-0.0150906
170	0x3e495d16	0.19664416
171	0xbdbacaf4	-0.091207415
172	0x3e4ec37e	0.20191762
173	0x3da5d8dc	0.08098003
174	0xbe4ea3b7	-0.2017964
175	0x3e10def0	0.14147544
176	0xbcd360c8	-0.025802985
177	0xbdcc6e38	-0.0998196
178	0x3e37196c	0.17880791
179	0xbe390843	-0.18069558
180	0xbd406d18	-0.04697904
181	0xbdf13b90	-0.11778939
182	0x3db5ac2b	0.08870729
183	0xbc0c286b	-0.008554558
184	0x3d1562b9	0.036471102
185	0x3c02ffd8	0.007995568
186	0xbdff7a42	-0.12474491
187	0xbdf1a962	-0.11799885
188	0xbe82af40	-0.2552433
189	0x3d4d90c4	0.050186887
190	0x3dda3f26	0.10656576
191	0x3da7fc4b	0.08202418
192	0xbe6a3072	-0.22870043
193	0xbd79db78	-0.061000317
194	0xbe6a1668	-0.2286011
195	0xbe46b8fd	-0.19406505
196	0xbe4e19b6	-0.20126995
197	0x3bb25e36	0.0054433597
198	0xbe511fe8	-0.20422328
199	0xbd9b5818	-0.07585162
200	0x3c1a1ea0	0.009406716
201	0x3e1399fc	0.14414209
202	0xbe2d15e7	-0.16902886
203	0xbe1d3169	-0.1535088
204	0xbe04f4be	-0.12983987
205	0x3e204420	0.15650988
206	0xbda49da6	-0.080378816
207	0x3e4122ee	0.18860981
208	0x3da598d4	0.0808579
209	0x3ce7f3b0	0.028314441
210	0xbada2c80	-0.0016645342
211	0xbd350e24	-0.04420294
212	0x3ce5d3e0	0.028055131
213	0xbd5123b0	-0.051059425
214	0xbacdef80	-0.0015711635
215	0x3ce9b920	0.028530657
216	0xbe331aa8	-0.17490637
217	0xbdf00636	-0.11719935
218	0x3e38e4f2	0.18056086
219	0xbe39d294	-0.18146735
220	0x3de10448	0.10987145
221	0x3eb1bac7	0.34712812
222	0x3e53a9ea	0.20670286
223	0x3e076ed9	0.13225879
224	0xbd8af606	-0.067852065
225	0x3e7260df	0.23669766
226	0xbd0892b5	-0.033343036
227	0x3d7fcf90	0.062453806
228	0x3d5080ca	0.050904073
229	0x3dbe1582	0.09281446
230	0x3e037463	0.12837367
231	0x3e9ee788	0.3103602
232	0x3e1d88eb	0.15384261
233	0x3ea70514	0.32621062
234	0x3e868202	0.26271063
235	0xbc7cf60b	-0.015439521
236	0x3e67a544	0.22621638
237	0xbd03a425	-0.032138962
238	0x3cff3e4d	0.031157637
239	0x3e444bdc	0.19169563
240	0x3d9735dc	0.0738332
241	0x3e2bc840	0.16775608
242	0xbd936b9a	-0.07198258
243	0x39bbae00	0.0003579706
244	0x3debc304	0.11511806
245	0xbe5d7037	-0.21624838
246	0x3e258b16	0.16166338
247	0xbe3d57dc	-0.18490547
248	0x3b49f900	0.0030818582
249	0xbd1bb79c	-0.0380169
250	0xbdf1302b	-0.117767654
251	0x3cf21bf0	0.029554337
252	0x3e3d57a4	0.18490463
253	0xbd85dde4	-0.06536463
254	0xbe07f0ac	-0.13275403
255	0xbda95dd2	-0.08269848

embedding.bias f4 [200]
0	0x3de3cf44	0.11123517
1	0xbd72e360	-0.059298873
2	0x3e2cdfea	0.16882291
3	0xbe409012	-0.18804958
4	0x3e43f892	0.19137791
5	0x3e001caa	0.12510934
6	0xbe27f16e	-0.16400692
7	0xbe3ac0f0	-0.18237662
8	0x3e331026	0.17486629
9	0x3e49f1dc	0.19721168
10	0x3c9fd8f0	0.019512624
11	0xbd4ccbb9	-0.049998973
12	0x3e026160	0.12732458
13	0x3dce998c	0.100878805
14	0xbce49c60	-0.027906597
15	0x3e0aaa29	0.13541473
16	0x3d2833de	0.04106509
17	0xbc36d70d	-0.011159671
18	0x3dedc768	0.11610299
19	0xbe0e59e2	-0.13901475
20	0xbdd39441	-0.103310116
21	0x3cc8cc30	0.024511427
22	0x3ce1c275	0.027558545
23	0xbcfa6cc0	-0.030569434
24	0x3d77c887	0.060493972
25	0x3cfafd0d	0.030638242
26	0xbe539e3b	-0.20665829
27	0x3d9071dc	0.07052967
28	0x3d87e54b	0.06635531
29	0xbde90511	-0.113779195
30	0xbd1096f7	-0.03530022
31	0xbd614110	-0.05499369
32	0xbdf33021	-0.11874414
33	0xbe334fb1	-0.17510869
34	0x3dd8ef7d	0.10592554
35	0xbe0b0e02	-0.13579562
36	0x3cf60790	0.030032903
37	0x3e291133	0.16510467
38	0xbdd4aef8	-0.10384935
39	0xbe161285	-0.14655502
40	0xbe775d34	-0.24156648
41	0x3d182dd0	0.037153065
42	0xbdbd7ef7	-0.09252732
43	0x3c0a35dc	0.008435693
44	0x3da64704	0.08119014
45	0xbdd44ebe	-0.103665814
46	0x3e1767ca	0.14785686
47	0xbcee5f08	-0.029098049
48	0xbde9c5a8	-0.11414653
49	0xbe17658c	-0.14784831
50	0x3d8af11c	0.06784269
51	0xbe0d905e	-0.13824603
52	0xbc543905	-0.012953048
53	0xbdc88df1	-0.09792698
54	0x3e1d5cf4	0.1536749
55	0xbde0815c	-0.10962173
56	0xbde19841	-0.11015368
57	0xbcecbaf8	-0.028897747
58	0xbe0bda4c	-0.13657492
59	0x3d84761e	0.064678416
60	0xbda7bed8	-0.081906974
61	0x3dd269c2	0.10274078
62	0x3da6f2db	0.0815179
63	0x3e12c192	0.14331654
64	0xbd282410	-0.041050017
65	0x3d596ba6	0.053081177
66	0xbdf27ee1	-0.118406065
67	0xbe84dbc1	-0.2594891
68	0xbd1435fc	-0.036184296
69	0xbe68179b	-0.22665255
70	0xbe5647bb	-0.209258
71	0x3d68d110	0.056840003
72	0x3e43a9ca	0.19107738
73	0xbdb437a2	-0.087996736
74	0xbdbc9891	-0.09208787
75	0xbe25e3d2	-0.16200188
76	0x3c5fd7d2	0.013662295
77	0x3d828f2c	0.06374964
78	0xbd0c982c	-0.03432481
79	0x3dfa4e44	0.12221959
80	0xbe3848b7	-0.17996489
81	0x3d68d598	0.056844324
82	0xbdfe3153	-0.124117516
83	0x3e461f92	0.1934798
84	0x3e25d66b	0.16195075
85	0x3dec2973	0.11531343
86	0x3e208a5b	0.15677778
87	0x3db55f74	0.08856097
88	0xbe2f5407	-0.17121898
89	0xbe0b8119	-0.13623466
90	0x3dbd6598	0.09247893
91	0xbe4c6d9b	-0.19963686
92	0x3def78cf	0.11692964
93	0x3db40a34	0.087910086
94	0x3d5a86f8	0.053351372
95	0xbe48b4f3	-0.19600277
96	0x3e2690f4	0.16266233
97	0xbd5b0452	-0.053470917
98	0xbdc02bf8	-0.093833864
99	0x3de95ecb	0.113950334
100	0xbcb1d9ab	-0.021710237
101	0xbdd07c7b	-0.10179993
102	0x3cadd0d5	0.021217743
103	0xbe18b155	-0.14911397
104	0x3e54cfa2	0.2078233
105	0x3e6820b8	0.22668731
106	0x3df14136	0.11780016
107	0x3df24438	0.11829418
108	0xbe639cd2	-0.22227791
109	0xbdfe911c	-0.12430021
110	0xbe5c5563	-0.21516947
111	0xbe1a19ce	-0.15048906
112	0xbe3dd5fb	-0.18538658
113	0x3e4029f7	0.18766008
114	0x3dd629a4	0.10457161
115	0x3e06d86c	0.13168496
116	0xbdcb4c6d	-0.099266864
117	0x3e278618	0.16359746
118	0xbd0458ac	-0.032311127
119	0xbd6d4c30	-0.057933986
120	0x3df692c8	0.12039715
121	0x3e19d370	0.15022063
122	0xbe2491f6	-0.16071305
123	0x3e448494	0.191912
124	0xbcb8e1a0	-0.022568524
125	0x3d181085	0.03712513
126	0xbe63ff45	-0.22265346
127	0x3ccbecb0	0.024893135
128	0xbe051ab8	-0.12998474
129	0xbe0984e1	-0.13429596
130	0xbdbf3468	-0.093361676
131	0xba888580	-0.0010415763
132	0x3d2fe37d	0.04294156
133	0xbe2b8da4	-0.1675325
134	0x3e23953f	0.15974902
135	0x3d883d20	0.06652284
136	0xbe5517c2	-0.20809844
137	0x3d401ff0	0.046905458
138	0x3d3043ee	0.043033533
139	0x3c069ec0	0.00821656
140	0x3d5e6700	0.054297447
141	0x3d9cf604	0.07664111
142	0x3dc84794	0.097792774
143	0xbe21314c	-0.15741462
144	0xbdc64506	-0.09681134
145	0x3d752092	0.059845515
146	0xbe08c3d8	-0.13355958
147	0x3db88c7a	0.09011169
148	0x3e6ae1df	0.22937725
149	0xbe51602d	-0.20446844
150	0xbe090386	-0.1338025
151	0x3e49a240	0.196908
152	0x3d81351f	0.0630896
153	0x3d790b42	0.060801752
154	0x3d7b53f3	0.061359357
155	0x3dbcb82c	0.092148155
156	0xbd9a9b85	-0.07549194
157	0x3cedce80	0.029029131
158	0x3e1bf8e8	0.15231669
159	0xbd18ddfa	-0.03732107
160	0xbe5212b1	-0.20514943
161	0x3cfda913	0.03096441
162	0xbd69d094	-0.05708368
163	0xbd413984	-0.04717399
164	0x3da2fe48	0.079586565
165	0x3ce454bf	0.027872441
166	0xbe0a8496	-0.1352714
167	0xbdd3542f	-0.10318791
168	0xbd0b3980	-0.033990383
169	0xbe004198	-0.12525022
170	0xbda72052	-0.081604615
171	0xbe1c815e	-0.15283725
172	0x3e25dfd4	0.16198665
173	0x3ded804c	0.11596736
174	0x3d34bf78	0.04412791
175	0x3d4f60b8	0.050629348
176	0x3cd671a8	0.026177242
177	0x3e2b3610	0.16719842
178	0x3d4f3fd0	0.050597966
179	0x3d0b8518	0.034062475
180	0xbe15c119	-0.14624442
181	0x3d98c460	0.074593306
182	0xbe1f5a46	-0.1556178
183	0x3d9b970a	0.07597168
184	0xbe4678bf	-0.19381998
185	0xbdb0c0c2	-0.08630516
186	0x3df18220	0.117923975
187	0xbe05f8d1	-0.13083197
188	0x3e36534a	0.1780521
189	0xbdf600ef	-0.12011897
190	0x3e58e1a8	0.21179831
191	0x3d8d250c	0.06891832
192	0xbd8bceca	-0.06826551
193	0x3da7d0a4	0.08194092
194	0xbe4ac6f2	-0.19802454
195	0xbe312191	-0.17297961
196	0xbe0f743e	-0.14009187
197	0x3cf122e0	0.029435575
198	0x3cb3f5d0	0.021967798
199	0xbe44f10f	-0.19232582

out.weight f4 [5, 200]
0	0x3d8bbdc3	0.068233036
1	0xb88db800	-6.7576766e-05
2	0xbd1aa977	-0.03775927
3	0x3e900cac	0.28134668
4	0xbcf8a66e	-0.030352797
5	0x3c9fd050	0.01950851
6	0x3cd1b2bc	0.025597923
7	0xbca45068	-0.020057872
8	0x3b871460	0.004122302
9	0x3d2b7e28	0.04186836
10	0xbd3c6291	-0.045992438
11	0x3dc2cb5f	0.09511446
12	0xbc2ae928	-0.010431565
13	0xbd3f9fa2	-0.046783097
14	0x3bbcb790	0.005759187
15	0x3c51e216	0.012810251
16	0x3e5fb9aa	0.21848169
17	0x3e53240d	0.20619221
18	0x3d8a38b5	0.06749097
19	0x3ec70a6e	0.38875145
20	0x3e67562e	0.22591469
21	0x3d848f2b	0.064726196
22	0xbc555659	-0.013021075
23	0xbd1342fa	-0.035952546
24	0x3bbe9790	0.0058164075
25	0x3e4ff639	0.2030877
26	0x3d8a3205	0.06747822
27	0x3d7959b2	0.060876556
28	0xbdf8331d	-0.12119124
29	0x3dfb6ee7	0.12277012
30	0xbd2f7da7	-0.04284444
31	0x3accac00	0.0015615225
32	0x3d6ff5ee	0.058584146
33	0x3e661a57	0.22470985
34	0x3e8e0094	0.27734816
35	0xbcf94c68	-0.030431941
36	0xbd745f9f	-0.059661504
37	0x3daad8e5	0.083421506
38	0x3d6526b2	0.055945106
39	0xbd53ba14	-0.05169113
40	0x3e016a90	0.12638307
41	0x3cbe17d4	0.023204722
42	0x3da82222	0.08209635
43	0x3ea65d51	0.3249307
44	0x3daa19fc	0.083057374
45	0xbe02fe1a	-0.12792245
46	0x3d346bb7	0.044048037
47	0x3c0a3e90	0.008437768
48	0x3eb7b12a	0.35877353
49	0x3d78c99e	0.060739152
50	0x3cf2b784	0.029628523
51	0xbd250ef2	-0.040297456
52	0x3e8153fd	0.2525939
53	0xbc982ace	-0.018575098
54	0xbcd25d1e	-0.025679167
55	0x3c15c1c0	0.009140432
56	0x3d883ccd	0.06652222
57	0xbbe3a910	-0.006947644
58	0x3ce27c6c	0.02764722
59	0x3ca7611d	0.02043205
60	0xbd5ddb80	-0.05416441
61	0x3d11f6a6	0.035635613
62	0x3db70b68	0.089377224
63	0x3ebbbbca	0.3666671
64	0xbd06dcc4	-0.032925382
65	0x3dde905f	0.1086738
66	0xbd8dca59	-0.069233604
67	0x3f274422	0.6533834
68	0xbd3605ed	-0.044439245
69	0x3e2d5eb8	0.16930664
70	0x3b39f0d0	0.0028372295
71	0x3cf11b20	0.02943188
72	0xbc9f3840	-0.019436002
73	0x3d579976	0.052636586
74	0xbda3bfd5	-0.079955734
75	0xbd2585ef	-0.040410932
76	0x3d52db3f	0.05147862
77	0xbd82f8b3	-0.06395092
78	0x3d56b80a	0.052421607
79	0x3e29af9f	0.165709
80	0xbd63834d	-0.05554514
81	0x3f164d48	0.5871167
82	0xbd5b5320	-0.05354607
83	0x3c1db972	0.009626733
84	0x3df9eccd	0.12203369
85	0x3d900daf	0.0703386
86	0x3f415e1e	0.75534236
87	0x3c6dc7e8	0.014512993
88	0xbd68695b	-0.0567411
89	0x3f0c7d8f	0.5487909
90	0x3e0d82af	0.13819383
91	0xbc8648cc	-0.016392134
92	0x3eb24c89	0.34824017
93	0x3e718c7a	0.23588744
94	0x3bc73f70	0.0060805604
95	0x3d81410e	0.06311236
96	0xbd8aa7a8	-0.06770259
97	0x3dc671ce	0.09689675
98	0x3cfca464	0.030840106
99	0x3ceb4dd1	0.02872363
100	0x3e906d08	0.28208184
101	0xbd69ff06	-0.057127975
102	0x3ecf7908	0.40522027
103	0xbb499160	-0.0030756816
104	0x3c89b228	0.016808584
105	0x3e6ac66a	0.22927251
106	0x3d9c51b0	0.07632768
107	0xbcb3c5c8	-0.021944895
108	0x3d52d102	0.051468857
109	0xbd789ba5	-0.06069531
110	0x3bf23520	0.007391587
111	0x3dfa8cd9	0.12233896
112	0xbd60f381	-0.054919723
113	0x3ea22603	0.31669626
114	0x3d2d3740	0.04228902
115	0x3ce9bf2c	0.02853354
116	0x3c083e20	0.008315593
117	0x3f159e41	0.584446
118	0xbd49e69c	-0.049292192
119	0x3d713ab6	0.05889388
120	0x3aceb600	0.0015770793
121	0x3dcc649a	0.09980126
122	0x3c8024f0	0.015642613
123	0x3d339406	0.043842338
124	0x3cf81e9c	0.030288033
125	0x3d9817dd	0.074264266
126	0x3d8ed933	0.06975021
127	0xbd73cbb7	-0.05952045
128	0x3d45478c	0.048163936
129	0xbe99f111	-0.30066732
130	0x3d28c0c6	0.041199468
131	0x3d4feca8	0.050762802
132	0x3ef8e0d1	0.4860902
133	0x3eb27f7d	0.3486289
134	0x3d567924	0.052361622
135	0x3d3f88f0	0.046761453
136	0xbd59c3c3	-0.05316521
137	0x3d42778c	0.04747729
138	0x3e38e4f8	0.18056095
139	0xbd7652b5	-0.06013747
140	0x3c66c6e0	0.014085501
141	0x3e8018a7	0.25018808
142	0x3d2db2a0	0.04240668
143	0xbd44ed3e	-0.048077814
144	0x3e73f3cd	0.23823471
145	0x3cf629c6	0.030049216
146	0x3ef4280f	0.47686812
147	0xbc80d564	-0.015726753
148	0x3ea4ce8c	0.32188833
149	0xbcaa38ec	-0.020779096
150	0x3e7f8564	0.24953228
151	0x3c8ea194	0.01741103
152	0xbdfec7d3	-0.12440457
153	0x3e403c97	0.18773113
154	0x3e16dc5e	0.14732501
155	0x3c3ebe58	0.011642061
156	0xbc8fc0eb	-0.017548045
157	0x3b1b2640	0.0023673922
158	0xbd84d4e5	-0.06485919
159	0x3e02acd9	0.12761249
160	0xbc573188	-0.013134368
161	0x3ed7a88e	0.42120785
162	0x3d75438a	0.059878863
163	0x3c60e1a0	0.013725668
164	0x3e3b4ebd	0.18291755
165	0x3e0b9137	0.13629614
166	0xbc211f34	-0.0098341
167	0x3c921db8	0.017836437
168	0xbcac3ccc	-0.021025084
169	0xbecca04e	-0.39966053
170	0xbc958d39	-0.018255817
171	0x3d5a314a	0.053269662
172	0x3d830fed	0.06399522
173	0xbd8f6292	-0.07001223
174	0xbcbfa75a	-0.02339523
175	0xbd5b12c8	-0.053484708
176	0xbceb231e	-0.028703269
177	0x3d5c7fc8	0.0538328
178	0x3d1aedfe	0.037824623
179	0xbbb3c8d0	-0.005486585
180	0x3ca68653	0.020327723
181	0x3cacfdc0	0.021117091
182	0x3eb37fe3	0.35058507
183	0x3b7300c4	0.0037079314
184	0x3cb30dd4	0.02185718
185	0xbd32cefb	-0.043654423
186	0x3ef81094	0.48450148
187	0x3cbfeae8	0.023427442
188	0xbbe1bfa0	-0.0068892986
189	0x3e13325e	0.14374682
190	0x3ae6a8c0	0.0017597899
191	0x3c38f748	0.011289425
192	0x3e2219c8	0.15830147
193	0x3ebe8312	0.37209374
194	0x3d7d1616	0.06178864
195	0x3e6bda8a	0.23032585
196	0xbd1a4051	-0.037658993
197	0xbd80481b	-0.06263753
198	0xbd537d44	-0.051633134
199	0xbd2030f6	-0.039109193
200	0xbd561de0	-0.052274585
201	0xbce3bcac	-0.027799927
202	0x3d1f8da6	0.038953446
203	0xbf5b0eff	-0.8556976
204	0x3d828693	0.06373324
205	0x3d8fc793	0.07020488
206	0xbcd0989e	-0.025463399
207	0xbce2d99a	-0.027691651
208	0x3c1e89c8	0.009676404
209	0xbd56bf30	-0.052428424
210	0x3d1d8928	0.03846088
211	0xbee97c4a	-0.45602638
212	0xbd728431	-0.0592081
213	0xbd5aaa82	-0.053385265
214	0xbd479355	-0.04872449
215	0x3cb53555	0.022120157
216	0xbfc593b1	-1.5435697
217	0xbfc481f0	-1.5352154
218	0xbc9f80ae	-0.019470539
219	0xbfe5f9a5	-1.796681
220	0xbf319317	-0.69365066
221	0xbd45da3f	-0.04830384
222	0xbc97d728	-0.018535212
223	0xbd82c9fa	-0.0638618
224	0xbed2ae09	-0.41148403
225	0xbf07de8d	-0.5307396
226	0xbd342a90	-0.043985903
227	0x3d425f14	0.047453955
228	0xbed44e65	-0.4146606
229	0xbec5066f	-0.3848147
230	0x3d3fc7a1	0.04682124
231	0x3d8ebf21	0.06970049
232	0x3d128cde	0.035778873
233	0xbf141180	-0.578392
234	0xbf4ed6f1	-0.80796725
235	0xbb18f020	-0.0023336485
236	0xbcb29c16	-0.021802943
237	0xbf0c1f14	-0.5473492
238	0xbe44bff5	-0.19213851
239	0x3d42340c	0.047412917
240	0xbf289a4b	-0.6586043
241	0x3d0a4bc8	0.033763677
242	0xbe813957	-0.2523906
243	0xbe8dc483	-0.2768899
244	0xbf52b9ab	-0.82314557
245	0xbfbf8ef5	-1.4965502
246	0xbe284895	-0.16433938
247	0x3c3b4df8	0.011432163
248	0xbf81fc55	-1.0155131
249	0xbd199737	-0.037497725
250	0x3ce004a4	0.027345963
251	0x3c6ce7a8	0.014459528
252	0xbf88cff6	-1.0688465
253	0xbe29878e	-0.16555616
254	0x3d05d4b8	0.032673568
255	0x3d87e641	0.06635714

out.bias f4 [5]
0	0x3e0abb90	0.13548112
1	0xbe8df730	-0.27727652
2	0x3e10c643	0.14138131
3	0xbeb4f1a6	-0.35340613
4	0x3f0dd5af	0.5540418

weight f4 [200, 20]
0	0xbadb6d80	-0.0016741008
1	0x3df5a9a0	0.11995244
2	0xbe3c7496	-0.18403849
3	0xbe2882ac	-0.16456097
4	0xbdb06154	-0.08612314
5	0x3d759a80	0.059961796
6	0xbb912ca0	-0.0044303685
7	0x3e358cf2	0.17729548
8	0xbca28f68	-0.019843772
9	0x3d725b60	0.059169173
10	0xbd8a65c2	-0.0675769
11	0xbd340870	-0.04395336
12	0xbe5abfd6	-0.21362242
13	0xbe17a51c	-0.14809078
14	0xbdbcc6b6	-0.092175886
15	0x3c07b640	0.008283198
16	0x3db50ae0	0.08839965
17	0x3e0963a4	0.13416916
18	0xbe1b3afe	-0.15159222
19	0xbdc76b34	-0.09737244
20	0x3da65588	0.081217825
21	0x3e3e2300	0.18568039
22	0xbd3c7db4	-0.046018317
23	0x3e2b57ec	0.16732758
24	0xbd13a074	-0.036041692
25	0x3cc1d430	0.02366075
26	0x3e4f5476	0.20247063
27	0xbe54696c	-0.2074334
28	0xbe1025bd	-0.14076896
29	0xbd67df54	-0.056609467
30	0xbdb281f2	-0.08716191
31	0x3e45d54a	0.19319645
32	0xbe146a76	-0.14493737
33	0xbdd2ced4	-0.102933556
34	0xbe1ff856	-0.15622076
35	0xbe567290	-0.2094214
36	0xbe05a938	-0.13052833
37	0x3e44d336	0.19221196
38	0x3dcc5820	0.09977746
39	0x3dddf448	0.108376086
40	0x3c40ac50	0.0117598325
41	0xbdeac81f	-0.11463951
42	0x3d1af488	0.03783086
43	0xbe55ca8d	-0.20878048
44	0xbe2572cc	-0.16157073
45	0xbdec15d4	-0.11527601
46	0x3e1077ce	0.14108202
47	0x3e064080	0.13110542
48	0xbdcb18db	-0.0991685
49	0xbc0430c0	-0.0080682635
50	0x3e12713e	0.14301011
51	0x3e63a148	0.22229493
52	0x3db5c03c	0.088745564
53	0x3cf77620	0.030207694
54	0x3e198604	0.14992529
55	0xbe06d1ee	-0.1316602
56	0x3d2aabd8	0.04166779
57	0xbe318639	-0.17336358
58	0xbe1eb2c2	-0.15497878
59	0xbdec9158	-0.115511596
60	0x3df3cdb3	0.119044684
61	0x3ddcc353	0.10779443
62	0xbdeaabc1	-0.11458541
63	0x3daef1a3	0.08542182
64	0x3e0fff59	0.14062251
65	0xbc29a57b	-0.010354395
66	0x3cd8520d	0.026406312
67	0x3d8eb40f	0.06967937
68	0x3e2058e3	0.15658908
69	0x3e6e2807	0.23257457
70	0xbe1e279f	-0.15444802
71	0xbd833a89	-0.06407649
72	0x3dd89293	0.10574832
73	0x3e500363	0.20313792
74	0x3e598d43	0.21245293
75	0x3e5c556d	0.21516962
76	0x3d7f7754	0.06236966
77	0xbe34d053	-0.17657594
78	0x3d1d71fe	0.03843879
79	0xbdf9e620	-0.12202096
80	0xbe556486	-0.20839128
81	0x3e4b70ec	0.19867295
82	0x3e2e1a26	0.17002162
83	0xbe646847	-0.22305404
84	0x3d2b6e00	0.04185295
85	0xbd1a4a9c	-0.03766881
86	0xbd16b870	-0.036796987
87	0xbdd1a0d6	-0.10235755
88	0x3db01b34	0.085989386
89	0xbe079f2a	-0.1324431
90	0x3da7e118	0.0819723
91	0x3de7965c	0.11307976
92	0x3e23ea60	0.16007376
93	0x3dab3b3c	0.083609074
94	0xbe629f7d	-0.22131152
95	0xbe1488c8	-0.14505303
96	0x3de4a8e0	0.11165023
97	0x3d3fb2a0	0.04680121
98	0xbe329e53	-0.17443208
99	0xbe03d8ea	-0.12875715
100	0x3e576812	0.21035793
101	0x3e1a494e	0.15067026
102	0xbdc7ad20	-0.09749818
103	0xbd668434	-0.056278422
104	0xbe5a1e9d	-0.2130074
105	0xbb83b300	-0.004019141
106	0xbe2c6e30	-0.16838908
107	0xbe309ec1	-0.1724806
108	0xbc49dc90	-0.012320653
109	0x3d098450	0.03357345
110	0xbdbb8b06	-0.09157376
111	0x3e07de1e	0.13268325
112	0xbe0b56d8	-0.13607347
113	0x3e4fc37a	0.20289412
114	0x3e1cea58	0.1532377
115	0xbe4116de	-0.1885638
116	0xbd63f398	-0.05565223
117	0x3c254f60	0.010089725
118	0x3d05a140	0.032624483
119	0x3d5939f0	0.05303377
120	0x3db3b614	0.08774963
121	0x3c5b72e0	0.013394088
122	0xbddf7204	-0.10910419
123	0x3dd8b204	0.10580829
124	0xbe5ba477	-0.21449457
125	0xbe07b6cc	-0.13253325
126	0xbd654684	-0.055975452
127	0xbddf126c	-0.108921856
128	0xbda0347e	-0.07822512
129	0xbe3babe9	-0.18327297
130	0xbd42d30c	-0.04756455
131	0x3d43c730	0.047797382
132	0xbe152b16	-0.14567217
133	0xbc3c0320	-0.011475354
134	0x3e23e928	0.16006911
135	0xbcbc4ee0	-0.02298683
136	0x3bcba340	0.0062145293
137	0xbc9e06b8	-0.019290313
138	0x3d395c18	0.045253843
139	0x3e11971e	0.14217803
140	0x3e58e4e6	0.21181068
141	0x3e116930	0.14200282
142	0x3e5963f2	0.21229532
143	0xbc847a58	-0.01617162
144	0xbe4db113	-0.2008708
145	0xbdd91a24	-0.10600689
146	0x3e1be8be	0.15225503
147	0xbabdfe00	-0.0014495254
148	0xbde39ee9	-0.11114294
149	0xbe2f7709	-0.17135252
150	0xbe564902	-0.20926288
151	0xbe414162	-0.18872598
152	0xbd39c6e0	-0.045355678
153	0x3dfb2408	0.12262732
154	0x3df795b4	0.120891005
155	0xbe5cd447	-0.21565352
156	0x3e0ed458	0.1394819
157	0xbe332c7f	-0.17497443
158	0xbd41a118	-0.04727277
159	0xbdb9af54	-0.09066644
160	0xbd306a40	-0.043070078
161	0xbd33d438	-0.04390356
162	0xbe4d7820	-0.20065355
163	0xbe45b44b	-0.19307058
164	0xbd0f518c	-0.03498988
165	0x3b3d8300	0.0028917193
166	0xbdd008a0	-0.10157895
167	0x3dac8218	0.08423251
168	0xbe4e16e2	-0.20125917
169	0xbc773e90	-0.0150906
170	0x3e495d16	0.19664416
171	0xbdbacaf4	-0.091207415
172	0x3e4ec37e	0.20191762
173	0x3da5d8dc	0.08098003
174	0xbe4ea3b7	-0.2017964
175	0x3e10def0	0.14147544
176	0xbcd360c8	-0.025802985
177	0xbdcc6e38	-0.0998196
178	0x3e37196c	0.17880791
179	0xbe390843	-0.18069558
180	0xbd406d18	-0.04697904
181	0xbdf13b90	-0.11778939
182	0x3db5ac2b	0.08870729
183	0xbc0c286b	-0.008554558
184	0x3d1562b9	0.036471102
185	0x3c02ffd8	0.007995568
186	0xbdff7a42	-0.12474491
187	0xbdf1a962	-0.11799885
188	0xbe82af40	-0.2552433
189	0x3d4d90c4	0.050186887
190	0x3dda3f26	0.10656576
191	0x3da7fc4b	0.08202418
192	0xbe6a3072	-0.22870043
193	0xbd79db78	-0.061000317
194	0xbe6a1668	-0.2286011
195	0xbe46b8fd	-0.19406505
196	0xbe4e19b6	-0.20126995
197	0x3bb25e36	0.0054433597
198	0xbe511fe8	-0.20422328
199	0xbd9b5818	-0.07585162
200	0x3c1a1ea0	0.009406716
201	0x3e1399fc	0.14414209
202	0xbe2d15e7	-0.16902886
203	0xbe1d3169	-0.1535088
204	0xbe04f4be	-0.12983987
205	0x3e204420	0.15650988
206	0xbda49da6	-0.080378816
207	0x3e4122ee	0.18860981
208	0x3da598d4	0.0808579
209	0x3ce7f3b0	0.028314441
210	0xbada2c80	-0.0016645342
211	0xbd350e24	-0.04420294
212	0x3ce5d3e0	0.028055131
213	0xbd5123b0	-0.051059425
214	0xbacdef80	-0.0015711635
215	0x3ce9b920	0.028530657
216	0xbe331aa8	-0.17490637
217	0xbdf00636	-0.11719935
218	0x3e38e4f2	0.18056086
219	0xbe39d294	-0.18146735
220	0x3de10448	0.10987145
221	0x3eb1bac7	0.34712812
222	0x3e53a9ea	0.20670286
223	0x3e076ed9	0.13225879
224	0xbd8af606	-0.067852065
225	0x3e7260df	0.23669766
226	0xbd0892b5	-0.033343036
227	0x3d7fcf90	0.062453806
228	0x3d5080ca	0.050904073
229	0x3dbe1582	0.09281446
230	0x3e037463	0.12837367
231	0x3e9ee788	0.3103602
232	0x3e1d88eb	0.15384261
233	0x3ea70514	0.32621062
234	0x3e868202	0.26271063
235	0xbc7cf60b	-0.015439521
236	0x3e67a544	0.22621638
237	0xbd03a425	-0.032138962
238	0x3cff3e4d	0.031157637
239	0x3e444bdc	0.19169563
240	0x3d9735dc	0.0738332
241	0x3e2bc840	0.16775608
242	0xbd936b9a	-0.07198258
243	0x39bbae00	0.0003579706
244	0x3debc304	0.11511806
245	0xbe5d7037	-0.21624838
246	0x3e258b16	0.16166338
247	0xbe3d57dc	-0.18490547
248	0x3b49f900	0.0030818582
249	0xbd1bb79c	-0.0380169
250	0xbdf1302b	-0.117767654
251	0x3cf21bf0	0.029554337
252	0x3e3d57a4	0.18490463
253	0xbd85dde4	-0.06536463
254	0xbe07f0ac	-0.13275403
255	0xbda95dd2	-0.08269848

bias f4 [200]
0	0x3de3cf44	0.11123517
1	0xbd72e360	-0.059298873
2	0x3e2cdfea	0.16882291
3	0xbe409012	-0.18804958
4	0x3e43f892	0.19137791
5	0x3e001caa	0.12510934
6	0xbe27f16e	-0.16400692
7	0xbe3ac0f0	-0.18237662
8	0x3e331026	0.17486629
9	0x3e49f1dc	0.19721168
10	0x3c9fd8f0	0.019512624
11	0xbd4ccbb9	-0.049998973
12	0x3e026160	0.12732458
13	0x3dce998c	0.100878805
14	0xbce49c60	-0.027906597
15	0x3e0aaa29	0.13541473
16	0x3d2833de	0.04106509
17	0xbc36d70d	-0.011159671
18	0x3dedc768	0.11610299
19	0xbe0e59e2	-0.13901475
20	0xbdd39441	-0.103310116
21	0x3cc8cc30	0.024511427
22	0x3ce1c275	0.027558545
23	0xbcfa6cc0	-0.030569434
24	0x3d77c887	0.060493972
25	0x3cfafd0d	0.030638242
26	0xbe539e3b	-0.20665829
27	0x3d9071dc	0.07052967
28	0x3d87e54b	0.06635531
29	0xbde90511	-0.113779195
30	0xbd1096f7	-0.03530022
31	0xbd614110	-0.05499369
32	0xbdf33021	-0.11874414
33	0xbe334fb1	-0.17510869
34	0x3dd8ef7d	0.10592554
35	0xbe0b0e02	-0.13579562
36	0x3cf60790	0.030032903
37	0x3e291133	0.16510467
38	0xbdd4aef8	-0.10384935
39	0xbe161285	-0.14655502
40	0xbe775d34	-0.24156648
41	0x3d182dd0	0.037153065
42	0xbdbd7ef7	-0.09252732
43	0x3c0a35dc	0.008435693
44	0x3da64704	0.08119014
45	0xbdd44ebe	-0.103665814
46	0x3e1767ca	0.14785686
47	0xbcee5f08	-0.029098049
48	0xbde9c5a8	-0.11414653
49	0xbe17658c	-0.14784831
50	0x3d8af11c	0.06784269
51	0xbe0d905e	-0.13824603
52	0xbc543905	-0.012953048
53	0xbdc88df1	-0.09792698
54	0x3e1d5cf4	0.1536749
55	0xbde0815c	-0.10962173
56	0xbde19841	-0.11015368
57	0xbcecbaf8	-0.028897747
58	0xbe0bda4c	-0.13657492
59	0x3d84761e	0.064678416
60	0xbda7bed8	-0.081906974
61	0x3dd269c2	0.10274078
62	0x3da6f2db	0.0815179
63	0x3e12c192	0.14331654
64	0xbd282410	-0.041050017
65	0x3d596ba6	0.053081177
66	0xbdf27ee1	-0.118406065
67	0xbe84dbc1	-0.2594891
68	0xbd1435fc	-0.036184296
69	0xbe68179b	-0.22665255
70	0xbe5647bb	-0.209258
71	0x3d68d110	0.056840003
72	0x3e43a9ca	0.19107738
73	0xbdb437a2	-0.087996736
74	0xbdbc9891	-0.09208787
75	0xbe25e3d2	-0.16200188
76	0x3c5fd7d2	0.013662295
77	0x3d828f2c	0.06374964
78	0xbd0c982c	-0.03432481
79	0x3dfa4e44	0.12221959
80	0xbe3848b7	-0.17996489
81	0x3d68d598	0.056844324
82	0xbdfe3153	-0.124117516
83	0x3e461f92	0.1934798
84	0x3e25d66b	0.16195075
85	0x3dec2973	0.11531343
86	0x3e208a5b	0.15677778
87	0x3db55f74	0.08856097
88	0xbe2f5407	-0.17121898
89	0xbe0b8119	-0.13623466
90	0x3dbd6598	0.09247893
91	0xbe4c6d9b	-0.19963686
92	0x3def78cf	0.11692964
93	0x3db40a34	0.087910086
94	0x3d5a86f8	0.053351372
95	0xbe48b4f3	-0.19600277
96	0x3e2690f4	0.16266233
97	0xbd5b0452	-0.053470917
98	0xbdc02bf8	-0.093833864
99	0x3de95ecb	0.113950334
100	0xbcb1d9ab	-0.021710237
101	0xbdd07c7b	-0.10179993
102	0x3cadd0d5	0.021217743
103	0xbe18b155	-0.14911397
104	0x3e54cfa2	0.2078233
105	0x3e6820b8	0.22668731
106	0x3df14136	0.11780016
107	0x3df24438	0.11829418
108	0xbe639cd2	-0.22227791
109	0xbdfe911c	-0.12430021
110	0xbe5c5563	-0.21516947
111	0xbe1a19ce	-0.15048906
112	0xbe3dd5fb	-0.18538658
113	0x3e4029f7	0.18766008
114	0x3dd629a4	0.10457161
115	0x3e06d86c	0.13168496
116	0xbdcb4c6d	-0.099266864
117	0x3e278618	0.16359746
118	0xbd0458ac	-0.032311127
119	0xbd6d4c30	-0.057933986
120	0x3df692c8	0.12039715
121	0x3e19d370	0.15022063
122	0xbe2491f6	-0.16071305
123	0x3e448494	0.191912
124	0xbcb8e1a0	-0.022568524
125	0x3d181085	0.03712513
126	0xbe63ff45	-0.22265346
127	0x3ccbecb0	0.024893135
128	0xbe051ab8	-0.12998474
129	0xbe0984e1	-0.13429596
130	0xbdbf3468	-0.093361676
131	0xba888580	-0.0010415763
132	0x3d2fe37d	0.04294156
133	0xbe2b8da4	-0.1675325
134	0x3e23953f	0.15974902
135	0x3d883d20	0.06652284
136	0xbe5517c2	-0.20809844
137	0x3d401ff0	0.046905458
138	0x3d3043ee	0.043033533
139	0x3c069ec0	0.00821656
140	0x3d5e6700	0.054297447
141	0x3d9cf604	0.07664111
142	0x3dc84794	0.097792774
143	0xbe21314c	-0.15741462
144	0xbdc64506	-0.09681134
145	0x3d752092	0.059845515
146	0xbe08c3d8	-0.13355958
147	0x3db88c7a	0.09011169
148	0x3e6ae1df	0.22937725
149	0xbe51602d	-0.20446844
150	0xbe090386	-0.1338025
151	0x3e49a240	0.196908
152	0x3d81351f	0.0630896
153	0x3d790b42	0.060801752
154	0x3d7b53f3	0.061359357
155	0x3dbcb82c	0.092148155
156	0xbd9a9b85	-0.07549194
157	0x3cedce80	0.029029131
158	0x3e1bf8e8	0.15231669
159	0xbd18ddfa	-0.03732107
160	0xbe5212b1	-0.20514943
161	0x3cfda913	0.03096441
162	0xbd69d094	-0.05708368
163	0xbd413984	-0.04717399
164	0x3da2fe48	0.079586565
165	0x3ce454bf	0.027872441
166	0xbe0a8496	-0.1352714
167	0xbdd3542f	-0.10318791
168	0xbd0b3980	-0.033990383
169	0xbe004198	-0.12525022
170	0xbda72052	-0.081604615
171	0xbe1c815e	-0.15283725
172	0x3e25dfd4	0.16198665
173	0x3ded804c	0.11596736
174	0x3d34bf78	0.04412791
175	0x3d4f60b8	0.050629348
176	0x3cd671a8	0.026177242
177	0x3e2b3610	0.16719842
178	0x3d4f3fd0	0.050597966
179	0x3d0b8518	0.034062475
180	0xbe15c119	-0.14624442
181	0x3d98c460	0.074593306
182	0xbe1f5a46	-0.1556178
183	0x3d9b970a	0.07597168
184	0xbe4678bf	-0.19381998
185	0xbdb0c0c2	-0.08630516
186	0x3df18220	0.117923975
187	0xbe05f8d1	-0.13083197
188	0x3e36534a	0.1780521
189	0xbdf600ef	-0.12011897
190	0x3e58e1a8	0.21179831
191	0x3d8d250c	0.06891832
192	0xbd8bceca	-0.06826551
193	0x3da7d0a4	0.08194092
194	0xbe4ac6f2	-0.19802454
195	0xbe312191	-0.17297961
196	0xbe0f743e	-0.14009187
197	0x3cf122e0	0.029435575
198	0x3cb3f5d0	0.021967798
199	0xbe44f10f	-0.19232582

weight f4 [5, 200]
0	0x3d8bbdc3	0.068233036
1	0xb88db800	-6.7576766e-05
2	0xbd1aa977	-0.03775927
3	0x3e900cac	0.28134668
4	0xbcf8a66e	-0.030352797
5	0x3c9fd050	0.01950851
6	0x3cd1b2bc	0.025597923
7	0xbca45068	-0.020057872
8	0x3b871460	0.004122302
9	0x3d2b7e28	0.04186836
10	0xbd3c6291	-0.045992438
11	0x3dc2cb5f	0.09511446
12	0xbc2ae928	-0.010431565
13	0xbd3f9fa2	-0.046783097
14	0x3bbcb790	0.005759187
15	0x3c51e216	0.012810251
16	0x3e5fb9aa	0.21848169
17	0x3e53240d	0.20619221
18	0x3d8a38b5	0.06749097
19	0x3ec70a6e	0.38875145
20	0x3e67562e	0.22591469
21	0x3d848f2b	0.064726196
22	0xbc555659	-0.013021075
23	0xbd1342fa	-0.035952546
24	0x3bbe9790	0.0058164075
25	0x3e4ff639	0.2030877
26	0x3d8a3205	0.06747822
27	0x3d7959b2	0.060876556
28	0xbdf8331d	-0.12119124
29	0x3dfb6ee7	0.12277012
30	0xbd2f7da7	-0.04284444
31	0x3accac00	0.0015615225
32	0x3d6ff5ee	0.058584146
33	0x3e661a57	0.22470985
34	0x3e8e0094	0.27734816
35	0xbcf94c68	-0.030431941
36	0xbd745f9f	-0.059661504
37	0x3daad8e5	0.083421506
38	0x3d6526b2	0.055945106
39	0xbd53ba14	-0.05169113
40	0x3e016a90	0.12638307
41	0x3cbe17d4	0.023204722
42	0x3da82222	0.08209635
43	0x3ea65d51	0.3249307
44	0x3daa19fc	0.083057374
45	0xbe02fe1a	-0.12792245
46	0x3d346bb7	0.044048037
47	0x3c0a3e90	0.008437768
48	0x3eb7b12a	0.35877353
49	0x3d78c99e	0.060739152
50	0x3cf2b784	0.029628523
51	0xbd250ef2	-0.040297456
52	0x3e8153fd	0.2525939
53	0xbc982ace	-0.018575098
54	0xbcd25d1e	-0.025679167
55	0x3c15c1c0	0.009140432
56	0x3d883ccd	0.06652222
57	0xbbe3a910	-0.006947644
58	0x3ce27c6c	0.02764722
59	0x3ca7611d	0.02043205
60	0xbd5ddb80	-0.05416441
61	0x3d11f6a6	0.035635613
62	0x3db70b68	0.089377224
63	0x3ebbbbca	0.3666671
64	0xbd06dcc4	-0.032925382
65	0x3dde905f	0.1086738
66	0xbd8dca59	-0.069233604
67	0x3f274422	0.6533834
68	0xbd3605ed	-0.044439245
69	0x3e2d5eb8	0.16930664
70	0x3b39f0d0	0.0028372295
71	0x3cf11b20	0.02943188
72	0xbc9f3840	-0.019436002
73	0x3d579976	0.052636586
74	0xbda3bfd5	-0.079955734
75	0xbd2585ef	-0.040410932
76	0x3d52db3f	0.05147862
77	0xbd82f8b3	-0.06395092
78	0x3d56b80a	0.052421607
79	0x3e29af9f	0.165709
80	0xbd63834d	-0.05554514
81	0x3f164d48	0.5871167
82	0xbd5b5320	-0.05354607
83	0x3c1db972	0.009626733
84	0x3df9eccd	0.12203369
85	0x3d900daf	0.0703386
86	0x3f415e1e	0.75534236
87	0x3c6dc7e8	0.014512993
88	0xbd68695b	-0.0567411
89	0x3f0c7d8f	0.5487909
90	0x3e0d82af	0.13819383
91	0xbc8648cc	-0.016392134
92	0x3eb24c89	0.34824017
93	0x3e718c7a	0.23588744
94	0x3bc73f70	0.0060805604
95	0x3d81410e	0.06311236
96	0xbd8aa7a8	-0.06770259
97	0x3dc671ce	0.09689675
98	0x3cfca464	0.030840106
99	0x3ceb4dd1	0.02872363
100	0x3e906d08	0.28208184
101	0xbd69ff06	-0.057127975
102	0x3ecf7908	0.40522027
103	0xbb499160	-0.0030756816
104	0x3c89b228	0.016808584
105	0x3e6ac66a	0.22927251
106	0x3d9c51b0	0.07632768
107	0xbcb3c5c8	-0.021944895
108	0x3d52d102	0.051468857
109	0xbd789ba5	-0.06069531
110	0x3bf23520	0.007391587
111	0x3dfa8cd9	0.12233896
112	0xbd60f381	-0.054919723
113	0x3ea22603	0.31669626
114	0x3d2d3740	0.04228902
115	0x3ce9bf2c	0.02853354
116	0x3c083e20	0.008315593
117	0x3f159e41	0.584446
118	0xbd49e69c	-0.049292192
119	0x3d713ab6	0.05889388
120	0x3aceb600	0.0015770793
121	0x3dcc649a	0.09980126
122	0x3c8024f0	0.015642613
123	0x3d339406	0.043842338
124	0x3cf81e9c	0.030288033
125	0x3d9817dd	0.074264266
126	0x3d8ed933	0.06975021
127	0xbd73cbb7	-0.05952045
128	0x3d45478c	0.048163936
129	0xbe99f111	-0.30066732
130	0x3d28c0c6	0.041199468
131	0x3d4feca8	0.050762802
132	0x3ef8e0d1	0.4860902
133	0x3eb27f7d	0.3486289
134	0x3d567924	0.052361622
135	0x3d3f88f0	0.046761453
136	0xbd59c3c3	-0.05316521
137	0x3d42778c	0.04747729
138	0x3e38e4f8	0.18056095
139	0xbd7652b5	-0.06013747
140	0x3c66c6e0	0.014085501
141	0x3e8018a7	0.25018808
142	0x3d2db2a0	0.04240668
143	0xbd44ed3e	-0.048077814
144	0x3e73f3cd	0.23823471
145	0x3cf629c6	0.030049216
146	0x3ef4280f	0.47686812
147	0xbc80d564	-0.015726753
148	0x3ea4ce8c	0.32188833
149	0xbcaa38ec	-0.020779096
150	0x3e7f8564	0.24953228
151	0x3c8ea194	0.01741103
152	0xbdfec7d3	-0.12440457
153	0x3e403c97	0.18773113
154	0x3e16dc5e	0.14732501
155	0x3c3ebe58	0.011642061
156	0xbc8fc0eb	-0.017548045
157	0x3b1b2640	0.0023673922
158	0xbd84d4e5	-0.06485919
159	0x3e02acd9	0.12761249
160	0xbc573188	-0.013134368
161	0x3ed7a88e	0.42120785
162	0x3d75438a	0.059878863
163	0x3c60e1a0	0.013725668
164	0x3e3b4ebd	0.18291755
165	0x3e0b9137	0.13629614
166	0xbc211f34	-0.0098341
167	0x3c921db8	0.017836437
168	0xbcac3ccc	-0.021025084
169	0xbecca04e	-0.39966053
170	0xbc958d39	-0.018255817
171	0x3d5a314a	0.053269662
172	0x3d830fed	0.06399522
173	0xbd8f6292	-0.07001223
174	0xbcbfa75a	-0.02339523
175	0xbd5b12c8	-0.053484708
176	0xbceb231e	-0.028703269
177	0x3d5c7fc8	0.0538328
178	0x3d1aedfe	0.037824623
179	0xbbb3c8d0	-0.005486585
180	0x3ca68653	0.020327723
181	0x3cacfdc0	0.021117091
182	0x3eb37fe3	0.35058507
183	0x3b7300c4	0.0037079314
184	0x3cb30dd4	0.02185718
185	0xbd32cefb	-0.043654423
186	0x3ef81094	0.48450148
187	0x3cbfeae8	0.023427442
188	0xbbe1bfa0	-0.0068892986
189	0x3e13325e	0.14374682
190	0x3ae6a8c0	0.0017597899
191	0x3c38f748	0.011289425
192	0x3e2219c8	0.15830147
193	0x3ebe8312	0.37209374
194	0x3d7d1616	0.06178864
195	0x3e6bda8a	0.23032585
196	0xbd1a4051	-0.037658993
197	0xbd80481b	-0.06263753
198	0xbd537d44	-0.051633134
199	0xbd2030f6	-0.039109193
200	0xbd561de0	-0.052274585
201	0xbce3bcac	-0.027799927
202	0x3d1f8da6	0.038953446
203	0xbf5b0eff	-0.8556976
204	0x3d828693	0.06373324
205	0x3d8fc793	0.07020488
206	0xbcd0989e	-0.025463399
207	0xbce2d99a	-0.027691651
208	0x3c1e89c8	0.009676404
209	0xbd56bf30	-0.052428424
210	0x3d1d8928	0.03846088
211	0xbee97c4a	-0.45602638
212	0xbd728431	-0.0592081
213	0xbd5aaa82	-0.053385265
214	0xbd479355	-0.04872449
215	0x3cb53555	0.022120157
216	0xbfc593b1	-1.5435697
217	0xbfc481f0	-1.5352154
218	0xbc9f80ae	-0.019470539
219	0xbfe5f9a5	-1.796681
220	0xbf319317	-0.69365066
221	0xbd45da3f	-0.04830384
222	0xbc97d728	-0.018535212
223	0xbd82c9fa	-0.0638618
224	0xbed2ae09	-0.41148403
225	0xbf07de8d	-0.5307396
226	0xbd342a90	-0.043985903
227	0x3d425f14	0.047453955
228	0xbed44e65	-0.4146606
229	0xbec5066f	-0.3848147
230	0x3d3fc7a1	0.04682124
231	0x3d8ebf21	0.06970049
232	0x3d128cde	0.035778873
233	0xbf141180	-0.578392
234	0xbf4ed6f1	-0.80796725
235	0xbb18f020	-0.0023336485
236	0xbcb29c16	-0.021802943
237	0xbf0c1f14	-0.5473492
238	0xbe44bff5	-0.19213851
239	0x3d42340c	0.047412917
240	0xbf289a4b	-0.6586043
241	0x3d0a4bc8	0.033763677
242	0xbe813957	-0.2523906
243	0xbe8dc483	-0.2768899
244	0xbf52b9ab	-0.82314557
245	0xbfbf8ef5	-1.4965502
246	0xbe284895	-0.16433938
247	0x3c3b4df8	0.011432163
248	0xbf81fc55	-1.0155131
249	0xbd199737	-0.037497725
250	0x3ce004a4	0.027345963
251	0x3c6ce7a8	0.014459528
252	0xbf88cff6	-1.0688465
253	0xbe29878e	-0.16555616
254	0x3d05d4b8	0.032673568
255	0x3d87e641	0.06635714

bias f4 [5]
0	0x3e0abb90	0.13548112
1	0xbe8df730	-0.27727652
2	0x3e10c643	0.14138131
3	0xbeb4f1a6	-0.35340613
4	0x3f0dd5af	0.5540418

momentum_buffer f4 [200, 20]
0	0x00000000	0.0
1	0x00000000	0.0
2	0x00000000	0.0
3	0x00000000	0.0
4	0x00000000	0.0
5	0x00000000	0.0
6	0x00000000	0.0
7	0x00000000	0.0
8	0x00000000	0.0
9	0x00000000	0.0
10	0x00000000	0.0
11	0x00000000	0.0
12	0x00000000	0.0
13	0x00000000	0.0
14	0x00000000	0.0
15	0x00000000	0.0
16	0x00000000	0.0
17	0x00000000	0.0
18	0x00000000	0.0
19	0x00000000	0.0
20	0x00000000	0.0
21	0x00000000	0.0
22	0x00000000	0.0
23	0x00000000	0.0
24	0x00000000	0.0
25	0x00000000	0.0
26	0x00000000	0.0
27	0x00000000	0.0
28	0x00000000	0.0
29	0x00000000	0.0
30	0x00000000	0.0
31	0x00000000	0.0
32	0x00000000	0.0
33	0x00000000	0.0
34	0x00000000	0.0
35	0x00000000	0.0
36	0x00000000	0.0
37	0x00000000	0.0
38	0x00000000	0.0
39	0x00000000	0.0
40	0x00000000	0.0
41	0x00000000	0.0
42	0x00000000	0.0
43	0x00000000	0.0
44	0x00000000	0.0
45	0x00000000	0.0
46	0x00000000	0.0
47	0x00000000	0.0
48	0x00000000	0.0
49	0x00000000	0.0
50	0x00000000	0.0
51	0x00000000	0.0
52	0x00000000	0.0
53	0x00000000	0.0
54	0x00000000	0.0
55	0x00000000	0.0
56	0x00000000	0.0
57	0x00000000	0.0
58	0x00000000	0.0
59	0x00000000	0.0
60	0x8b91cb27	-5.615764e-32
61	0x8b91cb27	-5.615764e-32
62	0x8b91cb27	-5.615764e-32
63	0x8b91cb27	-5.615764e-32
64	0x8b91cb27	-5.615764e-32
65	0x8b91cb27	-5.615764e-32
66	0x8b91cb27	-5.615764e-32
67	0x8b91cb27	-5.615764e-32
68	0x8b91cb27	-5.615764e-32
69	0x8b91cb27	-5.615764e-32
70	0x8b91cb27	-5.615764e-32
71	0x8b91cb27	-5.615764e-32
72	0x8b91cb27	-5.615764e-32
73	0x8b91cb27	-5.615764e-32
74	0x8b91cb27	-5.615764e-32
75	0x8b91cb27	-5.615764e-32
76	0x8b91cb27	-5.615764e-32
77	0x8b91cb27	-5.615764e-32
78	0x8b91cb27	-5.615764e-32
79	0x8b91cb27	-5.615764e-32
80	0x00000000	0.0
81	0x00000000	0.0
82	0x00000000	0.0
83	0x00000000	0.0
84	0x00000000	0.0
85	0x00000000	0.0
86	0x00000000	0.0
87	0x00000000	0.0
88	0x00000000	0.0
89	0x00000000	0.0
90	0x00000000	0.0
91	0x00000000	0.0
92	0x00000000	0.0
93	0x00000000	0.0
94	0x00000000	0.0
95	0x00000000	0.0
96	0x00000000	0.0
97	0x00000000	0.0
98	0x00000000	0.0
99	0x00000000	0.0
100	0x00000000	0.0
101	0x00000000	0.0
102	0x00000000	0.0
103	0x00000000	0.0
104	0x00000000	0.0
105	0x00000000	0.0
106	0x00000000	0.0
107	0x00000000	0.0
108	0x00000000	0.0
109	0x00000000	0.0
110	0x00000000	0.0
111	0x00000000	0.0
112	0x00000000	0.0
113	0x00000000	0.0
114	0x00000000	0.0
115	0x00000000	0.0
116	0x00000000	0.0
117	0x00000000	0.0
118	0x00000000	0.0
119	0x00000000	0.0
120	0x00000000	0.0
121	0x00000000	0.0
122	0x00000000	0.0
123	0x00000000	0.0
124	0x00000000	0.0
125	0x00000000	0.0
126	0x00000000	0.0
127	0x00000000	0.0
128	0x00000000	0.0
129	0x00000000	0.0
130	0x00000000	0.0
131	0x00000000	0.0
132	0x00000000	0.0
133	0x00000000	0.0
134	0x00000000	0.0
135	0x00000000	0.0
136	0x00000000	0.0
137	0x00000000	0.0
138	0x00000000	0.0
139	0x00000000	0.0
140	0x00000000	0.0
141	0x00000000	0.0
142	0x00000000	0.0
143	0x00000000	0.0
144	0x00000000	0.0
145	0x00000000	0.0
146	0x00000000	0.0
147	0x00000000	0.0
148	0x00000000	0.0
149	0x00000000	0.0
150	0x00000000	0.0
151	0x00000000	0.0
152	0x00000000	0.0
153	0x00000000	0.0
154	0x00000000	0.0
155	0x00000000	0.0
156	0x00000000	0.0
157	0x00000000	0.0
158	0x00000000	0.0
159	0x00000000	0.0
160	0x00000000	0.0
161	0x00000000	0.0
162	0x00000000	0.0
163	0x00000000	0.0
164	0x00000000	0.0
165	0x00000000	0.0
166	0x00000000	0.0
167	0x00000000	0.0
168	0x00000000	0.0
169	0x00000000	0.0
170	0x00000000	0.0
171	0x00000000	0.0
172	0x00000000	0.0
173	0x00000000	0.0
174	0x00000000	0.0
175	0x00000000	0.0
176	0x00000000	0.0
177	0x00000000	0.0
178	0x00000000	0.0
179	0x00000000	0.0
180	0x00000004	6e-45
181	0x00000004	6e-45
182	0x00000004	6e-45
183	0x00000004	6e-45
184	0x00000004	6e-45
185	0x00000004	6e-45
186	0x00000004	6e-45
187	0x00000004	6e-45
188	0x00000004	6e-45
189	0x00000004	6e-45
190	0x00000004	6e-45
191	0x00000004	6e-45
192	0x00000004	6e-45
193	0x00000004	6e-45
194	0x00000004	6e-45
195	0x00000004	6e-45
196	0x00000004	6e-45
197	0x00000004	6e-45
198	0x00000004	6e-45
199	0x00000004	6e-45
200	0x00000000	0.0
201	0x00000000	0.0
202	0x00000000	0.0
203	0x00000000	0.0
204	0x00000000	0.0
205	0x00000000	0.0
206	0x00000000	0.0
207	0x00000000	0.0
208	0x00000000	0.0
209	0x00000000	0.0
210	0x00000000	0.0
211	0x00000000	0.0
212	0x00000000	0.0
213	0x00000000	0.0
214	0x00000000	0.0
215	0x00000000	0.0
216	0x00000000	0.0
217	0x00000000	0.0
218	0x00000000	0.0
219	0x00000000	0.0
220	0x8799fa65	-2.316805e-34
221	0x8799fa65	-2.316805e-34
222	0x8799fa65	-2.316805e-34
223	0x8799fa65	-2.316805e-34
224	0x8799fa65	-2.316805e-34
225	0x8799fa65	-2.316805e-34
226	0x8799fa65	-2.316805e-34
227	0x8799fa65	-2.316805e-34
228	0x8799fa65	-2.316805e-34
229	0x8799fa65	-2.316805e-34
230	0x8799fa65	-2.316805e-34
231	0x8799fa65	-2.316805e-34
232	0x8799fa65	-2.316805e-34
233	0x8799fa65	-2.316805e-34
234	0x8799fa65	-2.316805e-34
235	0x8799fa65	-2.316805e-34
236	0x8799fa65	-2.316805e-34
237	0x8799fa65	-2.316805e-34
238	0x8799fa65	-2.316805e-34
239	0x8799fa65	-2.316805e-34
240	0x00000000	0.0
241	0x00000000	0.0
242	0x00000000	0.0
243	0x00000000	0.0
244	0x00000000	0.0
245	0x00000000	0.0
246	0x00000000	0.0
247	0x00000000	0.0
248	0x00000000	0.0
249	0x00000000	0.0
250	0x00000000	0.0
251	0x00000000	0.0
252	0x00000000	0.0
253	0x00000000	0.0
254	0x00000000	0.0
255	0x00000000	0.0

momentum_buffer f4 [200]
0	0x00000000	0.0
1	0x00000000	0.0
2	0x00000000	0.0
3	0x8ada936e	-2.1048093e-32
4	0x00000000	0.0
5	0x00000000	0.0
6	0x00000000	0.0
7	0x00000000	0.0
8	0x00000000	0.0
9	0x00000004	6e-45
10	0x00000000	0.0
11	0x870ba9ab	-1.0507059e-34
12	0x00000000	0.0
13	0x00000004	6e-45
14	0x00000000	0.0
15	0x00000004	6e-45
16	0x00000004	6e-45
17	0x00000004	6e-45
18	0x00000000	0.0
19	0x80000217	-7.5e-43
20	0x88712033	-7.256115e-34
21	0x00000000	0.0
22	0x00000004	6e-45
23	0x00000000	0.0
24	0x00000004	6e-45
25	0x00000004	6e-45
26	0x00000000	0.0
27	0x00000000	0.0
28	0x07ab11e1	2.5739729e-34
29	0x8a5d1201	-1.0644149e-32
30	0x00000004	6e-45
31	0x00000000	0.0
32	0x00000000	0.0
33	0x8ad94037	-2.0920495e-32
34	0x00000004	6e-45
35	0x00000000	0.0
36	0x00000000	0.0
37	0x00000004	6e-45
38	0x00000004	6e-45
39	0x00000000	0.0
40	0x00000004	6e-45
41	0x80000004	-6e-45
42	0x87afbf5a	-2.644354e-34
43	0x8ad7c7d9	-2.0778921e-32
44	0x87b2fb52	-2.6930176e-34
45	0x00000004	6e-45
46	0x873bbe51	-1.4124245e-34
47	0x00000000	0.0
48	0x00000004	6e-45
49	0x00000000	0.0
50	0x00000000	0.0
51	0x00000000	0.0
52	0x00000004	6e-45
53	0x00000004	6e-45
54	0x00000004	6e-45
55	0x00000000	0.0
56	0x00000000	0.0
57	0x00000000	0.0
58	0x00000000	0.0
59	0x00000004	6e-45
60	0x00000000	0.0
61	0x86259a13	-3.1146247e-35
62	0x00000004	6e-45
63	0x87d9b54d	-3.275709e-34
64	0x00000000	0.0
65	0x00000004	6e-45
66	0x00000000	0.0
67	0x00000004	6e-45
68	0x00000004	6e-45
69	0x00000004	6e-45
70	0x00000004	6e-45
71	0x00000000	0.0
72	0x00000000	0.0
73	0x00000000	0.0
74	0x00000004	6e-45
75	0x00000000	0.0
76	0x00000004	6e-45
77	0x00000000	0.0
78	0x00000000	0.0
79	0x00000004	6e-45
80	0x00000000	0.0
81	0x80000004	-6e-45
82	0x00000000	0.0
83	0x00000004	6e-45
84	0x00000004	6e-45
85	0x00000004	6e-45
86	0x00000004	6e-45
87	0x00000000	0.0
88	0x00000000	0.0
89	0x8912850e	-1.7636673e-33
90	0x86154578	-2.8074823e-35
91	0x00000000	0.0
92	0x00000004	6e-45
93	0x00000004	6e-45
94	0x00000000	0.0
95	0x89baeca7	-4.5000418e-33
96	0x00000004	6e-45
97	0x00000004	6e-45
98	0x00000000	0.0
99	0x00000004	6e-45
100	0x00000004	6e-45
101	0x00000004	6e-45
102	0x00000004	6e-45
103	0x00000000	0.0
104	0x00000000	0.0
105	0x8ad5609d	-2.0547496e-32
106	0x86dd3c27	-8.3219346e-35
107	0x00000000	0.0
108	0x00000000	0.0
109	0x00000000	0.0
110	0x00000000	0.0
111	0x00000004	6e-45
112	0x00000000	0.0
113	0x889e2387	-9.5176315e-34
114	0x00000004	6e-45
115	0x00000000	0.0
116	0x00000000	0.0
117	0x00000004	6e-45
118	0x00000000	0.0
119	0x00000000	0.0
120	0x00000000	0.0
121	0x80000004	-6e-45
122	0x00000000	0.0
123	0x00000004	6e-45
124	0x00000000	0.0
125	0x00000004	6e-45
126	0x00000000	0.0
127	0x00000000	0.0
128	0x00000004	6e-45
129	0x0aa07ab2	1.5453592e-32
130	0x00000000	0.0
131	0x00000000	0.0
132	0x00000004	6e-45
133	0x00000004	6e-45
134	0x899444d2	-3.5694422e-33
135	0x00000000	0.0
136	0x00000000	0.0
137	0x00000000	0.0
138	0x00000004	6e-45
139	0x00000000	0.0
140	0x00000000	0.0
141	0x81204826	-2.9439123e-38
142	0x00000000	0.0
143	0x00000000	0.0
144	0x8b0819e4	-2.6212125e-32
145	0x00000004	6e-45
146	0x8b40192e	-3.6996798e-32
147	0x00000004	6e-45
148	0x8b136ed2	-2.8394542e-32
149	0x00000000	0.0
150	0x00000004	6e-45
151	0x86576a58	-4.0515135e-35
152	0x060643f0	2.5252511e-35
153	0x8a5d5945	-1.0657553e-32
154	0x8ab7ebb9	-1.7710928e-32
155	0x00000000	0.0
156	0x0924a528	1.9818438e-33
157	0x00000000	0.0
158	0x00000000	0.0
159	0x00000004	6e-45
160	0x00000000	0.0
161	0x00000004	6e-45
162	0x00000000	0.0
163	0x00000000	0.0
164	0x00000004	6e-45
165	0x00000004	6e-45
166	0x00000000	0.0
167	0x00000000	0.0
168	0x00000000	0.0
169	0x00000004	6e-45
170	0x00000004	6e-45
171	0x80000004	-6e-45
172	0x00000000	0.0
173	0x00000000	0.0
174	0x00000000	0.0
175	0x00000000	0.0
176	0x00000000	0.0
177	0x00000000	0.0
178	0x00000000	0.0
179	0x00000000	0.0
180	0x00000004	6e-45
181	0x00000000	0.0
182	0x87fcff7c	-3.8066906e-34
183	0x89e40633	-5.4894833e-33
184	0x00000000	0.0
185	0x073a38a7	1.4009733e-34
186	0x8b1db186	-3.0370654e-32
187	0x86c7061f	-7.4864474e-35
188	0x00000000	0.0
189	0x8a811c8e	-1.2432989e-32
190	0x00000000	0.0
191	0x00000000	0.0
192	0x000000cf	2.9e-43
193	0x00000004	6e-45
194	0x00000000	0.0
195	0x00000004	6e-45
196	0x00000000	0.0
197	0x00000000	0.0
198	0x00000000	0.0
199	0x00000000	0.0
