CS4248 NLP/Assignments/Assignment 2/a2_files/model.pt (torch, 334087 bytes, 10 tensors)

embedding.weight f4 [662, 32]
-0.6015308 -0.51417094 -0.15434934 -0.24820812 0.50481427 0.3781909 -0.109031275 -1.0633599
0.064150825 -0.6951839 0.21783765 0.12006044 0.08812953 0.71744704 0.55051535 -0.22275114
-0.7472987 -0.75715464 0.3294151 0.3699032 0.19822475 -0.78897494 -0.20129082 0.97749686
0.4264361 -0.2514661 -0.039121028 0.18992852 0.64313275 0.78103703 0.39122143 -0.4218178
-1.5430092 -0.024805117 -0.9523623 0.26418278 0.43189403 0.36819857 0.6067277 0.55117035
-0.16513963 0.8399059 -0.31966808 -0.17768985 0.9120884 2.8470805 -1.5354972 -1.7038705
-0.37222204 0.9321215 0.7837765 0.29154065 -0.37229288 -0.39435396 0.99582976 -0.5786299
-0.70503765 1.2090275 2.2893999 3.737321 -1.8775486 -1.4151295 1.7746291 -0.5248085
-1.4573127 0.83683485 0.9239286 1.2921424 -1.5584874 2.8761804 -0.57406586 0.46644223
-1.7856767 -0.64349717 -0.4327992 -0.50132656 -0.80117345 1.3854015 -0.19533224 0.83915734
0.332623 0.7164694 -1.2523519 0.039273888 0.73402804 -0.5307975 1.7268167 0.14214577
-0.4875026 2.7020907 -1.4494245 0.22630602 -1.1563987 -1.0575122 -0.051184405 0.6893512
1.5545617 -1.4645883 -0.19752294 1.206969 -2.8641243 -1.8840961 -0.2613023 0.41888747
1.0358894 -0.27397567 0.3487434 0.060259584 0.5048021 -0.94946355 0.9892521 -1.3016803
-0.175231 -2.770755 0.012728567 0.4532139 1.0607306 0.4519983 -1.5131809 -0.39014938
-0.78092265 -0.5508395 2.8384075 -0.44691637 -0.1995845 0.7472137 1.502665 1.9496256
-0.96175516 -0.43150297 -0.9240796 0.59234726 0.609503 0.46059796 1.9573005 -1.0534118
-0.013361107 0.15238467 -0.6215456 -1.3304502 -0.036706116 -0.93077636 -0.31185806 0.19893333
-0.25925177 0.103656664 0.2618087 1.2116185 0.28673005 0.42761308 -0.2420128 -0.14622946
0.15151009 -0.7291629 -1.7248892 0.14911154 -0.7963104 0.26849207 0.19491746 0.41918126
0.9141172 -0.9976418 0.3636824 -0.10405877 0.9763471 -0.45905912 0.73767257 0.63343847
0.2690853 0.15654702 -0.08978577 0.42445567 -0.33433393 -1.1390239 0.24075764 -1.3599944
-0.003457957 -0.35675907 -1.631565 -0.37239805 1.0748147 0.08305406 1.6839724 0.76050633
-1.08414 -0.7096995 1.4075931 0.29035142 0.72312534 -0.98180157 -1.2107508 -1.2069691
-0.63591903 0.54492205 0.44396502 0.43219176 0.1549626 0.9266352 -0.3035462 1.0434034
-0.12788478 -1.190719 0.43954813 0.64658517 0.6339279 -1.2702789 0.61037683 -0.5506949
1.233034 0.11762693 0.8874904 0.83615834 -1.2843822 0.92787296 -0.40388128 -1.3028584
0.9645252 1.302248 -0.69565314 0.6160288 0.32716116 -0.04361052 -1.0834364 -0.10057777
-0.52271837 1.5235783 0.23913027 0.4203782 -0.21923727 0.71115303 -0.34039447 -1.2815884
-0.14768377 -0.6327342 -0.48397812 0.9361471 -0.8751083 0.76895446 1.1629243 -1.6980788
-1.3202138 -1.7997475 -0.07293314 -1.067288 1.4498196 -0.18438867 0.7983326 -0.262477
-0.13091971 1.0885475 0.9166934 -0.4572603 -0.8089853 0.13312577 1.9158268 0.40198
00000000: ecfd 19bf b5a0 03bf c10d 1ebe 452a 7ebe
00000010: 823b 013f 3da2 c13e ca4b dfbd 2d1c 88bf
00000020: 8261 833d 92f7 31bf d510 5f3e 3fe2 f53d
00000030: 417d b43d 9caa 373f 93ee 0c3f e018 64be
00000040: f84e 3fbf e3d4 41bf 19a9 a83e f463 bd3e
00000050: 6efb 4a3e 43fa 49bf 2e1f 4ebe 3c3d 7a3f
00000060: d555 da3e 2ac0 80be 5f3d 20bd 9f7c 423e
00000070: 59a4 243f 0bf2 473f 2d4e c83e 81f8 d7be
00000080: 5381 c5bf 1a34 cbbc 04ce 73bf f742 873e
00000090: 3721 dd3e 8684 bc3e 8252 1b3f 8019 0d3f
000000a0: 5d1a 29be 1304 573f 89ab a3be 54f4 35be
000000b0: a07e 693f 9136 3640 2c8b c4bf 6e18 dabf
000000c0: e393 bebe 849f 6e3f 94a5 483f d144 953e
000000d0: 2c9d bebe c3e8 c9be b3ee 7e3f 1721 14bf
000000e0: 597d 34bf 6ac1 9a3f 8785 1240 4430 6f40
000000f0: 8353 f0bf f722 b5bf 0c27 e33f da59 06bf
00000100: 3989 babf cf3a 563f 9686 6c3f ec64 a53f
00000110: 847c c7bf 5713 3840 fbf5 12bf 84d1 ee3e
00000120: 0e91 e4bf 3bbc 24bf db97 ddbe f056 00bf
00000130: b419 4dbf d654 b13f 2d05 48be 04d3 563f
00000140: 904d aa3e 8a6a 373f 114d a0bf a8dd 203d
00000150: 43e9 3b3f 58e2 07bf 5408 dd3f a98e 113e
00000160: f199 f9be 0eef 2c40 be86 b9bf c4bc 673e
00000170: df04 94bf 8f5c 87bf bda6 51bd 5279 303f
00000180: e1fb c63f a177 bbbf 7443 4abe f67d 9a3f
00000190: d04d 37c0 102a f1bf 6ac9 85be 6b78 d63e
000001a0: 0698 843f 8a46 8cbe 7f8e b23e c1d2 763d
000001b0: b63a 013f 0b10 73bf a03f 7d3f 769d a6bf
000001c0: c16f 33be 0d54 31c0 7b8b 503c a70b e83e
000001d0: 05c6 873f 526c e73e e9af c1bf a9c1 c7be
000001e0: 8cea 47bf d103 0dbf 78a8 3540 39d2 e4be
000001f0: e15f 4cbe 6649 3f3f 5457 c03f 558d f93f
00000200: 9635 76bf f5ed dcbe 7b90 6cbf 12a4 173f
00000210: 6308 1c3f 7fd3 eb3e d388 fa3f 33d6 86bf
00000220: 8be8 5abc ba0a 1c3e 9d1d 1fbf 314c aabf
00000230: 2759 16bd 5c47 6ebf dcab 9fbe 2eb5 4b3e
00000240: a6bc 84be f249 d43d ca0b 863e 5116 9b3f
00000250: 48ce 923e 1af0 da3e 34d2 77be 2dbd 15be
00000260: 7625 1b3e 6baa 3abf 2bc9 dcbf b2b0 183e
00000270: 00db 4bbf cb77 893e 7198 473e ed9e d63e
00000280: 9603 6a3f 7465 7fbf 9434 ba3e c41c d5bd
00000290: e2f1 793f cc09 ebbe 1cd8 3c3f 0629 223f
000002a0: 8cc5 893e dd4d 203e 9ae1 b7bd 4152 d93e
000002b0: d12d abbe 89cb 91bf 2c89 763e 4c14 aebf
000002c0: e49e 62bb 20a9 b6be 1fd7 d0bf f5aa bebe
000002d0: 8793 893f 3f18 aa3d 688c d73f 8bb0 423f
000002e0: 19c5 8abf deae 35bf 032c b43f f1a8 943e
000002f0: be1e 393f 5957 7bbf e2f9 9abf f77d 9abf
00000300: 97cb 22bf 0380 0b3f 624f e33e 3d48 dd3e
00000310: 84ae 1e3e f737 6d3f 686a 9bbe 3e8e 853f
00000320: 3af4 02be 7b69 98bf 740c e13e 9b86 253f
00000330: 1949 223f 8098 a2bf a841 1c3f 57fa 0cbf
00000340: 0fd4 9d3f 63e6 f03d 9232 633f 790e 563f
00000350: a366 a4bf 1589 6d3f 87c9 cebe 10c4 a6bf
00000360: 20eb 763f 10b0 a63f 5316 32bf 10b4 1d3f
00000370: ab81 a73e f2a0 32bd 0bae 8abf b8fb cdbd
00000380: dfd0 05bf 9d04 c33f 91de 743e d03b d73e
00000390: bc7f 60be 200e 363f 2f48 aebe 170b a4bf
000003a0: 6a3a 17be defa 21bf fbcb f7be 56a7 6f3f
000003b0: 1907 60bf 33da 443f b4da 943f a55a d9bf
000003c0: c4fc a8bf 205e e6bf f85d 95bd e59c 88bf
000003d0: b093 b93f 62d0 3cbe 865f 4c3f 6363 86be
000003e0: d10f 06be 8655 8b3f 6bac 6a3f 061e eabe
000003f0: a919 4fbf 1f52 083e d039 f53f 53d0 cd3e

input.weight f4 [500, 32]
-0.39512464 -0.12562867 0.31218073 0.48700196 -0.25193226 0.1637851 -0.25231317 0.22103949
0.028918372 -0.63214743 0.1611271 0.36655584 -0.2682286 -0.65296644 0.058384135 0.120904654
0.38418242 -0.044456664 -0.5429695 0.2176511 0.09875364 -0.33682168 0.29580986 -0.24491562
-0.07556326 0.13378845 -0.24007757 0.07932593 0.3414851 0.046997655 0.18111311 0.3833931
-0.111183636 0.04135512 -0.0062036216 -0.07603601 -0.13611434 -0.10906188 -0.043282747 0.14210479
0.17640899 0.12939389 0.056339815 -0.008376285 -0.1031256 -0.08946899 -0.10581476 -0.025817037
-0.17642228 -0.14531039 -0.06865812 -0.16634016 0.09283523 -0.07013181 0.1264907 -0.09322668
0.12280519 0.095289245 0.12204997 0.02475202 -0.12108295 -0.035901472 0.046811953 -0.10551497
0.19990076 0.11202252 0.03399867 0.2723622 -0.16614021 0.24443425 0.14728674 0.0738872
-0.30058813 -0.16927539 0.35646203 0.34399575 -0.3820654 -0.23333292 0.12900698 -0.17442973
-0.05307407 0.05197763 -0.25201467 -0.21561353 -0.30518943 -0.16017205 0.049743846 0.14436439
0.19647266 -0.03364315 -0.40304 0.2374438 0.19823885 0.11976777 -0.2846363 0.18902458
0.06365629 -0.034257017 0.050037026 -0.072092205 0.103527635 0.09034775 -0.043961864 -0.036292076
-0.17528038 0.10711909 0.14005359 0.015036116 -0.15480998 0.12298817 -0.15001433 0.1419408
0.16565207 -0.16225004 0.16940229 -0.17032714 -0.06192634 -0.046598636 0.06408563 0.124164425
-0.0011839992 0.15427469 0.12259026 0.10098297 0.025254875 -0.05506424 -0.04888193 -0.101352476
0.5534751 0.11287204 -0.16924946 -0.23207295 0.3169239 -0.02429289 0.27996078 -0.20273797
-0.2726653 0.3771132 -0.10784178 -0.07798279 0.115610056 0.20413417 -0.28264993 -0.29670763
-0.5168032 0.1496836 0.5022948 -0.22921713 -0.11852545 0.06138469 -0.618824 0.15702479
0.22095554 0.029344762 -0.12547092 0.090993606 -0.3099052 0.016461508 -0.25040376 -0.19327325
0.4142111 0.017299326 0.10742092 -0.015861318 -0.13772759 0.058964834 -0.14888844 -0.14433387
0.04912539 0.08729057 0.021051932 0.11640907 -0.20701016 -0.3563469 0.09422752 0.0069927094
-0.19219777 0.07633672 0.1854605 -0.009835679 0.12900847 -0.0711093 -0.13835381 0.20195737
0.16102119 -0.15551013 -0.19681688 -0.09962097 -0.050978 -0.06138827 0.17587046 0.00045744758
0.17957994 -0.07183034 0.14994144 0.081151016 0.12616675 0.1610312 -0.045513473 -0.024241306
0.092460535 0.04071353 -0.09709462 -0.09714374 -0.07872604 -0.12983967 -0.1430124 -0.017416084
-0.041462243 0.093367785 -0.11927498 -0.08523222 -0.018237159 0.10606051 -0.09859182 -0.10953256
0.11234939 -0.054594103 -0.1837641 -0.04175525 0.033044353 0.065193936 -0.13293746 -0.0912866
-0.21495745 -0.12760597 -0.04847143 -0.21916522 0.031322543 -0.097053826 -0.23863606 0.021437785
-0.017221062 0.42709652 -0.25417194 0.04785314 0.20668222 0.26692593 -0.15803587 0.26660046
0.21491337 -0.23008552 -0.07647486 -0.23392063 -0.025355123 0.0071834223 0.5005064 0.046506196
-0.08103654 0.17961918 -0.10599772 -0.20445661 -0.11473399 0.21414423 -0.13882148 -0.23177315
00000000: c74d cabe cda4 00be 27d6 9f3e 5258 f93e
00000010: 44fd 80be 48b7 273e 312f 81be 2d58 623e
00000020: 39e6 ec3c 6ad4 21bf 81fe 243e 35ad bb3e
00000030: 4255 89be cf28 27bf 3424 6f3d dc9c f73d
00000040: 8fb3 c43e 3118 36bd 0d00 0bbf eedf 5e3e
00000050: 593f ca3d e473 acbe 6474 973e 29cb 7abe
00000060: e9c0 9abd d7ff 083e e5d6 75be a275 a23d
00000070: 23d7 ae3e 9d80 403d b775 393e 1a4c c43e
00000080: 3fb4 e3bd fc63 293d c047 cbbb c5b8 9bbd
00000090: 8f61 0bbe d65b dfbd 4049 31bd eb83 113e
000000a0: 8fa4 343e d57f 043e 94c4 663d b03c 09bc
000000b0: 8433 d3bd 853b b7bd 69b5 d8bd 407e d3bc
000000c0: 0ba8 34be 3fcc 14be a19c 8cbd 1355 2abe
000000d0: 6620 be3d 44a1 8fbd c786 013e a1ed bebd
000000e0: 4a81 fb3d 0227 c33d 56f5 f93d c0c4 ca3c
000000f0: 56fa f7bd 6c0d 13bd e4bd 3f3d 3c18 d8bd
00000100: c9b2 4c3e 106c e53d 3042 0b3d 0f73 8b3e
00000110: a920 2abe f94c 7a3e 56d2 163e 2c52 973d
00000120: b0e6 99be 8756 2dbe 3182 b63e 3620 b03e
00000130: 139e c3be d3ee 6ebe 681a 043e b59d 32be
00000140: 3264 59bd 7fe6 543d 1108 81be cbc9 5cbe
00000150: ca41 9cbe 2404 24be 34c0 4b3d 42d4 133e
00000160: 2130 493e 66cd 09bd 425b cebe 7824 733e
00000170: 20ff 4a3e ce48 f53d d9bb 91be a98f 413e
00000180: 3b5e 823d 1651 0cbd a0f3 4c3d 14a5 93bd
00000190: 4c06 d43d 3e08 b93d 5b11 34bd 00a7 14bd
000001a0: b37c 33be 4161 db3d 356a 0f3e 0b5a 763c
000001b0: 8286 1ebe 39e1 fb3d 5b9d 19be ee58 113e
000001c0: b2a0 293e e024 26be cb77 2d3e 3d6a 2ebe
000001d0: 79a6 7dbd 36de 3ebd 543f 833d eb49 fe3d
000001e0: 6c30 9bba 2ffa 1d3e 9a10 fb3d 29d0 ce3d
000001f0: 50e3 ce3c 0a8b 61bd 6b38 48bd e391 cfbd
00000200: 8bb0 0d3f 7529 e73d bb4f 2dbe 88a4 6dbe
00000210: d943 a23e e201 c7bc 0557 8f3e 8b9a 4fbe
00000220: c99a 8bbe fb14 c13e 27dc dcbd 71b5 9fbd
00000230: f7c4 ec3d 8c08 513e 7eb7 90be 10ea 97be
00000240: 374d 04bf a846 193e 6496 003f e5b7 6abe
00000250: 79bd f2bd 836e 7b3d 406b 1ebf 1bcb 203e
00000260: 2b42 623e 6d64 f03c 737b 00be db5a ba3d
00000270: e5ab 9ebe 49da 863c ec34 80be 6ce9 45be
00000280: 7a13 d43e 51b7 8d3c 80ff db3d 98ef 81bc
00000290: 7608 0dbe 1c85 713d 3676 18be 42cc 13be
000002a0: b437 493d 66c5 b23d 1a75 ac3c e167 ee3d
000002b0: 79fa 53be 1a73 b6be 5cfa c03d 1923 e53b
000002c0: 7ecf 44be 6d56 9c3d 5be9 3d3e d425 21bc
000002d0: cc1a 043e c1a1 91bd 9fac 0dbe eacd 4e3e
000002e0: bde2 243e 0c3e 1fbe 5d8a 49be 1406 ccbd
000002f0: 4fce 50bd 4472 7bbd 6317 343e 93d5 ef39
00000300: cee3 373e c91b 93bd 408a 193e 8132 a63d
00000310: db31 013e 5de5 243e 566c 3abd b495 c6bc
00000320: f35b bd3d 3bc3 263d 8bd9 c6bd 4cf3 c6bd
00000330: 1e3b a1bd b1f4 04be d871 12be 2dac 8ebc
00000340: 50d4 29bd 9c37 bf3d 7146 f4bd 3b8e aebd
00000350: 1866 95bc 4136 d93d 82ea c9bd 9b52 e0bd
00000360: 7017 e63d 119e 5fbd a82c 3cbe 8e07 2bbd
00000370: 8459 073d 6684 853d c220 08be 78f4 babd
00000380: ce1d 5cbe 24ab 02be fa89 46bd d96c 60be
00000390: 114c 003d 28c4 c6bd 035d 74be 4b9e af3c
000003a0: 2f13 8dbc 65ac da3e d322 82be a701 443d
000003b0: 81a4 533e 84aa 883e 28d4 21be db7f 883e
000003c0: 4012 5c3e 8a9b 6bbe da9e 9cbd e488 6fbe
000003d0: 8cb5 cfbc ea62 eb3b 3021 003f 487d 3e3d
000003e0: 7cf6 a5bd 17ee 373e 5515 d9bd 135d 51be
000003f0: a7f9 eabd a048 5b3e 3827 0ebe f155 6dbe

input.bias f4 [500]
0.42871898 -0.10156568 0.10525929 -0.14857258 -0.15107022 -0.03926197 0.08336963 0.27581888
-0.043959152 0.07595289 -0.16843899 -0.09390449 0.3503477 -0.15446378 0.13447957 -0.062370375
-0.16624804 0.13971959 -0.02085191 -0.05103097 0.10104568 0.2601003 0.020923108 -0.16232237
0.045270074 -0.016916044 -0.06289246 0.04404393 -0.173873 -0.14964227 -0.060181774 0.053610325
-0.07243351 -0.11372045 -0.09891596 0.052662153 -0.21601005 0.023429805 0.33344802 0.04412799
0.3438234 -0.019741524 -0.08721725 0.10182738 0.24184349 0.026506172 0.1392297 0.031993315
0.061385 0.067369476 0.07859789 0.077773705 -0.04137892 0.17994678 0.10802832 -0.023425488
-0.03303647 0.07437373 0.60273683 0.028501678 -0.04425471 -0.078233 0.16714513 -0.13065222
0.17709494 -0.12491137 -0.089577705 0.20021138 -0.14667052 -0.13780737 0.18908234 0.34940004
-0.088514775 -0.020916237 0.008811244 -0.1431295 -0.073788874 -0.13801728 0.14501815 0.045350175
0.06197436 0.25216523 0.01182954 -0.05760614 -0.031445656 -0.17005467 -0.06145809 -0.037414946
-0.010741282 0.013466369 0.18095544 -0.21501964 -0.09749727 -0.10922048 0.1609856 0.2825035
-0.14861085 -0.07955342 -0.021812847 -0.063064456 0.055823863 -0.06443067 -0.052803904 0.038379874
-0.029803285 0.06660046 0.31984526 -0.029301642 -0.10752858 0.2870765 0.028371474 -0.06992049
0.15991472 -0.17160419 0.13558792 -0.05233043 0.1032529 0.05929321 -0.068731435 0.07540867
0.38136333 -0.16710916 -0.09219165 -0.022480736 0.46283603 0.009508434 0.4887475 -0.12607528
-0.16575468 -0.10412077 -0.22979587 0.20966743 0.25946358 0.095529236 -0.10355365 -0.020039663
-0.10403515 0.10168322 -0.104986176 0.10777987 0.03508404 -0.15380844 -0.036476087 0.12051924
0.60965556 -0.17097346 -0.115417674 0.16565377 -0.13110663 -0.11129596 0.41047198 0.1424813
0.1707506 0.056628782 -0.042509664 -0.10729749 0.025752246 -0.16983902 0.014814548 0.068899736
0.2757711 -0.0649577 -0.082932726 0.16747501 -0.11402974 0.42191595 0.040574435 0.26818502
-0.08105877 0.26965198 0.015843855 -0.14414987 -0.048570823 0.13011223 -0.02239133 0.1576294
0.1824791 0.4292176 0.13651554 0.17622574 -0.031012539 0.15783557 0.15533921 0.1054591
-0.007830078 -0.11207122 -0.14497517 -0.17024662 -0.08433755 -0.0017635104 0.02465092 -0.039920624
0.062149994 0.2933903 0.034190096 0.119526304 -0.11100706 0.19560975 0.12256874 0.4632396
0.12909207 -0.15090917 0.0030148113 0.21439528 0.058207218 -0.15926616 -0.05445817 0.14446528
-0.0010061449 0.055574086 -0.14753732 0.009588482 -0.0084057255 0.028901773 0.20464835 -0.1288372
-0.17641217 0.095877364 -0.013198387 -0.15456733 0.26526025 0.056598306 0.10753314 -0.015795227
0.08009847 -0.08707158 0.023187658 0.06823837 0.027339982 -0.07600026 -0.16918762 0.19249596
-0.1838732 -0.022495303 -0.15813558 0.024066165 0.11603825 0.36538413 -0.072079964 -0.11625441
0.24121149 -0.010891237 -0.050154418 0.010852906 -0.05245276 0.20746022 -0.0495857 0.002763704
-0.14439845 0.14951837 0.0034248566 -0.041701168 0.081204735 0.15553194 0.25166747 -0.026680654
00000000: 0e81 db3e ab01 d0bd 2f92 d73d 6923 18be
00000010: 27b2 1abe 29d1 20bd b2bd aa3d 2238 8d3e
00000020: 830e 34bd 308d 9b3d 457b 2cbe ff50 c0bd
00000030: c660 b33e c12b 1ebe 03b5 093e 1478 7fbd
00000040: ed3c 2abe a712 0f3e a0d1 aabc da05 51bd
00000050: 0af1 ce3d de2b 853e f066 ab3c d637 26be
00000060: 1d6d 393d 8493 8abc c3cd 80bd 6867 343d
00000070: c40b 32be d33b 19be 2a81 76bd 8096 5b3d
00000080: 0558 94bd 44e6 e8bd 7394 cabd 45b4 573d
00000090: bd31 5dbe ddef bf3c b3b9 aa3e 8dbf 343d
000000a0: 9f09 b03e fab8 a1bc f59e b2bd e08a d03d
000000b0: d2a5 773e 7923 d93c 3b92 0e3e 6c0b 033d
000000c0: d66e 7b3d 02f9 893d eef7 a03d d247 9f3d
000000d0: f17c 29bd f843 383e f43d dd3d cfe6 bfbc
000000e0: 4051 07bd 4151 983d f64c 1a3f 5a7c e93c
000000f0: 6d44 35bd a038 a0bd 1828 2b3e b2c9 05be
00000100: 6058 353e 88d1 ffbd 8474 b7bd 3604 4d3e
00000110: cc30 16be 601d 0dbe cd9e 413e 90e4 b23e
00000120: 3c47 b5bd 8758 abbc 095d 103c 8a90 12be
00000130: 9f1e 97bd 6754 0dbe a37f 143e 1bc1 393d
00000140: d4d8 7d3d cd1b 813e b0d0 413c 6af4 6bbd
00000150: 29cd 00bd d022 2ebe 7abb 7bbd 6a40 19bd
00000160: 34fc 2fbc 0ca2 5c3c 624c 393e 1c2e 5cbe
00000170: a6ac c7bd fdae dfbd 69d9 243e 4ca4 903e
00000180: 712d 18be e7ec a2bd dbb0 b2bc f027 81bd
00000190: 90a7 643d 3af4 83bd e848 58bd 3734 1d3d
000001a0: 0526 f4bc d265 883d c2c2 a33e ff09 f0bc
000001b0: f237 dcbd b1fb 923e 4b6b e83c 7932 8fbd
000001c0: afc0 233e 02b9 2fbe 8fd7 0a3e 6f58 56bd
000001d0: 4276 d33d 70dd 723d 11c3 8cbd dc6f 9a3d
000001e0: 0e42 c33e aa1e 2bbe face bcbd 8529 b8bc
000001f0: d8f8 ec3e 43c9 1b3c 1d3d fa3e e119 01be
00000200: 98bb 29be 453d d5bd 9c4f 6bbe 0fb3 563e
00000210: 69d8 843e d5a4 c33d f013 d4bd 382a a4bc
00000220: 6110 d5bd 4b3f d03d fe02 d7bd b1bb dc3d
00000230: 48b4 0f3d f67f 1dbe f367 15bd cbd2 f63d
00000240: 6312 1c3f ab13 2fbe 1a60 ecbd 24a1 293e
00000250: d140 06be 23ef e3bd 6229 d23e 9ee6 113e
00000260: 3fd9 2e3e 95f3 673d 9d1e 2ebd c9be dbbd
00000270: 60f6 d23c 48ea 2dbe b8b8 723c 4e1b 8d3d
00000280: df31 8d3e 8b08 85bd a2d8 a9bd 927e 2b3e
00000290: 6d88 e9bd 5e05 d83e 6131 263d 8c4f 893e
000002a0: 2402 a6bd d30f 8a3e f9ca 813c 069c 13be
000002b0: 33f2 46bd 243c 053e 066e b7bc 9a69 213e
000002c0: cddb 3a3e 69c2 db3e bbca 0b3e 8574 343e
000002d0: 020e febc a69f 213e 3e11 1f3e f1fa d73d
000002e0: ba49 00bc 9985 e5bd 5f74 14be 2155 2ebe
000002f0: 2ab9 acbd 9725 e7ba baf0 c93c cf83 23bd
00000300: fe90 7e3d 4137 963e ea0a 0c3d 35ca f43d
00000310: ab57 e3bd ec4d 483e 5205 fb3d be2d ed3e
00000320: b630 043e ef87 1abe 2494 453b 708a 5b3e
00000330: b16a 6e3d ab16 23be 880f 5fbd b5ee 133e
00000340: 9fe0 83ba a7a1 633d 0614 17be 0219 1d3c
00000350: 2bb8 09bc 69c3 ec3c 568f 513e e6ed 03be
00000360: 64a5 34be 5a5b c43d 0c3e 58bc e646 1ebe
00000370: 31d0 873e a0d3 673d 563a dc3d fe64 81bc
00000380: ab0a a43d 9652 b2bd 0bf4 bd3c 8fc0 8b3d
00000390: 19f8 df3c 06a6 9bbd 853f 2dbe a91d 453e
000003a0: 4249 3cbe 1248 b8bc 4bee 21be 6826 c53c
000003b0: 76a5 ed3d a113 bb3e a99e 93bd cb16 eebd
000003c0: 2500 773e 2971 32bc b86e 4dbd 63d0 313c
000003d0: b5d8 56bd 7470 543e 601a 4bbd 421f 353b
000003e0: 30dd 13be 581b 193e 8f73 603b d8ce 2abd
000003f0: ab4e a63d c443 1f3e 8fda 803e 6391 dabc

output.weight f4 [5, 500]
-0.044992488 -0.000539992 -0.21676038 0.014637272 -0.15586565 -0.5748787 -0.075773895 0.26023003
-0.81550515 0.037700716 -0.00087164715 0.0072158673 0.4458413 -0.27139473 0.061498925 0.011926082
-0.2556673 0.5387625 -0.03329601 -0.058283977 0.036039762 -0.09139353 0.046838205 0.04199624
-0.3611489 -0.044533692 0.027810726 0.0013622785 -0.019052431 -0.013191525 0.06637065 -0.028515488
-0.3289815 0.030763224 -0.044104505 -0.10190714 -0.42428672 0.043099917 0.6058592 0.483172
0.84126747 -0.07161834 -0.6630201 0.032023203 0.5260486 0.21589719 -0.25981277 -0.012690917
-0.039377782 0.03168961 -0.13879806 -0.026155464 0.1606436 -0.05135621 0.04016378 0.036873855
-0.25928023 0.007286746 0.70343786 -0.11877902 0.0042822133 -0.01780832 0.110714436 -0.0336343
0.03808069 -0.63874525 -0.23698853 0.45634443 -0.01544695 0.029656649 0.26960075 0.7541609
-0.36300144 -0.01639269 -0.0046462836 0.07231092 0.028872287 -0.023507899 0.13427804 0.103173174
-0.2713105 0.64368397 -0.15613928 0.016956074 -0.4184913 -0.021500556 0.014548086 0.031728495
-0.28790826 0.028123718 0.55552375 -0.2276244 -0.36687416 0.032520454 0.25080258 0.18119292
-0.02737941 0.013391521 -0.44018397 0.013365279 -0.024123063 -0.022440461 0.18391523 0.04585594
0.03168862 -0.091007516 0.5256991 -0.20732044 -0.0095380675 0.36831975 -0.02468531 -0.01294109
0.14230797 -0.045928266 -0.0357219 -0.316683 -0.34242624 -0.15282893 -0.014332477 -0.42896757
0.15717086 -0.5638056 0.033904742 -0.33028975 0.40321863 -0.21551427 0.7952893 0.015349675
-0.040198486 0.07113614 -0.4995461 0.450248 0.24490462 -0.45526758 0.013385385 0.0100507215
-0.1933018 -0.047979802 0.03838445 0.16383182 -0.31066462 0.0079123825 -0.023236526 0.07921193
0.8763072 -0.0062776282 0.0288482 -0.032380976 -0.05685667 -0.6807276 1.1778537 -0.64332205
-0.0644674 -0.030380756 -0.046553236 0.016804267 -0.029575888 -0.04174716 -0.08166664 0.18632329
0.819369 0.0020357536 0.013341617 0.2837275 -0.37858477 0.42308927 -0.47167042 0.51402843
-0.016388176 0.13386545 0.113582976 0.034395393 -0.72157955 -0.09851648 -0.06965209 0.3792641
0.7141767 0.60726446 0.06604186 0.13290936 -0.04259271 -0.004462308 -0.33015072 -0.031748798
-0.008626969 -0.02111538 -0.4748355 -0.044095602 -0.06594627 -0.044363484 -0.0035726007 -0.020541659
-0.029597946 0.67123 -0.6112618 0.19440636 0.06580985 0.024200644 -0.13665079 0.73481464
-0.14413758 0.023005452 -0.16184002 -0.00088934036 0.09512493 -0.21972318 -0.012300432 -0.076814994
0.01461637 -0.02389286 -0.01224052 -0.058007624 -0.47908852 0.033534024 0.29470223 0.029463742
-0.04039172 0.065603584 -0.0045130146 -0.027742438 0.75432724 -0.031188993 -0.011107285 0.0032173437
-0.24156843 0.04171596 0.43813393 0.02519727 -0.06107072 0.017353246 -0.03445068 0.18051876
-0.335789 -0.46662617 -0.0061981715 -0.58329856 -0.4001578 0.19513117 -0.2571948 -0.022825675
0.8338722 0.026179677 -0.716487 -0.016573377 0.039779093 0.1432913 0.03879078 -0.5959806
-0.039965604 0.08764502 -0.022419821 -0.0057398225 -0.28804928 0.15805775 0.7276138 -0.46525475
00000000: 0b4a 38bd 408e 0dba 6ff6 5dbe 2bd1 6f3c
00000010: 3f9b 1fbe 402b 13bf 582f 9bbd df3c 853e
00000020: f2c4 50bf 116c 1a3d 407f 64ba 1573 ec3b
00000030: 5045 e43e 40f4 8abe 4ce6 7b3d 9d65 433c
00000040: d3e6 82be 57ec 093f 6661 08bd 2ebb 6ebd
00000050: 6e9e 133d 882c bbbd 6bd9 3f3d 4004 2c3d
00000060: 82e8 b8be f668 36bd 52d3 e33c 7b8e b23a
00000070: d813 9cbc 4421 58bc 56ed 873d 5099 e9bc
00000080: 4370 a8be 2803 fc3c eda6 34bd b1b4 d0bd
00000090: 1c3c d9be 8a89 303d 9719 1b3f 5262 f73e
000000a0: 4e5d 573f a3ac 92bd afbb 29bf c32a 033d
000000b0: 1fab 063f 2714 5d3e 2e06 85be 90ed 4fbc
000000c0: 994a 21bd f7cc 013d 1421 0ebe fc43 d6bc
000000d0: c27f 243e e45a 52bd c782 243d 0a09 173d
000000e0: 61c0 84be a8c5 ee3b 8114 343f 6a42 f3bd
000000f0: cf51 8c3b c1e2 91bc 40be e23d 1fc4 09bd
00000100: 7ffa 1b3d cf84 23bf 1fad 72be faa5 e93e
00000110: 3415 7dbc 80f2 f23c 1c09 8a3e b010 413f
00000120: 53db b9be f649 86bc da3f 98bb bf17 943d
00000130: 9385 ec3c a393 c0bc 2f80 093e 754c d33d
00000140: 36e9 8abe 79c8 243f fae2 1fbe 77e7 8a3c
00000150: 7e44 d6be ef21 b0bc 185b 6e3c bdf5 013d
00000160: b668 93be b663 e63c ce36 0e3f 5f16 69be
00000170: eed6 bbbe 2b34 053d 3269 803e a38a 393e
00000180: c94a e0bc 1c68 5b3c cb5f e1be 0bfa 5a3c
00000190: bb9d c5bc 0fd5 b7bc 4654 3c3e 70d3 3b3d
000001a0: edcb 013d 2662 babd 3794 063f cf4b 54be
000001b0: 8e45 1cbc 6894 bc3e d938 cabc de06 54bc
000001c0: 2eb9 113e 471f 3cbd 2151 12bd 4624 a2be
000001d0: 7e52 afbe 307f 1cbe c4d2 6abc a3a1 dbbe
000001e0: 66f1 203e 9055 10bf b3df 0a3d bd1b a9be
000001f0: ac72 ce3e c6af 5cbe 1498 4b3f 347d 7b3c
00000200: 2ba7 24bd d3af 913d 82c4 ffbe e886 e63e
00000210: 47c8 7a3e d518 e9be 604e 5b3c c8ab 243c
00000220: e8f0 45be 7886 44bd 0339 1d3d 87c3 273e
00000230: 6f0f 9fbe f0a2 013c 875a bebc dd39 a23d
00000240: ab55 603f 90b4 cdbb 0f53 ec3c eaa1 04bd
00000250: 8ae2 68bd 2a44 2ebf e9c3 963f c1b0 24bf
00000260: 7c07 84bd 10e1 f8bc 9bae 3ebd 1aa9 893c
00000270: 2249 f2bc 12ff 2abd d740 a7bd 88cb 3e3e
00000280: 2bc2 513f 476a 053b cc96 5a3c bb44 913e
00000290: ddd5 c1be 289f d83e c97e f1be 5e97 033f
000002a0: 7f40 86bc 0614 093e 319e e83d 2fe2 0c3d
000002b0: 70b9 38bf 02c3 c9bd c1a5 8ebd e72e c23e
000002c0: 49d4 363f af75 1b3f f440 873d 6419 083e
000002d0: b275 2ebd 8d38 92bb 8409 a9be 070b 02bd
000002e0: 2158 0dbc 29fa acbc a31d f3be 979d 34bd
000002f0: d70e 87bd 7cb6 35bd 4b22 6abb fb46 a8bc
00000300: 6477 f2bc bbd5 2b3f a77b 1cbf 7612 473e
00000310: 51c7 863d 6e40 c63c 2fee 0bbe d01c 3c3f
00000320: cd98 13be ee75 bc3c 64b9 25be 9f22 69ba
00000330: dcd0 c23d 1dff 60be c087 49bc 2e51 9dbd
00000340: 8079 6f3c f6ba c3bc 768c 48bc 6799 6dbd
00000350: 174b f5be f95a 093d 36e3 963e f25d f13c
00000360: ca71 25bd 2c5b 863d e9e1 93bb 1c44 e3bc
00000370: 971b 413f 0f80 ffbc 54fb 35bc 12da 523b
00000380: b75d 77be 5bde 2a3d 1753 e03e 816a ce3c
00000390: 4b25 7abd 6528 8e3c 281c 0dbd e9d9 383e
000003a0: 89ec abbe a0e9 eebe 081a cbbb 0e53 15bf
000003b0: 7ce1 ccbe 77d0 473e 09af 83be e9fc babc
000003c0: a678 553f c376 d63c b16b 37bf e4c4 87bc
000003d0: 67ef 223d f4ba 123e 15e3 1e3d 2f92 18bf
000003e0: f9b2 23bd 3b7f b33d c6a9 b7bc 1f15 bcbb
000003f0: 327b 93be e4d9 213e e644 3a3f df35 eebe

output.bias f4 [5]
0.44744396 -0.15056224 0.2072639 0.05955002 -0.4789165
00000000: 6017 e53e fd2c 1abe fd3c 543e b9ea 733d
00000010: 8b34 f5be

momentum_buffer f4 [662, 32]
0.74034315 0.047504082 -0.060215026 0.39925104 -0.0484059 -0.31694007 0.064683564 -0.01362811
0.43797863 -0.28563434 0.07312462 -0.08918591 -0.3246116 -0.46089315 0.16188622 -0.28599548
-0.3440834 -0.15271649 0.35367957 0.20177086 0.10968472 0.041001588 -0.9096377 0.094424285
0.21154204 -0.4057001 4.3809414e-05 -0.19257867 0.032760665 -0.16195875 0.4071146 0.34382153
0.004083791 -0.00030370196 0.0022895425 -0.0012134273 -0.000165139 -0.001243846 -5.563017e-05 -0.0005663506
0.00038697678 0.0008051409 -0.00025768767 0.0012978831 -0.0011581086 -0.0017508919 0.0001536664 0.0012576317
-0.0011509381 -0.0007656803 0.0012619315 -0.0008288279 0.0012259714 0.00016115945 -0.0012303012 0.0007750094
0.00058569317 -0.0019369822 -0.0036765393 -0.0019147086 0.0016860499 0.0012295113 5.0645802e-05 -0.0006906746
0.006210671 0.00032567704 0.0012130229 -0.0013470297 0.0006940031 -0.0021509754 0.00075530424 -0.0010308233
0.00088144105 0.0018002496 -0.0007339572 5.3389696e-05 -0.0013455953 -0.0010158565 0.00010825059 3.347767e-05
-0.0030913483 -0.00026077044 0.003159289 -0.0007380133 0.0011348026 0.0010722138 -0.0044648815 0.0017749246
0.0013867699 -0.002561559 -0.0031756887 -0.002024753 0.00076360477 0.000899595 0.00031297564 -0.0004622235
0.0073882975 0.0020971308 0.0021724536 -0.00010443851 0.0018621502 -0.0012332774 0.0010194185 -0.0009284881
-0.0018494605 -0.0013557863 0.0011443937 0.0015078767 -0.003777713 -0.0036343974 -0.00015549245 -0.0014564302
-0.003824373 0.0017493692 0.002771332 -0.001162635 -0.0005658921 -0.00021278259 -0.0050945515 0.0030587432
0.0036353157 -0.0028823803 -0.00529804 3.8221246e-05 0.0020113257 0.000727508 -0.00086687354 0.0004260966
0.0010273356 0.00020028987 0.00014991261 -0.00041686953 0.0003324591 -0.00023505025 0.00018878545 -0.00019018307
-0.00022032954 0.0004077803 -0.00012554246 2.533383e-06 -0.00022254325 -3.7896767e-05 -9.074963e-05 -2.7795817e-05
-0.0006013132 0.00023159788 0.00054795126 -0.00023162254 5.3755706e-05 0.00019118898 -0.0006796623 0.00049979286
0.00031553453 -0.00039205368 -0.00065569306 -0.00019415062 8.442921e-05 0.00025387466 -0.0002154187 -0.00019941761
0.0015053573 -0.00014717499 1.6097809e-05 -0.0006628508 0.00021258448 -0.0007044112 0.00017988426 -0.00032822066
0.0005008732 0.0011246384 -0.0005318114 -0.00027982806 8.1988124e-05 0.00030140457 -4.3086216e-05 0.000198186
-0.00079807575 -0.0002223255 0.0009865608 -0.00014032306 0.0005123631 0.00056159415 -0.001201798 0.00039372122
5.286181e-05 -0.0005742703 -0.00048094057 -0.000826076 -6.498335e-05 0.00029842943 0.00016284321 -0.00032081484
0.001355996 -6.949024e-05 0.00013089995 5.6485762e-05 -4.9296155e-05 -0.00059881393 6.372374e-05 -0.00014287514
0.0006578184 0.00020224869 -0.0001437505 -9.853435e-05 -0.00028210468 -0.00041476957 0.000169131 -5.3827564e-05
-0.0005921322 -0.0003258362 0.0006718193 7.615557e-05 0.0003849686 0.00023067625 -0.0012235388 0.00020865447
0.00016366976 -0.00068806595 -0.0003764073 -0.00061303837 0.00013528664 3.250563e-05 0.00047790047 0.000154985
0.0027078376 0.0003681183 0.00034619088 -0.00016683762 0.0003401258 -0.00091051793 0.00036754215 -0.00038598917
0.00034125 0.00039355693 -0.0001868167 -0.00011461359 -0.0007903989 -0.00055244693 6.9601825e-05 -0.00043506562
-0.001469323 9.2156566e-05 0.001387169 -0.00018286658 0.00027905402 0.00038710845 -0.0022939583 0.00086674484
0.00082008017 -0.0011500155 -0.001150858 -0.00058683025 0.00019343026 0.00019238326 0.00020025669 8.188418e-05
00000000: 2187 3d3f a493 423d 08a4 76bd a26a cc3e
00000010: 4445 46bd f845 a2be d178 843d 7048 5fbc
00000020: bc3e e03e aa3e 92be 5cc2 953d 1aa7 b6bd
00000030: 7e33 a6be 30fa ebbe 80c5 253e 006e 92be
00000040: b32b b0be b661 1cbe 7d15 b53e 059d 4e3e
00000050: 62a2 e03d 48f1 273d 04de 68bf 8561 c13d
00000060: 7a9e 583e ecb7 cfbe 00c0 3738 5833 45be
00000070: 0c30 063d 84d8 25be 5371 d03e 6009 b03e
00000080: 52d1 853b 303a 9fb9 260c 163b dd0b 9fba
00000090: 2a29 2db9 8c08 a3ba 7154 69b8 2577 14ba
000000a0: 25e3 ca39 1710 533a 411a 87b9 bb1d aa3a
000000b0: adcb 97ba 2f7e e5ba 8321 2139 1ed7 a43a
000000c0: 13db 96ba efb7 48ba 6567 a53a b345 59ba
000000d0: c6b0 a03a e9fc 2839 0f42 a1ba 002a 4b3a
000000e0: 3489 193a 56e2 fdba 18f2 70bb f6f6 faba
000000f0: 72fe dc3a 8e27 a13a 846c 5438 630e 35ba
00000100: e282 cb3b a2bf aa39 4bfe 9e3a d18e b0ba
00000110: c2ed 353a 61f7 0cbb 9cff 453a b11c 87ba
00000120: 8210 673a 5af6 eb3a 0967 40ba c0ee 5f38
00000130: b05e b0ba 7d26 85ba 9804 e338 606a 0c38
00000140: 3898 4abb 04b8 88b9 130c 4f3b 3c77 41ba
00000150: a8bd 943a 8689 8c3a 244e 92bb 96a4 e83a
00000160: 47c4 b53a d4df 27bb 371f 50bb b8b1 04bb
00000170: a62c 483a ccd2 6b3a e116 a439 9756 f2b9
00000180: 8819 f23b 0470 093b b95f 0e3b 0006 dbb8
00000190: 6413 f43a eca5 a1ba 029e 853a c865 73ba
000001a0: 9969 f2ba a4b4 b1ba 7bff 953a f2a3 c53a
000001b0: 8293 77bb 122f 6ebb b00b 23b9 b0e5 beba
000001c0: 55a2 7abb 174b e53a 3c9f 353b 8f63 98ba
000001d0: 6058 14ba 641e 5fb9 32f0 a6bb 3275 483b
000001e0: 7a3e 6e3b 51e6 3cbb 2e9b adbb c04f 2038
000001f0: 72d0 033b 3cb6 3e3a e63e 63ba b865 df39
00000200: aaa7 863a e704 5239 dc31 1d39 488f dab9
00000210: e84d ae39 d277 76b9 b5f4 4539 e16b 47b9
00000220: 4308 67b9 58cb d539 0ca4 03b9 3003 2a36
00000230: 805a 69b9 58f3 1eb8 d650 beb8 102b e9b7
00000240: 72a1 1dba 15d9 7239 63a4 0f3a b4df 72b9
00000250: c077 6138 e779 4839 5d2b 32ba 8804 033a
00000260: 546e a539 8e8c cdb9 d1e2 2bba e994 4bb9
00000270: 960f b138 7b1a 8539 04e2 61b9 c21a 51b9
00000280: 694f c53a fc52 1ab9 c809 8737 2ac3 2dba
00000290: 36e9 5e39 3ca8 38ba 509f 3c39 0815 acb9
000002a0: 084d 033a 9a68 933a 4269 0bba e3b5 92b9
000002b0: 0af1 ab38 d605 9e39 79b7 34b8 26d0 4f39
000002c0: f535 51ba 0c20 69b9 7d4f 813a af23 13b9
000002d0: 1b50 063a f237 133a a685 9dba 5e6c ce39
000002e0: f0b7 5d38 a18a 16ba c026 fcb9 068d 58ba
000002f0: ac47 88b8 8576 9c39 e4c0 2a39 0a33 a8b9
00000300: adbb b13a 4abb 91b8 3042 0939 20eb 6c38
00000310: 58c3 4eb8 b9f9 1cba 6ca3 8538 c1d0 15b9
00000320: 7271 2c3a b812 5439 bbbb 16b9 3aa4 ceb8
00000330: 73e7 93b9 6e75 d9b9 c258 3139 e8c4 61b8
00000340: 5239 1bba ffd4 aab9 081d 303a b6b5 9f38
00000350: 9cd5 c939 afe1 7139 265f a0ba 42ca 5a39
00000360: c49e 2b39 535f 34ba 8858 c5b9 4fb4 20ba
00000370: bbdb 0d39 a856 0838 b78e fa39 7883 2239
00000380: fa75 313b 0000 c139 f480 b539 22f1 2eb9
00000390: ea52 b239 d3af 6eba acb2 c039 975e cab9
000003a0: cde9 b239 5156 ce39 3ae4 43b9 b45c f0b8
000003b0: c632 4fba 16d2 10ba 32f7 9138 8519 e4b9
000003c0: 4c96 c0ba 2e44 c138 abd1 b53a e0bf 3fb9
000003d0: ff4d 9239 d1f4 ca39 3c56 16bb 4336 633a
000003e0: a6fa 563a 1ebc 96ba 63d8 96ba 83d5 19ba
000003f0: 8ad3 4a39 7dba 4939 fffb 5139 3cb9 ab38

momentum_buffer f4 [500, 32]
-0.010006328 -0.010126922 -0.004920244 -0.0072639626 0.011098442 0.0069576707 -0.0016030741 -0.023590919
0.0013074242 -0.012767535 0.00312268 0.0020709408 0.001991229 0.017261868 0.012251667 -0.005836962
-0.019011263 -0.015867904 0.00870482 0.008618541 0.005556494 -0.016020302 -0.006875028 0.021030135
0.00925985 -0.0065920567 -0.0008212287 0.0041208398 0.013934018 0.016775195 0.008493407 -0.009700591
0.0 0.0 0.0 0.0 0.0 0.0 0.0 0.0
0.0 0.0 0.0 0.0 0.0 0.0 0.0 0.0
0.0 0.0 0.0 0.0 0.0 0.0 0.0 0.0
0.0 0.0 0.0 0.0 0.0 0.0 0.0 0.0
0.012187912 0.011576101 0.0035751958 0.0054366975 -0.011145134 -0.008190868 0.0022459207 0.025264313
-0.0004002387 0.015762003 -0.0046598767 -0.0039044544 -0.0011855832 -0.01557405 -0.014013985 0.005546726
0.018050186 0.016116453 -0.0074241683 -0.009432707 -0.0050931615 0.018964484 0.005039344 -0.022772707
-0.009624574 0.0071459017 0.003460383 -0.004737339 -0.016197186 -0.017841905 -0.008802099 0.009966738
-6e-45 -6e-45 -6e-45 -6e-45 6e-45 6e-45 -6e-45 -6e-45
6e-45 -6e-45 6e-45 6e-45 6e-45 6e-45 6e-45 -6e-45
-6e-45 -6e-45 6e-45 6e-45 6e-45 -6e-45 -6e-45 6e-45
6e-45 -6e-45 -6e-45 6e-45 6e-45 6e-45 6e-45 -6e-45
0.0055823596 0.004038069 0.0025442792 0.0033629998 -0.007211602 -0.003656458 0.00073486613 0.012321417
0.00063233555 0.009191405 -0.0025272598 -0.0006429952 -0.0009148336 -0.008338055 -0.0053706653 0.005146103
0.010923877 0.00856328 -0.0055466606 -0.0045992704 -0.001585931 0.00861151 0.005326797 -0.012033649
-0.006146472 0.0038779618 1.8477556e-05 -0.0036906037 -0.0065252925 -0.009369449 -0.004053411 0.0038429608
-0.015155692 -0.011982723 -0.004750708 -0.0054750326 0.011013312 0.008815734 -0.002405465 -0.024886137
0.0011671808 -0.014574718 0.0037762837 0.0030504258 0.002416183 0.01745712 0.013541107 -0.0043154773
-0.017031368 -0.0171423 0.006242542 0.008893735 0.0053154 -0.018455531 -0.003991606 0.021815186
0.008578979 -0.0048100483 -0.00066765014 0.004441703 0.014441427 0.017417101 0.00827902 -0.00987866
-1.4371057e-06 1.5189614e-06 1.4852086e-06 2.0251848e-06 -1.6700156e-06 -1.3691458e-07 -2.7792225e-07 5.6794743e-06
1.2157933e-07 -1.6051354e-07 1.6645992e-06 -1.7156076e-06 6.8498814e-08 -3.999618e-06 -3.998394e-06 -1.3385875e-07
6.9391826e-06 1.6895606e-06 -2.6729815e-06 -2.4605465e-06 -2.1892242e-06 3.3466977e-06 3.536629e-06 -3.147472e-06
-1.0010124e-06 2.6493703e-06 2.7927942e-06 3.2440585e-07 -2.8094687e-06 -2.1328128e-06 -1.670465e-06 2.3183668e-06
0.009010117 0.008927596 0.0027937286 0.004378149 -0.0072011794 -0.0063358503 0.0018179178 0.017906977
-0.0014538557 0.010137639 -0.0020623507 -0.0024091098 -0.0010718561 -0.012828449 -0.010343246 0.0021205368
0.01341947 0.012616622 -0.005191999 -0.0066221496 -0.0050168023 0.013257746 0.0033539059 -0.015976423
-0.0065767504 0.0048160595 0.0014519328 -0.0026619392 -0.011013316 -0.013143317 -0.006248999 0.00726682
00000000: 95f1 23bc 64eb 25bc 003a a1bb 8906 eebb
00000010: 3dd6 353c 2cfd e33b 3e1e d2ba be41 c1bc
00000020: e05d ab3a ec2e 51bc e0a5 4c3b 9fb8 073b
00000030: 477f 023b c368 8d3c 37bb 483c fc43 bfbb
00000040: 82bd 9bbc 68fd 81bc a99e 0e3c c834 0d3c
00000050: 4013 b63b 023d 83bc ea47 e1bb 6447 ac3c
00000060: a0b6 173c 2e02 d8bb ba47 57ba 1c08 873b
00000070: 824b 643c 226c 893c ee27 0b3c 3aef 1ebc
00000080: 0000 0000 0000 0000 0000 0000 0000 0000
00000090: 0000 0000 0000 0000 0000 0000 0000 0000
000000a0: 0000 0000 0000 0000 0000 0000 0000 0000
000000b0: 0000 0000 0000 0000 0000 0000 0000 0000
000000c0: 0000 0000 0000 0000 0000 0000 0000 0000
000000d0: 0000 0000 0000 0000 0000 0000 0000 0000
000000e0: 0000 0000 0000 0000 0000 0000 0000 0000
000000f0: 0000 0000 0000 0000 0000 0000 0000 0000
00000100: cfaf 473c b0a9 3d3c d54d 6a3b 5326 b23b
00000110: 159a 36bc fe32 06bc 4c30 133b 1bf7 ce3c
00000120: 21d7 d1b9 511f 813c e1b1 98bb e0e1 7fbb
00000130: 9265 9bba 4d2a 7fbc ea9a 65bc 4fc1 b53b
00000140: fcdd 933c a706 843c 7046 f3bb a48b 1abc
00000150: 89e4 a6bb 685b 9b3c 1521 a53b d48d babc
00000160: 64b0 1dbc 2b28 ea3b 98c7 623b ae3b 9bbb
00000170: f6af 84bc 3029 92bc ae36 10bc 874b 233c
00000180: 0400 0080 0400 0080 0400 0080 0400 0080
00000190: 0400 0000 0400 0000 0400 0080 0400 0080
000001a0: 0400 0000 0400 0080 0400 0000 0400 0000
000001b0: 0400 0000 0400 0000 0400 0000 0400 0080
000001c0: 0400 0080 0400 0080 0400 0000 0400 0000
000001d0: 0400 0000 0400 0080 0400 0080 0400 0000
000001e0: 0400 0000 0400 0080 0400 0080 0400 0000
000001f0: 0400 0000 0400 0000 0400 0000 0400 0080
00000200: 3aec b63b c751 843b ecbd 263b c665 5c3b
00000210: 4d4f ecbb 30a1 6fbb 08a4 403a c5df 493c
00000220: 52c3 253a 8c97 163c 62a0 25bb ad8e 28ba
00000230: 72d1 6fba 569c 08bc 68fc afbb a4a0 a83b
00000240: 10fa 323c 004d 0c3c c3c0 b5bb 7ab5 96bb
00000250: 04df cfba 4a17 0d3c 698c ae3b c828 45bc
00000260: 5868 c9bb 6725 7e3b 4000 9b37 0ede 71bb
00000270: 1fd2 d5bb 5182 19bc 7ad2 84bb 2fda 7b3b
00000280: 944f 78bc 2f53 44bc d4ab 9bbb e767 b3bb
00000290: 2e71 343c de6f 103c 02a5 1dbb 03de cbbc
000002a0: 17fc 983a ccca 6ebc 877b 773b a7e9 473b
000002b0: d358 1e3b 3c02 8f3c 85db 5d3c d968 8dbb
000002c0: 5e85 8bbc 026e 8cbc 3d8e cc3b 07b7 113c
000002d0: cf2c ae3b 0e30 97bc 05cc 82bb c3b5 b23c
000002e0: d98e 0c3c 9c9d 9dbb 3e05 2fba b58b 913b
000002f0: bc9b 6c3c 4fae 8e3c baa4 073c 1ada 21bc
00000300: 93e2 c0b5 1edf cb35 6157 c735 69e8 0736
00000310: 4d25 e0b5 cb02 13b4 5835 95b4 5092 be36
00000320: 798b 0234 a059 2cb4 316b df35 d443 e6b5
00000330: 9f19 9333 7534 86b6 f129 86b6 d0ba 0fb4
00000340: 20d7 e836 dcc4 e235 7961 33b6 de1f 25b6
00000350: 96ea 12b6 d497 6036 d356 6d36 2839 53b6
00000360: 865a 86b5 d6cb 3136 d76b 3b36 002a ae34
00000370: 4e8a 3cb6 7221 0fb6 be34 e0b5 3d95 1b36
00000380: 2b9f 133c 0d45 123c fd16 373b 9376 8f3b
00000390: dff7 ebbb f79c cfbb 3347 ee3a a7b1 923c
000003a0: 4d8f beba 5718 263c 8128 07bb 28e2 1dbb
000003b0: 867d 8cba 6a2e 52bc b876 29bc b4f8 0a3b
000003c0: 56dd 5b3c f3b5 4e3c a521 aabb 9efe d8bb
000003d0: fd63 a4bb 0437 593c 34cd 5b3b fde0 82bc
000003e0: c881 d7bb 09d0 9d3b c84e be3a ee73 2ebb
000003f0: 3271 34bc 1157 57bc 67c4 ccbb 811e ee3b

momentum_buffer f4 [500]
0.02505942 0.0 -0.028896876 6e-45 -0.010132689 0.028545968 -1.404266e-05 -0.022317382
0.05291152 -0.00056287856 0.0 -4.722177e-12 -0.019149158 -0.046413057 5.502399e-05 1.4150384e-11
0.00509285 -0.014340719 -6.1871404e-05 2.2748109e-06 -0.0061751213 0.015418865 -0.015997676 4.348281e-19
-0.018171616 5.36714e-05 -3.1805836e-26 1.7819093e-11 0.0 0.0 -0.018340375 -0.027537532
0.035794422 5.2537474e-10 1.1252485e-11 -0.0016376998 -0.00087487977 8.5771706e-10 0.0040016826 -0.008719658
0.038662408 0.00058457814 0.025852716 -1.6473126e-07 0.0116517525 -0.01718986 0.038484737 2.0335325e-07
-9.739379e-05 -1.008994e-07 -0.004465549 -0.0013794806 -0.0005790219 -9.284078e-05 -1.3281588e-07 -5.1906395e-09
-0.034216736 0.008968532 -0.045956276 0.008210461 -7.2472176e-05 6.468759e-18 -0.0123757105 0.0
0.010079384 0.005059657 0.031076644 -0.0090664765 0.0 -7.4595116e-25 -0.010967634 -0.004249407
-0.010339696 -1.3343781e-08 0.0023082448 -0.009569008 4.3990115e-12 -1.6746366e-11 -0.0061418563 0.033624213
-0.016565703 -0.015154733 -0.009017916 -6.200499e-08 0.0017600805 0.0 6e-45 6.118391e-06
0.022138603 -1.6973151e-09 -0.008916889 0.015280072 0.029616244 0.0 -0.0046059154 0.018521331
0.0 2.7540773e-21 -0.02260105 1.2733391e-10 0.015943956 4.0739037e-11 -0.008120926 -8.6660557e-10
6.46984e-08 -0.0066965674 -0.059645224 0.016564801 -8.3803284e-11 -0.01510952 1.9107736e-05 -8.008116e-16
0.0117347175 0.007991044 0.0060180286 0.005533833 0.03026399 0.01939695 0.0 -0.0082766265
-0.032199983 0.061054748 1.458955e-16 0.023517298 -0.0149894385 0.029756974 -0.05985938 -6e-45
0.0 -0.0139326 0.004413359 -0.019872865 -0.016567344 -0.013594383 2.2324902e-31 0.0
0.009354781 -1.6936906e-07 0.0 0.008606352 -0.010745086 0.0 -1.5075111e-09 0.0049826633
-0.0141432285 0.0 -1.6650548e-09 -5.5875676e-05 0.012775813 0.033660706 -0.03478068 0.015948776
0.01411652 0.00013716043 -8.087991e-09 -8.365321e-19 -5.612782e-07 0.0 -0.0007627569 0.0151230665
-0.010633324 -6.0991296e-09 -4.2718884e-10 -0.014358797 -5.8469115e-05 -0.013128941 0.030172177 -0.011814296
-1.4113079e-08 0.038192477 0.026389554 1.05803415e-10 0.029428596 0.0018467945 0.014771454 -0.030482296
0.0075687747 -0.04378858 -0.019376388 0.019298043 5.6565796e-08 -2.4772157e-06 0.026703965 0.011886151
2.0299147e-08 -0.00046005932 0.005669814 4.683433e-15 -0.0021361262 -0.0013252903 2.1743942e-09 -1.1917052e-05
-3.8078333e-08 -0.009108607 0.010570582 -0.034947217 0.0056295563 -0.004969774 -0.010043055 -0.049769953
-0.0037398785 0.0 -0.021587607 0.024157882 -0.013774785 0.02509342 0.0 0.026094288
-2.713151e-08 -0.03901927 -5.927391e-10 -0.0007575881 0.0061725006 2.2973108e-12 0.018795762 0.0
0.0 0.007875269 -1.0580242e-09 0.0 -0.03221362 0.008759705 0.0003463677 1.4171862e-07
0.0015244668 -1.4687895e-09 -0.020950763 -2.9034566e-09 1.7845072e-05 1.5736599e-07 0.0 -0.0054241195
0.0008923467 0.018331349 -1.1389587e-20 -0.03302512 0.016786275 -0.01773704 0.035650197 -6e-45
-0.02416314 -2.1198195e-10 0.021490438 -0.005338737 -5.854304e-11 0.0031883726 6e-45 0.013078859
0.0 -7.988098e-06 8.373493e-07 1.2213946e-17 0.0120698195 -0.0010683641 0.007166229 0.049784414
00000000: 6a49 cd3c 0000 0000 24b9 ecbc 0400 0000
00000010: 9403 26bc 3cd9 e93c c498 6bb7 f1d2 b6bc
00000020: c0b9 583d 248e 13ba 0000 0000 9725 a6ac
00000030: b2de 9cbc 9e1b 3ebd 8fc9 6638 aaef 782d
00000040: ece1 a63b 56f5 6abc f5c0 81b8 f4a8 1836
00000050: ac58 cabb 689f 7c3c 8f0d 83bc af56 0021
00000060: a4dc 94bc 3a1d 6138 b07e 1d95 08bd 9c2d
00000070: 0000 0000 0000 0000 8e3e 96bc 6496 e1bc
00000080: 2c9d 123d f669 1030 b0f4 452d 16a8 d6ba
00000090: 3058 65ba 79c4 6b30 8c20 833b e5dc 0ebc
000000a0: 795c 1e3d 603e 193a 13c9 d33c fce0 30b4
000000b0: fee6 3e3c c0d1 8cbc 2ca2 1d3d 5159 5a34
000000c0: e53f ccb8 08ae d8b3 bd53 92bb b0cf b4ba
000000d0: 80c9 17ba 84b3 c2b8 279c 0eb4 5959 b2b1
000000e0: d926 0cbd c0f0 123c a63c 3cbd 2b85 063c
000000f0: 34fc 97b8 b4a7 ee22 7ec3 4abc 0000 0000
00000100: 0024 253c 7bcb a53b 7294 fe3c 8f8b 14bc
00000110: 0000 0000 57dc 6697 97b1 33bc 9c3e 8bbb
00000120: d467 29bc 923e 65b2 ec45 173b 54c7 1cbc
00000130: c6c6 9a2c 774d 93ad a041 c9bb 8bb9 093d
00000140: ccb4 87bc 8f4b 78bc e2bf 13bc 9b27 85b3
00000150: 80b2 e63a 0000 0000 0400 0000 944c cd36
00000160: 045c b53c f746 e9b0 2518 12bc 4459 7a3c
00000170: c49d f23c 0000 0000 38ed 96bb 0cba 973c
00000180: 0000 0000 9a17 501d d625 b9bc 4f01 0c2f
00000190: e69c 823c 142c 332e a20d 05bc f235 6eb0
000001a0: 52f0 8a33 e16e dbbb 8d4e 74bd e8b2 873c
000001b0: 0e49 b8ae ec8d 77bc 8d49 a037 77d1 66a6
000001c0: f942 403c deec 023c e232 c53b 2855 b53b
000001d0: 30ec f73c 5ae6 9e3c 0000 0000 b09a 07bc
000001e0: 21e4 03bd 8b14 7a3d c034 2825 59a7 c03c
000001f0: 4396 75bc e6c4 f33c 1c2f 75bd 0400 0080
00000200: 0000 0000 8f45 64bc f09d 903b 6bcc a2bc
00000210: 3db8 87bc faba 5ebc 9be5 900c 0000 0000
00000220: cc44 193c d0db 35b4 0000 0000 a801 0d3c
00000230: 280c 30bc 0000 0000 d530 cfb0 9c45 a33b
00000240: 00b9 67bc 0000 0000 e8d7 e4b0 0d5c 6ab8
00000250: a551 513c cfdf 093d 3076 0ebd 02a7 823c
00000260: fa48 673c b9d2 0f39 5cf3 0ab2 94e6 76a1
00000270: bfaa 16b5 0000 0000 c0f3 47ba bdc6 773c
00000280: 6537 2ebc 8390 d1b1 7cd9 eaaf 2941 6bbc
00000290: bc3c 75b8 c51a 57bc a42b f73c c090 41bc
000002a0: fa75 72b2 b76f 1c3d e82e d83c 07aa e82e
000002b0: 3d14 f13c 2410 f23a f803 723c 02b6 f9bc
000002c0: 7c03 f83b a75b 33bd 3bbb 9ebc ee16 9e3c
000002d0: c0f2 7233 3e3e 26b6 46c2 da3c 21be 423c
000002e0: 4c5e ae32 1e34 f1b9 d9c9 b93b 0cbd a827
000002f0: 40fe 0bbb 5db5 adba 596c 1531 59ef 47b7
00000300: 928b 23b3 443c 15bc 3c30 2d3c d024 0fbd
00000310: 2478 b83b 7cd9 a2bb a08b 24bc 94db 4bbd
00000320: c018 75bb 0000 0000 7ed8 b0bc c0e6 c53c
00000330: a3af 61bc b790 cd3c 0000 0000 b0c3 d53c
00000340: d20e e9b2 acd2 1fbd 4eee 22b0 e098 46ba
00000350: b042 ca3b aca8 212c 92f9 993c 0000 0000
00000360: 0000 0000 4607 013c eb69 91b0 0000 0000
00000370: 6ef2 03bd de84 0f3c b098 b539 512b 1834
00000380: 9ed0 c73a 70de c9b0 efa0 abbc 2686 47b1
00000390: 00b2 9537 6ff8 2834 0000 0000 d0bc b1bb
000003a0: 60ec 693a a02b 963c aa24 579e 5945 07bd
000003b0: 5f83 893c 454d 91bc f105 123d 0400 0080
000003c0: c7f1 c5bc 9d13 69af b70c b03c 92f0 aebb
000003d0: cdbc 80ae 04f4 503b 0400 0000 b648 563c
000003e0: 0000 0000 9f04 06b7 35c6 6035 bb4e 6123
000003f0: 7ec0 453c 5a08 8cba b0d2 ea3b beea 4b3d
