CS4248 NLP/Assignments/Assignment 2/a2_files/model.pt (torch, 23311 bytes, 8 tensors)

embedding.weight f4 [200, 1]
-0.02272418 0.4317121 -0.82304513 -0.735939 -0.38515437 0.18999462 -0.01981318 0.6344156
-0.10021637 0.22860543 -0.30221307 -0.19656539 -0.9553485 -0.6622821 -0.4122231 0.013670741
0.37149474 0.5374569 -0.6779411 -0.43546283 0.3138362 0.6326674 -0.2064204 0.6394742
-0.16118336 0.06347932 0.8149365 -0.92767036 -0.62953794 -0.25316525 -0.38979995 0.6814506
-0.64817965 -0.46333405 -0.69864047 -0.936561 -0.5837405 0.753206 0.3802895 0.3787407
0.023877239 -0.5105479 0.1515637 -0.9336947 -0.72256625 -0.51553 0.4907636 0.53906846
-0.44349504 -0.036082387 0.63329643 0.848633 0.28336293 0.15236741 0.6018991 -0.58880234
0.18396604 -0.7753055 -0.69308615 -0.51658356 0.40303895 0.31106713 -0.5923525 0.21715014
0.4441042 -0.12621737 0.038181543 0.17707671 0.47549447 0.77716637 -0.77062356 -0.36646974
0.40951294 0.6917035 0.77232265 0.81323206 0.1275022 -0.86958265 0.08499648 -0.62560534
-0.93195415 0.7953357 0.6823872 -0.99752796 0.15128511 -0.18707116 -0.16456115 -0.45775688
0.34728009 -0.5923035 0.33362725 0.3993131 0.5807159 0.32606062 -0.98973525 -0.6486969
0.41857123 0.2066434 -0.780084 -0.5758195 0.83042866 0.54738337 -0.43602514 -0.25168478
-0.9525981 -0.017974138 -0.7530589 -0.7713567 -0.06965839 0.12822378 -0.40953028 0.5027565
-0.6085391 0.7890374 0.54164016 -0.84328294 -0.24888432 0.039292023 0.08523574 0.1976309
0.3205717 0.04001949 -0.48792875 0.38919353 -0.9592489 -0.5978308 -0.25333163 -0.48711336
-0.34983337 -0.8196217 -0.21271515 0.20388605 -0.656013 -0.080238804 0.6293955 -0.10364592
0.0036644829 -0.13529181 0.11635254 0.47810212 0.8095067 0.56844175 0.75779235 -0.108155556
-0.8983215 -0.47580874 0.53349656 -0.020157086 -0.49704635 -0.76631176 -0.93585205 -0.8440082
-0.20283675 0.42812762 0.45682454 -0.9644319 0.5395342 -0.78250945 -0.21141028 -0.40547264
-0.19261527 -0.1963427 -0.89734995 -0.8634379 -0.1638503 -0.041778304 -0.44619668 0.3861883
-0.9000584 -0.06748724 0.77304626 -0.40966478 0.7996943 0.36926505 -0.90246093 0.5624139
-0.14733355 -0.4304118 0.6113321 -0.8080952 0.058416504 -0.2093687 0.591986 0.19079483
0.39260724 0.23255444 -0.24213427 -0.2301542 -0.8240814 0.438374 0.6745589 0.5910636
-0.7053783 0.04459989 -0.7049341 -0.5504842 -0.5827055 0.28548935 -0.5959132 -0.061594605
00000000: 0f28 babc 5e09 dd3e 16b3 52bf 8066 3cbf
00000010: f432 c5be f38d 423e 404f a2bc 1069 223f
00000020: 3d3e cdbd 8b17 6a3e acbb 9abe 7048 49be
00000030: b891 74bf 528b 29bf e80e d3be 3efb 5f3c
00000040: 8f34 be3e c796 093f 8c8d 2dbf fcf4 debe
00000050: 23af a03e 7ef6 213f df5f 53be 95b4 233f
00000060: 400d 25be 7201 823d ae9f 503f ce7b 6dbf
00000070: 6629 21bf e09e 81be dc93 c7be 8c73 2e3f
00000080: 1aef 25bf 1f3a edbe 1ada 32bf 76c2 6fbf
00000090: 0470 15bf 1cd2 403f 4eb5 c23e 4dea c13e
000000a0: 339a c33c 44b3 02bf 8433 1b3e 9e06 6fbf
000000b0: 1afa 38bf c6f9 03bf 5e45 fb3e 6400 0a3f
000000c0: c811 e3be 20cb 13bd b71f 223f 0340 593f
000000d0: f214 913e 3406 1c3e 0f16 1a3f c0bb 16bf
000000e0: 9861 3c3e 6c7a 46bf 186e 31bf d23e 04bf
000000f0: 1f5b ce3e 3144 9f3e 6aa4 17bf 9b5c 5e3e
00000100: a061 e33e 203f 01be 4064 1c3d 9953 353e
00000110: 0374 f33e 60f4 463f 9647 45bf eca1 bbbe
00000120: aeab d13e 7b13 313f f0b6 453f fa2f 503f
00000130: f08f 023e f89c 5ebf a212 ae3d ac27 20bf
00000140: 8c94 6ebf 1f9b 4b3f edb0 2e3f fe5d 7fbf
00000150: 7cea 1a3e 958f 3fbe b882 28be 1c5f eabe
00000160: b2ce b13e 34a1 17bf 31d1 aa3e c472 cc3e
00000170: cca9 143f 6bf1 a63e 4a5f 7dbf 0011 26bf
00000180: f84e d63e 549a 533e 96b3 47bf e868 13bf
00000190: f996 543f 5121 0c3f b03e dfbe d4dc 80be
000001a0: 78dd 73bf 803e 93bc 78c8 40bf a277 45bf
000001b0: 0fa9 8ebd 184d 033e f4ad d1be a6b4 003f
000001c0: 38c9 1bbf 5bfe 493f eea8 0a3f 64e1 57bf
000001d0: 88db 7ebe acf0 203d 1390 ae3d c15f 4a3e
000001e0: f921 a43e 7aeb 233d ccd1 f9be 6044 c73e
000001f0: 5691 75bf 700b 19bf afb4 81be ec66 f9be
00000200: 5c1d b3be bad2 51bf 00d2 59be 81c7 503e
00000210: 78f0 27bf 3e54 a4bd 1020 213f 5044 d4bd
00000220: d227 703b f089 0abe 3e4a ee3d cdc9 f43e
00000230: d53b 4f3f 6685 113f aefe 413f a980 ddbd
00000240: 66f8 65bf 349d f3be 3b93 083f 7920 a5bc
00000250: dc7c febe 022d 44bf 0094 6fbf ec10 58bf
00000260: 70b4 4fbe 8b33 db3e e8e4 e93e 02e5 76bf
00000270: ea1e 0a3f 8a52 48bf f07b 58be 1c9a cfbe
00000280: f03c 45be 100e 49be bab8 65bf 440a 5dbf
00000290: 5fc8 27be ba1f 2bbd e473 e4be 79ba c53e
000002a0: 3a6a 66bf c036 8abd 5ce6 453f 95bf d1be
000002b0: c4b8 4c3f 4f10 bd3e ae07 67bf 5bfa 0f3f
000002c0: 9bde 16be ef5e dcbe 4380 1c3f 54df 4ebf
000002d0: 2546 6f3d c064 56be 658c 173f b85f 433e
000002e0: d103 c93e c022 6e3e 0cf2 77be 8bad 6bbe
000002f0: 00f7 52bf 8f72 e03e e4af 2c3f f24f 173f
00000300: ac93 34bf 60ae 363d 9076 34bf 88ec 0cbf
00000310: 302c 15bf a92b 923e c48d 18bf a04a 7cbd

embedding.bias f4 [200]
0.035575956 0.59781975 -0.75592005 -0.68651223 -0.58066154 0.6679544 -0.359465 0.779213
0.35771266 0.11404703 -0.007444024 -0.19768155 0.12546635 -0.22834468 -0.007026434 0.12051939
-0.78921956 -0.54875314 0.80749273 -0.8115467 -0.0887357 0.90843457 0.3609599 -0.012308474
-0.86660993 0.47816062 -0.744058 -0.28386426 -0.33551633 -0.14808738 0.010938287 0.75423545
0.12483883 0.8938364 0.61171246 -0.63221395 0.4485041 -0.7466751 -0.45060122 0.25445318
0.32079512 0.75174665 -0.32881373 0.0016008615 0.51482356 -0.96709216 0.6684159 -0.8411923
0.013782501 -0.17001677 -0.5316106 0.0747823 0.783891 -0.2876426 -0.61454743 -0.36983883
-0.99159384 0.45139396 -0.4802637 -0.6673403 -0.5911566 0.53939915 0.5295737 0.73535395
0.32332143 -0.3339597 -0.27944815 0.2700413 0.76601887 0.20720467 -0.47314537 -0.4700774
-0.9378687 0.16213393 -0.60339534 -0.9141345 0.84758276 -0.6494112 -0.11803987 0.28649354
0.031858325 -0.70454293 -0.836125 0.7970824 0.14997606 0.8221395 -0.3352406 0.29455543
-0.24261229 -0.044471145 -0.6231429 0.29713875 0.26265404 -0.033808466 -0.22490215 -0.6164298
0.6585972 -0.7452402 0.40966547 -0.33625352 -0.52549857 0.13713439 -0.519457 0.23040485
0.19638085 -0.74248946 0.16649854 0.4259292 0.38975078 -0.13485253 -0.8197876 -0.1881815
0.34730768 -0.40435702 0.32425594 0.6659626 -0.5221516 0.005557084 0.39248586 0.06485519
0.057493113 0.11469569 -0.7861477 0.048691723 0.69246984 0.89760745 0.58571464 0.13400304
0.4670142 -0.48647964 -0.8286884 -0.8617112 0.9945839 0.6241234 -0.7235857 0.39059117
0.7430895 0.98216814 0.8434226 0.71159303 -0.28769484 -0.38057202 0.74523646 0.54640806
-0.601779 0.8975097 0.42647824 0.5378851 -0.62677634 0.2868998 -0.35056245 0.7813566
-0.17994058 0.34312433 0.14043798 0.4254682 -0.37151286 0.48757136 -0.69847095 0.225855
-0.6765919 -0.9865376 -0.80305576 0.7894701 0.5389003 0.91274107 0.80607164 -0.8886997
-0.6824311 -0.16158259 -0.685427 0.6930429 -0.790162 -0.48446456 -0.9660914 -0.59354824
0.81175727 0.8286381 0.63848156 0.7721273 0.8644756 -0.25606298 0.39020976 0.8521816
0.29328686 0.95254326 0.5173191 0.61293876 -0.34999216 0.43773925 0.07325372 -0.27284107
-0.56370986 -0.5611166 -0.7694808 0.67133033 0.7109312 -0.13521737 -0.578686 0.75482535
00000000: 18b8 113d b70a 193f fa83 41bf 44bf 2fbf
00000010: 3ca6 14bf 0fff 2a3f cc0b b8be 817a 473f
00000020: 1d26 b73e 7d91 e93d 00ed f3bb 086d 4abe
00000030: 407a 003e 30d3 69be 003e e6bb dfd2 f63d
00000040: 4b0a 4abf 167b 0cbf d8b7 4e3f 86c1 4fbf
00000050: 10bb b5bd 2b8f 683f bccf b83e 7ba9 49bc
00000060: 26da 5dbf 78d1 f43e 967a 3ebf a856 91be
00000070: ccc8 abbe 38a4 17be 8036 333c 9315 413f
00000080: 80ab ff3d 76d2 643f 3099 1c3f c6d8 21bf
00000090: 54a2 e53e 1926 3fbf 34b5 e6be b047 823e
000000a0: 423f a43e 7872 403f 465a a8be 00d4 d13a
000000b0: 7acb 033f 5a93 77bf 4e1d 2b3f 6158 57bf
000000c0: 00d0 613c e018 2ebe a217 08bf 7627 993d
000000d0: 15ad 483f e445 93be fb52 1dbf 845b bdbe
000000e0: 18d9 7dbf 1c1d e73e 20e5 f5be d0d6 2abf
000000f0: 0a56 17bf 1016 0a3f 2492 073f 2840 3c3f
00000100: 638a a53e c4fc aabe d413 8fbe da42 8a3e
00000110: d019 443f 762d 543e 1c40 f2be fcad f0be
00000120: 2a18 70bf 7006 263e 1e78 1abf b804 6abf
00000130: 2ffb 583f d03f 26bf e3be f1bd 48af 923e
00000140: e07d 023d ed5c 34bf 4a0c 56bf 980d 4c3f
00000150: 5393 193e bc77 523f a8a4 abbe f8cf 963e
00000160: 5b6f 78be 6027 36bd 4b86 1fbf 9222 983e
00000170: 977a 863e bf7a 0abd c04c 66be 58ce 1dbf
00000180: d399 283f 10c8 3ebf acbf d13e 6c29 acbe
00000190: 1387 06bf f56c 0c3e 22fb 04bf 40ef 6b3e
000001a0: 1018 493e ca13 3ebf 987e 2a3e 6413 da3e
000001b0: 6a8d c73e c816 0abe 9add 51bf a7b2 40be
000001c0: 50d2 b13e e207 cfbe e004 a63e 867c 2a3f
000001d0: baab 05bf 3318 b63b e8f3 c83e ccd2 843d
000001e0: e67d 6b3d 93e5 ea3d fa40 49bf f970 473d
000001f0: b445 313f 9ac9 653f 65f1 153f 1838 093e
00000200: 7c1c ef3e dc13 f9be ec24 54bf 1b99 5cbf
00000210: 0d9d 7e3f 8dc6 1f3f ea3c 39bf 91fb c73e
00000220: 1d3b 3e3f 5f6f 7b3f 8bea 573f f62a 363f
00000230: bd4c 93be 56da c2be d1c7 3e3f 66e1 0b3f
00000240: 300e 1abf 32c3 653f 5b5b da3e d7b2 093f
00000250: 6a74 20bf 88e4 923e ec7c b3be fc06 483f
00000260: 5842 38be fead af3e f9ce 0f3e f8d6 d93e
00000270: ef36 bebe f4a2 f93e fece 32bf 8846 673e
00000280: 2035 2dbf ba8d 7cbf 1095 4dbf b61a 4a3f
00000290: 5ff5 093f 66a9 693f b65a 4e3f d381 63bf
000002a0: ceb3 2ebf e875 25be 2578 2fbf 426b 313f
000002b0: 0f48 4abf bd0b f8be c451 77bf c7f2 17bf
000002c0: 53cf 4f3f a021 543f 8773 233f 22aa 453f
000002d0: 464e 5d3f b01a 83be 93c9 c73e 9328 5a3f
000002e0: b229 963e e0d9 733f 066f 043f 8ee9 1c3f
000002f0: 2c32 b3be 5c1f e03e 0c06 963d d3b1 8bbe
00000300: 4a4f 10bf 56a5 0fbf b2fc 44bf 4edc 2b3f
00000310: 96ff 353f 6c76 0abe c424 14bf 3c3c 413f

output.weight f4 [5, 200]
0.044136643 0.095877565 -0.03338501 0.064986505 0.02891647 -0.01747528 0.067675985 0.015834043
-0.038435668 0.08048434 -0.040177032 -0.011081375 0.060040526 0.0029217005 -0.05000788 -0.03697972
0.012499876 0.06022962 0.006767057 0.06539533 -0.04374105 -0.060578793 0.0026184737 0.025470603
0.035075344 -0.07306422 0.08828061 -0.052548252 -0.030171227 0.02547659 -0.05021379 -0.067784615
0.060017683 -0.005673486 -0.0471278 -0.025334574 0.015440673 -0.005008832 0.028145272 0.04375332
-0.070537806 -0.06899679 -0.0077900738 0.04754819 -0.066926174 0.05877381 -0.0231459 0.05194458
0.0032246113 -0.063761175 0.11656544 0.112744205 0.023195947 0.040502287 -0.056055076 0.059013985
0.0035904783 0.033532172 -0.056697883 -0.020338267 -0.042439934 -0.078267306 0.0152544975 -0.094201386
0.0025223312 0.037957974 0.009850651 -0.037098836 0.035871454 0.028212955 0.03103903 0.06974877
0.05503962 0.03888262 0.08927625 0.016025519 -0.039735135 0.032994166 -0.031886257 0.034018606
-0.049916945 -0.10013604 -0.024105376 0.03689971 -0.009183537 0.07667612 0.043760873 0.03912723
0.048725184 -0.021862186 -0.014863692 -0.025134102 0.0049456465 -0.055272494 0.05934591 -0.007688381
0.035756458 -0.037132747 0.062566064 0.064666845 -0.049994204 -0.017712804 0.03543731 0.041854955
0.059858657 -0.038109545 0.02232872 0.028937161 -0.024660615 0.028966106 -0.02034441 0.0018450919
-0.019619007 -0.1345351 0.08794088 0.025080629 -0.034547232 0.0075757853 0.02115188 0.012905666
-0.013384903 0.0038325817 0.024784066 0.0006220067 -0.041579917 -0.035802078 0.05495769 -0.019027121
-0.0001930669 -0.03425901 0.07058977 0.06527135 -0.05376089 -0.04815173 -0.042151865 -0.009770649
-0.081109166 -0.037180614 -0.032236923 -0.09612094 -0.027887383 0.042616174 -0.04282646 -0.040595554
0.009714618 0.052053437 0.07494248 0.03467571 -0.026075818 0.069388844 -0.067087695 -0.06778759
0.06967724 0.0537271 0.0845191 -0.006102763 -0.03166133 -0.015793074 0.04493244 0.0033797547
-0.06884495 -0.04174477 -0.024105292 0.035582773 -0.04803238 0.051596258 -0.019392418 0.0017946732
0.055405922 0.03553973 0.0062887697 0.03843959 -0.09196754 -0.00036021922 -0.0052610934 -0.010751617
-0.04322041 -0.07555375 0.03246032 0.06883482 0.014460078 -0.058550112 0.1243757 0.03927321
0.0603051 -0.009355427 0.011153467 -0.0011866803 0.05623754 0.07462679 -0.10975966 -0.051316924
-0.06389581 0.06602182 0.031258024 0.030823305 -0.061180368 0.023744663 0.06698728 -0.0080188885
-0.05919823 0.021839784 -0.04863225 0.06696058 -0.030382965 -0.054577574 0.03704624 -0.02466248
-0.025308555 4.942775e-06 -0.0067966804 -0.055082098 0.05894924 -0.031192016 0.025082134 0.052636117
0.035285614 -0.039320048 0.060164683 0.009505369 0.017452227 -0.031243833 0.015621859 -0.041341785
-0.020130735 -0.047890514 -0.03611436 -0.011677578 -0.06445455 -0.0044451132 0.04440722 0.05078124
0.022359028 0.005599205 0.026362263 -0.017228797 -0.028128725 -0.08527027 -0.049670953 -0.000119974386
-0.042186983 0.010180808 0.0074798325 0.005006589 -0.045845255 0.06762264 0.0102838 0.009812466
-0.05625093 -0.017009348 0.011255809 0.036505975 0.051307738 -0.052852385 -0.057989616 -0.0318848
00000000: a0c8 343d 755b c43d b8be 08bd a517 853d
00000010: 3ce2 ec3c 5228 8fbc b599 8a3d 65b6 813c
00000020: b86e 1dbd f9d4 a43d ac90 24bd a88e 35bc
00000030: 0eed 753d 007a 3f3b 10d5 4cbd 0c78 17bd
00000040: 48cc 4c3c 56b3 763d 30be dd3b fded 853d
00000050: d129 33bd 7821 78bd b39a 2b3b baa7 d03c
00000060: 2aab 0f3d b2a2 95bd 77cc b43d d63c 57bd
00000070: a629 f7bc 48b4 d03c faac 4dbd a9d2 8abd
00000080: 1ad5 753d a6e8 b9bb 1409 41bd 748a cfbc
00000090: e0fa 7c3c 2121 a4bb ea90 e63c ae36 333d
000000a0: 2076 90bd 304e 8dbd e043 ffbb e4c1 423d
000000b0: 9710 89bd cebc 703d 789c bdbc d7c3 543d
000000c0: 0054 533b 3895 82bd ddb9 ee3d 6fe6 e63d
000000d0: 6d05 be3c bae5 253d 029a 65bd a6b8 713d
000000e0: 3b4e 6b3b 0859 093d 0a3c 68bd 709c a6bc
000000f0: 7fd5 2dbd 9c4a a0bd 00ee 793c a8ec c0bd
00000100: b24d 253b d279 1b3d a064 213c f3f4 17bd
00000110: f2ed 123d db1e e73c 9045 fe3c 71d8 8e3d
00000120: 3971 613d 6243 1f3d 77d6 b63d f347 833c
00000130: 4fc1 22bd e424 073d 2a9b 02bd 1857 0b3d
00000140: b675 4cbd 2014 cdbd a378 c5bc 2624 173d
00000150: 8c76 16bc 5f08 9d3d 9a3e 333d e043 203d
00000160: 0f94 473d 5418 b3bc d886 73bc 08e6 cdbc
00000170: 170f a23b 6965 62bd b214 733d d0ee fbbb
00000180: 5d75 123d 8218 18bd a322 803d 0d70 843d
00000190: b9c6 4cbd 711a 91bc b626 113d 1a70 2b3d
000001a0: 5a2e 753d c118 1cbd b8ea b63c a00d ed3c
000001b0: 0f05 cabc 544a ed3c 52a9 a6bc 03d7 f13a
000001c0: 0ab8 a0bc 92c3 09be 591a b43d e475 cd3c
000001d0: 6681 0dbd 4b3e f83b b546 ad3c 4972 533c
000001e0: 5a4c 5bbc 0d2c 7b3b f407 cb3c 2a0e 233a
000001f0: b44f 2abd 33a5 12bd 511b 613d c4de 9bbc
00000200: 0072 4ab9 2d53 0cbd 5f91 903d fcac 853d
00000210: 6134 5cbd c03a 45bd 6fa7 2cbd 1215 20bc
00000220: 901c a6bd b34a 18bd dd0a 04bd 0edb c4bd
00000230: 1574 e4bc 4c8e 2e3d cc6a 2fbd 8647 26bd
00000240: 102a 1f3c fc35 553d 717b 993d 1e08 0e3d
00000250: f49c d5bc bd1b 8e3d 4665 89bd 38d4 8abd
00000260: f1b2 8e3d f310 5c3d 5a18 ad3d b0f9 c7bb
00000270: 50af 01bd 7a60 81bc 140b 383d e07e 5d3b
00000280: 95fe 8cbd 90fc 2abd 7678 c5bc 3ebf 113d
00000290: 9abd 44bd 9956 533d d9dc 9ebc 3d3b eb3a
000002a0: 52f1 623d 1c92 113d 0612 ce3b d572 1d3d
000002b0: 7a59 bcbd cedb bcb9 4065 acbb 8d27 30bc
000002c0: e207 31bd edbb 9abd 1df5 043d 45f9 8c3d
000002d0: f7e9 6c3c 3ed2 6fbd b0b8 fe3d f2dc 203d
000002e0: 7b02 773d 8147 19bc 08bd 363c 628a 9bba
000002f0: 5659 663d eed5 983d acc9 e0bd b231 52bd
00000300: cedb 82bd 7336 873d 6a08 003d 2881 fc3c
00000310: 4498 7abd 2b84 c23c a130 893d a861 03bc
00000320: d879 72bd 59e9 b23c 9c32 47bd a122 893d
00000330: b2e5 f8bc bc8c 5fbd ccbd 173d f808 cabc
00000340: e353 cfbc 1dda a536 b0b6 debb c49d 61bd
00000350: c274 713d 6686 ffbc 0c79 cd3c f898 573d
00000360: a687 103d 0f0e 21bd 3e6f 763d 68bc 1b3c
00000370: f9f7 8e3c 11f3 ffbc d3f2 7f3c 0156 29bd
00000380: 36e9 a4bc d828 44bd a7ec 13bd 5053 3fbc
00000390: bf00 84bd 50a8 91bb 58e4 353d fdff 4f3d
000003a0: 482a b73c 8979 b73b acf5 d73c 6823 8dbc
000003b0: 366e e6bc 2ea2 aebd c573 4bbd c29a fbb8
000003c0: 42cc 2cbd 67cd 263c 6219 f53b 500e a43b
000003d0: 3cc8 3bbd bd7d 8a3d 627d 283c 77c4 203c
000003e0: 6067 66bd 3057 8bbc 496a 383c 4a87 153d
000003f0: 1028 523d be7b 58bd 8586 6dbd a399 02bd

output.bias f4 [5]
-0.007922587 -0.031347185 -0.06662638 0.03848849 0.0044887983
00000000: bdcd 01bc e865 00bd 6973 88bd 1ba6 1d3d
00000010: c516 933b

momentum_buffer f4 [200, 1]
0.00041530543 -0.0036922786 0.0 0.0 0.0 0.0048906906 0.0 0.011450927
-0.00037443856 0.010743773 0.0 0.0 0.0 0.0 0.0 -0.005164154
-0.0044683567 0.018974261 0.0 0.0 0.00054572267 0.005170199 -0.0006633726 0.016056312
0.0 -0.008605917 0.021572258 0.0 0.0 0.0 0.0 -0.004176668
0.0 -0.00031171108 0.0 0.0 0.0 0.0061186776 0.0040003136 0.010195894
-0.002988673 -9.263992e-05 0.0008580388 0.0 0.0 0.0 0.008415467 0.0030712283
0.0 0.0 -0.015575791 0.0065766694 0.00372764 0.014991332 0.010234713 0.0
-0.00013359569 0.0 0.0 0.0 -0.0023223986 0.003692926 0.0 -0.008893987
0.0035649047 0.0 0.0 -0.0022450918 0.0075510135 0.00023701182 0.0 0.0
0.0021836443 0.012743725 0.02434469 0.0021850523 -0.0035770887 0.0 -0.0072530154 0.0
0.0 -0.004930572 0.009720451 0.0 0.00041062158 -0.0017298496 0.0 0.0
-0.0018089553 0.0 -0.0011836339 0.01325411 -0.00080317084 -0.002263383 0.0 0.0
-0.0019570894 0.0014564387 0.0 0.0 0.010890997 0.0065483255 0.0 0.0
0.0 0.0 0.0 0.0 0.0010757233 0.0021867256 0.0 0.0027882783
0.0 -0.008894234 0.0038445732 0.0 0.0 -0.0014125175 -0.0045851427 -0.005164246
0.004107868 0.00063485 0.0 -0.0024244955 0.0 0.00055825996 -0.0036465316 0.0
0.0 0.0 0.0 0.0051980764 0.00070114556 0.005434514 -0.0037916887 -0.004007734
0.0056006853 -0.0024548515 0.00018427579 0.006729358 0.012138137 -0.00592684 0.0064861677 -0.0018971562
0.0 -0.004598137 0.011467361 0.0034660408 0.0 0.0 0.0 0.0
0.0 0.0016060031 0.02562467 0.0 0.004897666 0.0 0.0 0.0
0.0 0.0 0.0 0.0 -0.0010085605 0.0026576621 0.0007118299 -0.0037022892
0.0 0.0 -0.0075288354 0.00071880844 -0.0065981965 -0.007512332 0.0 -0.00015408604
0.0065203332 0.002596201 0.010839105 0.0 -0.005564182 0.0 0.013046562 0.0123135485
0.006183315 0.0059123617 0.00030351116 0.009134526 0.0 0.007056454 0.006951983 -0.0039155707
0.0 0.0 0.0 0.0 0.0 0.00032113885 0.0 0.00215351
00000000: 5abd d939 28fa 71bb 0000 0000 0000 0000
00000010: 0000 0000 1642 a03b 0000 0000 ab9c 3b3c
00000020: 4b50 c4b9 a606 303c 0000 0000 0000 0000
00000030: 0000 0000 0000 0000 0000 0000 1038 a9bb
00000040: 4b6b 92bb e96f 9b3c 0000 0000 0000 0000
00000050: d40e 0f3a c66a a93b 2ee6 2dba 8788 833c
00000060: 0000 0000 d5ff 0cbc 4eb8 b03c 0000 0000
00000070: 0000 0000 0000 0000 0000 0000 6edc 88bb
00000080: 0000 0000 276d a3b9 0000 0000 0000 0000
00000090: 0000 0000 307f c83b 1015 833b ae0c 273c
000000a0: 9ddd 43bb ae47 c2b8 02ee 603a 0000 0000
000000b0: 0000 0000 0000 0000 07e1 093c a946 493b
000000c0: 0000 0000 0000 0000 9a31 7fbc 1a81 d73b
000000d0: 6c4b 743b 349e 753c 7faf 273c 0000 0000
000000e0: d215 0cb9 0000 0000 0000 0000 0000 0000
000000f0: 6233 18bb 0405 723b 0000 0000 16b8 11bc
00000100: 2da1 693b 0000 0000 0000 0000 6422 13bb
00000110: 7e6e f73b 6086 7839 0000 0000 0000 0000
00000120: 791b 0f3b 0fcb 503c 846e c73c 1833 0f3b
00000130: 976d 6abb 0000 0000 b4aa edbb 0000 0000
00000140: 0000 0000 a390 a1bb 8742 1f3c 0000 0000
00000150: b248 d739 1fbc e2ba 0000 0000 0000 0000
00000160: 781a edba 0000 0000 2a24 9bba c427 593c
00000170: e28b 52ba 4455 14bb 0000 0000 0000 0000
00000180: 8342 00bb f9e5 be3a 0000 0000 0000 0000
00000190: 2770 323c 5693 d63b 0000 0000 0000 0000
000001a0: 0000 0000 0000 0000 0000 0000 0000 0000
000001b0: 49ff 8c3a 2b4f 0f3b 0000 0000 8cbb 363b
000001c0: 0000 0000 1fb9 11bc 3cf5 7b3b 0000 0000
000001d0: 0000 0000 3924 b9ba f73e 96bb d638 a9bb
000001e0: 4b9b 863b 106c 263a 0000 0000 49e4 1ebb
000001f0: 0000 0000 3158 123a a6fa 6ebb 0000 0000
00000200: 0000 0000 0000 0000 0000 0000 a054 aa3b
00000210: 15cd 373a 0214 b23b fb7d 78bb 4f53 83bb
00000220: f485 b73b 93e1 20bb 283a 4139 f281 dc3b
00000230: 09df 463c f035 c2bb eb89 d43b 00aa f8ba
00000240: 0000 0000 f8ab 96bb 99e1 3b3c 8426 633b
00000250: 0000 0000 0000 0000 0000 0000 0000 0000
00000260: 0000 0000 8680 d23a d4ea d13c 0000 0000
00000270: 9a7c a03b 0000 0000 0000 0000 0000 0000
00000280: 0000 0000 0000 0000 0000 0000 0000 0000
00000290: ad31 84ba 2c2c 2e3b 199a 3a3a 1ba2 72bb
000002a0: 0000 0000 0000 0000 73b4 f6bb 6b6e 3c3a
000002b0: af35 d8bb 022a f6bb 0000 0000 2892 21b9
000002c0: 85a8 d53b 0625 2a3b 8096 313c 0000 0000
000002d0: be53 b6bb 0000 0000 3fc1 553c c4be 493c
000002e0: 689d ca3b 7cbc c13b 9420 9f39 fba8 153c
000002f0: 0000 0000 d439 e73b 76cd e33b 304e 80bb
00000300: 0000 0000 0000 0000 0000 0000 0000 0000
00000310: 0000 0000 875e a839 0000 0000 e721 0d3b

momentum_buffer f4 [200]
0.0002917897 -0.0017234125 0.0 0.0 0.0 0.0017748979 0.0 0.004373093
-9.10948e-05 0.0026548167 0.0 0.0 0.0 0.0 0.0 -0.0019422255
-0.0015807988 0.006631136 0.0 0.0 0.0010149435 0.0018073805 -0.0004285534 0.0047640516
0.0 -0.0028255528 0.0048605883 0.0 0.0 0.0 0.0 0.00068783504
0.0 -0.00019551742 0.0 0.0 0.0 0.0026165068 0.0013076316 0.002776155
-0.0009258335 -6.587727e-05 0.00026731813 0.0 0.0 0.0 0.0034016487 0.00074107666
0.0 0.0 -0.0051563475 0.0025270083 0.0012148183 0.0046567624 0.0044624545 0.0
-2.4501383e-05 0.0 0.0 0.0 -0.0009366927 0.0021000206 0.0 -0.0028707688
0.001464522 0.0 0.0 -0.00063159503 0.002657575 0.00011585897 0.0 0.0
0.0005796858 0.0053510284 0.009082942 0.0019714995 -0.0013021147 0.0 -0.001515994 0.0
0.0 -0.0018420902 0.0033943176 0.0 0.00033697695 -0.0017615227 0.0 0.0
-0.0007723744 0.0 -0.00020295507 0.0045723342 5.0757662e-06 0.00018318588 0.0 0.0
-0.0005250231 0.00037265843 0.0 0.0 0.004648617 0.0022533564 0.0 0.0
0.0 0.0 0.0 0.0 0.00013065297 0.0006406802 0.0 0.00079548045
0.0 -0.003650385 0.0008389941 0.0 0.0 -0.0007542084 -0.0019586824 -0.0018880831
0.0013583775 0.0002165713 0.0 -0.0015099719 0.0 0.00037008442 -0.002019587 0.0
0.0 0.0 0.0 0.0011425135 0.00046754186 0.002358253 -0.0014062908 -0.0022631949
0.0022940706 -0.0003701612 0.0004658559 0.0036631292 0.003999811 -0.0035504445 0.0042273137 -0.00033509237
0.0 -0.0026014447 0.003684014 -1.1002296e-05 0.0 0.0 0.0 0.0
0.0 0.00058856554 0.007973714 0.0 0.0016481772 0.0 0.0 0.0
0.0 0.0 0.0 0.0 0.00019620603 0.0008543975 0.00048073247 -0.0010726035
0.0 0.0 -0.0028094691 0.00052540447 -0.00250685 -0.0029114243 0.0 -9.047537e-05
0.0036740317 0.0013852858 0.003915215 0.0 -0.0021316358 0.0 0.00364804 0.0041495045
0.0021131807 0.0017491772 0.00013945202 0.0046583386 0.0 0.0022244975 0.004172304 -0.000833717
0.0 0.0 0.0 0.0 0.0 -9.202111e-05 0.0 0.00086561934
00000000: 5afb 9839 21e4 e1ba 0000 0000 0000 0000
00000010: 0000 0000 b1a3 e83a 0000 0000 2a4c 8f3b
00000020: 260a bfb8 6ffc 2d3b 0000 0000 0000 0000
00000030: 0000 0000 0000 0000 0000 0000 4692 feba
00000040: ce32 cfba 004a d93b 0000 0000 0000 0000
00000050: da07 853a a0e5 ec3a 77af e0b9 c31b 9c3b
00000060: 0000 0000 e92c 39bb 9245 9f3b 0000 0000
00000070: 0000 0000 0000 0000 0000 0000 d44f 343a
00000080: 0000 0000 cf03 4db9 0000 0000 0000 0000
00000090: 0000 0000 b379 2b3b d664 ab3a 27f0 353b
000000a0: a2b3 72ba 9727 8ab8 d526 8c39 0000 0000
000000b0: 0000 0000 0000 0000 32ee 5e3b d044 423a
000000c0: 0000 0000 0000 0000 94f6 a8bb 2a9c 253b
000000d0: 8a3a 9f3a c197 983b c839 923b 0000 0000
000000e0: 5288 cdb7 0000 0000 0000 0000 0000 0000
000000f0: 628c 75ba 80a0 093b 0000 0000 8223 3cbb
00000100: 34f5 bf3a 0000 0000 0000 0000 a091 25ba
00000110: b62a 2e3b 50f9 f238 0000 0000 0000 0000
00000120: 0ef6 173a ae57 af3b 9fd0 143c 4634 013b
00000130: b8ab aaba 0000 0000 51b4 c6ba 0000 0000
00000140: 0000 0000 4a72 f1ba 3373 5e3b 0000 0000
00000150: 48ac b039 e5e2 e6ba 0000 0000 0000 0000
00000160: 2b79 4aba 0000 0000 56d0 54b9 85d3 953b
00000170: 8050 aa36 9615 4039 0000 0000 0000 0000
00000180: b4a1 09ba 5e61 c339 0000 0000 0000 0000
00000190: 6d53 983b 0cad 133b 0000 0000 0000 0000
000001a0: 0000 0000 0000 0000 0000 0000 0000 0000
000001b0: e4ff 0839 52f3 273a 0000 0000 ca87 503a
000001c0: 0000 0000 4c3b 6fbb f1ef 5b3a 0000 0000
000001d0: 0000 0000 12b6 45ba 3d5d 00bb 8e79 f7ba
000001e0: 960b b23a 6a17 6339 0000 0000 40ea c5ba
000001f0: 0000 0000 e407 c239 0c5b 04bb 0000 0000
00000200: 0000 0000 0000 0000 0000 0000 64c0 953a
00000210: 6820 f539 ec8c 1a3b 4a53 b8ba 1c52 14bb
00000220: 1e58 163b 3212 c2b9 1f3e f439 1c11 703b
00000230: d910 833b 93ae 68bb 4785 8a3b 56af afb9
00000240: 0000 0000 007d 2abb 806f 713b 8096 38b7
00000250: 0000 0000 0000 0000 0000 0000 0000 0000
00000260: 0000 0000 f749 1a3a 2ea4 023c 0000 0000
00000270: a607 d83a 0000 0000 0000 0000 0000 0000
00000280: 0000 0000 0000 0000 0000 0000 0000 0000
00000290: a8bc 4d39 a5f9 5f3a d20a fc39 9a96 8cba
000002a0: 0000 0000 0000 0000 121f 38bb 4cbb 093a
000002b0: f749 24bb 98cd 3ebb 0000 0000 98bd bdb8
000002c0: 06c8 703b 7a92 b53a 344b 803b 0000 0000
000002d0: eab2 0bbb 0000 0000 f413 6f3b 91f8 873b
000002e0: 4a7d 0a3b a644 e53a de39 1239 faa4 983b
000002f0: 0000 0000 e0c8 113b d3b7 883b cd8d 5aba
00000300: 0000 0000 0000 0000 0000 0000 0000 0000
00000310: 0000 0000 75fb c0b8 0000 0000 bbea 623a

momentum_buffer f4 [5, 200]
9.770185e-06 -0.011496834 0.0 0.0 0.0 -0.0069393553 0.0 0.0808125
0.0026141654 0.021677408 0.0 0.0 0.0 0.0 0.0 -0.0023798523
0.0070989425 0.009690074 0.0 0.0 0.0057710577 0.01619233 -5.18371e-05 0.042488135
0.0 0.033930317 0.023087796 0.0 0.0 0.0 0.0 0.09747583
0.0 -0.0004942728 0.0 0.0 0.0 0.018038778 0.022637974 0.037664678
0.005570056 4.4203534e-05 -0.00024028507 0.0 0.0 0.0 0.015389989 0.014889686
0.0 0.0 0.018621132 -0.00043886527 0.027060643 0.0054649673 -0.000641061 0.0
-5.4818056e-06 0.0 0.0 0.0 0.0036293808 -0.0075235656 0.0 0.034924965
-0.0011448597 0.0 0.0 0.0024000616 0.027468517 0.09757834 0.0 0.0
0.0023442341 0.03868022 0.032833837 0.03396009 0.011780758 0.0 0.005179823 0.0
0.0 0.04697041 0.0031638443 0.0 0.0059884386 -0.006353856 0.0 0.0
0.008748513 0.0 0.010458136 0.026643198 0.031468756 -0.0076673143 0.0 0.0
0.024363147 -0.0001518346 0.0 0.0 0.019375384 0.054744206 0.0 0.0
0.0 0.0 0.0 0.0 0.0012091856 0.0093971025 0.0 0.032522857
0.0 0.033627804 0.0435927 0.0 0.0 0.0023658369 0.008380539 0.0043196133
-0.007089895 0.0049737217 0.0 0.011048755 0.0 0.00011895591 -2.5745438e-05 0.0
0.0 0.0 0.0 -0.0005710933 0.00019045876 -0.0034651847 0.046159387 -0.003642742
0.00064312597 0.012861121 0.022871055 0.010972748 -0.0053836014 0.025935486 0.0020384844 -0.0016636471
0.0 5.445444e-05 0.008919516 -0.0014266372 0.0 0.0 0.0 0.0
0.0 0.008107375 0.054434936 0.0 0.01213765 0.0 0.0 0.0
0.0 0.0 0.0 0.0 -0.0016850135 0.007957567 -0.00016739193 0.007028209
0.0 0.0 0.05964635 0.00011358282 0.05800881 0.021340387 0.0 0.02775753
-0.017956968 -0.00025051532 0.057846397 0.0 0.017719153 0.0 0.009930695 0.031106472
0.029077955 0.04792092 -0.001738822 -0.002902994 0.0 0.034351327 0.047159232 0.045867424
0.0 0.0 0.0 0.0 0.0 0.014244134 0.0 0.0026663286
-1.228147e-05 -0.06557785 0.0 0.0 0.0 -0.037809283 0.0 -0.07615881
-0.005337082 -0.017568273 0.0 0.0 0.0 0.0 0.0 -0.0042201797
-0.007678522 -0.049962506 0.0 0.0 -0.019184612 -0.04147353 -0.0002556814 -0.07731279
0.0 -0.03022116 -0.02936256 0.0 0.0 0.0 0.0 -0.09035444
0.0 -0.0011458807 0.0 0.0 0.0 -0.015551957 -0.020584352 -0.046416953
-0.017362664 -0.00012915235 -0.0030420308 0.0 0.0 0.0 -0.0980996 -0.025982896
0.0 0.0 -0.017756969 -0.068991885 -0.053320203 -0.004375007 -0.033383425 0.0
00000000: a0ea 2337 385d 3cbc 0000 0000 0000 0000
00000010: 0000 0000 8863 e3bb 0000 0000 0681 a53d
00000020: 6b52 2b3b d294 b13c 0000 0000 0000 0000
00000030: 0000 0000 0000 0000 0000 0000 4cf7 1bbb
00000040: 3f9e e83b 1ec3 1e3c 0000 0000 0000 0000
00000050: 241b bd3b c7a5 843c aa6b 59b8 0a08 2e3d
00000060: 0000 0000 84fa 0a3d 9e22 bd3c 0000 0000
00000070: 0000 0000 0000 0000 0000 0000 68a1 c73d
00000080: 0000 0000 1692 01ba 0000 0000 0000 0000
00000090: 0000 0000 0fc6 933c 4673 b93c 4746 1a3d
000000a0: 0485 b63b 2f67 3938 08f5 7bb9 0000 0000
000000b0: 0000 0000 0000 0000 4b26 7c3c dff3 733c
000000c0: 0000 0000 0000 0000 588b 983c 8017 e6b9
000000d0: 48ae dd3c 7813 b33b e00c 28ba 0000 0000
000000e0: 5af0 b7b6 0000 0000 0000 0000 0000 0000
000000f0: e8da 6d3b 3e88 f6bb 0000 0000 7b0d 0f3d
00000100: 1e0f 96ba 0000 0000 0000 0000 5a4a 1d3b
00000110: a805 e13c 27d7 c73d 0000 0000 0000 0000
00000120: b9a1 193b 266f 1e3d c67c 063d bc19 0b3d
00000130: 1504 413c 0000 0000 81bb a93b 0000 0000
00000140: 0000 0000 0b64 403d 8058 4f3b 0000 0000
00000150: aa3a c43b 0234 d0bb 0000 0000 0000 0000
00000160: ec55 0f3c 0000 0000 9a58 2b3c d642 da3c
00000170: 62e5 003d 183e fbbb 0000 0000 0000 0000
00000180: 3995 c73c ca35 1fb9 0000 0000 0000 0000
00000190: 20b9 9e3c 763b 603d 0000 0000 0000 0000
000001a0: 0000 0000 0000 0000 0000 0000 0000 0000
000001b0: 897d 9e3a 4ef6 193c 0000 0000 b036 053d
000001c0: 0000 0000 4fbd 093d 428e 323d 0000 0000
000001d0: 0000 0000 280c 1b3b 874e 093c 8b8b 8d3b
000001e0: 5a52 e8bb 9afa a23b 0000 0000 d605 353c
000001f0: 0000 0000 f877 f938 e8f7 d7b7 0000 0000
00000200: 0000 0000 0000 0000 0000 0000 6cb5 15ba
00000210: e2b5 4739 2718 63bb a011 3d3d 12bb 6ebb
00000220: 7497 283a 74b7 523c 145c bb3c 0ac7 333c
00000230: ec68 b0bb a876 d43c 1898 053b bc0e daba
00000240: 0000 0000 0266 6438 2923 123c 00fe baba
00000250: 0000 0000 0000 0000 0000 0000 0000 0000
00000260: 0000 0000 ccd4 043c 2bf7 5e3d 0000 0000
00000270: fedc 463c 0000 0000 0000 0000 0000 0000
00000280: 0000 0000 0000 0000 0000 0000 0000 0000
00000290: acdb dcba 7560 023c ee85 2fb9 e44c e63b
000002a0: 0000 0000 0000 0000 bb4f 743d 5033 ee38
000002b0: a59a 6d3d 09d2 ae3c 0000 0000 c263 e33c
000002c0: 7e1a 93bc 9957 83b9 58f0 6c3d 0000 0000
000002d0: c227 913c 0000 0000 5bb4 223c 00d3 fe3c
000002e0: e434 ee3c ba48 443d 2fe9 e3ba 2840 3ebb
000002f0: 0000 0000 fab3 0c3d 0a2a 413d 7bdf 3b3d
00000300: 0000 0000 0000 0000 0000 0000 0000 0000
00000310: 0000 0000 3a60 693c 0000 0000 92bd 2e3b
00000320: 830c 4eb7 ae4d 86bd 0000 0000 0000 0000
00000330: 0000 0000 e8dd 1abd 0000 0000 26f9 9bbd
00000340: b0e2 aebb 57eb 8fbc 0000 0000 0000 0000
00000350: 0000 0000 0000 0000 0000 0000 6f49 8abb
00000360: 1c9c fbbb 7ca5 4cbd 0000 0000 0000 0000
00000370: 0c29 9dbc 26e0 29bd fa0c 86b9 2b56 9ebd
00000380: 0000 0000 5e92 f7bc c089 f0bc 0000 0000
00000390: 0000 0000 0000 0000 0000 0000 c00b b9bd
000003a0: 0000 0000 6031 96ba 0000 0000 0000 0000
000003b0: 0000 0000 a3cd 7ebc 84a0 a8bc b41f 3ebd
000003c0: 253c 8ebc 126d 07b9 cf5c 47bb 0000 0000
000003d0: 0000 0000 0000 0000 71e8 c8bd 15da d4bc
000003e0: 0000 0000 0000 0000 1077 91bc 9e4b 8dbd
000003f0: 4966 5abd 385c 8fbb 0fbd 08bd 0000 0000

momentum_buffer f4 [5]
0.012340035 -0.03280225 -0.002540882 0.019747946 0.0032551382
00000000: dc2d 4a3c a75b 06bd ed84 26bb 72c6 a13c
00000010: 2854 553b
