CS4248 NLP/Assignments/Assignment 2/a2_files/model.pt (torch, 405959 bytes, 10 tensors)

embedding.weight f4 [659, 64]
-0.6053339 -0.72174805 -0.21702759 -0.16623443 0.42248517 0.42175192 -0.10517458 -1.22126
0.18463221 -0.792863 0.27398863 0.27205202 0.050352253 0.7817731 0.59863836 -0.18919982
-0.8979868 -1.0562179 0.32926184 0.58881456 0.5335871 -0.94121253 -0.29373828 1.1211643
0.42578834 -0.37836543 -0.12275067 0.07821973 0.82296616 1.043247 0.590563 -0.51880974
-0.31942272 0.057396382 -0.33556893 0.11877949 0.3639913 0.008674947 0.33858818 0.22664998
-0.014637114 0.43035072 -0.25052378 0.09429345 0.23860131 1.4293022 -0.86269426 -0.9738336
-0.38790777 0.538798 0.67954254 0.038735837 -0.08148196 -0.3190391 0.2892157 -0.22776034
-0.21786919 0.46857446 0.95099294 2.1268506 -0.8932117 -0.7446883 1.074342 -0.3173327
-0.88709795 0.7836085 0.9394366 1.3750219 -1.6672528 2.438394 -0.33119217 0.25465932
-1.7283027 -0.5467417 -0.46370828 -0.4235081 -1.2298001 1.2934529 -0.042503383 0.72751886
0.005293014 0.774403 -0.7892392 0.07660953 1.1734346 -0.30680758 1.4018682 0.30369154
-0.20301272 2.3593767 -2.0972698 -0.15666837 -1.106527 -0.93954915 -0.04239045 0.7695209
1.7271087 -1.5575597 0.16995072 0.76534617 -2.5049639 -1.8853476 -0.24898048 -0.020825814
0.5625712 0.0016388085 0.46667576 0.47024864 0.45339724 -1.0308938 0.7945623 -0.88351
-0.3602318 -2.3947318 -0.13952303 -0.16210802 1.1901996 0.5144286 -1.0361081 0.12296838
-0.7748992 -0.4507776 2.126959 -0.3225507 0.20208243 1.0379561 0.7474549 1.4375215
-1.0425457 -0.49327514 -0.9729367 0.7338472 0.3488777 0.3579483 2.1710799 -1.075697
-0.16471222 0.15760739 -0.49637133 -1.1220982 -0.26084924 -0.85269004 -0.30739456 0.17308536
-0.27659512 0.17332786 0.2727839 1.3287593 0.6460258 0.45214143 -0.008853568 -0.147487
0.16167362 -0.76859546 -2.0321593 0.04461054 -0.7676604 0.35306093 0.15827881 0.41924027
1.0968689 -1.0987322 0.09275643 0.0132228 1.1646599 -0.6596247 0.66232634 0.37922886
0.5518073 0.1641521 -0.13884987 0.41273388 -0.43174586 -1.1980721 0.30244076 -1.341716
-0.1629534 -0.301702 -1.5549881 -0.5141247 1.2420813 0.13144231 1.4295672 0.9676833
-1.1434332 -0.73099387 1.5749415 0.37389025 0.70108235 -1.0773368 -1.3828557 -1.1451507
-0.50669724 0.44471642 0.370577 0.23501644 0.4475636 1.0099194 -0.5462727 1.1068845
-0.046822324 -1.370884 0.13042568 0.51161796 0.7835822 -1.4380238 0.70664173 -0.5516333
1.3287876 0.15356731 0.9560293 0.7528391 -1.3592381 1.0582405 -0.5303208 -1.423853
1.0277115 1.2665212 -0.7774509 0.52938104 0.25913712 0.05798501 -1.2974584 -0.033054225
-0.4783759 1.6492501 0.45499644 0.45469728 -0.28067595 0.59301895 -0.17460755 -1.3831295
-0.06533759 -0.6269126 -0.36434403 0.9889839 -0.6784363 0.953216 1.0562277 -1.909672
-1.4315665 -1.9601759 -0.079429835 -1.0221149 1.676263 0.026681028 0.74697214 -0.4536126
-0.045532107 1.2179563 1.0911417 -0.5777045 -0.6436261 0.09193512 2.0963578 0.3684305
00000000: 2af7 1abf 7bc4 38bf 7b3c 5ebe 5c39 2abe
00000010: fa4f d83e deef d73e c565 d7bd 3f52 9cbf
00000020: 3a10 3d3e 12f9 4abf 3d48 8c3e 674a 8b3e
00000030: 2a3e 4e3d 4822 483f 5d40 193f 99bd 41be
00000040: 77e2 65bf 2632 87bf 0295 a83e 8dbc 163f
00000050: 2a99 083f 4ef3 70bf dd64 96be 5082 8f3f
00000060: ee00 da3e 1db9 c1be b464 fbbd aa31 a03d
00000070: e9ad 523f 1e89 853f 232f 173f b7d0 04bf
00000080: 608b a3be 7818 6b3d b1cf abbe a942 f33d
00000090: 115d ba3e 5d21 0e3c 6e5b ad3e ef16 683e
000000a0: 81d0 6fbc ee56 dc3e a744 80be ed1c c13d
000000b0: e753 743e 60f3 b63f 88d9 5cbf 294d 79bf
000000c0: d99b c6be aaee 093f 80f6 2d3f 78a9 1e3d
000000d0: 04e0 a6bd 1859 a3be 1514 943e 023a 69be
000000e0: 1a19 5fbe fee8 ef3e 4674 733f 521e 0840
000000f0: 86a9 64bf e4a3 3ebf 0a84 893f 6f79 a2be
00000100: da18 63bf 919a 483f eb7e 703f b800 b03f
00000110: 8a68 d5bf a60e 1c40 0592 a9be b562 823e
00000120: 0639 ddbf 44f7 0bbf 2c6b edbe 0ed6 d8be
00000130: 176a 9dbf dd8f a53f 0718 2ebd ad3e 3a3f
00000140: 0571 ad3b 463f 463f 950b 4abf 75e5 9c3d
00000150: 1b33 963f e215 9dbe 6b70 b33f 757d 9b3e
00000160: 91e2 4fbe 0700 1740 ab39 06c0 ac6d 20be
00000170: ada2 8dbf 4b86 70bf 9ca1 2dbd 52ff 443f
00000180: e611 dd3f 1e5e c7bf 9007 2e3e baed 433f
00000190: 5451 20c0 1253 f1bf bdf4 7ebe e69a aabc
000001a0: ab04 103f 4acd d63a 20f0 ee3e 6ec4 f03e
000001b0: af23 e83e 54f4 83bf 6f68 4b3f b62d 62bf
000001c0: 4d70 b8be 4943 19c0 20df 0ebe a5ff 25be
000001d0: 7658 983f 98b1 033f 319f 84bf d9d6 fb3d
000001e0: cb5f 46bf 52cc e6be 1920 0840 5e25 a5be
000001f0: b2ee 4e3e bfdb 843f 3459 3f3f b400 b83f
00000200: 2372 85bf 8f8e fcbe 6112 79bf 69dd 3b3f
00000210: 19a0 b23e 0045 b73e f9f2 0a40 70b0 89bf
00000220: 52aa 28be d563 213e 6224 febe eaa0 8fbf
00000230: 088e 85be e549 5abf d262 9dbe 4a3d 313e
00000240: e09d 8dbe dc7c 313e 55aa 8b3e c914 aa3f
00000250: f261 253f 157f e73e 8e0e 11bc d506 17be
00000260: c58d 253e acc2 44bf e60e 02c0 8bb9 363d
00000270: 6485 44bf 67c4 b43e d713 223e a9a6 d63e
00000280: 3366 8c3f 42a3 8cbf 15f7 bd3d 71a4 583c
00000290: 9313 953f 2add 28bf 388e 293f 492a c23e
000002a0: 3e43 0d3f 7d17 283e a92e 0ebe db51 d33e
000002b0: cb0d ddbe 6d5a 99bf 84d9 9a3e 5abd abbf
000002c0: 42dd 26be af78 9abe da09 c7bf ad9d 03bf
000002d0: 85fc 9e3f d098 063e 0ffc b63f 18ba 773f
000002e0: 055c 92bf 6a22 3bbf af97 c93f 8b6e bf3e
000002f0: 227a 333f 2ce6 89bf 6a01 b1bf 4c94 92bf
00000300: e9b6 01bf dfb1 e33e 45bc bd3e 26a8 703e
00000310: 0e27 e53e 0a45 813f 87d8 0bbf 64ae 8d3f
00000320: c4c8 3fbd 2079 afbf 4f8e 053e 65f9 023f
00000330: d898 483f 2a11 b8bf 79e6 343f d737 0dbf
00000340: b615 aa3f c040 1d3e 56be 743f 10ba 403f
00000350: 84fb adbf 6d74 873f 1bc3 07bf d140 b6bf
00000360: 0d8c 833f 5e1d a23f 0607 47bf 8485 073f
00000370: 9fad 843e b181 6d3d 1e13 a6bf de63 07bd
00000380: b0ed f4be a11a d33f 4bf5 e83e 15ce e83e
00000390: c2b4 8fbe 17d0 173f 52cc 32be 630a b1bf
000003a0: b7cf 85bd 587d 20bf 4d8b babe 0d2e 7d3f
000003b0: 00ae 2dbf f705 743f 7832 873f 2270 f4bf
000003c0: 923d b7bf 0be7 fabf 1cac a2bd a9d4 82bf
000003d0: c98f d63f 2c92 da3c 9139 3f3f e93f e8be
000003e0: e07f 3abd fee5 9b3f 88aa 8b3f 71e4 13bf
000003f0: aec4 24bf 7b48 bc3d ba2a 0640 eca2 bc3e

input.weight f4 [100, 64]
0.8906963 0.0696954 0.11318749 0.06799654 0.25101927 0.15888621 0.067928374 0.47528282
0.09083675 -0.06268953 -0.14630418 -0.06752822 0.043222647 -0.17428324 0.080515325 0.14728765
-0.2465421 0.074193895 0.04637701 0.27056244 -0.005201924 -0.09112705 -0.46302623 -0.10516614
0.01191515 -0.57944596 0.07401915 -0.024625104 -0.14498527 0.06626071 0.00081204117 -0.10101842
0.04290843 0.5748756 0.23070155 -0.27401015 -0.24953535 -0.023746988 -0.22436671 0.13824297
-0.011545085 0.12003441 -0.34557885 0.4375731 -0.20290855 0.33900037 -0.10711419 -0.27895045
0.36922812 -0.23966925 -0.09545115 -0.12574969 -0.057878394 -0.44286993 0.16626628 -0.29894757
0.4153488 0.49542913 -0.014562215 0.07094514 0.32550085 0.10067129 0.1531452 -0.086486064
-0.08751349 0.10855528 -0.01351548 0.08051335 -0.110295095 0.07129686 -0.090390995 0.09442238
-0.032839373 0.024828015 0.064334355 0.025127755 -0.07840351 -0.058222983 0.103224784 -0.010352613
-0.025419611 0.081323475 -0.12078745 -0.043986198 0.11200946 -0.016182134 0.07738914 0.0262513
0.021037789 -0.06949627 0.124508135 -0.0006586793 -0.10557315 -0.04137969 -0.10181929 -0.015148167
0.07988544 -0.06371148 0.01799848 -0.078271605 0.07096681 0.02319334 0.10181185 0.11958149
0.100744374 -0.09299793 0.12120755 -0.0007284731 0.08893079 0.09040663 0.03172885 0.07829166
0.10372874 0.069467984 0.075950615 0.08388284 0.09890797 -0.063783765 -0.037059516 -0.04410363
0.1107666 -0.027903747 -0.08051652 -0.10117724 -0.06414499 -0.1074412 0.09123758 0.039409347
0.07866655 0.009619385 0.014275491 0.013708517 -0.019318104 0.0030804574 0.046765238 0.00097069144
0.03181143 -0.107946694 -0.098896384 -0.08459507 0.07662043 0.04051417 -0.09020488 0.09795189
-0.004930824 0.0675835 -0.103263214 0.07592349 -0.021850824 -0.006676659 -0.069341406 -0.034860745
0.08195533 -0.021768346 -0.04277496 -0.04331793 -0.053709045 0.096424416 0.08216861 -0.08429757
-0.0063836873 0.05215484 -0.108690485 0.11202274 0.068451434 -0.0015319884 0.07664856 0.0794574
-0.11189619 0.024231061 0.104397595 -0.03815873 -0.027117744 -0.014785752 -0.02476585 -2.43783e-05
-0.0046087056 -0.09519622 0.06617971 -0.06861982 -0.07499364 0.050153866 -0.11715609 -0.0046412945
0.082610935 0.10604273 -0.09745443 -0.058618113 -0.101605654 0.057019606 0.038253322 0.10764028
0.17468703 0.03557852 0.1953506 -0.20545197 0.41765812 0.2167635 -0.3179487 0.0566642
-0.018313773 -0.16044235 -0.09562967 -0.043440025 0.37685293 -0.3509962 0.1438487 0.08248394
0.09118445 -0.006450394 0.01795892 -0.15608597 -0.5063493 -0.123957895 -0.40951702 -0.022171756
0.039634425 0.023154255 0.209012 0.17630085 0.10318825 0.06601406 0.041249163 0.024035893
-0.100309886 0.084197916 0.24299252 -0.29022262 -0.14171252 0.2632121 0.02508192 0.20982552
-0.40374365 0.11690276 0.025993545 -0.09282886 0.074776545 0.22492874 -0.10116525 -0.08730357
0.12700687 -0.21399276 0.12413526 0.1907695 -0.2178701 -0.092954904 0.16990738 -0.3116525
0.15403372 -0.043207943 -0.2374643 -0.16577052 -0.11029532 0.08929765 0.21588989 -0.029507188
00000000: ac04 643f 76bc 8e3d d8ce e73d c541 8b3d
00000010: 9985 803e 11b3 223e 081e 8b3d 4558 f33e
00000020: 9e08 ba3d 5e63 80bd c3d0 15be 3c4c 8abd
00000030: 3b0a 313d 4e77 32be 38e5 a43d 93d2 163e
00000040: 8875 7cbe f8f2 973d d2f5 3d3d 2987 8a3e
00000050: e774 aabb d2a0 babd c611 edbe 5861 d7bd
00000060: c337 433c 9256 14bf 5a97 973d 96ba c9bc
00000070: 0577 14be b2b3 873d 29df 543a bfe2 cebd
00000080: c0c0 2f3d 0c2b 133f 073d 6c3e 0f4b 8cbe
00000090: 3286 7fbe 0b89 c2bc 63c0 65be 918f 0d3e
000000a0: 9927 3dbc 9ad4 f53d b6ef b0be 9509 e03e
000000b0: 42c7 4fbe 7591 ad3e af5e dbbd 98d2 8ebe
000000c0: 780b bd3e db6b 75be e47b c3bd 87c4 00be
000000d0: e511 6dbd d9bf e2be b541 2a3e a80f 99be
000000e0: 99a8 d43e e3a8 fd3e 5b96 6ebc b04b 913d
000000f0: 0ca8 a63e c02c ce3d 18d2 1c3e 9b1f b1bd
00000100: 463a b3bd 3b52 de3d 0870 5dbc 2fe4 a43d
00000110: 65e2 e1bd 1704 923d ea1e b9bd 8560 c13d
00000120: 9482 06bd 1f64 cb3c bbc1 833d b9d8 cd3c
00000130: 0592 a0bd 397b 6ebd 8467 d33d 029e 29bc
00000140: ca3c d0bc ec8c a63d 695f f7bd df2a 34bd
00000150: 3765 e53d 6590 84bc 337e 9e3d f70c d73c
00000160: 7157 ac3c 0f54 8ebd 1ffe fe3d 38ab 2cba
00000170: bc36 d8bd c07d 29bd a286 d0bd 0430 78bc
00000180: fa9a a33d 2a7b 82bd 8c71 933c dd4c a0bd
00000190: 0c57 913d f6ff bd3c bb82 d03d 24e7 f43d
000001a0: 1153 ce3d b375 bebd aa3b f83d 01f7 3eba
000001b0: 5921 b63d 1c27 b93d 1cf6 013d 6157 a03d
000001c0: bc6f d43d 3b45 8e3d ff8b 9b3d c4ca ab3d
000001d0: 4390 ca3d 10a1 82bd b8cb 17bd 02a6 34bd
000001e0: 99d9 e23d 6696 e4bc d8e5 a4bd 0336 cfbd
000001f0: 735e 83bd 220a dcbd c5da ba3d b26b 213d
00000200: ee1b a13d a09a 1d3c c0e3 693c b099 603c
00000210: 0041 9ebc 80e1 493b e88c 3f3d 0076 7e3a
00000220: b44c 023d 2813 ddbd 308a cabd 2e40 adbd
00000230: 2ceb 9c3d 30f2 253d 56bd b8bd 009b c83d
00000240: c092 a1bb 3869 8a3d aa7b d3bd c67d 9b3d
00000250: 8000 b3bc e0c7 dabb de02 8ebd 24ca 0ebd
00000260: 32d8 a73d 8853 b2bc cc34 2fbd 246e 31bd
00000270: 04fe 5bbd 2a7a c53d 0448 a83d 34a4 acbd
00000280: 402e d1bb 50a0 553d 1e99 debd 2e6c e53d
00000290: 4430 8c3d 00cd c8ba ecf9 9c3d 90ba a23d
000002a0: d429 e5bd 3880 c63c 68ce d53d 544c 1cbd
000002b0: 0826 debc f03f 72bc c0e1 cabc 0080 ccb7
000002c0: a004 97bb 3cf6 c2bd 3a89 873d 8c88 8cbd
000002d0: 4496 99bd 246e 4d3d 88ef efbd 0016 98bb
000002e0: ec2f a93d ee2c d93d 3096 c7bd 8c19 70bd
000002f0: a016 d0bd 648d 693d 84af 1c3d 8272 dc3d
00000300: 28e1 323e c8ba 113d fd09 483e 0062 52be
00000310: 49d7 d53e 40f7 5d3e 2cca a2be b818 683d
00000320: c406 96bc 004b 24be 7dd9 c3bd 2bee 31bd
00000330: def2 c03e c6b5 b3be 134d 133e 57ed a83d
00000340: eabe ba3d d45d d3bb 961e 933c 00d5 1fbe
00000350: 1ca0 01bf a3dd fdbd 37ac d1be 8ba1 b5bc
00000360: b557 223d fead bd3c 3e07 563e 3688 343e
00000370: 5c54 d33d 6132 873d e2f4 283d ece6 c43c
00000380: 456f cdbd f56f ac3d 08d3 783e 0f98 94be
00000390: 161d 11be bdc3 863e 9978 cd3c 80dc 563e
000003a0: 7db7 cebe b76a ef3d 6af0 d43c 0f1d bebd
000003b0: 7224 993d b853 663e ba2f cfbd 37cc b2bd
000003c0: 170e 023e eb20 5bbe a13a fe3d 1459 433e
000003d0: 5719 5fbe 245f bebd 33fc 2d3e eb90 9fbe
000003e0: 04bb 1d3e d0fa 30bd d729 73be bfbf 29be
000003f0: 83e2 e1bd b0e1 b63d 3d12 5d3e 0fb9 f1bc

input.bias f4 [100]
-0.10529659 0.0135438545 -0.12473266 0.07434005 0.43472508 -0.06543656 0.14048551 -0.11455422
0.09391135 -0.059003852 0.0073347217 0.18470086 0.07277073 0.2341974 0.20527627 -0.09545271
0.07378469 0.19294259 -0.17911004 -0.10762342 0.0380851 0.35943136 -0.12071161 0.021088742
-0.1627353 0.101265505 0.080938816 0.15694383 -0.05841885 0.18781316 0.01733386 -0.07171098
0.013672721 0.06253831 -0.06986078 -0.11496243 0.20980203 0.07093923 -0.12396908 -0.03262292
-0.103422344 -0.059714746 0.05214282 -0.07642009 -0.3691532 0.40890598 0.092612416 0.30059704
-0.13258296 0.18057676 -0.08442034 0.00538686 0.12892011 0.14567517 0.40459567 -0.096261695
-0.024096502 -0.33679634 0.24035679 -0.09789693 -0.048234157 -0.04111887 -0.092090786 0.057686463
0.06550753 -0.042807773 0.12859763 0.38965082 -0.042839218 -0.09705574 0.2701535 0.12039993
0.082858205 0.43727562 0.27339885 0.023542054 -0.0053703766 0.46291822 0.19169424 0.10304618
-0.097251 -0.035862196 0.087542616 0.13559997 -0.011546527 0.1121459 -0.0599333 -0.10634579
0.01779807 0.12162103 0.090054125 0.31447276 -0.019855032 0.07589345 -0.11256133 0.20460474
0.061592657 0.5849661 0.2645319 0.18225606
00000000: bda5 d7bd 0be7 5d3c d673 ffbd 993f 983d
00000010: 4994 de3e 9a03 86bd 6fdb 0f3e 679b eabd
00000020: 9854 c03d 06ae 71bd 1b58 f03b 3922 3d3e
00000030: d208 953d 71d1 6f3e f133 523e b67c c3bd
00000040: 6d1c 973d be92 453e 9f68 37be ab69 dcbd
00000050: 1fff 1b3d 6307 b83e a637 f7bd 4cc2 ac3c
00000060: 15a4 26be 4a64 cf3d 40c3 a53d e2b5 203e
00000070: 9b48 6fbd 1852 403e bdff 8d3c 35dd 92bd
00000080: 8c03 603c 1614 803d 2b13 8fbd 6c71 ebbd
00000090: 58d6 563e 9648 913d 80e3 fdbd 9c9f 05bd
000000a0: 18cf d3bd 7397 74bd b693 553d 2382 9cbd
000000b0: a601 bdbe 205c d13e 94ab bd3d dbe7 993e
000000c0: d4c3 07be 1de9 383e 92e4 acbd 4284 b03b
000000d0: a203 043e df2b 153e 2a27 cf3e da24 c5bd
000000e0: 0766 c5bc 9270 acbe 1720 763e 307e c8bd
000000f0: 2e91 45bd 436c 28bd 189a bcbd a448 6c3d
00000100: d028 863d 3457 2fbd 19af 033e 5080 c73e
00000110: 2d78 2fbd 29c5 c6bd 8f51 8a3e 3d94 f63d
00000120: 90b1 a93d 97e2 df3e effa 8b3e 44db c03c
00000130: fcf9 afbb 9e03 ed3e 7f4b 443e e009 d33d
00000140: 882b c7bd 3de4 12bd 8b49 b33d b8da 0a3e
00000150: a52d 3dbc c0ac e53d 9f7c 75bd d2cb d9bd
00000160: 42cd 913c 7214 f93d 4c6e b83d 9302 a13e
00000170: 05a7 a2bc 066e 9b3d 8e86 e6bd e883 513e
00000180: 9548 7c3d 57c0 153f ba70 873e 55a1 3a3e

output.weight f4 [5, 100]
-0.5279448 -0.054406427 0.051884867 -1.0853947 -0.7060637 -0.06469931 -0.09982543 1.3036284
0.43818074 0.091651574 -0.39049235 0.009568668 0.46466497 1.3855114 -1.3548516 -0.24440286
-0.09907671 -0.08307315 -0.33324912 0.048593607 -0.31389257 0.8158802 0.032933958 -0.5151376
0.016779492 -0.012303165 -0.19267167 1.5979276 -0.40902257 0.4912169 -0.2952747 0.05813133
0.07249261 -1.0953736 0.072793186 0.009856292 1.7424252 -0.15991162 -0.05912018 -0.07310485
0.0012453794 0.208882 -0.32050845 -0.09085424 -1.5539396 1.383405 -0.070165604 1.1282793
-0.59077185 -0.15263861 -0.07481725 0.10963705 0.54655963 -0.0710575 0.3978831 -0.0091005415
-0.4921968 -0.14305456 0.8213911 -0.082903974 -0.0719941 -0.09508417 0.039630644 0.6098552
0.12308152 -0.04154247 -0.33080694 0.4820135 0.0044143954 -1.1546103 0.5287297 1.181734
0.14018568 0.46392265 -0.4970462 0.099205434 -0.07405391 -0.6315526 0.5786534 0.07902362
-0.04617558 -0.008807095 -0.98329574 0.915225 -0.4402006 -1.0319215 -0.033842407 0.05235193
0.5693806 -0.32598037 -0.06658588 -1.137298 -0.37472397 0.66461813 -0.019851647 -0.32000384
0.002366135 -0.3363875 -0.3469313 -0.052352548 1.0337373 -0.05817563 -0.025428817 -0.025223443
-0.5690848 0.050857466 0.16372687 -1.0132742 -0.037625704 0.00368483 1.1789638 0.7707264
-0.50718844 0.9115461 -0.08271472 -0.0052637174 1.1498336 0.1829132 0.12120299 0.070100255
-1.7197692 -1.0109984 0.05214425 1.0450481 -0.6403864 0.11380171 0.034075633 -0.3996327
-0.3686847 -1.2755862 0.23761958 -0.01858002 0.055570666 -1.2192304 -0.09407382 0.010958133
-0.45942602 0.08552399 0.07767329 -0.022032006 0.09843143 -0.027759267 1.1640195 -0.01618747
0.99799806 -0.27530634 0.0023147743 -0.26224697 -0.6209452 -0.0053504314 -0.034905776 -0.0028412195
1.838848 0.41161346 0.8589282 0.053680815 -0.21730241 0.9809829 0.6801709 -0.019294558
0.056998704 -0.059803188 0.076148875 -1.0103348 0.008696721 -0.042163458 0.24493931 -0.99903315
-0.017529959 -0.17879325 1.7692244 -0.59342384 0.1834721 -1.4835576 -0.0043341257 -0.60226196
0.081631914 0.10345009 -0.17254943 0.31241354 -0.08904204 0.086967565 0.20861816 0.24750327
-0.11053235 -0.101432055 0.059296504 0.026257284 -0.39933482 0.8901296 0.038903516 -1.2486669
0.5292282 -0.2698618 0.06338642 0.19562641 -0.54215556 -1.371607 -1.2512062 0.8909513
0.86696947 -0.051173065 -0.049614776 0.51354784 -0.863952 -0.014782714 0.014025886 0.9482966
-0.2235735 -0.01754974 0.29544505 -0.25984335 0.42944282 0.19644873 -0.3485244 0.19397159
0.19715594 -0.16671532 0.6693733 -0.030774103 1.2432647 -0.7275027 -0.07666346 -0.2862969
0.82778883 -0.047877014 0.012139736 -0.017914819 0.8259032 0.77505577 0.2424482 0.08257336
-0.11071534 0.88070744 0.0484967 -0.050284076 -0.53263015 0.08891411 0.070229016 0.10270878
0.06438439 0.62806344 0.72023034 -0.0104011195 1.4389089 -0.72011423 -0.2908978 -0.89196664
1.0270683 -0.50503886 0.015701732 -0.027150976 -0.6635412 -0.0930435 0.010721529 -0.0382769
00000000: 6427 07bf 46d9 5ebd 3a85 543d 37ee 8abf
00000010: 97c0 34bf 1281 84bd 4671 ccbd 4cdd a63f
00000020: 3a59 e03e d2b3 bb3d 9dee c7be e7c5 1c3c
00000030: 91e8 ed3e 7058 b13f c76b adbf be44 7abe
00000040: bbe8 cabd 4122 aabd a19f aabe 170a 473d
00000050: 87b6 a0be 86dd 503f c2e5 063d 0fe0 03bf
00000060: 2575 893c 3793 49bc b94b 45be e488 cc3f
00000070: 686b d1be c880 fb3e 3f2e 97be 1e1b 6e3d
00000080: 0177 943d 3435 8cbf 9814 953d 497c 213c
00000090: ca07 df3f dfbf 23be 0028 72bd ffb7 95bd
000000a0: 003c a33a 2ae5 553e af19 a4be ca11 babd
000000b0: 7ee7 c6bf 6a13 b13f fcb2 8fbd 756b 903f
000000c0: d33c 17bf 4c4d 1cbe c939 99bd 6489 e03d
000000d0: 55eb 0b3f 9886 91bd 55b7 cb3e 701a 15bc
000000e0: 3801 fcbe e57c 12be b046 523f 8fc9 a9bd
000000f0: a571 93bd 7dbb c2bd be53 223d 781f 1c3f
00000100: 2a12 fc3d 7028 2abd 875f a9be 79ca f63e
00000110: a2a6 903b 45ca 93bf d45a 073f 0f43 973f
00000120: d68c 0f3e 4587 ed3e d77c febe 382c cb3d
00000130: 94a9 97bd 6ead 21bf a122 143f 23d7 a13d
00000140: 9b22 3dbd a24b 10bc 45b9 7bbf 304c 6a3f
00000150: f961 e1be 0116 84bf 569e 0abd fa6e 563d
00000160: edc2 113f e6e6 a6be 2e5e 88bd fb92 91bf
00000170: d2db bfbe 6a24 2a3f ec9f a2bc 8bd7 a3be
00000180: 2811 1b3b fb3a acbe fba0 b1be a06f 56bd
00000190: 8151 843f 9249 6ebd 1850 d0bc 65a1 cebc
000001a0: 8baf 11bf eb4f 503d 04a8 273e f8b2 81bf
000001b0: 691d 1abd 307d 713b 49e8 963f 534e 453f
000001c0: 1ad7 01bf 165b 693f 5666 a9bd 437b acbb
000001d0: bf2d 933f 994d 3b3e 4639 f83d b990 8f3d
000001e0: 6621 dcbf 6568 81bf 3695 553d 23c4 853f
000001f0: 5df0 23bf df10 e93d e492 0b3d a89c ccbe
00000200: 3ec4 bcbe 6946 a3bf 8c52 733e 2035 98bc
00000210: 119e 633d be0f 9cbf c6a9 c0bd be89 333c
00000220: e339 ebbe 3427 af3d 2d13 9f3d 777c b4bc
00000230: 6b96 c93d 6767 e3bc 97fe 943f 969b 84bc
00000240: cd7c 7f3f f4f4 8cbe 78b3 173b 3c45 86be
00000250: 44f6 1ebf ac52 afbb 5cf9 0ebd c133 3abb
00000260: 5f5f eb3f 00bf d23e b8e2 5b3f 6ae0 5b3d
00000270: 8684 5ebe b221 7b3f ae1f 2e3f 9f0f 9ebc
00000280: 7977 693d 30f4 74bd f1f3 9b3d a752 81bf
00000290: b17c 0e3c 97b3 2cbd 5fd1 7a3e a3c0 7fbf
000002a0: fd9a 8fbc 9415 37be f275 e23f a0ea 17bf
000002b0: 1ce0 3b3e 37e5 bdbf 4805 8ebb d72d 1abf
000002c0: a22e a73d a4dd d33d ccb0 30be abf4 9f3e
000002d0: ac5b b6bd 0d1c b23d 00a0 553e 7f71 7d3e
000002e0: c95e e2bd 9cbb cfbd e4e0 723d 8419 d73c
000002f0: 9d75 ccbe 89df 633f 4b59 1f3d 51d4 9fbf
00000300: 807b 073f 532b 8abe bdd0 813d 4a52 483e
00000310: b5ca 0abf d190 afbf 8627 a0bf 6215 643f
00000320: b6f1 5d3f d99a 51bd dd38 4bbd df77 033f
00000330: f52b 5dbf 3233 72bc d4cc 653c 91c3 723f
00000340: 74f0 64be 79c4 8fbc 9344 973e 300a 85be
00000350: eedf db3e db29 493e ca71 b2be 7da0 463e
00000360: 3fe3 493e 6cb7 2abe 0c5c 2b3f f919 fcbc
00000370: 4c23 9f3f 9e3d 3abf bb01 9dbd 8295 92be
00000380: f8e9 533f b01a 44bd bee5 463c 19c2 92bc
00000390: 646e 533f 0e6a 463f 5744 783e 391c a93d
000003a0: b9be e2bd 0b76 613f 7aa4 463d adf6 4dbd
000003b0: 735a 08bf 9a18 b63d 3bd4 8f3d fb58 d23d
000003c0: f7db 833d c4c8 203f 0461 383f 7569 2abc
000003d0: 2b2e b83f 6859 38bf 8ef0 94be ed57 64bf
000003e0: f976 833f 3a4a 01bf eba0 803c b96b debc
000003f0: d6dd 29bf 978d bebd 5aa9 2f3c 3dc8 1cbd

output.bias f4 [5]
0.30524042 0.1942689 -0.5690598 0.11399145 0.11213257
00000000: 7948 9c3e 6dee 463e e7ad 11bf 5974 e93d
00000010: c3a5 e53d

momentum_buffer f4 [659, 64]
0.06251025 0.13955218 0.30427402 0.07983945 -0.15215956 -0.14400288 0.27444607 -0.111505136
0.053938236 0.39664978 0.23163146 -0.012954164 -0.17542279 0.28627712 -0.028926663 0.12970328
-0.1351947 -0.019324437 -0.010016253 0.01262217 -0.06203592 -0.19765535 0.05319079 0.19603159
0.017784784 -0.14100167 0.24767278 0.13538797 0.014905628 -0.30441248 0.39871174 -0.13683106
0.14474401 0.010434344 -0.19984376 -0.100590944 -0.033725403 0.17419463 -0.10881831 0.18702747
-0.16989005 0.20841852 -0.11979246 -0.17035173 -0.14654124 -0.08094129 -0.012160178 0.1832563
0.033381537 0.19263111 0.15917781 -0.0012967121 -0.48101795 -0.16614655 -0.11050648 0.31346118
-0.047788903 -0.11097102 -0.25965428 0.046363607 -0.3119278 0.11663376 -0.22597845 -0.00024807733
0.0013202108 0.0005389385 0.000989198 -0.0006948357 0.0013132048 0.00070454844 -0.0011022566 0.00021539332
0.00047096508 -0.00014238173 -0.00028216606 -0.0005945482 0.0011474857 -0.0009761019 -0.00030083675 0.0004961787
-0.0003376321 -0.00046815976 -0.00020984236 -0.00076481386 -0.0020877027 -0.0004803515 -0.001748392 0.00037876255
-1.489375e-05 -0.00016564547 0.0011054522 0.00063642376 0.00040336425 -8.402026e-05 0.00044697043 -0.0003541727
-0.0006541048 0.00082453183 0.0010269539 -0.0012021184 -0.00072935224 0.0011541367 0.00027489534 0.0017289025
-0.0017311451 0.00037961692 -0.00028666438 -0.0003260344 0.0002811176 0.0008951419 -9.339762e-05 -0.00022921614
0.00071133225 -0.00020054574 0.00039655503 0.00081533036 -0.0012980768 -0.0005084039 0.0006733163 -0.0011498934
0.000755124 -0.00022427297 -0.0010988285 -0.0005203073 -0.0004092618 0.0007672118 0.001051012 -0.00030031128
0.00086627575 0.000121043486 0.0017694976 -0.0015603581 0.0022540516 0.0006408808 -0.001669777 -3.344511e-05
0.0007258929 -0.0003514206 -0.0011536126 -0.0010862933 0.0010653993 -0.000983935 0.0003979254 0.00077401387
0.00048059976 -5.5965316e-05 -9.261195e-05 -0.0014331073 -0.0026677537 -0.0006997225 -0.0008106565 0.00033285236
0.00087517546 -0.0003868804 0.0006813063 0.0006598913 0.00038415584 -0.0005218551 0.00011858729 -0.00030918006
-0.0009378989 0.0007565259 0.0015737963 -0.0004305267 -0.001642302 0.0013026571 0.0008953467 0.0015981664
-0.0013112349 0.00024397594 0.00080767256 -0.00032541127 0.0013069856 0.0008900629 -0.00088129926 -0.00028248254
0.0006405575 -0.00037897064 -0.00025459254 0.0011260365 -0.0011772616 0.00046659796 0.0011985545 -0.0013844849
0.00017801992 0.00037114377 -0.0002738151 -0.00057908794 -5.2845167e-05 0.0006195543 0.0011561887 -0.0002977756
-0.0024263517 0.0006895616 -0.0006698353 0.0034166141 -0.005757768 -0.002950346 0.005701748 -0.0015084541
-0.0012414427 0.004386062 0.004224532 0.001909659 -0.0040302407 0.0048554684 -0.0005240694 -0.0004567941
-0.0014588614 0.0001986548 0.00026912926 0.0024079944 0.0047823023 -0.00015390938 0.0032133157 0.0010357812
-0.0011409082 -0.00026097812 0.00028652966 -0.00016278625 -0.00054036477 -0.0020133858 0.0032689022 -0.00070501614
0.0030973197 -0.00201945 -0.0051132157 0.0009493844 0.0029071535 -0.0010710922 -0.0022123344 -0.0018862421
0.0015151803 0.001278389 -0.0017782557 -0.0011901186 -0.003536502 -0.002917382 0.0012698432 0.00230435
-0.0015138146 0.0024591617 0.0016825218 -0.002099901 -0.0018675453 -0.0014137628 -0.0035304253 0.005958945
-0.0014663013 -0.0020243616 -0.0012875748 0.0017933876 -0.0029751111 -0.00034041732 -0.00474049 0.0008084818
00000000: 6005 803d c4e6 0e3e cec9 9b3e de82 a33d
00000010: b7cf 1bbe 7e75 13be 3284 8c3e ce5c e4bd
00000020: 57ee 5c3d ae15 cb3e cc30 6d3e b43d 54bc
00000030: 08a2 33be ea92 923e 9cf7 ecbc f0d0 043e
00000040: 7b70 0abe 484e 9ebc 361b 24bc 38cd 4e3c
00000050: 6019 7ebd 2a66 4abe 96de 593d 81bc 483e
00000060: 65b1 913c be62 10be ef9d 7d3e 25a3 0a3e
00000070: bc36 743c f4db 9bbe f223 cc3e 711d 0cbe
00000080: c637 143e d0f4 2a3c d8a3 4cbe a002 cebd
00000090: a623 0abd 1460 323e 22dc debd 2184 3f3e
000000a0: a8f7 2dbe aa6b 553e c055 f5bd af70 2ebe
000000b0: e80e 16be 8cc4 a5bd 7c3b 47bc 8aa7 3b3e
000000c0: 14bb 083d 1741 453e 82ff 223e 70f6 a9ba
000000d0: fc47 f6be 5222 2abe 3951 e2bd fc7d a03e
000000e0: 4cbe 43bd c644 e3bd 68f1 84be c4e7 3d3d
000000f0: 00b5 9fbe aedd ee3d e566 67be 6010 82b9
00000100: ec0a ad3a 8d47 0d3a faa7 813a a225 36ba
00000110: d71f ac3a 72b1 383a 9879 90ba 34db 6139
00000120: ddeb f639 4e4c 15b9 b0ef 93b9 74db 1bba
00000130: 3b67 963a 17e1 7fba a0b9 9db9 fd11 023a
00000140: 3704 b1b9 5773 f5b9 2109 5cb9 ca7d 48ba
00000150: d7d1 08bb b0d7 fbb9 4d2a e5ba a694 c639
00000160: 2be0 79b7 1eb1 2db9 d2e4 903a add5 263a
00000170: a27a d339 0934 b0b8 5b57 ea39 41b0 b9b9
00000180: 3b78 2bba 6525 583a db9a 863a 6690 9dba
00000190: 0032 3fba 6746 973a d41f 9039 579c e23a
000001a0: 97e7 e2ba 5207 c739 714b 96b9 99ef aab9
000001b0: f762 9339 f5a7 6a3a 77de c3b8 bd59 70b9
000001c0: b378 3a3a 9649 52b9 b7e8 cf39 e5bb 553a
000001d0: 3b24 aaba 6846 05ba 7e81 303a 05b8 96ba
000001e0: 84f3 453a d12a 6bb9 9106 90ba 3b65 08ba
000001f0: 3092 d6b9 b61e 493a 1cc2 893a 1973 9db9
00000200: c816 633a bad8 fd38 7dee e73a ee84 ccba
00000210: b6b8 133b c800 283a 6bdc daba 6a47 0cb8
00000220: d949 3e3a e03e b8b9 d134 97ba f461 8eba
00000230: dea4 8b3a 61f7 80ba a5a0 d039 31e7 4a3a
00000240: 02f9 fb39 4dbc 6ab8 a938 c2b8 1ad7 bbba
00000250: 7bd5 2ebb 956d 37ba 3d82 54ba b082 ae39
00000260: 086c 653a 35d6 cab9 b199 323a 8efc 2c3a
00000270: 8668 c939 1acd 08ba 11b2 f838 7219 a2b9
00000280: 54dd 75ba 9851 463a d747 ce3a 51b8 e1b9
00000290: 8342 d7ba ebbd aa3a b3b5 6a3a 9179 d13a
000002a0: bedd abba cbd3 7f39 fdb9 533a f69b aab9
000002b0: 294f ab3a 1c53 693a fe06 67ba 2a1a 94b9
000002c0: 16eb 273a 94b0 c6b9 d57a 85b9 8497 933a
000002d0: 584e 9aba b8a1 f439 d118 9d3a 9b77 b5ba
000002e0: dcaa 3a39 1396 c239 d78e 8fb9 efcd 17ba
000002f0: 11a6 5db8 9669 223a 418b 973a c41e 9cb9
00000300: 6d03 1fbb b2c3 343a e397 2fba 46e9 5f3b
00000310: a9ab bcbb 985a 41bb bbd5 ba3b 52b7 c5ba
00000320: e8b7 a2ba f4b8 8f3b f16d 8a3b 864d fa3a
00000330: 1c10 84bb 9f1a 9f3b b461 09ba de7d efb9
00000340: 4437 bfba fe4d 5039 eb19 8d39 71cf 1d3b
00000350: dcb4 9c3b bc62 21b9 7e96 523b 0dc3 873a
00000360: 878a 95ba e4d3 88b9 5c39 9639 9ab1 2ab9
00000370: 44a7 0dba 02f3 03bb 143b 563b d5d0 38ba
00000380: 67fc 4a3b c058 04bb c38c a7bb 1ce0 783a
00000390: f185 3e3b e463 8cba d0fc 10bb c83b f7ba
000003a0: 0499 c63a 9e8f a73a 5c14 e9ba c1fd 9bba
000003b0: a8c4 67bb 8c31 3fbb de70 a63a 9404 173b
000003c0: 306b c6ba e329 213b 1088 dc3a 7e9e 09bb
000003d0: 6cc8 f4ba 024e b9ba b55e 67bb 4143 c33b
000003e0: e830 c0ba 27ab 04bb d7c3 a8ba 1a10 eb3a
000003f0: 15fa 42bb 0a7a b2b9 1d56 9bbb 4cf0 533a

momentum_buffer f4 [100, 64]
0.005946557 0.009787782 0.004017964 0.0019135426 -0.006540813 -0.0070630787 0.00122173 0.014390615
-0.0030810325 0.012269178 -0.0020973252 -0.0034927872 -0.0015322499 -0.009256788 -0.008735147 0.0015761463
0.011846774 0.013060622 -0.0047018365 -0.009105512 -0.0058958977 0.012366573 0.0053152475 -0.013856686
-0.005612117 0.0067598117 0.0024979524 -0.00065437006 -0.010164808 -0.015006827 -0.0068058735 0.0059676794
0.0035717944 -0.003515103 0.003603928 -0.00036973046 -0.0043107723 0.0004924554 -0.0037310931 -0.002375825
0.0012003576 -0.0065892497 0.00540309 -0.0045330934 -0.0016835828 -0.0201082 0.010180987 0.0139913
0.0060275905 -0.005764346 -0.00942429 -0.0005013474 -0.0008539574 0.0049747997 -0.004919005 0.0048989463
0.0020384223 -0.007923846 -0.013782402 -0.027870525 0.010579188 0.011172562 -0.016048178 0.0041984883
9.594899e-11 -6.0303526e-11 3.7624483e-11 2.065984e-11 -2.4178716e-11 -2.9068343e-11 6.169731e-11 4.753148e-11
-4.691762e-12 3.6006354e-11 1.3521624e-11 2.6423731e-11 -5.0392666e-11 4.510233e-11 -5.31552e-11 -1.8201746e-11
7.323301e-12 -2.8848816e-11 -4.172797e-11 -1.9238883e-11 8.9109616e-11 -4.2778076e-11 -9.262897e-12 1.4112453e-11
6.221668e-11 -1.1975552e-11 -9.254227e-12 1.9900583e-11 -1.8081004e-11 -2.4881737e-11 4.9082252e-11 -4.313896e-11
4.7224023e-11 2.064528e-11 6.949804e-12 4.576111e-12 4.6215035e-11 -5.6404804e-11 1.0361953e-12 9.286431e-12
6.677524e-11 -5.0304882e-11 1.8792901e-11 -1.9109719e-11 1.0412609e-11 -2.3064425e-11 -5.213133e-11 1.47103e-11
5.503782e-11 3.374122e-11 -2.6819227e-11 -2.9342618e-12 -2.678468e-11 -3.4850736e-12 -1.5929823e-11 5.909322e-11
3.9765114e-12 3.254113e-11 5.677062e-11 2.010851e-11 3.6538498e-11 1.6665593e-11 -5.019089e-11 3.2349054e-11
0.0 0.0 0.0 0.0 0.0 0.0 0.0 0.0
0.0 0.0 0.0 0.0 0.0 0.0 0.0 0.0
0.0 0.0 0.0 0.0 0.0 0.0 0.0 0.0
0.0 0.0 0.0 0.0 0.0 0.0 0.0 0.0
0.0 0.0 0.0 0.0 0.0 0.0 0.0 0.0
0.0 0.0 0.0 0.0 0.0 0.0 0.0 0.0
0.0 0.0 0.0 0.0 0.0 0.0 0.0 0.0
0.0 0.0 0.0 0.0 0.0 0.0 0.0 0.0
0.007999728 0.009223564 0.0036565035 0.0037209585 -0.008531759 -0.006688644 0.003271039 0.01605508
-0.003209436 0.012895355 -0.002097982 -0.0024057264 -0.0025423437 -0.009639887 -0.01030175 0.0015652808
0.012901325 0.0138271125 -0.004655092 -0.007035883 -0.0038773608 0.012564354 0.0053065848 -0.0147947455
-0.005868379 0.006223863 0.0010974689 -0.0014986198 -0.010513719 -0.014422795 -0.0070147817 0.0062488075
0.004624228 -0.0022094306 0.0039927484 -0.0005033903 -0.0029446026 -0.0014315908 -0.0047555333 -0.0036703162
0.0018847566 -0.007991831 0.003702091 -0.002297074 -0.0030254247 -0.020232726 0.011740896 0.013641418
0.005068729 -0.006369672 -0.008480618 -0.0008631718 0.00025941816 0.0046895235 -0.0055036945 0.0053215763
0.0025539396 -0.007225042 -0.011769816 -0.028361082 0.012080836 0.012065146 -0.0172015 0.0047478247
00000000: 56db c23b ef5c 203c 20a9 833b d6cf fa3a
00000010: 5154 d6bb 6671 e7bb 7522 a03a 9dc6 6b3c
00000020: 26eb 49bb aa04 493c 4773 09bb 3fe7 64bb
00000030: c6d5 c8ba c8a9 17bc dd1d 0fbc b296 ce3a
00000040: f918 423c 38fc 553c dd11 9abb 492f 15bc
00000050: 6032 c1bb 2b9d 4a3c 872b ae3b 2707 63bc
00000060: d9e5 b7bb 6981 dd3b b0b4 233b 088a 2bba
00000070: 4b8a 26bc 32df 75bc ce03 dfbb 868c c33b
00000080: c414 6a3b a45d 66bb e12f 6c3b 62d8 c1b9
00000090: 6141 8dbb 1f18 013a 5b85 74bb bbb3 1bbb
000000a0: 5155 9d3a a2ea d7bb 670c b13b 588a 94bb
000000b0: aaab dcba f4b9 a4bc 28ce 263c c43b 653c
000000c0: 1883 c53b d7e2 bcbb 5668 1abc db6c 03ba
000000d0: 1cdc 5fba a503 a33b 9b2f a1bb 5787 a03b
000000e0: 0d97 053b 05d3 01bc 95cf 61bc ba50 e4bc
000000f0: 5554 2d3c 1f0d 373c 7877 83bc 7993 893b
00000100: 7bfe d22e de9b 84ae 6779 252e d3b9 b52d
00000110: a1ad d4ad 17b0 ffad 7fac 872e b00b 512e
00000120: a313 a5ac 8d5b 1e2e fbdf 6d2d f46c e82d
00000130: 19a1 5dae b65c 462e 6fc7 69ae b01a a0ad
00000140: 37d5 002d c2c1 fdad 8485 37ae 1d3a a9ad
00000150: 41f4 c32e d523 3cae 61f4 22ad d744 782d
00000160: e1d0 882e 17ad 52ad 55cd 22ad 210c af2d
00000170: cd0a 9fad b1dc daad b4dd 572e 27ba 3dae
00000180: 86b1 4f2e 0a99 b52d 4586 f42c f201 a12c
00000190: 8141 4b2e 2a12 78ae dfd4 912b 5e5e 232d
000001a0: 1ed7 922e 433e 5dae da4d a52d 4317 a8ad
000001b0: 392e 372d 78e0 caad a946 65ae a764 812d
000001c0: 140f 722e 3d65 142e 88e7 ebad f67a 4eac
000001d0: bd99 ebad 813d 75ac c61e 8cad 87f2 812e
000001e0: 3be9 8b2c 0e1e 0f2e 09ae 792e 57e0 b02d
000001f0: b1b2 202e 9497 922d ebbd 5cae cc45 0e2e
00000200: 0000 0000 0000 0000 0000 0000 0000 0000
00000210: 0000 0000 0000 0000 0000 0000 0000 0000
00000220: 0000 0000 0000 0000 0000 0000 0000 0000
00000230: 0000 0000 0000 0000 0000 0000 0000 0000
00000240: 0000 0000 0000 0000 0000 0000 0000 0000
00000250: 0000 0000 0000 0000 0000 0000 0000 0000
00000260: 0000 0000 0000 0000 0000 0000 0000 0000
00000270: 0000 0000 0000 0000 0000 0000 0000 0000
00000280: 0000 0000 0000 0000 0000 0000 0000 0000
00000290: 0000 0000 0000 0000 0000 0000 0000 0000
000002a0: 0000 0000 0000 0000 0000 0000 0000 0000
000002b0: 0000 0000 0000 0000 0000 0000 0000 0000
000002c0: 0000 0000 0000 0000 0000 0000 0000 0000
000002d0: 0000 0000 0000 0000 0000 0000 0000 0000
000002e0: 0000 0000 0000 0000 0000 0000 0000 0000
000002f0: 0000 0000 0000 0000 0000 0000 0000 0000
00000300: 4b11 033c 6e1e 173c f3a1 6f3b 53db 733b
00000310: cac8 0bbc 6a2c dbbb ee5e 563b f185 833c
00000320: 6755 52bb 0a47 533c 4c7e 09bb 64a9 1dbb
00000330: 739d 26bb 9ef0 1dbc acc8 28bc 1c2a cd3a
00000340: 1460 533c 1d8b 623c be89 98bb 448d e6bb
00000350: 521b 7ebb b8da 4d3c dce2 ad3b a965 72bc
00000360: 884b c0bb 8cf1 cb3b f2d8 8f3a 566d c4ba
00000370: bc41 2cbc 964d 6cbc 41dc e5bb ccc2 cc3b
00000380: d686 973b 18cc 10bb 9ad5 823b f4f5 03ba
00000390: 3cfa 40bb 37a4 bbba 4ed4 9bbb b089 70bb
000003a0: f009 f73a 2bf0 02bc c89e 723b 828a 16bb
000003b0: 3446 46bb 1abf a5bc e35c 403c 4180 5f3c
000003c0: 9517 a63b aeb8 d0bb 4af2 0abc 7b46 62ba
000003d0: 8402 8839 93aa 993b 5658 b4bb 9e60 ae3b
000003e0: ff5f 273b 0cc0 ecbb 30d6 40bc 8055 e8bc
000003f0: b3ee 453c e4ac 453c 29ea 8cbc a493 9b3b

momentum_buffer f4 [100]
-0.018247765 -2.885946e-10 0.0 -0.018540459 0.02163173 -1.011607e-06 -1.1131597e-06 -0.09364537
0.018449387 -6e-45 0.039298937 0.03729112 -0.018704373 0.0249524 0.14703108 -0.0009262729
0.01939592 0.009406028 -0.03545086 -1.7888446e-09 -0.045185972 0.068381146 0.0 -0.00536045
-0.030702457 -4.3377026e-05 0.0077615986 0.015815102 -0.064470425 -0.09463154 -0.011363677 -6e-45
5.4192465e-06 -0.06680934 7.603145e-08 -5.1550458e-08 -0.014132662 -3.96776e-05 0.0 2.2256558e-05
0.0 -0.022907568 -0.011349321 -2.37072e-10 -0.04709909 0.017721478 -0.014400018 -0.06798138
-0.038975514 0.10820827 -9.993331e-07 -1.7250654e-06 0.051508673 0.008974181 0.06102967 0.0
-0.035704106 -0.11263826 0.039883 -6e-45 7.5155326e-10 7.781968e-13 0.0 -0.055823855
0.00031045493 0.0 -0.08092441 -0.03510161 -9.607111e-07 -0.027708275 0.012639277 -0.046140224
0.014951349 -0.0032700403 -0.023503918 -0.0054240916 4.2626735e-10 0.057039797 -0.0065843323 0.023838064
9.4468315e-11 -3.0690965e-09 0.032068115 -0.016951706 0.085543096 -0.029173786 2.2237371e-07 0.0
0.019859776 -0.017469754 0.010133359 0.011805179 0.011052322 0.005186666 0.0 0.07350421
-0.043437537 -0.0475953 -0.043688588 0.022242012
00000000: 567c 95bc 14a8 9eaf 0000 0000 29e2 97bc
00000010: 0735 b13c 8dc6 87b5 e067 95b5 25c9 bfbd
00000020: 2b23 973c 0400 0080 ecf7 203d 93be 183d
00000030: ea39 99bc fa68 cc3c 518f 163e 1fd1 72ba
00000040: 31e4 9e3c be1b 1a3c ec34 11bd 60db f5b0
00000050: ed14 39bd 6a0b 8c3d 0000 0000 b7a6 afbb
00000060: b883 fbbc baef 35b8 0255 fe3b ac8e 813c
00000070: 1209 84bd 2ece c1bd b72e 3abc 0400 0080
00000080: f9d6 b536 56d3 88bd bb46 a333 5468 5db3
00000090: ae8c 67bc 806b 26b8 0000 0000 98b3 ba37
000000a0: 0000 0000 a7a8 bbbc 81f2 39bc eb54 82af
000000b0: faea 40bd a22c 913c 0eee 6bbc d239 8bbd
000000c0: caa4 1fbd 4c9c dd3d d320 86b5 cc88 e7b5
000000d0: c2fa 523d 7108 133c 3ffa 793d 0000 0000
000000e0: 783e 12bd e3ae e6bd 5b5c 233d 0400 0080
000000f0: dc95 4e30 fd0a 5b2b 0000 0000 8ea7 64bd
00000100: 8ec4 a239 0000 0000 b2bb a5bd b5c6 0fbd
00000110: c8f1 80b5 77fc e2bc f814 4f3c 88fd 3cbd
00000120: 81f6 743c 2c4e 56bb 4a8b c0bc 94bc b1bb
00000130: cc57 ea2f 90a2 693d 62c1 d7bb 0b48 c33c
00000140: efbc cf2e 1ee8 52b1 db59 033d 4ede 8abc
00000150: 3831 af3d ddfd eebc 9fc5 6e34 0000 0000
00000160: f8b0 a23c bb1c 8fbc 6306 263c 826a 413c
00000170: cc14 353c e8f4 a93b 0000 0000 6089 963d
00000180: 8feb 31bd 4af3 42bd cef2 32bd e134 b63c

momentum_buffer f4 [5, 100]
0.0065016206 1.5082855e-11 0.0 0.0056261863 0.002912739 1.7140069e-08 1.0897208e-08 0.0006937098
-0.001115318 -6e-45 0.0035668856 -0.0037349423 -0.001748471 -0.0064854124 -8.01494e-05 0.0016796907
-0.00085854856 0.0015500763 0.0021302847 -9.169683e-11 0.0062199375 2.7445432e-05 0.0 0.0021998915
0.0010926784 -2.3196865e-08 -0.0001345621 0.0005307209 0.00025528885 -0.0014480171 0.0004988101 6e-45
1.02132684e-10 0.0054835263 1.0924043e-12 9.084449e-11 -0.004528017 0.0011933916 0.0 -2.0035676e-08
0.0 -0.0018208963 0.0034782726 6.62004e-11 0.0027021058 -0.00013723235 0.002013534 -0.005985766
0.0024000702 -0.0005658154 7.364378e-12 -4.1561496e-08 -0.00036382783 0.0031210503 -0.0061345515 0.0
0.0015956274 0.00028900712 -0.00056172407 6e-45 -4.9444606e-12 1.4015545e-18 0.0 2.9107116e-05
0.0027020748 0.0 0.001555529 -0.0027771806 1.721598e-10 0.0027759 0.00037440198 -0.0055037127
-0.00023716333 -0.0005262687 0.0021416645 0.002891009 -4.7974547e-10 0.0041159564 -0.00075448456 0.0019151124
1.6345803e-12 1.1561416e-14 0.0026248856 -0.0016507629 -0.0005018637 0.003296743 -7.4946505e-10 0.0
-0.004010857 0.0010146467 0.00065410987 0.003259133 0.005221749 -0.0011415511 0.0 -0.0015237442
0.001061465 0.0038622853 0.0009726038 0.0007578465 -0.0017215062 -2.0430711e-11 0.0 0.0056470428
0.0023547816 -2.3776058e-08 -1.1652887e-05 0.0024074155 0.0011941046 6e-45 -0.0032467695 0.003383712
0.003241428 0.0074978215 0.0039317016 0.0013754133 -0.0033970824 0.0015979493 0.0009842392 6.1701214e-13
0.004324747 0.004265674 0.0 -0.0068455953 0.0060615223 -2.9944243e-09 0.0013797367 0.0045831646
0.0045485892 0.010600114 0.0039158934 6e-45 5.7819506e-07 0.0051204194 2.606634e-10 1.0463302e-09
0.001778923 0.0018834329 0.0 -3.1419557e-08 0.0 0.0063174795 0.0012319945 7.470276e-12
0.0014515913 0.0023618066 0.0006140631 0.0043751514 0.0062467926 0.00010047073 1.7364649e-10 -1.3680951e-06
-0.0040306346 -0.0013082991 0.0061077895 0.0 0.0037378042 -0.0006295885 0.0010154316 6e-45
8.518622e-12 9.724032e-19 0.0 0.0069016586 -0.00023951434 0.0 -0.00020124763 0.0045747133
-4.0994777e-07 0.001544147 -0.0050785444 0.0035187888 0.0070943045 0.0059500183 0.0034497785 0.0026343607
1.0515694e-12 0.00090430933 0.0013621978 0.0045629023 -2.257188e-12 1.088828e-15 0.0024212187 -0.0016317819
0.0036176527 0.0030880407 1.1560465e-09 0.0 0.0066317753 -0.0001556531 0.0035883384 0.0026639355
0.002612876 0.004225562 0.0 0.0032901105 0.0036686445 0.01032975 0.0057599572 -0.0025860516
-0.0063804365 1.8717994e-11 0.0 -0.013556242 -8.8404864e-05 5.741483e-09 1.188245e-05 -0.006975416
-0.000107016065 6e-45 -0.0011536855 -0.0025527994 0.00014074946 -0.0047832364 -0.0050176186 0.00096031657
-0.0028743304 -0.00032403576 -0.008195853 1.2591723e-10 -0.0036013904 0.0018009689 0.0 0.0025899375
-0.011232188 2.5616611e-08 -0.0015489401 -0.0064210044 -0.0026707277 -0.0079334015 -0.0043829307 -6e-45
-5.946007e-07 0.00057766587 -3.093769e-08 1.410598e-08 0.0013704072 -0.003573398 0.0 -3.7130093e-07
0.0 -0.011116533 -0.011903149 4.452396e-10 -0.016455526 0.00027094642 -0.0007007257 0.0026057372
-0.015372657 -0.0006004302 1.4038783e-09 1.3189157e-06 -0.002097481 -0.006515436 -0.005033855 0.0
00000000: 8c0b d53b 92ab 842d 0000 0000 df5b b83b
00000010: a7e3 3e3b 693b 9332 6d36 3b32 14da 353a
00000020: dd2f 92ba 0400 0080 69c2 693b efc5 74bb
00000030: f42c e5ba 9583 d4bb e215 a8b8 1129 dc3a
00000040: 3810 61ba ee2b cb3a 3f9c 0b3b baa4 c9ae
00000050: 9ed0 cb3b 9e3a e637 0000 0000 0e2c 103b
00000060: 3438 8f3a 7242 c7b2 3d19 0db9 1420 0b3a
00000070: 4ad8 8539 64cb bdba 94c2 023a 0400 0000
00000080: 9797 e02e 27af b33b 03be 992b e7c4 c72e
00000090: c25f 94bb 946b 9c3a 0000 0000 eb1a acb2
000000a0: 0000 0000 24ab eeba bbf3 633b 8393 912e
000000b0: d015 313b 07e6 0fb9 7ff5 033b 3f24 c4bb
000000c0: 7f4a 1d3b 3b53 14ba 368e 012d 5981 32b3
000000d0: 25c0 beb9 898a 4c3b 5904 c9bb 0000 0000
000000e0: 5f24 d13a e185 9739 aa40 13ba 0400 0000
000000f0: bef7 adac 3bd5 ce21 0000 0000 0e2b f437
00000100: 4b15 313b 0000 0000 e4e2 cb3a 5c01 36bb
00000110: ad4a 3d2f e0eb 353b 624b c439 7d58 b4bb
00000120: 0caf 78b9 4bf5 09ba 2b5b 0c3b 1577 3d3b
00000130: 16df 03b0 25df 863b 9ac8 45ba 8204 fb3a
00000140: f60b e62b 9f45 5028 4606 2c3b 695e d8ba
00000150: 818f 03ba 2b0e 583b ea02 4eb0 0000 0000
00000160: 826d 83bb e5fd 843a 9278 2b3a 2e97 553b
00000170: 351b ab3b 19a0 95ba 0000 0000 5fb8 c7ba
00000180: db20 8b3a 651e 7d3b 56f6 7e3a 38aa 463a
00000190: 2aa4 e1ba dfb5 b3ad 0000 0000 d40a b93b
000001a0: ae52 1a3b 1b3c ccb2 c580 43b7 bbc5 1d3b
000001b0: 8083 9c3a 0400 0000 c1c7 54bb 44c1 5d3b
000001c0: 236e 543b 49b0 f53b 81d5 803b 3647 b43a
000001d0: 96a1 5ebb 4872 d13a 9601 813a 69ac 2d2b
000001e0: 9bb6 8d3b 11c7 8b3b 0000 0000 0451 e0bb
000001f0: bc9f c63b 78c6 4db1 48d8 b43a 5f2e 963b
00000200: 550c 953b 1aac 2d3c e550 803b 0400 0000
00000210: 4335 1b35 31c9 a73b 1d4d 8f2f 79ce 8f30
00000220: c02a e93a 85dd f63a 0000 0000 2bf2 06b3
00000230: 0000 0000 dc02 cf3b e07a a13a 226b 032d
00000240: 5243 be3a 8ac8 1a3b 14f9 203a 6e5d 8f3b
00000250: e5b1 cc3b d0b3 d238 24ed 3e2f 649f b7b5
00000260: 6a13 84bb 3c7b abba da23 c83b 0000 0000
00000270: f3f5 743b f80a 25ba 3b18 853a 0400 0000
00000280: 76dc 152d 5b80 8f21 0000 0000 4f27 e23b
00000290: 2426 7bb9 0000 0000 0006 53b9 7ae7 953b
000002a0: cb16 dcb4 fa64 ca3a eb69 a6bb 7b9b 663b
000002b0: 5777 e83b 5ff8 c23b ae15 623b 3da5 2c3b
000002c0: c8fe 932b 2c0f 6d3a c68b b23a 6684 953b
000002d0: e2d5 1eac aaea 9c26 4fad 1e3b 84e1 d5ba
000002e0: 2416 6d3b ba60 4a3b c5e2 9e30 0000 0000
000002f0: 5d4f d93b d036 23b9 542a 6b3b 6c95 2e3b
00000300: c93c 2b3b 9576 8a3b 0000 0000 e59e 573b
00000310: a46d 703b 1d3e 293c 06be bc3b bf7a 29bb
00000320: fb12 d1bb 2da5 a42d 0000 0000 001b 5ebc
00000330: 0066 b9b8 9e46 c531 bc5a 4737 0892 e4bb
00000340: d06d e0b8 0400 0000 4337 97ba de4c 27bb
00000350: 2596 1339 b2bc 9cbb d66a a4bb c1bd 7b3a
00000360: 435f 3cbb 58e3 a9b9 e647 06bc 8d72 0a2f
00000370: 4e05 6cbb 7d0e ec3a 0000 0000 f1bb 293b
00000380: 3607 38bc 860b dc32 ce05 cbba 4a67 d2bb
00000390: 6007 2fbb 19fb 01bc b09e 8fbb 0400 0080
000003a0: a69c 1fb5 806e 173a 5ae0 04b3 c256 7232
000003b0: 3c9f b33a ac2f 6abb 0000 0000 3657 c7b4
000003c0: 0000 0000 1e22 36bc 6d05 43bc e7c5 f42f
000003d0: bdcd 86bc d00d 8e39 e8b0 37ba 04c5 2a3b
000003e0: 99dd 7bbc 3066 1dba 94f2 c030 9905 b135
000003f0: e475 09bb 707f d5bb 09f3 a4bb 0000 0000

momentum_buffer f4 [5]
0.0012685831 0.02146871 -0.015745446 -0.00996675 0.002974948
00000000: 9646 a63a 26df af3c 98fc 80bc 944b 23bc
00000010: 58f7 423b
