Sem 1/CS4248 NLP/Project/Final Submission/G02_code_data/Improved ESC-CNN/esc/bea-exp/models/model.pt (torch, 3607 bytes, 3 tensors)

linear1.weight f4 [1, 78]
00000000: 3939 5eba ccca 783d 31db bebd 3ba8 aabd
00000010: 8da0 32bd 7fbb f83c 0506 13bb 08dd b73d
00000020: 8fa1 24bc c371 f53c 1c29 0cbd 9353 b6bc
00000030: 3d89 ddbd aa93 99bd 5d2e 3fbd d470 893b
00000040: 4c59 373d b523 8b3d 3f35 9dbd 91f5 49bd
00000050: fd73 283d 178f c03d 6de4 bebc b986 ad3d
00000060: e881 95bc 534c 443c 9ff8 d13d 281e d7bd
00000070: d8fb 91bd 88d3 eabc 1cc8 34bd 7b5a c83d
00000080: 7d4e 96bd 557e 55bd 0a02 a2bd f02d d9bd
00000090: 205d 87bd 1d55 c73d 8cf2 4e3d 21c8 603d
000000a0: aa20 c33b d0c5 6dbd deed 9c3c c983 d8bd
000000b0: 5e8e a7bd c517 6fbd f44e 923d 55f6 873d
000000c0: 36af 4dbd e0df 85bb d54e 943d a587 e63d
000000d0: f810 383d 239d 7a3c b37a 9b3d 9e89 88bd
000000e0: 74d8 ac3c 2ec9 b3bd 51b8 a0bd db94 6fbd
000000f0: 27d9 513d a483 3a3d 5f5c 89bd 871c 0c3d
00000100: 449a 7e3d 1126 6abc b3a9 8d3b 9beb d63c
00000110: fddb 8f3d e4a8 de3d 3db3 b2bd 2af6 29bd
00000120: 3945 363d f221 c03d ecca c93d 299c cc3d
00000130: 2399 b83c d7a5 c9bd
-0.0008477155 0.060740277 -0.09319151 -0.08332869 -0.043610144 0.030362843 -0.0022434008 0.08977705
-0.010048284 0.029961472 -0.034218892 -0.022256648 -0.10817192 -0.07498868 -0.046675075 0.0041943584
0.044762895 0.0679392 -0.076761715 -0.049306456 0.04112624 0.09402292 -0.023302281 0.08472962
-0.01825042 0.011981088 0.10252499 -0.10503799 -0.071281135 -0.02866532 -0.04413615 0.09782883
-0.07339189 -0.052122433 -0.07910545 -0.10604465 -0.06609559 0.09733031 0.05052428 0.054878358
0.0059548216 -0.058049977 0.019156393 -0.10572011 -0.08181451 -0.058372278 0.07143965 0.06638781
-0.050215922 -0.004085526 0.072415985 0.11256341 0.044938058 0.015296253 0.075917624 -0.066668734
0.021099307 -0.08778606 -0.078476556 -0.05849157 0.051232483 0.0455357 -0.067070715 0.034206893
0.062158838 -0.014291302 0.0043232082 0.026235392 0.07024381 0.10872057 -0.08725593 -0.041494526
0.04449961 0.093814746 0.098531574 0.09990723 0.022533959 -0.098460846

conv1.weight f4 [1, 1, 3]
00000000: 58ee b8be 8fbe 09bf 1752 033f
-0.36119342 -0.53806394 0.51297134

conv2.weight f4 [1, 1, 3]
00000000: b16f 13bf 9250 dd3d 7a30 c7bd
-0.575923 0.10806383 -0.09726043
